Assets/_created_block_bigger_gradual_reward_increased_length_continuous_dynamics_Added_checkpoint_ontriggerenter_Renaming_sensor_beta_0.003_increased_rewards_corrected_blocker/competitor/competitor-13499973.onnx (onnx, 47196 bytes, 17 tensors)

discrete_act_size_vector f4 [1, 3]
00000000: 0000 0040 0000 0040 0000 0040
2.0 2.0 2.0

network_body.observation_encoder.processors.0.normalizer.running_mean f4 [28]
00000000: c8d5 6e3e cc09 033c f13d 423f 9c3b 4b3f
00000010: 6ece 543e 9411 fb3b 0cd5 483f 193c 503f
00000020: 4d51 6a3e 6011 9c3b 7833 443f e35b 4d3f
00000030: 3a94 0d3e 71ac 043c 6389 5a3f 292f 5e3f
00000040: 5223 143e 9535 023b e473 5a3f 84f9 5d3f
00000050: eb6d ac3d 8661 fa3b a97a 683f e2ab 6a3f
00000060: 762a ba3d 76c8 d03a a952 683f ba2b 6a3f
0.23323739 0.007997941 0.75875765 0.7938783 0.20781872 0.0076620076 0.78450084 0.813417
0.22882576 0.0047628134 0.76641035 0.80218333 0.13826075 0.008097754 0.85365885 0.8679071
0.14466599 0.0019868363 0.85333085 0.86708856 0.08419403 0.00764102 0.90812165 0.9166852
0.0909013 0.0015928883 0.9075113 0.9147297

network_body.observation_encoder.processors.1.normalizer.running_mean f4 [28]
00000000: 1836 a23e 7d43 173d 0405 253f 4473 643f
00000010: fbe6 303f 31f6 703d 590d 803e 9832 0e3f
00000020: 41bc 433f bff0 093d e1ec 363e e9a8 ff3e
00000030: f5ae 4f3f c6f0 083e eb20 613d 1564 d33e
00000040: f5f4 5a3f 556a cb3c 6e93 ca3d 79c7 9a3e
00000050: 68c9 573f 051e 1f3e 15cc d93a 7264 b43e
00000060: 888d 643f 7b90 913c b2ff 863d 815b 863e
0.31681895 0.036929596 0.6446078 0.8923838 0.6910245 0.058828536 0.25010183 0.5554595
0.7645913 0.03367686 0.178638 0.49933556 0.8112634 0.13373098 0.054963034 0.41287294
0.85530025 0.024830977 0.09891401 0.3023031 0.84291697 0.15538795 0.0016616607 0.35232884
0.8927846 0.017769089 0.06591739 0.26241687

network_body.observation_encoder.processors.2.normalizer.running_mean f4 [7]
00000000: 8c8a 6743 8720 4d42 a4bb 4e42 248e 4b42
00000010: c18c 4c42 5f9d 4d42 aa85 4c42
231.5412 51.281765 51.683243 50.88881 51.137455 51.403683 51.13053

network_body._body_endoder.seq_layers.0.weight f4 [64, 63]
00000000: a264 23be dbd2 b53d e2a9 1b3d 92cb ab3e
00000010: f7f4 e23e b35b cfbe 2c6b 3abe 483a ba3d
00000020: 927e cfbd f920 523f 5a44 cabc 7984 313e
00000030: 0b0c 213f 182a 373e a176 b3bc 1fce 00be
00000040: 904a 0ebe eae6 8e3f 9d80 92bd 066b b6be
00000050: ea3b 153f 761f 23be 38e2 143e 5893 a3bd
00000060: fe48 90be 62ff ca3e 8e58 253f 527d 213f
00000070: 9fc2 ac3f fc24 f9be a65c 6abf f082 edbe
00000080: 7fa4 213f ba4c 9bbe 386a 393b 3be4 da3f
00000090: 3802 a4bc 8f86 d23f bbfb 8cbf bfef 9ebf
000000a0: 3627 88bd 4008 8d3e a5f7 0dbf 33c2 37be
000000b0: 75b3 4abd 2080 f4bc 4a5d 84be eda8 b53e
000000c0: 2c65 3e3d d7fe 4a3e d7fc 813f d278 4fbf
000000d0: 50cd bbbc 3716 83bf f14e 8c3f e799 cf3e
000000e0: 2ce0 c13e f4d9 fabc d596 84be 36a1 323f
000000f0: 6650 003e b8b5 08bf d146 403e 78e9 c43e
00000100: be50 053f 86bf bcbe 4639 31bf 727e cc3e
00000110: 9a98 bd3e 7130 1cbe 0cab f0be b4f2 2fbf
00000120: cece e7be 9384 6f3f 2f3e 173f b7c5 f73e
00000130: ae93 5c3f ac89 99be 6391 93be abb7 943f
00000140: 7f3f 7b3f 894d 85bf c7f1 52bf 4d0c 54bf
00000150: e408 a83f 7e2f 263f fee2 603f 8f3a 60bf
00000160: 93ef 003f ea46 783f 2a69 7d3f 1764 6b3f
00000170: d6a6 2ebf 7d17 bbbe ef61 6b3e de1f 853f
00000180: 79c5 57be b0b9 c8bf 0152 a8bf 28e1 793e
00000190: 461c b2bf 390a 3e3f 582a 0cbf eef4 d2be
000001a0: 369f 403f c9cd 01bf 5df1 09bf d41a ff3d
000001b0: a88d 23bd db8a 9a3e 8f2a bf3e 28e4 b6be
000001c0: 17e8 2ebe a64f 6e3f 8c84 6a3f 24f4 b1be
000001d0: bf2b 88bf 5992 0b3f d5f8 533f c586 e83f
000001e0: 3380 94bf 28e8 94bf 04b9 893e b66f 3b3d
000001f0: e300 09bf 5041 a6be 0668 02be 1c8b 8b3e
00000200: b80b e33e 2807 873e b151 c33e 13df 063f
00000210: 2644 7c3d aab2 123e 7a3b 83be c297 a73e
00000220: 3ef4 813e f8ff a9be 23af 9e3e ec82 73bf
00000230: 3d71 273f 5ded 263f cc40 07be 7ad9 493f
00000240: b570 8f3e 2729 4f3e 2b64 2f3f 2d72 ea3e
00000250: 1bec 87be 4785 b1be 3d37 e0bd 79ef d1bd
00000260: 9f56 8cbc 82ff febe c4b3 f03e 2525 7ebe
00000270: d77d cfbc 1555 a6bf 6951 abbe 323b 943e
00000280: f2b2 763e 2191 31c0 e7b6 503f 2911 f23e
00000290: 88c0 99be 99e9 fe3f b7f3 31bf 3aec 803f
000002a0: 2ebf 1cbf ce85 0bc0 50c9 093f 7b7c 02c0
000002b0: 880d 323f efe7 863e 5706 463f ba56 f1be
000002c0: 6e4f e13e 1e47 9ebf b073 22bf ef19 533f
000002d0: 1f67 babc d2a8 5e3d c4f1 ad3e 75e8 a5be
000002e0: 1e2f 52be caaa ddbe b14e 8f3e 4e88 c9be
000002f0: 4318 acbe 6a00 5f3f 0226 a03f 13a3 c5bf
00000300: cce0 aabf 4778 4bbf b45e 893f 675b d4bd
00000310: c29f 7bbe 468d 383f fbba f83d 66b9 78bf
00000320: 404a 4dbf 43c7 0ebd 6f21 703e 602c f53d
00000330: 8386 acbc fc58 b9be 0bec db3e 2061 033d
00000340: c8c6 dd3d 26f3 92be 1b64 3c3f 1ff1 75be
00000350: b7e6 c6be 516a 57bf bced 2f3f e890 f83e
00000360: e341 fb3e 2143 7f3f 7d90 c23e 940b 5abf
00000370: 1137 9cbf cb00 00bf 9c24 4a3f 84ec 81be
00000380: 49a6 94be ed87 633e 0325 a63d e504 433f
00000390: fcba 11c0 8a56 473f effb 43bf e396 aa3f
000003a0: 2e94 b0be 0f9b 8bbf ab6c 453f 278b e93f
000003b0: 2a42 94bf f073 1bbe 8571 593e e38b 87bf
000003c0: 1d95 05bf d116 b8be d784 8f3f 3cbd 0e3e
000003d0: 3f50 46bf a625 c7bd 8fde 0ebf c9d6 5e3f
000003e0: de6f aebe 030d 27bf 25aa 033f ae2c df3f
000003f0: 203d 203f 778c f83f 49f8 21bf 9eee 20bf
-0.15956357 0.08878108 0.03800381 0.3355375 0.44327518 -0.40499648 -0.18204945 0.090931475
-0.10131563 0.8208156 -0.024690796 0.1733569 0.62909 0.17887151 -0.021907153 -0.12578629
-0.13895631 1.1164219 -0.07153437 -0.35628527 0.58294547 -0.1592997 0.1453942 -0.07987088
-0.2818069 0.39647967 0.6458825 0.6308185 1.3496894 -0.4866103 -0.9154762 -0.4638896
0.63141626 -0.30331975 0.002829207 1.71009 -0.02002059 1.6447314 -1.1014322 -1.2416915
-0.06648104 0.27545357 -0.55456 -0.17945175 -0.04948755 -0.029846251 -0.25852424 0.35480443
0.046483204 0.19823776 1.0155286 -0.8104373 -0.022925049 -1.0241154 1.0961591 0.40547106
0.37866342 -0.030621506 -0.25896326 0.6977724 0.1253067 -0.5340228 0.18777014 0.38459373
0.5207633 -0.3686487 -0.6922802 0.3994022 0.37030488 -0.15252854 -0.47005498 -0.6872971
-0.45274967 0.9356167 0.5907926 0.48393032 0.8616284 -0.29987848 -0.2882186 1.1618551
0.9814376 -1.0414287 -0.8240017 -0.8283127 1.3127713 0.6491622 0.8784636 -0.87589353
0.5036556 0.96983206 0.9898859 0.919496 -0.6822332 -0.36541358 0.22986577 1.040035
-0.21071424 -1.5681667 -1.3150026 0.24402297 -1.3914878 0.7423435 -0.5475211 -0.41202492
0.75242937 -0.5070463 -0.53883916 0.12456289 -0.039930016 0.30184063 0.37337157 -0.35720944
-0.17080723 0.93090284 0.916085 -0.34756577 -1.063835 0.54520184 0.8280156 1.8166128
-1.1601623 -1.1633348 0.26898968 0.045760833 -0.5351698 -0.32471704 -0.12734994 0.2725457
0.44344878 0.26372647 0.38148263 0.52684134 0.06158843 0.14325967 -0.25631315 0.3273297
0.25381655 -0.332031 0.30992994 -0.95121646 0.6540716 0.6520594 -0.13208312 0.7884747
0.28015676 0.20230542 0.6851222 0.45790234 -0.26547322 -0.34671995 -0.10948036 -0.10250754
-0.017131148 -0.49804312 0.4701215 -0.24818857 -0.02532856 -1.2994715 -0.3346055 0.28951412
0.240917 -2.774483 0.81529087 0.47278717 -0.30029702 1.9915038 -0.69512504 1.0072091
-0.6122922 -2.1800418 0.53822803 -2.0388477 0.695519 0.26348826 0.77353424 -0.4713648
0.44005913 -1.2365453 -0.63457775 0.82461447 -0.02275425 0.05436022 0.33973515 -0.32403913
-0.20525786 -0.43294364 0.27989724 -0.39361805 -0.3361226 0.87110007 1.2511599 -1.5440391
-1.3349853 -0.79480404 1.0732026 -0.10368996 -0.24572662 0.72090566 0.12145039 -0.97157896
-0.8019142 -0.034858 0.23450254 0.119713545 -0.021060234 -0.36200702 0.42953524 0.032075047
0.1082893 -0.28701133 0.7359025 -0.24017762 -0.38847896 -0.841466 0.6872213 0.48548055
0.49073705 0.99711806 0.3800086 -0.85173917 -1.2204305 -0.5000121 0.7896211 -0.2537576
-0.29033116 0.2221982 0.08112528 0.76179343 -2.2770376 0.77866423 -0.76556295 1.3327297
-0.34488052 -1.0906695 0.7711894 1.8245591 -1.1582692 -0.15180945 0.2123471 -1.0589565
-0.52180654 -0.35954908 1.1212415 0.13939375 -0.77466196 -0.09723978 -0.5580835 0.87046486
-0.34069723 -0.6525423 0.51431495 1.743551 0.6259327 1.9417866 -0.6326948 -0.628641

network_body._body_endoder.seq_layers.0.bias f4 [64]
00000000: b494 2bc0 f18a ecbf 5d8f d4bf e1d4 6dbf
00000010: 9f66 9dbe 32c6 1dc0 515b 02c0 a23a 04c0
00000020: ef7a 8ebf 5445 1ac0 c514 edbf db09 18c0
00000030: ae51 46bf f8fd 03c0 3bd9 26c0 fe93 dabf
00000040: 47a5 b4bf 3a76 c6bf 8bfe 03c0 14a4 8fbf
00000050: 63b2 56c0 a654 06c0 e995 34c0 45ce c4bf
00000060: d209 38c0 4224 febf 16ff 7cbf 8555 d7bf
00000070: bc4f 6cbf 97a4 dbbe 829e 80bf 20b2 8dbf
00000080: 0259 4bc0 5d7d 80bf ec73 08c0 67e6 e2bf
00000090: ad77 a3bf ee61 e7bf c8ac 00c0 d4c3 e6bf
000000a0: fd6e aebf e36f 42bf bb4b e2bf 9d5c 26c0
000000b0: b585 95bf 6ff4 94bf 7a6c d5bf dd40 d0bf
000000c0: 57fc abbf 87c1 11c0 c187 1fc0 41da 0ec0
000000d0: 86c6 8dbf 654f 97bf d5f9 e2be 46b2 3abf
000000e0: 014a 29c0 0491 46c0 b01a f0bf df3d cebf
000000f0: 7bc3 b1be 6d68 10c0 89b6 c7bf 4d74 78bf
-2.680951 -1.8479902 -1.6606251 -0.9290295 -0.30742356 -2.465222 -2.0368235 -2.0660787
-1.1131266 -2.4104815 -1.8521963 -2.3756015 -0.77468383 -2.062376 -2.6070087 -1.7076414
-1.4112939 -1.550483 -2.062411 -1.1221948 -3.3546379 -2.0989165 -2.8216498 -1.5375448
-2.8755994 -1.9854815 -0.9882673 -1.6822973 -0.92309165 -0.4289901 -1.0048373 -1.1069984
-3.1773076 -1.0038258 -2.1320753 -1.7726563 -1.2770897 -1.8076761 -2.0105457 -1.8028512
-1.3627621 -0.75951976 -1.7679361 -2.5994027 -1.1681429 -1.1637095 -1.667373 -1.6269795
-1.3436383 -2.277437 -2.4926608 -2.2320712 -1.107621 -1.1821104 -0.44331232 -0.72928274
-2.6451418 -3.102601 -1.8758144 -1.6112632 -0.34719452 -2.2563736 -1.560258 -0.9705246

network_body._body_endoder.seq_layers.2.weight f4 [64, 64]
00000000: e6e3 993e 4b67 21bf 8a4c 203e 0ec7 3ebd
00000010: dd17 1a3e d5c7 17bf 1484 463f e6a7 17bf
00000020: 84db 5abf 7234 15bf bee0 eabe 31e5 93be
00000030: 5d7e 26bf 9da1 a1bf fb02 e93d 89dc a73e
00000040: f226 bcbf bf88 cfbe 7d98 ecbf 7f05 00c0
00000050: f59c 433f c44a 2ebf 8c9b 9f3f 4476 ed3e
00000060: 9560 5a3e 2847 5b3e 1f1f 25be 8cab a6be
00000070: c1c8 ab3e fb74 4ebe 51dd f53d 591f 8dbf
00000080: 9e46 b2bf 5779 c83e 9f27 7ebf f693 cbbf
00000090: 7ff7 313f 5b4e a9bf 99d2 aabe 1b2e 2f3f
000000a0: 27e9 2abf 5574 2e3d 0dc7 f93c a736 d3be
000000b0: 9901 333e a499 ef3e 9288 55bf 082b 553f
000000c0: 888f 1f3e 204b 30be 9446 87bd d1a1 96bf
000000d0: 7dc9 08c0 bfad 2ebf b3f2 0bbf 6621 543d
000000e0: ef8c 733f 645f bbbe 4986 10bd f9ac aebe
000000f0: f57b 26bf 118f 8dbf 1ac7 96bf 678b 06bf
00000100: bbee 1cbf 7313 dcbe c650 243f 4203 9abf
00000110: 63be 35bf 5078 80be b0b0 a5bf 901c 3a3e
00000120: cdcd 89bf 031e 2f3e 9487 6cbf b1a7 5bbf
00000130: a70c fd3e ba3d 2cbf f060 803f b35a 593e
00000140: bf32 69bf 3603 23be 9dd7 403f c411 07bd
00000150: 5d95 bb3e 5cdc 8c3e 8070 6ebc a6a8 45be
00000160: a4ed 3ebd a69c 443e cdbc c3bf 34cf 6cbf
00000170: 580d 93bf 8f96 55bd 9961 213c ca34 d1bf
00000180: f2ba 3d3f cda4 8dbf 277d 13bf f80d b1bf
00000190: c4ed 9dbf c76b f33e 9c7b 323e e0af 73bf
000001a0: 8014 8abf 3234 42be 58df aabf 141e 86be
000001b0: 0c69 eebe 5866 3c3f 0d38 463e cbaa eebf
000001c0: 2038 043f cf49 95be 1e1b 39bd a4d4 c7be
000001d0: e9d9 cebe da03 403f 24e3 18bf dfcd ccbd
000001e0: 1709 97bf 401a 843e cfc0 373f 9bb7 123d
000001f0: 487d 93be a9f1 e4bf b320 18bf 33d6 e73d
00000200: 989e 9d3e 4840 8d3e 675e 8d3f 6d39 c5be
00000210: 89df 19bf 757b 95be 363c 5e3f 33bf fd3d
00000220: e0fe f03d b6f4 603f 5364 fcbd 7d74 813f
00000230: 3081 1e3f a6f9 93bf 6ddf 303f 1ea4 b4be
00000240: 88d7 05bf 713b 9cbd c4f5 63be 6933 b83e
00000250: ce8f 3fbf 066a 88bf 9b44 2a3e ebba 573f
00000260: ba1a 10bf ea1a 6b3f 565b 973f cdfa c2bf
00000270: 9d31 cdbf c7ba 02bf 91b4 c7bf fdb9 79c0
00000280: 8056 d6bf 2ab4 00be 9bbb 53bf 579b 25be
00000290: e7ba c8bf 53bc 303d 808f 68be 8b0d 92bf
000002a0: 66e1 1dbd f2ae d5bf a104 913d 0a11 27be
000002b0: 78a2 1dbf 604f ac3d 8f81 053f 7dbd f43e
000002c0: 203a 2abf bff5 19be 24c4 b33e 605a cb3d
000002d0: c6c1 81be a865 a33e 5dde 27bf 546d 82bf
000002e0: cbe4 9fbf 16b7 d6bf 9729 383f 27f4 7c3f
000002f0: 5253 ccbe 0c87 8d3e e984 9bbf 9737 83bf
00000300: fc5d 6a3f 7964 a9bf fd10 833f 207a 1e3f
00000310: 7c27 88be a24b 08bf 4f67 30bf 7065 54be
00000320: edf5 04bf 1ac8 2a3f 385d 103f 440b 263f
00000330: 58ee 80bf 0c03 70bf 233a e33e 14c5 c93e
00000340: fb21 d5be 0a76 3cbf 3e67 00bd d148 4bbe
00000350: 0215 6b3f a022 80bf e61f f03e 4821 acbc
00000360: 7292 f73e f691 66bf ed28 71be e859 ae3e
00000370: b237 5c3f 6250 003f 8605 5fbf 7743 29bf
00000380: 3d16 09c0 5fbf 3fbd ecd0 edbe 7337 843f
00000390: 9681 b4bf e282 713f ddc7 51bf 3b6f 4fbf
000003a0: a023 09c0 7816 a2bf 8b8a adbe 0dc2 f2bf
000003b0: c7df 2fc0 0bdf 463f 64e6 a83c 94ac 93be
000003c0: 122e 2d3f 881f d7bf 2c36 b6bf c11a b6be
000003d0: f434 f9bf f583 7ebc ff1d 56be 7ca1 93bf
000003e0: a66e 123f 5125 6bbf e699 cd3b 2edf 87be
000003f0: 9b92 71bf d963 3d3e 9975 28bf 7d03 0cbf
0.30056685 -0.6304824 0.15654197 -0.046576552 0.15048166 -0.59289294 0.77545285 -0.5924057
-0.85491204 -0.5828315 -0.4587459 -0.28885797 -0.65036565 -1.2627445 0.113775216 0.32785442
-1.4699385 -0.40534016 -1.8484036 -2.0003355 0.7641137 -0.68082833 1.2469344 0.46379292
0.21325906 0.21413863 -0.16125153 -0.32552755 0.335516 -0.20161812 0.120051034 -1.1025192
-1.3927801 0.39155075 -0.99279207 -1.5904529 0.69518274 -1.3227037 -0.33363798 0.68429726
-0.6676201 0.04259141 0.030490423 -0.41252634 0.17481078 0.46796906 -0.83411515 0.83268785
0.15582097 -0.17216158 -0.066052586 -1.1768132 -2.1372979 -0.68233865 -0.54667205 0.051789664
0.9513692 -0.36596215 -0.035284314 -0.34116343 -0.65032893 -1.1059285 -1.1779511 -0.5255646
-0.61301774 -0.4298359 0.6418575 -1.2032244 -0.7099363 -0.2509179 -1.2944546 0.18174958
-1.076593 0.17101292 -0.92394376 -0.8580275 0.49423715 -0.6728169 1.0029583 0.21226005
-0.9109306 -0.15919194 0.75329 -0.032975927 0.36637393 0.2751187 -0.014553189 -0.19302616
-0.04661335 0.19200382 -1.5291992 -0.92503667 -1.1488447 -0.052145537 0.009849929 -1.6344235
0.7411338 -1.1065918 -0.5761284 -1.3832388 -1.2338185 0.47543165 0.17429966 -0.9519024
-1.0787506 -0.18965223 -1.3349409 -0.26194823 -0.4656452 0.73593664 0.19357319 -1.8645872
0.5164814 -0.29157874 -0.045191877 -0.3902942 -0.40400627 0.75005877 -0.5972159 -0.10000204
-1.1799649 0.25801277 0.7177858 0.03581963 -0.2880652 -1.7886249 -0.59424895 0.11320152
0.3078506 0.27588105 1.1044434 -0.38520375 -0.6010671 -0.29195753 0.86810625 0.12389984
0.117673635 0.878734 -0.12323823 1.0113674 0.61915874 -1.1560562 0.6909092 -0.3528146
-0.52282 -0.07628525 -0.22261721 0.35976723 -0.74828804 -1.0657356 0.16627733 0.8426959
-0.5629078 0.9183794 1.1824749 -1.5232788 -1.6030766 -0.5106625 -1.560198 -3.9019768
-1.6745148 -0.12568727 -0.8270814 -0.16172539 -1.5682038 0.04314835 -0.22710991 -1.1410383
-0.038545035 -1.6694014 0.07080961 -0.16315094 -0.6157603 0.08413577 0.52150816 0.47800818
-0.6649494 -0.15035151 0.3511058 0.09929347 -0.2534315 0.31913495 -0.65573674 -1.0189614
-1.2491697 -1.6774623 0.7193846 0.98810047 -0.39907318 0.27642095 -1.2149936 -1.025134
0.9154966 -1.3233787 1.023956 0.619051 -0.26592624 -0.53240407 -0.68907636 -0.2074182
-0.5193775 0.6671158 0.5639224 0.6486094 -1.0072737 -0.9375465 0.44380292 0.3940817
-0.41627488 -0.73617613 -0.03134846 -0.19851996 0.9182893 -1.0010567 0.46899337 -0.021011963
0.48353916 -0.9006647 -0.23550768 0.34052968 0.86022484 0.50122654 -0.87117803 -0.6611857
-2.1419823 -0.046813365 -0.46448457 1.0329422 -1.4102046 0.94340336 -0.8194559 -0.810291
-2.1427994 -1.2663107 -0.33894762 -1.896547 -2.7480333 0.77684087 0.020617671 -0.28842604
0.6764842 -1.6806498 -1.4235282 -0.35567287 -1.9469285 -0.015534391 -0.2090988 -1.1533656
0.57200086 -0.91853815 0.0062744496 -0.2653746 -0.9436433 0.1849512 -0.6580444 -0.5469282

network_body._body_endoder.seq_layers.2.bias f4 [64]
00000000: 6e2d a9bf d7f3 dfbf b1ad c1be 4679 7abf
00000010: 6565 58be f834 abbf 752a d4bf 7978 09c0
00000020: a3f8 55bf 237f 7cbf 7421 28be 0ce2 abbf
00000030: 6050 a7bf 162a c9bf ace7 093f 319f 8fbf
00000040: 72fa e7bf 0c90 b6be 0b63 15c0 530d bc3e
00000050: 86ee c6bf 16d9 aebf edcd 56bf bcc1 2c3e
00000060: 7714 f1be 32b6 71bf 15f7 9bbf fe39 b1be
00000070: 98f3 4abe 6226 6fbf 5fa1 9cbf 6f4f bdbe
00000080: c5a2 a1be 10fe adbf 3062 07c0 6c3e 96bf
00000090: a043 59bf a22a 56bf a5d7 dabf 1885 a6bf
000000a0: 8567 86be 9769 e5bf 3a58 33bf f90a 14be
000000b0: 0ac7 b5bf 2e1d bcbe 22ad 0fc0 d4b0 7cbf
000000c0: dcee 10c0 3189 96be 18bb a6bf fbcf 11bf
000000d0: f8e5 5bbf 16d8 91bf 8c61 55bf 1e30 a5bf
000000e0: f3bc 79bf 3ae5 9fbf a8e9 12bf 9e8c 0fc0
000000f0: 9b15 a2bf 2143 69bf 94bd 393e e235 4fbf
-1.3216989 -1.7496289 -0.3782783 -0.978413 -0.21132429 -1.337554 -1.6575457 -2.147978
-0.83582515 -0.98631495 -0.16419011 -1.3428359 -1.3071404 -1.5715969 0.5386913 -1.1220456
-1.8123305 -0.35656774 -2.33417 0.36728916 -1.5541542 -1.3659999 -0.8390797 0.16870779
-0.47085926 -0.94418633 -1.2184778 -0.34614557 -0.19819486 -0.9341794 -1.2236747 -0.36974666
-0.31569496 -1.3593159 -2.115368 -1.17378 -0.8486881 -0.836588 -1.709706 -1.3009367
-0.26250854 -1.7922848 -0.700565 -0.1445731 -1.4201367 -0.36741012 -2.2449422 -0.9870732
-2.2645788 -0.29401544 -1.3025846 -0.5695798 -0.8589778 -1.1394069 -0.8335197 -1.2905309
-0.9755394 -1.2491829 -0.5738778 -2.2429576 -1.2662843 -0.91118056 0.18138725 -0.80941594

action_model._discrete_distribution.branches.0.weight f4 [2, 64]
00000000: 1392 c9bd aa41 1e3f 6e8b 3cbc d785 57be
00000010: 6c3f 993d 831e 683e fdae 78be cbd7 863e
00000020: a2be 16be 42cc 49be 3f84 8bbe bd19 883e
00000030: 1bf3 63be e2c1 fc3c 2790 0a3d 9bfc 023e
00000040: 2b77 eabd e480 2fbe 88b2 c83e 8f9c 0ebe
00000050: 3b19 adbf f47d cbbe a195 5bbe 59d0 9e3d
00000060: 18cd b53d e338 dbbd 0a46 a7bd f8f5 633f
00000070: 40aa 7dbe 0fa3 c83d acdf 43be 732f 14be
00000080: 338d 523d 4371 863e 1b96 113e 67d8 df3f
00000090: c992 693e dee1 243d c621 fabd 0a2b 8cbe
000000a0: 5254 cf3d 937b 303d aa63 b0bd 6d30 79be
000000b0: b541 3c3f b9d6 033e da5e 793f 7b0d 1a3f
000000c0: 5a47 11bf 66fc d9bd 71e2 303f 1682 b2bb
000000d0: 672d 00be 6c0c c8bc 74c6 923d 97af 54bd
000000e0: 1735 ca3d 3b96 1dbf eb11 34bf 57ce ddbf
000000f0: 7cb1 c6be 6fe1 8bbe ca1a f7bd dae0 8dbe
00000100: e706 af3d e6b8 1cbf e183 143d cca6 5d3e
00000110: 9fbe 89bd 2e6f 71be e227 7c3e 5d2c 82be
00000120: c1e1 1f3e b642 463e e88a 7f3e ee07 89be
00000130: ffc0 673e ff4a 7cbb ce32 f2bb c6cd 0abe
00000140: 23ae fc3d b6d3 413e 6fd3 cebe 34df 033e
00000150: 586d ac3f 66d1 c63e c1bd 4d3e 49d6 b0bd
00000160: 8d8e 00be a8c5 ef3d b792 713d ee09 66bf
00000170: d668 873e ae6a afbd 1f3b 1d3e d1d0 193e
00000180: b5d3 5cbd 281e 83be 4d3e eabd 429c e0bf
00000190: 07e6 82be d81c 53bd 7f36 143e 041a 973e
000001a0: 6be1 b2bd 98b8 45bd f3ca d43d 6845 733e
000001b0: 9355 3dbf 07a7 06be afa6 74bf 259f 1bbf
000001c0: c965 0d3f 1faf d63d ed51 2abf 4bac dabc
000001d0: df87 143e 81f8 1a3c af2e a0bd 5192 1a3d
000001e0: 50d9 b4bd cde8 1f3f 2ab8 2e3f a880 e03f
000001f0: b7a5 c73e 28d4 523e 0c9f a43d dc7e 913e
-0.098423146 0.61818945 -0.011507852 -0.2104715 0.074828 0.2266789 -0.24285503 0.26336512
-0.14721158 -0.19706824 -0.27249333 0.26582137 -0.22260706 0.03085417 0.03382888 0.12791674
-0.11448511 -0.17139012 0.3919871 -0.1392691 -1.3523325 -0.39744532 -0.21443798 0.07754583
0.08877009 -0.1070421 -0.08167656 0.89047194 -0.24771976 0.09796726 -0.19128293 -0.14471225
0.05140419 0.26258287 0.14217417 1.7487916 0.228099 0.040254466 -0.12213473 -0.27376586
0.10123505 0.0430866 -0.086127594 -0.24334879 0.7353776 0.12874879 0.97410357 0.6017682
-0.567495 -0.10643844 0.6909552 -0.0054476364 -0.1251732 -0.024419986 0.07166758 -0.051925268
0.09873407 -0.6155736 -0.7033984 -1.7328595 -0.38807285 -0.2732043 -0.120656565 -0.2771061
0.085462384 -0.6121963 0.036258582 0.21645659 -0.06725811 -0.23577568 0.24624589 -0.25424471
0.15613462 0.19361386 0.24955332 -0.26763862 0.22632216 -0.003849685 -0.0073913103 -0.13555059
0.123379014 0.18928418 -0.40395686 0.12878114 1.3470869 0.38831633 0.20091917 -0.08634622
-0.12554379 0.11707622 0.05897781 -0.898589 0.2644717 -0.085652694 0.15354584 0.15021063
-0.053912837 -0.25608945 -0.11437664 -1.7547686 -0.25566122 -0.05154118 0.14473914 0.29512036
-0.08734401 -0.048271745 0.10390272 0.23756945 -0.739587 -0.13149653 -0.9556684 -0.6078971
0.55233437 0.104826204 -0.6653126 -0.026693484 0.14504956 0.009458662 -0.07821404 0.037737194
-0.088305116 0.624646 0.6824976 1.7539263 0.38993618 0.20588744 0.08038148 0.284171

action_model._discrete_distribution.branches.0.bias f4 [2]
00000000: 43ae ba3f 38ae babf
1.458443 -1.4584417

action_model._discrete_distribution.branches.1.weight f4 [2, 64]
00000000: a347 f8bd 0b8f 52c0 4776 de3d 67cc fb3c
00000010: 2d5c 1ebe 7ca8 09bd 372d ce3c f588 5fbf
00000020: 2c98 1dbe 3bb8 243f 17e4 03bd 9d4c f8bf
00000030: ca9e 453d a31d 293d 8613 2ebd 8f17 13bf
00000040: c225 b1bf 5746 753d 426c 94bf 074a a93d
00000050: bce9 753e 7f80 d5bf 5a82 443d ecab 393e
00000060: f9fd b0be ff4c 063c 5128 29be a729 87be
00000070: 0a05 f33d 9686 7c3e d3d3 073e 5dd7 9cbd
00000080: 9343 b23d 62b7 b83e 08be 803d 94ed 16bf
00000090: 232d 143e 74db 9d3e e1d8 a93d 11bd 34be
000000a0: 7150 2bbf 57a1 a43e 0581 41be 5978 953d
000000b0: 19f3 babf d090 2e3e 52ca cebf ba85 f2bf
000000c0: cfed 6cbe c8b1 80be e1f5 b2bd 7d7a 263e
000000d0: 902f 373f 0104 563e d2fc d8bd 31a2 15be
000000e0: fbf4 12bf 003d 8a3e f280 9bbe b626 473f
000000f0: 9ee4 24c0 45e9 3a3e c8c5 cfbd ac17 723c
00000100: a238 e33d 522f 5340 a0ed edbd 6fbd bebc
00000110: 2773 193e 5d65 df3c 4335 a0bc 1dc1 643f
00000120: 55fb 303e 1fac 26bf ee25 053d 04ec f83f
00000130: 31ae 9fbd 1045 c4bd 73d2 af3c 352b 143f
00000140: c102 b53f cf78 57bd 9f22 983f 6569 7bbd
00000150: e037 80be afaa d53f 72e7 7abd 386c 35be
00000160: c30d b43e 9d3a 37bc 16b0 333e 72e4 8d3e
00000170: 9925 f7bd c43b 6fbe 4fb3 febd 8f37 723d
00000180: bf7f 99bd 6c66 bbbe e14e 8abd 2a34 133f
00000190: cde2 e0bd e5e2 a3be 53b9 a2bd 566e 193e
000001a0: a676 223f 2000 9dbe 4106 463e edbb bebc
000001b0: 9420 bd3f e21c 1abe 22a3 cd3f b836 f13f
000001c0: 4060 773e 5859 7d3e 8e3c c73d 5545 0fbe
000001d0: 4268 39bf c520 4fbe 86f2 b73d 6cd1 0d3e
000001e0: 2cf0 163f b789 92be 3a40 a33e 814a 47bf
000001f0: d52e 2640 16ca 4ebe ed73 d83d 5200 bdbb
-0.121230386 -3.2899806 0.10862403 0.030737115 -0.1546485 -0.033607945 0.025168044 -0.87318355
-0.1539008 0.64343613 -0.032199945 -1.939838 0.048247136 0.04128803 -0.042499088 -0.5745782
-1.3839648 0.059881534 -1.1595538 0.08266073 0.24014944 -1.6679839 0.047975875 0.18131989
-0.34568766 0.008197068 -0.16519286 -0.26398966 0.118661955 0.24660715 0.13264398 -0.07658265
0.08704295 0.3607741 0.062862456 -0.58956265 0.14470343 0.30831492 0.082933195 -0.17650248
-0.6691962 0.32154343 -0.18896873 0.07298345 -1.4605438 0.17047429 -1.6155493 -1.894706
-0.23137592 -0.25135636 -0.08738304 0.16257663 0.7155695 0.20899965 -0.10595097 -0.14612652
-0.5740506 0.26999664 -0.30371815 0.77793443 -2.5764537 0.18253048 -0.10145146 0.014776152
0.11094786 3.2997632 -0.11617589 -0.023283688 0.14985333 0.027270013 -0.019556647 0.8935717
0.17283376 -0.65106386 0.032506876 1.9447026 -0.07796896 -0.09583485 0.021462655 0.5787843
1.4141465 -0.052605446 1.1885566 -0.06137981 -0.2504263 1.6692713 -0.06125588 -0.17717063
0.3516675 -0.011183408 0.1754764 0.27713352 -0.12067718 -0.23362643 -0.12436544 0.059135016
-0.07495069 -0.3660158 -0.06753326 0.5750147 -0.10980759 -0.32009044 -0.07945504 0.14983496
0.63462293 -0.30664158 0.19338323 -0.02328297 1.4775567 -0.1505008 1.6065409 1.8844824
0.2415781 0.24741113 0.09728347 -0.13991292 -0.7242471 -0.20227344 0.089818045 0.1384942
0.58960223 -0.28620693 0.31884938 -0.7784806 2.5966084 -0.20194277 0.10568986 -0.0057678604

action_model._discrete_distribution.branches.1.bias f4 [2]
00000000: ecdc 94bf f4dc 943f
-1.162992 1.162993

action_model._discrete_distribution.branches.2.weight f4 [2, 64]
00000000: 4bd8 b93e bd07 393f dca0 23be 742a 823d
00000010: 8a2d b83d 0b36 99bd 3d4b 07be 8ee4 69be
00000020: ffe1 543e 5914 debd e4b6 9f3c 1b37 ff3d
00000030: a712 2dbd 87a0 d7be 9f3a 2d3e 76e9 37be
00000040: 12a6 1cc0 28ce 303f 0b4a 8b3f 781b ff3d
00000050: 5011 b73f bc13 133d 3d6c ba3e a3aa 103e
00000060: 07c3 b8bd 6229 4b3f f9e2 cbbe fd31 2bbc
00000070: fdd0 bb3d 4c5c 3ebe 372e 8c3f a3a5 9e3d
00000080: ea54 413e 8f47 5a3d 93e5 a8bd 5ad0 283f
00000090: fac8 5cbc 89ac 02bd be8f 4cbe d139 f7be
000000a0: bbca a3be 17ac 00bf 2c4d 833e 8e31 a93d
000000b0: a3b0 623f 6d22 4d3d 8cbb 353e 616c a1be
000000c0: 24cd 8ebe fe5d d93d 8664 623e 4b73 9cbd
000000d0: f8a0 28bd 7dc4 93be 8f53 263e 3d31 20be
000000e0: c8de 1b3f c1dd 253f 7d7a 4b3e 0a26 ee3c
000000f0: 0e61 39c0 290e 20be 75c9 0a3e 2ec0 923d
00000100: 5d78 b0be 487d 37bf e5c2 1c3e 32b3 83bd
00000110: af1e b8bd 998f 9f3d e576 013e 65d3 7f3e
00000120: c466 83be 6d96 ee3d b162 81bc f574 dbbd
00000130: 882b ab3b ee87 e33e ebd7 40be 4a40 413e
00000140: b80b 1e40 00cb 35bf 5c82 8bbf 5ab5 d5bd
00000150: cbf9 b9bf 2d95 91bc 1775 c4be 01da 0bbe
00000160: c559 d53d 64d9 4dbf 85e9 c73e d77d be3c
00000170: 25e7 ebbd 5997 393e 640a 8cbf 153b a6bd
00000180: 8e87 48be 735e f8bc f6d0 e43d a5fd 2abf
00000190: 8ee0 763c 37ed 133d b44e 513e 9dc1 013f
000001a0: 1a1c b23e 1bf5 043f 03f3 76be 0948 a6bd
000001b0: f7bb 6ebf 58de bebc 4f06 35be aa46 913e
000001c0: 7177 873e 00ff e2bd caca 5ebe 9128 d33d
000001d0: b141 593d 7743 953e f566 33be 8d16 213e
000001e0: d1a3 14bf 48c2 2bbf 3275 36be 2d34 dbbc
000001f0: 4d24 3a40 0e95 363e 89f4 f2bd 4fd0 98bd
0.3629783 0.7227743 -0.15979332 0.063557535 0.08993061 -0.07481011 -0.13212295 -0.22841093
0.20789336 -0.10843725 0.019496389 0.124616824 -0.042254116 -0.4211466 0.16916893 -0.17960152
-2.4476361 0.6906457 1.0881971 0.12456411 1.4302158 0.035907492 0.36410704 0.14127593
-0.090215735 0.7936002 -0.39821604 -0.01044893 0.09170721 -0.18589896 1.0951604 0.077464364
0.18880048 0.0532909 -0.08246913 0.6594292 -0.013475651 -0.031902824 -0.19976708 -0.48286298
-0.3199061 -0.5026259 0.25644815 0.08261405 0.88550776 0.05008166 0.17747325 -0.31528
-0.27890885 0.10613631 0.22108659 -0.07639178 -0.041169137 -0.28860846 0.16242813 -0.15643783
0.6088681 0.64791495 0.19870944 0.029070873 -2.8965487 -0.15630402 0.13553412 0.071655616
-0.3446683 -0.7167554 0.15308721 -0.06430663 -0.089902274 0.07791061 0.12643011 0.24982984
-0.2566434 0.11649785 -0.01579413 -0.10715667 0.005223695 0.44439644 -0.18832366 0.1887218
2.4694653 -0.7101288 -1.0899158 -0.10434981 -1.4529356 -0.017771328 -0.38370582 -0.1365738
0.10417513 -0.80409837 0.3904535 0.023253364 -0.11518697 0.18124141 -1.0940671 -0.08116738
-0.1958296 -0.030318474 0.11172669 -0.6679328 0.015068186 0.036114898 0.20440179 0.50686055
0.34787065 0.519365 -0.24116139 -0.08119208 -0.9325556 -0.023299381 -0.17678188 0.28374225
0.26458314 -0.11083794 -0.21757045 0.10310472 0.053041164 0.29153034 -0.17519744 0.15731259
-0.58062464 -0.67093325 -0.17818144 -0.026758278 2.9084656 0.17830297 -0.11863048 -0.07461607

action_model._discrete_distribution.branches.2.bias f4 [2]
00000000: 5ff6 a4bf 66f6 a43f
-1.2887686 1.2887695

onnx::Div_104 f4 [28]
00000000: 9b83 d83e a26b b63d d30c db3e 92a4 bd3e
00000010: 63be cf3e 2e91 b23d e782 d23e 254e b83e
00000020: e713 d73e 320a 8d3d 5ea0 d83e 0248 ba3e
00000030: 04bb b03e 968a b73d e6f5 b43e 7359 a43e
00000040: d717 b43e 4c48 363d e61f b53e fdf5 a43e
00000050: 4c2c 8e3e a952 b23d 08dc 933e 53e0 863e
00000060: 7c2f 933e 014d 233d a255 943e ff02 893e
0.42287907 0.08907248 0.42783222 0.3703962 0.4057494 0.08719097 0.41115496 0.3599712
0.42007372 0.0688671 0.4230985 0.36383063 0.34517682 0.0896198 0.35343856 0.32099494
0.35174438 0.04450254 0.353759 0.32218924 0.2776817 0.087071724 0.28878808 0.2634302
0.28747165 0.03986836 0.28971583 0.26760098

onnx::Div_107 f4 [28]
00000000: 3833 ee3e ea23 413e 560f f53e 258e 363e
00000010: 1094 ec3e faf0 703e a3ba dd3e 0c80 a63e
00000020: 6d37 d93e 78c4 383e 751d c43e ff7d 8b3e
00000030: 1557 c83e 403f ae3e 5660 693e 070b a03e
00000040: e41b b43e 4d65 1f3e 8edc 983e 4371 893e
00000050: 874f ba3e e27b b93e 96bb 263d 6dbf 873e
00000060: 6b68 9e3e 7752 073e cd10 7e3e daf4 893e
0.46523452 0.18861356 0.47863263 0.17827661 0.46206713 0.23529425 0.43306455 0.32519567
0.424251 0.18043697 0.38303724 0.27244565 0.39128938 0.3403263 0.22790655 0.31258413
0.3517753 0.15565987 0.2985577 0.26844224 0.363888 0.36227328 0.04070624 0.26513234
0.3093904 0.13215052 0.24811096 0.2694462

onnx::Div_110 f4 [7]
00000000: de1b 5342 18d4 3842 1eb6 3842 b5ea 3842
00000010: 68ad 3842 2f9e 3842 46b3 3842
52.777214 46.207123 46.17785 46.229206 46.169342 46.154476 46.17507
