Assets/_created_block_bigger_gradual_reward_increased_length_continuous_dynamics_Added_checkpoint_ontriggerenter_Renaming_sensor_beta_0.003_increased_rewards_corrected_blocker/competitor/competitor-13499973.pt (torch, 238430 bytes, 70 tensors)

discrete_act_size_vector f4 [1, 3]
0	0x40000000	2.0
1	0x40000000	2.0
2	0x40000000	2.0

network_body.observation_encoder.processors.0.normalizer.running_mean f4 [28]
0	0x3e6ed5c8	0.23323739
1	0x3c0309cc	0.007997941
2	0x3f423df1	0.75875765
3	0x3f4b3b9c	0.7938783
4	0x3e54ce6e	0.20781872
5	0x3bfb1194	0.0076620076
6	0x3f48d50c	0.78450084
7	0x3f503c19	0.813417
8	0x3e6a514d	0.22882576
9	0x3b9c1160	0.0047628134
10	0x3f443378	0.76641035
11	0x3f4d5be3	0.80218333
12	0x3e0d943a	0.13826075
13	0x3c04ac71	0.008097754
14	0x3f5a8963	0.85365885
15	0x3f5e2f29	0.8679071
16	0x3e142352	0.14466599
17	0x3b023595	0.0019868363
18	0x3f5a73e4	0.85333085
19	0x3f5df984	0.86708856
20	0x3dac6deb	0.08419403
21	0x3bfa6186	0.00764102
22	0x3f687aa9	0.90812165
23	0x3f6aabe2	0.9166852
24	0x3dba2a76	0.0909013
25	0x3ad0c876	0.0015928883
26	0x3f6852a9	0.9075113
27	0x3f6a2bba	0.9147297

network_body.observation_encoder.processors.0.normalizer.running_variance f4 [28]
0	0x4a135930	2.414156e+06
1	0x47d131c5	107107.54
2	0x4a16d203	2.4710408e+06
3	0x49e21656	1.8521068e+06
4	0x4a07a71e	2.2225355e+06
5	0x47c87331	102630.38
6	0x4a0b4a94	2.282149e+06
7	0x49d58a26	1.7493168e+06
8	0x4a11665d	2.3822312e+06
9	0x477a1a08	64026.03
10	0x4a138058	2.416662e+06
11	0x49da24a3	1.7870284e+06
12	0x49c4590f	1.6084819e+06
13	0x47d3c5ed	108427.85
14	0x49cddc05	1.6864006e+06
15	0x49a9ccf7	1.3910069e+06
16	0x49cbe401	1.6702721e+06
17	0x46d0e0c1	26736.377
18	0x49ce3b9f	1.6894599e+06
19	0x49ab1108	1.401377e+06
20	0x497e2305	1.0409443e+06
21	0x47c7e6ee	102349.86
22	0x49896fb3	1.1258784e+06
23	0x4964b850	936837.0
24	0x49882faa	1.1156372e+06
25	0x46a7a40b	21458.021
26	0x498a521e	1.1331238e+06
27	0x496c0510	966737.0

network_body.observation_encoder.processors.1.normalizer.running_mean f4 [28]
0	0x3ea23618	0.31681895
1	0x3d17437d	0.036929596
2	0x3f250504	0.6446078
3	0x3f647344	0.8923838
4	0x3f30e6fb	0.6910245
5	0x3d70f631	0.058828536
6	0x3e800d59	0.25010183
7	0x3f0e3298	0.5554595
8	0x3f43bc41	0.7645913
9	0x3d09f0bf	0.03367686
10	0x3e36ece1	0.178638
11	0x3effa8e9	0.49933556
12	0x3f4faef5	0.8112634
13	0x3e08f0c6	0.13373098
14	0x3d6120eb	0.054963034
15	0x3ed36415	0.41287294
16	0x3f5af4f5	0.85530025
17	0x3ccb6a55	0.024830977
18	0x3dca936e	0.09891401
19	0x3e9ac779	0.3023031
20	0x3f57c968	0.84291697
21	0x3e1f1e05	0.15538795
22	0x3ad9cc15	0.0016616607
23	0x3eb46472	0.35232884
24	0x3f648d88	0.8927846
25	0x3c91907b	0.017769089
26	0x3d86ffb2	0.06591739
27	0x3e865b81	0.26241687

network_body.observation_encoder.processors.1.normalizer.running_variance f4 [28]
0	0x4a3257e4	2.921977e+06
1	0x48ea80d4	480262.62
2	0x4a3cc368	3.092698e+06
3	0x48d180f3	429063.6
4	0x4a2fec58	2.882326e+06
5	0x493678c4	747404.25
6	0x4a1a882e	2.5318515e+06
7	0x49ae4622	1.4276522e+06
8	0x4a144e56	2.4298455e+06
9	0x48d69cad	439525.4
10	0x49f1c855	1.9806826e+06
11	0x4974a498	1.0020575e+06
12	0x49fc500d	2.0669456e+06
13	0x49bede50	1.563594e+06
14	0x492b3178	701207.5
15	0x49a104d7	1.3190669e+06
16	0x49cbed2f	1.6705659e+06
17	0x489fb80a	327104.3
18	0x4992e479	1.2033431e+06
19	0x496d818d	972824.8
20	0x49da363f	1.7875919e+06
21	0x49d84794	1.7717625e+06
22	0x46aec2dc	22369.43
23	0x4967af6e	948982.9
24	0x499dbed2	1.2922502e+06
25	0x48663c14	235760.31
26	0x494ae459	831045.56
27	0x496f492f	980114.94

network_body.observation_encoder.processors.2.normalizer.running_mean f4 [7]
0	0x43678a8c	231.5412
1	0x424d2087	51.281765
2	0x424ebba4	51.683243
3	0x424b8e24	50.88881
4	0x424c8cc1	51.137455
5	0x424d9d5f	51.403683
6	0x424c85aa	51.13053

network_body.observation_encoder.processors.2.normalizer.running_variance f4 [7]
0	0x510c154b	3.760329e+10
1	0x50d6c0fa	2.882377e+10
2	0x50d67b58	2.8787261e+10
3	0x50d6f589	2.8851325e+10
4	0x50d6671d	2.8776655e+10
5	0x50d643c5	2.8758125e+10
6	0x50d674bd	2.8783798e+10

network_body.processors.0.normalizer.running_mean f4 [28]
0	0x3e6ed5c8	0.23323739
1	0x3c0309cc	0.007997941
2	0x3f423df1	0.75875765
3	0x3f4b3b9c	0.7938783
4	0x3e54ce6e	0.20781872
5	0x3bfb1194	0.0076620076
6	0x3f48d50c	0.78450084
7	0x3f503c19	0.813417
8	0x3e6a514d	0.22882576
9	0x3b9c1160	0.0047628134
10	0x3f443378	0.76641035
11	0x3f4d5be3	0.80218333
12	0x3e0d943a	0.13826075
13	0x3c04ac71	0.008097754
14	0x3f5a8963	0.85365885
15	0x3f5e2f29	0.8679071
16	0x3e142352	0.14466599
17	0x3b023595	0.0019868363
18	0x3f5a73e4	0.85333085
19	0x3f5df984	0.86708856
20	0x3dac6deb	0.08419403
21	0x3bfa6186	0.00764102
22	0x3f687aa9	0.90812165
23	0x3f6aabe2	0.9166852
24	0x3dba2a76	0.0909013
25	0x3ad0c876	0.0015928883
26	0x3f6852a9	0.9075113
27	0x3f6a2bba	0.9147297

network_body.processors.0.normalizer.running_variance f4 [28]
0	0x4a135930	2.414156e+06
1	0x47d131c5	107107.54
2	0x4a16d203	2.4710408e+06
3	0x49e21656	1.8521068e+06
4	0x4a07a71e	2.2225355e+06
5	0x47c87331	102630.38
6	0x4a0b4a94	2.282149e+06
7	0x49d58a26	1.7493168e+06
8	0x4a11665d	2.3822312e+06
9	0x477a1a08	64026.03
10	0x4a138058	2.416662e+06
11	0x49da24a3	1.7870284e+06
12	0x49c4590f	1.6084819e+06
13	0x47d3c5ed	108427.85
14	0x49cddc05	1.6864006e+06
15	0x49a9ccf7	1.3910069e+06
16	0x49cbe401	1.6702721e+06
17	0x46d0e0c1	26736.377
18	0x49ce3b9f	1.6894599e+06
19	0x49ab1108	1.401377e+06
20	0x497e2305	1.0409443e+06
21	0x47c7e6ee	102349.86
22	0x49896fb3	1.1258784e+06
23	0x4964b850	936837.0
24	0x49882faa	1.1156372e+06
25	0x46a7a40b	21458.021
26	0x498a521e	1.1331238e+06
27	0x496c0510	966737.0

network_body.processors.1.normalizer.running_mean f4 [28]
0	0x3ea23618	0.31681895
1	0x3d17437d	0.036929596
2	0x3f250504	0.6446078
3	0x3f647344	0.8923838
4	0x3f30e6fb	0.6910245
5	0x3d70f631	0.058828536
6	0x3e800d59	0.25010183
7	0x3f0e3298	0.5554595
8	0x3f43bc41	0.7645913
9	0x3d09f0bf	0.03367686
10	0x3e36ece1	0.178638
11	0x3effa8e9	0.49933556
12	0x3f4faef5	0.8112634
13	0x3e08f0c6	0.13373098
14	0x3d6120eb	0.054963034
15	0x3ed36415	0.41287294
16	0x3f5af4f5	0.85530025
17	0x3ccb6a55	0.024830977
18	0x3dca936e	0.09891401
19	0x3e9ac779	0.3023031
20	0x3f57c968	0.84291697
21	0x3e1f1e05	0.15538795
22	0x3ad9cc15	0.0016616607
23	0x3eb46472	0.35232884
24	0x3f648d88	0.8927846
25	0x3c91907b	0.017769089
26	0x3d86ffb2	0.06591739
27	0x3e865b81	0.26241687

network_body.processors.1.normalizer.running_variance f4 [28]
0	0x4a3257e4	2.921977e+06
1	0x48ea80d4	480262.62
2	0x4a3cc368	3.092698e+06
3	0x48d180f3	429063.6
4	0x4a2fec58	2.882326e+06
5	0x493678c4	747404.25
6	0x4a1a882e	2.5318515e+06
7	0x49ae4622	1.4276522e+06
8	0x4a144e56	2.4298455e+06
9	0x48d69cad	439525.4
10	0x49f1c855	1.9806826e+06
11	0x4974a498	1.0020575e+06
12	0x49fc500d	2.0669456e+06
13	0x49bede50	1.563594e+06
14	0x492b3178	701207.5
15	0x49a104d7	1.3190669e+06
16	0x49cbed2f	1.6705659e+06
17	0x489fb80a	327104.3
18	0x4992e479	1.2033431e+06
19	0x496d818d	972824.8
20	0x49da363f	1.7875919e+06
21	0x49d84794	1.7717625e+06
22	0x46aec2dc	22369.43
23	0x4967af6e	948982.9
24	0x499dbed2	1.2922502e+06
25	0x48663c14	235760.31
26	0x494ae459	831045.56
27	0x496f492f	980114.94

network_body.processors.2.normalizer.running_mean f4 [7]
0	0x43678a8c	231.5412
1	0x424d2087	51.281765
2	0x424ebba4	51.683243
3	0x424b8e24	50.88881
4	0x424c8cc1	51.137455
5	0x424d9d5f	51.403683
6	0x424c85aa	51.13053

network_body.processors.2.normalizer.running_variance f4 [7]
0	0x510c154b	3.760329e+10
1	0x50d6c0fa	2.882377e+10
2	0x50d67b58	2.8787261e+10
3	0x50d6f589	2.8851325e+10
4	0x50d6671d	2.8776655e+10
5	0x50d643c5	2.8758125e+10
6	0x50d674bd	2.8783798e+10

network_body._body_endoder.seq_layers.0.weight f4 [64, 63]
0	0xbe2364a2	-0.15956357
1	0x3db5d2db	0.08878108
2	0x3d1ba9e2	0.03800381
3	0x3eabcb92	0.3355375
4	0x3ee2f4f7	0.44327518
5	0xbecf5bb3	-0.40499648
6	0xbe3a6b2c	-0.18204945
7	0x3dba3a48	0.090931475
8	0xbdcf7e92	-0.10131563
9	0x3f5220f9	0.8208156
10	0xbcca445a	-0.024690796
11	0x3e318479	0.1733569
12	0x3f210c0b	0.62909
13	0x3e372a18	0.17887151
14	0xbcb376a1	-0.021907153
15	0xbe00ce1f	-0.12578629
16	0xbe0e4a90	-0.13895631
17	0x3f8ee6ea	1.1164219
18	0xbd92809d	-0.07153437
19	0xbeb66b06	-0.35628527
20	0x3f153bea	0.58294547
21	0xbe231f76	-0.1592997
22	0x3e14e238	0.1453942
23	0xbda39358	-0.07987088
24	0xbe9048fe	-0.2818069
25	0x3ecaff62	0.39647967
26	0x3f25588e	0.6458825
27	0x3f217d52	0.6308185
28	0x3facc29f	1.3496894
29	0xbef924fc	-0.4866103
30	0xbf6a5ca6	-0.9154762
31	0xbeed82f0	-0.4638896
32	0x3f21a47f	0.63141626
33	0xbe9b4cba	-0.30331975
34	0x3b396a38	0.002829207
35	0x3fdae43b	1.71009
36	0xbca40238	-0.02002059
37	0x3fd2868f	1.6447314
38	0xbf8cfbbb	-1.1014322
39	0xbf9eefbf	-1.2416915
40	0xbd882736	-0.06648104
41	0x3e8d0840	0.27545357
42	0xbf0df7a5	-0.55456
43	0xbe37c233	-0.17945175
44	0xbd4ab375	-0.04948755
45	0xbcf48020	-0.029846251
46	0xbe845d4a	-0.25852424
47	0x3eb5a8ed	0.35480443
48	0x3d3e652c	0.046483204
49	0x3e4afed7	0.19823776
50	0x3f81fcd7	1.0155286
51	0xbf4f78d2	-0.8104373
52	0xbcbbcd50	-0.022925049
53	0xbf831637	-1.0241154
54	0x3f8c4ef1	1.0961591
55	0x3ecf99e7	0.40547106
56	0x3ec1e02c	0.37866342
57	0xbcfad9f4	-0.030621506
58	0xbe8496d5	-0.25896326
59	0x3f32a136	0.6977724
60	0x3e005066	0.1253067
61	0xbf08b5b8	-0.5340228
62	0x3e4046d1	0.18777014
63	0x3ec4e978	0.38459373
64	0x3f0550be	0.5207633
65	0xbebcbf86	-0.3686487
66	0xbf313946	-0.6922802
67	0x3ecc7e72	0.3994022
68	0x3ebd989a	0.37030488
69	0xbe1c3071	-0.15252854
70	0xbef0ab0c	-0.47005498
71	0xbf2ff2b4	-0.6872971
72	0xbee7cece	-0.45274967
73	0x3f6f8493	0.9356167
74	0x3f173e2f	0.5907926
75	0x3ef7c5b7	0.48393032
76	0x3f5c93ae	0.8616284
77	0xbe9989ac	-0.29987848
78	0xbe939163	-0.2882186
79	0x3f94b7ab	1.1618551
80	0x3f7b3f7f	0.9814376
81	0xbf854d89	-1.0414287
82	0xbf52f1c7	-0.8240017
83	0xbf540c4d	-0.8283127
84	0x3fa808e4	1.3127713
85	0x3f262f7e	0.6491622
86	0x3f60e2fe	0.8784636
87	0xbf603a8f	-0.87589353
88	0x3f00ef93	0.5036556
89	0x3f7846ea	0.96983206
90	0x3f7d692a	0.9898859
91	0x3f6b6417	0.919496
92	0xbf2ea6d6	-0.6822332
93	0xbebb177d	-0.36541358
94	0x3e6b61ef	0.22986577
95	0x3f851fde	1.040035
96	0xbe57c579	-0.21071424
97	0xbfc8b9b0	-1.5681667
98	0xbfa85201	-1.3150026
99	0x3e79e128	0.24402297
100	0xbfb21c46	-1.3914878
101	0x3f3e0a39	0.7423435
102	0xbf0c2a58	-0.5475211
103	0xbed2f4ee	-0.41202492
104	0x3f409f36	0.75242937
105	0xbf01cdc9	-0.5070463
106	0xbf09f15d	-0.53883916
107	0x3dff1ad4	0.12456289
108	0xbd238da8	-0.039930016
109	0x3e9a8adb	0.30184063
110	0x3ebf2a8f	0.37337157
111	0xbeb6e428	-0.35720944
112	0xbe2ee817	-0.17080723
113	0x3f6e4fa6	0.93090284
114	0x3f6a848c	0.916085
115	0xbeb1f424	-0.34756577
116	0xbf882bbf	-1.063835
117	0x3f0b9259	0.54520184
118	0x3f53f8d5	0.8280156
119	0x3fe886c5	1.8166128
120	0xbf948033	-1.1601623
121	0xbf94e828	-1.1633348
122	0x3e89b904	0.26898968
123	0x3d3b6fb6	0.045760833
124	0xbf0900e3	-0.5351698
125	0xbea64150	-0.32471704
126	0xbe026806	-0.12734994
127	0x3e8b8b1c	0.2725457
128	0x3ee30bb8	0.44344878
129	0x3e870728	0.26372647
130	0x3ec351b1	0.38148263
131	0x3f06df13	0.52684134
132	0x3d7c4426	0.06158843
133	0x3e12b2aa	0.14325967
134	0xbe833b7a	-0.25631315
135	0x3ea797c2	0.3273297
136	0x3e81f43e	0.25381655
137	0xbea9fff8	-0.332031
138	0x3e9eaf23	0.30992994
139	0xbf7382ec	-0.95121646
140	0x3f27713d	0.6540716
141	0x3f26ed5d	0.6520594
142	0xbe0740cc	-0.13208312
143	0x3f49d97a	0.7884747
144	0x3e8f70b5	0.28015676
145	0x3e4f2927	0.20230542
146	0x3f2f642b	0.6851222
147	0x3eea722d	0.45790234
148	0xbe87ec1b	-0.26547322
149	0xbeb18547	-0.34671995
150	0xbde0373d	-0.10948036
151	0xbdd1ef79	-0.10250754
152	0xbc8c569f	-0.017131148
153	0xbefeff82	-0.49804312
154	0x3ef0b3c4	0.4701215
155	0xbe7e2525	-0.24818857
156	0xbccf7dd7	-0.02532856
157	0xbfa65515	-1.2994715
158	0xbeab5169	-0.3346055
159	0x3e943b32	0.28951412
160	0x3e76b2f2	0.240917
161	0xc0319121	-2.774483
162	0x3f50b6e7	0.81529087
163	0x3ef21129	0.47278717
164	0xbe99c088	-0.30029702
165	0x3ffee999	1.9915038
166	0xbf31f3b7	-0.69512504
167	0x3f80ec3a	1.0072091
168	0xbf1cbf2e	-0.6122922
169	0xc00b85ce	-2.1800418
170	0x3f09c950	0.53822803
171	0xc0027c7b	-2.0388477
172	0x3f320d88	0.695519
173	0x3e86e7ef	0.26348826
174	0x3f460657	0.77353424
175	0xbef156ba	-0.4713648
176	0x3ee14f6e	0.44005913
177	0xbf9e471e	-1.2365453
178	0xbf2273b0	-0.63457775
179	0x3f5319ef	0.82461447
180	0xbcba671f	-0.02275425
181	0x3d5ea8d2	0.05436022
182	0x3eadf1c4	0.33973515
183	0xbea5e875	-0.32403913
184	0xbe522f1e	-0.20525786
185	0xbeddaaca	-0.43294364
186	0x3e8f4eb1	0.27989724
187	0xbec9884e	-0.39361805
188	0xbeac1843	-0.3361226
189	0x3f5f006a	0.87110007
190	0x3fa02602	1.2511599
191	0xbfc5a313	-1.5440391
192	0xbfaae0cc	-1.3349853
193	0xbf4b7847	-0.79480404
194	0x3f895eb4	1.0732026
195	0xbdd45b67	-0.10368996
196	0xbe7b9fc2	-0.24572662
197	0x3f388d46	0.72090566
198	0x3df8bafb	0.12145039
199	0xbf78b966	-0.97157896
200	0xbf4d4a40	-0.8019142
201	0xbd0ec743	-0.034858
202	0x3e70216f	0.23450254
203	0x3df52c60	0.119713545
204	0xbcac8683	-0.021060234
205	0xbeb958fc	-0.36200702
206	0x3edbec0b	0.42953524
207	0x3d036120	0.032075047
208	0x3dddc6c8	0.1082893
209	0xbe92f326	-0.28701133
210	0x3f3c641b	0.7359025
211	0xbe75f11f	-0.24017762
212	0xbec6e6b7	-0.38847896
213	0xbf576a51	-0.841466
214	0x3f2fedbc	0.6872213
215	0x3ef890e8	0.48548055
216	0x3efb41e3	0.49073705
217	0x3f7f4321	0.99711806
218	0x3ec2907d	0.3800086
219	0xbf5a0b94	-0.85173917
220	0xbf9c3711	-1.2204305
221	0xbf0000cb	-0.5000121
222	0x3f4a249c	0.7896211
223	0xbe81ec84	-0.2537576
224	0xbe94a649	-0.29033116
225	0x3e6387ed	0.2221982
226	0x3da62503	0.08112528
227	0x3f4304e5	0.76179343
228	0xc011bafc	-2.2770376
229	0x3f47568a	0.77866423
230	0xbf43fbef	-0.76556295
231	0x3faa96e3	1.3327297
232	0xbeb0942e	-0.34488052
233	0xbf8b9b0f	-1.0906695
234	0x3f456cab	0.7711894
235	0x3fe98b27	1.8245591
236	0xbf94422a	-1.1582692
237	0xbe1b73f0	-0.15180945
238	0x3e597185	0.2123471
239	0xbf878be3	-1.0589565
240	0xbf05951d	-0.52180654
241	0xbeb816d1	-0.35954908
242	0x3f8f84d7	1.1212415
243	0x3e0ebd3c	0.13939375
244	0xbf46503f	-0.77466196
245	0xbdc725a6	-0.09723978
246	0xbf0ede8f	-0.5580835
247	0x3f5ed6c9	0.87046486
248	0xbeae6fde	-0.34069723
249	0xbf270d03	-0.6525423
250	0x3f03aa25	0.51431495
251	0x3fdf2cae	1.743551
252	0x3f203d20	0.6259327
253	0x3ff88c77	1.9417866
254	0xbf21f849	-0.6326948
255	0xbf20ee9e	-0.628641

network_body._body_endoder.seq_layers.0.bias f4 [64]
0	0xc02b94b4	-2.680951
1	0xbfec8af1	-1.8479902
2	0xbfd48f5d	-1.6606251
3	0xbf6dd4e1	-0.9290295
4	0xbe9d669f	-0.30742356
5	0xc01dc632	-2.465222
6	0xc0025b51	-2.0368235
7	0xc0043aa2	-2.0660787
8	0xbf8e7aef	-1.1131266
9	0xc01a4554	-2.4104815
10	0xbfed14c5	-1.8521963
11	0xc01809db	-2.3756015
12	0xbf4651ae	-0.77468383
13	0xc003fdf8	-2.062376
14	0xc026d93b	-2.6070087
15	0xbfda93fe	-1.7076414
16	0xbfb4a547	-1.4112939
17	0xbfc6763a	-1.550483
18	0xc003fe8b	-2.062411
19	0xbf8fa414	-1.1221948
20	0xc056b263	-3.3546379
21	0xc00654a6	-2.0989165
22	0xc03495e9	-2.8216498
23	0xbfc4ce45	-1.5375448
24	0xc03809d2	-2.8755994
25	0xbffe2442	-1.9854815
26	0xbf7cff16	-0.9882673
27	0xbfd75585	-1.6822973
28	0xbf6c4fbc	-0.92309165
29	0xbedba497	-0.4289901
30	0xbf809e82	-1.0048373
31	0xbf8db220	-1.1069984
32	0xc04b5902	-3.1773076
33	0xbf807d5d	-1.0038258
34	0xc00873ec	-2.1320753
35	0xbfe2e667	-1.7726563
36	0xbfa377ad	-1.2770897
37	0xbfe761ee	-1.8076761
38	0xc000acc8	-2.0105457
39	0xbfe6c3d4	-1.8028512
40	0xbfae6efd	-1.3627621
41	0xbf426fe3	-0.75951976
42	0xbfe24bbb	-1.7679361
43	0xc0265c9d	-2.5994027
44	0xbf9585b5	-1.1681429
45	0xbf94f46f	-1.1637095
46	0xbfd56c7a	-1.667373
47	0xbfd040dd	-1.6269795
48	0xbfabfc57	-1.3436383
49	0xc011c187	-2.277437
50	0xc01f87c1	-2.4926608
51	0xc00eda41	-2.2320712
52	0xbf8dc686	-1.107621
53	0xbf974f65	-1.1821104
54	0xbee2f9d5	-0.44331232
55	0xbf3ab246	-0.72928274
56	0xc0294a01	-2.6451418
57	0xc0469104	-3.102601
58	0xbff01ab0	-1.8758144
59	0xbfce3ddf	-1.6112632
60	0xbeb1c37b	-0.34719452
61	0xc010686d	-2.2563736
62	0xbfc7b689	-1.560258
63	0xbf78744d	-0.9705246

network_body._body_endoder.seq_layers.2.weight f4 [64, 64]
0	0x3e99e3e6	0.30056685
1	0xbf21674b	-0.6304824
2	0x3e204c8a	0.15654197
3	0xbd3ec70e	-0.046576552
4	0x3e1a17dd	0.15048166
5	0xbf17c7d5	-0.59289294
6	0x3f468414	0.77545285
7	0xbf17a7e6	-0.5924057
8	0xbf5adb84	-0.85491204
9	0xbf153472	-0.5828315
10	0xbeeae0be	-0.4587459
11	0xbe93e531	-0.28885797
12	0xbf267e5d	-0.65036565
13	0xbfa1a19d	-1.2627445
14	0x3de902fb	0.113775216
15	0x3ea7dc89	0.32785442
16	0xbfbc26f2	-1.4699385
17	0xbecf88bf	-0.40534016
18	0xbfec987d	-1.8484036
19	0xc000057f	-2.0003355
20	0x3f439cf5	0.7641137
21	0xbf2e4ac4	-0.68082833
22	0x3f9f9b8c	1.2469344
23	0x3eed7644	0.46379292
24	0x3e5a6095	0.21325906
25	0x3e5b4728	0.21413863
26	0xbe251f1f	-0.16125153
27	0xbea6ab8c	-0.32552755
28	0x3eabc8c1	0.335516
29	0xbe4e74fb	-0.20161812
30	0x3df5dd51	0.120051034
31	0xbf8d1f59	-1.1025192
32	0xbfb2469e	-1.3927801
33	0x3ec87957	0.39155075
34	0xbf7e279f	-0.99279207
35	0xbfcb93f6	-1.5904529
36	0x3f31f77f	0.69518274
37	0xbfa94e5b	-1.3227037
38	0xbeaad299	-0.33363798
39	0x3f2f2e1b	0.68429726
40	0xbf2ae927	-0.6676201
41	0x3d2e7455	0.04259141
42	0x3cf9c70d	0.030490423
43	0xbed336a7	-0.41252634
44	0x3e330199	0.17481078
45	0x3eef99a4	0.46796906
46	0xbf558892	-0.83411515
47	0x3f552b08	0.83268785
48	0x3e1f8f88	0.15582097
49	0xbe304b20	-0.17216158
50	0xbd874694	-0.066052586
51	0xbf96a1d1	-1.1768132
52	0xc008c97d	-2.1372979
53	0xbf2eadbf	-0.68233865
54	0xbf0bf2b3	-0.54667205
55	0x3d542166	0.051789664
56	0x3f738cef	0.9513692
57	0xbebb5f64	-0.36596215
58	0xbd108649	-0.035284314
59	0xbeaeacf9	-0.34116343
60	0xbf267bf5	-0.65032893
61	0xbf8d8f11	-1.1059285
62	0xbf96c71a	-1.1779511
63	0xbf068b67	-0.5255646
64	0xbf1ceebb	-0.61301774
65	0xbedc1373	-0.4298359
66	0x3f2450c6	0.6418575
67	0xbf9a0342	-1.2032244
68	0xbf35be63	-0.7099363
69	0xbe807850	-0.2509179
70	0xbfa5b0b0	-1.2944546
71	0x3e3a1c90	0.18174958
72	0xbf89cdcd	-1.076593
73	0x3e2f1e03	0.17101292
74	0xbf6c8794	-0.92394376
75	0xbf5ba7b1	-0.8580275
76	0x3efd0ca7	0.49423715
77	0xbf2c3dba	-0.6728169
78	0x3f8060f0	1.0029583
79	0x3e595ab3	0.21226005
80	0xbf6932bf	-0.9109306
81	0xbe230336	-0.15919194
82	0x3f40d79d	0.75329
83	0xbd0711c4	-0.032975927
84	0x3ebb955d	0.36637393
85	0x3e8cdc5c	0.2751187
86	0xbc6e7080	-0.014553189
87	0xbe45a8a6	-0.19302616
88	0xbd3eeda4	-0.04661335
89	0x3e449ca6	0.19200382
90	0xbfc3bccd	-1.5291992
91	0xbf6ccf34	-0.92503667
92	0xbf930d58	-1.1488447
93	0xbd55968f	-0.052145537
94	0x3c216199	0.009849929
95	0xbfd134ca	-1.6344235
96	0x3f3dbaf2	0.7411338
97	0xbf8da4cd	-1.1065918
98	0xbf137d27	-0.5761284
99	0xbfb10df8	-1.3832388
100	0xbf9dedc4	-1.2338185
101	0x3ef36bc7	0.47543165
102	0x3e327b9c	0.17429966
103	0xbf73afe0	-0.9519024
104	0xbf8a1480	-1.0787506
105	0xbe423432	-0.18965223
106	0xbfaadf58	-1.3349409
107	0xbe861e14	-0.26194823
108	0xbeee690c	-0.4656452
109	0x3f3c6658	0.73593664
110	0x3e46380d	0.19357319
111	0xbfeeaacb	-1.8645872
112	0x3f043820	0.5164814
113	0xbe9549cf	-0.29157874
114	0xbd391b1e	-0.045191877
115	0xbec7d4a4	-0.3902942
116	0xbeced9e9	-0.40400627
117	0x3f4003da	0.75005877
118	0xbf18e324	-0.5972159
119	0xbdcccddf	-0.10000204
120	0xbf970917	-1.1799649
121	0x3e841a40	0.25801277
122	0x3f37c0cf	0.7177858
123	0x3d12b79b	0.03581963
124	0xbe937d48	-0.2880652
125	0xbfe4f1a9	-1.7886249
126	0xbf1820b3	-0.59424895
127	0x3de7d633	0.11320152
128	0x3e9d9e98	0.3078506
129	0x3e8d4048	0.27588105
130	0x3f8d5e67	1.1044434
131	0xbec5396d	-0.38520375
132	0xbf19df89	-0.6010671
133	0xbe957b75	-0.29195753
134	0x3f5e3c36	0.86810625
135	0x3dfdbf33	0.12389984
136	0x3df0fee0	0.117673635
137	0x3f60f4b6	0.878734
138	0xbdfc6453	-0.12323823
139	0x3f81747d	1.0113674
140	0x3f1e8130	0.61915874
141	0xbf93f9a6	-1.1560562
142	0x3f30df6d	0.6909092
143	0xbeb4a41e	-0.3528146
144	0xbf05d788	-0.52282
145	0xbd9c3b71	-0.07628525
146	0xbe63f5c4	-0.22261721
147	0x3eb83369	0.35976723
148	0xbf3f8fce	-0.74828804
149	0xbf886a06	-1.0657356
150	0x3e2a449b	0.16627733
151	0x3f57baeb	0.8426959
152	0xbf101aba	-0.5629078
153	0x3f6b1aea	0.9183794
154	0x3f975b56	1.1824749
155	0xbfc2facd	-1.5232788
156	0xbfcd319d	-1.6030766
157	0xbf02bac7	-0.5106625
158	0xbfc7b491	-1.560198
159	0xc079b9fd	-3.9019768
160	0xbfd65680	-1.6745148
161	0xbe00b42a	-0.12568727
162	0xbf53bb9b	-0.8270814
163	0xbe259b57	-0.16172539
164	0xbfc8bae7	-1.5682038
165	0x3d30bc53	0.04314835
166	0xbe688f80	-0.22710991
167	0xbf920d8b	-1.1410383
168	0xbd1de166	-0.038545035
169	0xbfd5aef2	-1.6694014
170	0x3d9104a1	0.07080961
171	0xbe27110a	-0.16315094
172	0xbf1da278	-0.6157603
173	0x3dac4f60	0.08413577
174	0x3f05818f	0.52150816
175	0x3ef4bd7d	0.47800818
176	0xbf2a3a20	-0.6649494
177	0xbe19f5bf	-0.15035151
178	0x3eb3c424	0.3511058
179	0x3dcb5a60	0.09929347
180	0xbe81c1c6	-0.2534315
181	0x3ea365a8	0.31913495
182	0xbf27de5d	-0.65573674
183	0xbf826d54	-1.0189614
184	0xbf9fe4cb	-1.2491697
185	0xbfd6b716	-1.6774623
186	0x3f382997	0.7193846
187	0x3f7cf427	0.98810047
188	0xbecc5352	-0.39907318
189	0x3e8d870c	0.27642095
190	0xbf9b84e9	-1.2149936
191	0xbf833797	-1.025134
192	0x3f6a5dfc	0.9154966
193	0xbfa96479	-1.3233787
194	0x3f8310fd	1.023956
195	0x3f1e7a20	0.619051
196	0xbe88277c	-0.26592624
197	0xbf084ba2	-0.53240407
198	0xbf30674f	-0.68907636
199	0xbe546570	-0.2074182
200	0xbf04f5ed	-0.5193775
201	0x3f2ac81a	0.6671158
202	0x3f105d38	0.5639224
203	0x3f260b44	0.6486094
204	0xbf80ee58	-1.0072737
205	0xbf70030c	-0.9375465
206	0x3ee33a23	0.44380292
207	0x3ec9c514	0.3940817
208	0xbed521fb	-0.41627488
209	0xbf3c760a	-0.73617613
210	0xbd00673e	-0.03134846
211	0xbe4b48d1	-0.19851996
212	0x3f6b1502	0.9182893
213	0xbf8022a0	-1.0010567
214	0x3ef01fe6	0.46899337
215	0xbcac2148	-0.021011963
216	0x3ef79272	0.48353916
217	0xbf6691f6	-0.9006647
218	0xbe7128ed	-0.23550768
219	0x3eae59e8	0.34052968
220	0x3f5c37b2	0.86022484
221	0x3f005062	0.50122654
222	0xbf5f0586	-0.87117803
223	0xbf294377	-0.6611857
224	0xc009163d	-2.1419823
225	0xbd3fbf5f	-0.046813365
226	0xbeedd0ec	-0.46448457
227	0x3f843773	1.0329422
228	0xbfb48196	-1.4102046
229	0x3f7182e2	0.94340336
230	0xbf51c7dd	-0.8194559
231	0xbf4f6f3b	-0.810291
232	0xc00923a0	-2.1427994
233	0xbfa21678	-1.2663107
234	0xbead8a8b	-0.33894762
235	0xbff2c20d	-1.896547
236	0xc02fdfc7	-2.7480333
237	0x3f46df0b	0.77684087
238	0x3ca8e664	0.020617671
239	0xbe93ac94	-0.28842604
240	0x3f2d2e12	0.6764842
241	0xbfd71f88	-1.6806498
242	0xbfb6362c	-1.4235282
243	0xbeb61ac1	-0.35567287
244	0xbff934f4	-1.9469285
245	0xbc7e83f5	-0.015534391
246	0xbe561dff	-0.2090988
247	0xbf93a17c	-1.1533656
248	0x3f126ea6	0.57200086
249	0xbf6b2551	-0.91853815
250	0x3bcd99e6	0.0062744496
251	0xbe87df2e	-0.2653746
252	0xbf71929b	-0.9436433
253	0x3e3d63d9	0.1849512
254	0xbf287599	-0.6580444
255	0xbf0c037d	-0.5469282

network_body._body_endoder.seq_layers.2.bias f4 [64]
0	0xbfa92d6e	-1.3216989
1	0xbfdff3d7	-1.7496289
2	0xbec1adb1	-0.3782783
3	0xbf7a7946	-0.978413
4	0xbe586565	-0.21132429
5	0xbfab34f8	-1.337554
6	0xbfd42a75	-1.6575457
7	0xc0097879	-2.147978
8	0xbf55f8a3	-0.83582515
9	0xbf7c7f23	-0.98631495
10	0xbe282174	-0.16419011
11	0xbfabe20c	-1.3428359
12	0xbfa75060	-1.3071404
13	0xbfc92a16	-1.5715969
14	0x3f09e7ac	0.5386913
15	0xbf8f9f31	-1.1220456
16	0xbfe7fa72	-1.8123305
17	0xbeb6900c	-0.35656774
18	0xc015630b	-2.33417
19	0x3ebc0d53	0.36728916
20	0xbfc6ee86	-1.5541542
21	0xbfaed916	-1.3659999
22	0xbf56cded	-0.8390797
23	0x3e2cc1bc	0.16870779
24	0xbef11477	-0.47085926
25	0xbf71b632	-0.94418633
26	0xbf9bf715	-1.2184778
27	0xbeb139fe	-0.34614557
28	0xbe4af398	-0.19819486
29	0xbf6f2662	-0.9341794
30	0xbf9ca15f	-1.2236747
31	0xbebd4f6f	-0.36974666
32	0xbea1a2c5	-0.31569496
33	0xbfadfe10	-1.3593159
34	0xc0076230	-2.115368
35	0xbf963e6c	-1.17378
36	0xbf5943a0	-0.8486881
37	0xbf562aa2	-0.836588
38	0xbfdad7a5	-1.709706
39	0xbfa68518	-1.3009367
40	0xbe866785	-0.26250854
41	0xbfe56997	-1.7922848
42	0xbf33583a	-0.700565
43	0xbe140af9	-0.1445731
44	0xbfb5c70a	-1.4201367
45	0xbebc1d2e	-0.36741012
46	0xc00fad22	-2.2449422
47	0xbf7cb0d4	-0.9870732
48	0xc010eedc	-2.2645788
49	0xbe968931	-0.29401544
50	0xbfa6bb18	-1.3025846
51	0xbf11cffb	-0.5695798
52	0xbf5be5f8	-0.8589778
53	0xbf91d816	-1.1394069
54	0xbf55618c	-0.8335197
55	0xbfa5301e	-1.2905309
56	0xbf79bcf3	-0.9755394
57	0xbf9fe53a	-1.2491829
58	0xbf12e9a8	-0.5738778
59	0xc00f8c9e	-2.2429576
60	0xbfa2159b	-1.2662843
61	0xbf694321	-0.91118056
62	0x3e39bd94	0.18138725
63	0xbf4f35e2	-0.80941594

action_model._discrete_distribution.branches.0.weight f4 [2, 64]
0	0xbdc99213	-0.098423146
1	0x3f1e41aa	0.61818945
2	0xbc3c8b6e	-0.011507852
3	0xbe5785d7	-0.2104715
4	0x3d993f6c	0.074828
5	0x3e681e83	0.2266789
6	0xbe78aefd	-0.24285503
7	0x3e86d7cb	0.26336512
8	0xbe16bea2	-0.14721158
9	0xbe49cc42	-0.19706824
10	0xbe8b843f	-0.27249333
11	0x3e8819bd	0.26582137
12	0xbe63f31b	-0.22260706
13	0x3cfcc1e2	0.03085417
14	0x3d0a9027	0.03382888
15	0x3e02fc9b	0.12791674
16	0xbdea772b	-0.11448511
17	0xbe2f80e4	-0.17139012
18	0x3ec8b288	0.3919871
19	0xbe0e9c8f	-0.1392691
20	0xbfad193b	-1.3523325
21	0xbecb7df4	-0.39744532
22	0xbe5b95a1	-0.21443798
23	0x3d9ed059	0.07754583
24	0x3db5cd18	0.08877009
25	0xbddb38e3	-0.1070421
26	0xbda7460a	-0.08167656
27	0x3f63f5f8	0.89047194
28	0xbe7daa40	-0.24771976
29	0x3dc8a30f	0.09796726
30	0xbe43dfac	-0.19128293
31	0xbe142f73	-0.14471225
32	0x3d528d33	0.05140419
33	0x3e867143	0.26258287
34	0x3e11961b	0.14217417
35	0x3fdfd867	1.7487916
36	0x3e6992c9	0.228099
37	0x3d24e1de	0.040254466
38	0xbdfa21c6	-0.12213473
39	0xbe8c2b0a	-0.27376586
40	0x3dcf5452	0.10123505
41	0x3d307b93	0.0430866
42	0xbdb063aa	-0.086127594
43	0xbe79306d	-0.24334879
44	0x3f3c41b5	0.7353776
45	0x3e03d6b9	0.12874879
46	0x3f795eda	0.97410357
47	0x3f1a0d7b	0.6017682
48	0xbf11475a	-0.567495
49	0xbdd9fc66	-0.10643844
50	0x3f30e271	0.6909552
51	0xbbb28216	-0.0054476364
52	0xbe002d67	-0.1251732
53	0xbcc80c6c	-0.024419986
54	0x3d92c674	0.07166758
55	0xbd54af97	-0.051925268
56	0x3dca3517	0.09873407
57	0xbf1d963b	-0.6155736
58	0xbf3411eb	-0.7033984
59	0xbfddce57	-1.7328595
60	0xbec6b17c	-0.38807285
61	0xbe8be16f	-0.2732043
62	0xbdf71aca	-0.120656565
63	0xbe8de0da	-0.2771061
64	0x3daf06e7	0.085462384
65	0xbf1cb8e6	-0.6121963
66	0x3d1483e1	0.036258582
67	0x3e5da6cc	0.21645659
68	0xbd89be9f	-0.06725811
69	0xbe716f2e	-0.23577568
70	0x3e7c27e2	0.24624589
71	0xbe822c5d	-0.25424471
72	0x3e1fe1c1	0.15613462
73	0x3e4642b6	0.19361386
74	0x3e7f8ae8	0.24955332
75	0xbe8907ee	-0.26763862
76	0x3e67c0ff	0.22632216
77	0xbb7c4aff	-0.003849685
78	0xbbf232ce	-0.0073913103
79	0xbe0acdc6	-0.13555059
80	0x3dfcae23	0.123379014
81	0x3e41d3b6	0.18928418
82	0xbeced36f	-0.40395686
83	0x3e03df34	0.12878114
84	0x3fac6d58	1.3470869
85	0x3ec6d166	0.38831633
86	0x3e4dbdc1	0.20091917
87	0xbdb0d649	-0.08634622
88	0xbe008e8d	-0.12554379
89	0x3defc5a8	0.11707622
90	0x3d7192b7	0.05897781
91	0xbf6609ee	-0.898589
92	0x3e8768d6	0.2644717
93	0xbdaf6aae	-0.085652694
94	0x3e1d3b1f	0.15354584
95	0x3e19d0d1	0.15021063
96	0xbd5cd3b5	-0.053912837
97	0xbe831e28	-0.25608945
98	0xbdea3e4d	-0.11437664
99	0xbfe09c42	-1.7547686
100	0xbe82e607	-0.25566122
101	0xbd531cd8	-0.05154118
102	0x3e14367f	0.14473914
103	0x3e971a04	0.29512036
104	0xbdb2e16b	-0.08734401
105	0xbd45b898	-0.048271745
106	0x3dd4caf3	0.10390272
107	0x3e734568	0.23756945
108	0xbf3d5593	-0.739587
109	0xbe06a707	-0.13149653
110	0xbf74a6af	-0.9556684
111	0xbf1b9f25	-0.6078971
112	0x3f0d65c9	0.55233437
113	0x3dd6af1f	0.104826204
114	0xbf2a51ed	-0.6653126
115	0xbcdaac4b	-0.026693484
116	0x3e1487df	0.14504956
117	0x3c1af881	0.009458662
118	0xbda02eaf	-0.07821404
119	0x3d1a9251	0.037737194
120	0xbdb4d950	-0.088305116
121	0x3f1fe8cd	0.624646
122	0x3f2eb82a	0.6824976
123	0x3fe080a8	1.7539263
124	0x3ec7a5b7	0.38993618
125	0x3e52d428	0.20588744
126	0x3da49f0c	0.08038148
127	0x3e917edc	0.284171

action_model._discrete_distribution.branches.0.bias f4 [2]
0	0x3fbaae43	1.458443
1	0xbfbaae38	-1.4584417

action_model._discrete_distribution.branches.1.weight f4 [2, 64]
0	0xbdf847a3	-0.121230386
1	0xc0528f0b	-3.2899806
2	0x3dde7647	0.10862403
3	0x3cfbcc67	0.030737115
4	0xbe1e5c2d	-0.1546485
5	0xbd09a87c	-0.033607945
6	0x3cce2d37	0.025168044
7	0xbf5f88f5	-0.87318355
8	0xbe1d982c	-0.1539008
9	0x3f24b83b	0.64343613
10	0xbd03e417	-0.032199945
11	0xbff84c9d	-1.939838
12	0x3d459eca	0.048247136
13	0x3d291da3	0.04128803
14	0xbd2e1386	-0.042499088
15	0xbf13178f	-0.5745782
16	0xbfb125c2	-1.3839648
17	0x3d754657	0.059881534
18	0xbf946c42	-1.1595538
19	0x3da94a07	0.08266073
20	0x3e75e9bc	0.24014944
21	0xbfd5807f	-1.6679839
22	0x3d44825a	0.047975875
23	0x3e39abec	0.18131989
24	0xbeb0fdf9	-0.34568766
25	0x3c064cff	0.008197068
26	0xbe292851	-0.16519286
27	0xbe8729a7	-0.26398966
28	0x3df3050a	0.118661955
29	0x3e7c8696	0.24660715
30	0x3e07d3d3	0.13264398
31	0xbd9cd75d	-0.07658265
32	0x3db24393	0.08704295
33	0x3eb8b762	0.3607741
34	0x3d80be08	0.062862456
35	0xbf16ed94	-0.58956265
36	0x3e142d23	0.14470343
37	0x3e9ddb74	0.30831492
38	0x3da9d8e1	0.082933195
39	0xbe34bd11	-0.17650248
40	0xbf2b5071	-0.6691962
41	0x3ea4a157	0.32154343
42	0xbe418105	-0.18896873
43	0x3d957859	0.07298345
44	0xbfbaf319	-1.4605438
45	0x3e2e90d0	0.17047429
46	0xbfceca52	-1.6155493
47	0xbff285ba	-1.894706
48	0xbe6cedcf	-0.23137592
49	0xbe80b1c8	-0.25135636
50	0xbdb2f5e1	-0.08738304
51	0x3e267a7d	0.16257663
52	0x3f372f90	0.7155695
53	0x3e560401	0.20899965
54	0xbdd8fcd2	-0.10595097
55	0xbe15a231	-0.14612652
56	0xbf12f4fb	-0.5740506
57	0x3e8a3d00	0.26999664
58	0xbe9b80f2	-0.30371815
59	0x3f4726b6	0.77793443
60	0xc024e49e	-2.5764537
61	0x3e3ae945	0.18253048
62	0xbdcfc5c8	-0.10145146
63	0x3c7217ac	0.014776152
64	0x3de338a2	0.11094786
65	0x40532f52	3.2997632
66	0xbdededa0	-0.11617589
67	0xbcbebd6f	-0.023283688
68	0x3e197327	0.14985333
69	0x3cdf655d	0.027270013
70	0xbca03543	-0.019556647
71	0x3f64c11d	0.8935717
72	0x3e30fb55	0.17283376
73	0xbf26ac1f	-0.65106386
74	0x3d0525ee	0.032506876
75	0x3ff8ec04	1.9447026
76	0xbd9fae31	-0.07796896
77	0xbdc44510	-0.09583485
78	0x3cafd273	0.021462655
79	0x3f142b35	0.5787843
80	0x3fb502c1	1.4141465
81	0xbd5778cf	-0.052605446
82	0x3f98229f	1.1885566
83	0xbd7b6965	-0.06137981
84	0xbe8037e0	-0.2504263
85	0x3fd5aaaf	1.6692713
86	0xbd7ae772	-0.06125588
87	0xbe356c38	-0.17717063
88	0x3eb40dc3	0.3516675
89	0xbc373a9d	-0.011183408
90	0x3e33b016	0.1754764
91	0x3e8de472	0.27713352
92	0xbdf72599	-0.12067718
93	0xbe6f3bc4	-0.23362643
94	0xbdfeb34f	-0.12436544
95	0x3d72378f	0.059135016
96	0xbd997fbf	-0.07495069
97	0xbebb666c	-0.3660158
98	0xbd8a4ee1	-0.06753326
99	0x3f13342a	0.5750147
100	0xbde0e2cd	-0.10980759
101	0xbea3e2e5	-0.32009044
102	0xbda2b953	-0.07945504
103	0x3e196e56	0.14983496
104	0x3f2276a6	0.63462293
105	0xbe9d0020	-0.30664158
106	0x3e460641	0.19338323
107	0xbcbebbed	-0.02328297
108	0x3fbd2094	1.4775567
109	0xbe1a1ce2	-0.1505008
110	0x3fcda322	1.6065409
111	0x3ff136b8	1.8844824
112	0x3e776040	0.2415781
113	0x3e7d5958	0.24741113
114	0x3dc73c8e	0.09728347
115	0xbe0f4555	-0.13991292
116	0xbf396842	-0.7242471
117	0xbe4f20c5	-0.20227344
118	0x3db7f286	0.089818045
119	0x3e0dd16c	0.1384942
120	0x3f16f02c	0.58960223
121	0xbe9289b7	-0.28620693
122	0x3ea3403a	0.31884938
123	0xbf474a81	-0.7784806
124	0x40262ed5	2.5966084
125	0xbe4eca16	-0.20194277
126	0x3dd873ed	0.10568986
127	0xbbbd0052	-0.0057678604

action_model._discrete_distribution.branches.1.bias f4 [2]
0	0xbf94dcec	-1.162992
1	0x3f94dcf4	1.162993

action_model._discrete_distribution.branches.2.weight f4 [2, 64]
0	0x3eb9d84b	0.3629783
1	0x3f3907bd	0.7227743
2	0xbe23a0dc	-0.15979332
3	0x3d822a74	0.063557535
4	0x3db82d8a	0.08993061
5	0xbd99360b	-0.07481011
6	0xbe074b3d	-0.13212295
7	0xbe69e48e	-0.22841093
8	0x3e54e1ff	0.20789336
9	0xbdde1459	-0.10843725
10	0x3c9fb6e4	0.019496389
11	0x3dff371b	0.124616824
12	0xbd2d12a7	-0.042254116
13	0xbed7a087	-0.4211466
14	0x3e2d3a9f	0.16916893
15	0xbe37e976	-0.17960152
16	0xc01ca612	-2.4476361
17	0x3f30ce28	0.6906457
18	0x3f8b4a0b	1.0881971
19	0x3dff1b78	0.12456411
20	0x3fb71150	1.4302158
21	0x3d1313bc	0.035907492
22	0x3eba6c3d	0.36410704
23	0x3e10aaa3	0.14127593
24	0xbdb8c307	-0.090215735
25	0x3f4b2962	0.7936002
26	0xbecbe2f9	-0.39821604
27	0xbc2b31fd	-0.01044893
28	0x3dbbd0fd	0.09170721
29	0xbe3e5c4c	-0.18589896
30	0x3f8c2e37	1.0951604
31	0x3d9ea5a3	0.077464364
32	0x3e4154ea	0.18880048
33	0x3d5a478f	0.0532909
34	0xbda8e593	-0.08246913
35	0x3f28d05a	0.6594292
36	0xbc5cc8fa	-0.013475651
37	0xbd02ac89	-0.031902824
38	0xbe4c8fbe	-0.19976708
39	0xbef739d1	-0.48286298
40	0xbea3cabb	-0.3199061
41	0xbf00ac17	-0.5026259
42	0x3e834d2c	0.25644815
43	0x3da9318e	0.08261405
44	0x3f62b0a3	0.88550776
45	0x3d4d226d	0.05008166
46	0x3e35bb8c	0.17747325
47	0xbea16c61	-0.31528
48	0xbe8ecd24	-0.27890885
49	0x3dd95dfe	0.10613631
50	0x3e626486	0.22108659
51	0xbd9c734b	-0.07639178
52	0xbd28a0f8	-0.041169137
53	0xbe93c47d	-0.28860846
54	0x3e26538f	0.16242813
55	0xbe20313d	-0.15643783
56	0x3f1bdec8	0.6088681
57	0x3f25ddc1	0.64791495
58	0x3e4b7a7d	0.19870944
59	0x3cee260a	0.029070873
60	0xc039610e	-2.8965487
61	0xbe200e29	-0.15630402
62	0x3e0ac975	0.13553412
63	0x3d92c02e	0.071655616
64	0xbeb0785d	-0.3446683
65	0xbf377d48	-0.7167554
66	0x3e1cc2e5	0.15308721
67	0xbd83b332	-0.06430663
68	0xbdb81eaf	-0.089902274
69	0x3d9f8f99	0.07791061
70	0x3e0176e5	0.12643011
71	0x3e7fd365	0.24982984
72	0xbe8366c4	-0.2566434
73	0x3dee966d	0.11649785
74	0xbc8162b1	-0.01579413
75	0xbddb74f5	-0.10715667
76	0x3bab2b88	0.005223695
77	0x3ee387ee	0.44439644
78	0xbe40d7eb	-0.18832366
79	0x3e41404a	0.1887218
80	0x401e0bb8	2.4694653
81	0xbf35cb00	-0.7101288
82	0xbf8b825c	-1.0899158
83	0xbdd5b55a	-0.10434981
84	0xbfb9f9cb	-1.4529356
85	0xbc91952d	-0.017771328
86	0xbec47517	-0.38370582
87	0xbe0bda01	-0.1365738
88	0x3dd559c5	0.10417513
89	0xbf4dd964	-0.80409837
90	0x3ec7e985	0.3904535
91	0x3cbe7dd7	0.023253364
92	0xbdebe725	-0.11518697
93	0x3e399759	0.18124141
94	0xbf8c0a64	-1.0940671
95	0xbda63b15	-0.08116738
96	0xbe48878e	-0.1958296
97	0xbcf85e73	-0.030318474
98	0x3de4d0f6	0.11172669
99	0xbf2afda5	-0.6679328
100	0x3c76e08e	0.015068186
101	0x3d13ed37	0.036114898
102	0x3e514eb4	0.20440179
103	0x3f01c19d	0.50686055
104	0x3eb21c1a	0.34787065
105	0x3f04f51b	0.519365
106	0xbe76f303	-0.24116139
107	0xbda64809	-0.08119208
108	0xbf6ebbf7	-0.9325556
109	0xbcbede58	-0.023299381
110	0xbe35064f	-0.17678188
111	0x3e9146aa	0.28374225
112	0x3e877771	0.26458314
113	0xbde2ff00	-0.11083794
114	0xbe5ecaca	-0.21757045
115	0x3dd32891	0.10310472
116	0x3d5941b1	0.053041164
117	0x3e954377	0.29153034
118	0xbe3366f5	-0.17519744
119	0x3e21168d	0.15731259
120	0xbf14a3d1	-0.58062464
121	0xbf2bc248	-0.67093325
122	0xbe367532	-0.17818144
123	0xbcdb342d	-0.026758278
124	0x403a244d	2.9084656
125	0x3e36950e	0.17830297
126	0xbdf2f489	-0.11863048
127	0xbd98d04f	-0.07461607

action_model._discrete_distribution.branches.2.bias f4 [2]
0	0xbfa4f65f	-1.2887686
1	0x3fa4f666	1.2887695

exp_avg f4 [64, 63]
0	0xb894747a	-7.0788854e-05
1	0xb8be0e2e	-9.062547e-05
2	0x38e32136	0.000108303895
3	0x38b3740c	8.5570005e-05
4	0xb8872307	-6.443826e-05
5	0xb756e4a4	-1.28086285e-05
6	0x388b11e2	6.6313674e-05
7	0x385ff0c1	5.3391563e-05
8	0xb81faf91	-3.8072063e-05
9	0xb759e91b	-1.2988482e-05
10	0x382b1d51	4.079688e-05
11	0x380926dc	3.2699536e-05
12	0x370af13e	8.28161e-06
13	0x3855553c	5.0862538e-05
14	0xb82939a8	-4.0346436e-05
15	0xb8071d71	-3.2213928e-05
16	0x37d3e4c2	2.5259684e-05
17	0xb6095681	-2.0464943e-06
18	0xb7e0bc2a	-2.6790502e-05
19	0xb7f439da	-2.9114006e-05
20	0x38866751	6.408862e-05
21	0x3856cfa0	5.121494e-05
22	0xb8d474e9	-0.00010130724
23	0xb8a61b38	-7.920567e-05
24	0x3739d379	1.1076097e-05
25	0xb5b76d84	-1.3666436e-06
26	0xb75e3472	-1.3244442e-05
27	0xb77516d5	-1.4608454e-05
28	0xba53383f	-0.00080573926
29	0x3ac03471	0.0014664066
30	0x394088a6	0.00018361452
31	0x391a8fb8	0.00014740124
32	0xb9a58406	-0.00031569618
33	0x3a6e757c	0.0009096486
34	0xb925045c	-0.0001573725
35	0xb9aeea2d	-0.0003336234
36	0xba24fd9b	-0.00062938937
37	0x3a9a6372	0.0011778905
38	0xb89caec3	-7.4712116e-05
39	0xb730cb9e	-1.0537826e-05
40	0xb9694727	-0.00022247118
41	0x3992e51b	0.00028017987
42	0xb818aaf1	-3.6398826e-05
43	0xb91edeee	-0.00015151102
44	0xb9c8a753	-0.0003827164
45	0x3a703b68	0.00091641257
46	0xb8b51181	-8.634013e-05
47	0xb95656b0	-0.00020440924
48	0xb9a825a2	-0.00032071496
49	0x39ca2911	0.0003855904
50	0xb8fcd773	-0.00012056427
51	0xb7fdd612	-3.0259635e-05
52	0xba6aa147	-0.0008950424
53	0x3a60d8fc	0.0008577255
54	0x39d99534	0.0004150063
55	0x39c39f01	0.00037311765
56	0xb8db4c03	-0.00010456892
57	0x39d96347	0.00041463433
58	0xb9061d72	-0.00012790205
59	0x3a7b79ac	0.00095930207
60	0x39c6d71d	0.00037925775
61	0xba02132e	-0.00049619644
62	0xb9f6710e	-0.0004700501
63	0x39d3589a	0.0004031107
64	0x382931d2	4.033914e-05
65	0xb9d54ab6	-0.0004068219
66	0xb9d1336d	-0.00039901902
67	0x39c15e2d	0.00036881995
68	0x38260bb2	3.9588376e-05
69	0xb9c33cd4	-0.0003723862
70	0xb9b848ab	-0.00035149357
71	0x39aa0407	0.00032427927
72	0x3802adb6	3.1156196e-05
73	0xb9ab75af	-0.00032703343
74	0xb9ad8c85	-0.00033101827
75	0x3904d055	0.0001266611
76	0x382859f4	4.0138097e-05
77	0xb90c2d9a	-0.00013368428
78	0xb92420f8	-0.0001565254
79	0x398b2d75	0.00026546014
80	0x37a8c211	2.011753e-05
81	0xb98bb918	-0.00026650052
82	0xb98a9628	-0.00026433286
83	0x391adcff	0.00014768912
84	0x38237054	3.8966842e-05
85	0xb9211242	-0.00015360958
86	0xb91f85fe	-0.00015213338
87	0x3939c6c3	0.0001771702
88	0x37970655	1.8003551e-05
89	0xb93aed62	-0.00017826774
90	0xb93be048	-0.00017917261
91	0x39b8d3c6	0.00035252998
92	0x379d48f4	1.874983e-05
93	0xb9b74195	-0.00034953342
94	0xb9af0540	-0.00033382513
95	0xb9f9b517	-0.00047627903
96	0x391b8a79	0.00014833537
97	0x39e026e7	0.00042753594
98	0x3a38d30f	0.0007050493
99	0xb9f1dfb2	-0.00046133768
100	0x38b17bd3	8.463082e-05
101	0x39e6826c	0.0004396619
102	0x39c5c08e	0.00037718232
103	0xb8c83612	-9.5468145e-05
104	0x381d7655	3.7541922e-05
105	0x38e1ff1b	0.00010776353
106	0x39e9d743	0.00044601606
107	0xb9cce4a3	-0.0003908026
108	0xb6607a5e	-3.3449828e-06
109	0x39cd9a81	0.0003921576
110	0x39c91db2	0.00038359832
111	0xb9ec9df4	-0.00045131112
112	0x39a80728	0.0003204879
113	0x3986cdc9	0.00025711794
114	0x3a18445e	0.00058085273
115	0xb9c89921	-0.00038261063
116	0x387a344a	5.9653343e-05
117	0x3a136178	0.0005622129
118	0x39e6990b	0.00043983044
119	0xba2f4fe4	-0.0006687625
120	0x3a35d009	0.00069356017
121	0xba1639e1	-0.00057306705
122	0xb907aa4a	-0.00012938041
123	0x382d9744	4.138729e-05
124	0x39c59da4	0.0003769222
125	0xb88f9dac	-6.84814e-05
126	0x39c18394	0.00036909862
127	0x38783331	5.9175483e-05
128	0xb9c5b63f	-0.00037710552
129	0xb9cf0bd0	-0.00039490918
130	0x399b9573	0.00029675252
131	0x3873c12f	5.811563e-05
132	0xb9a003f4	-0.00030520523
133	0xb9ac0b20	-0.00032814685
134	0x39c41d69	0.00037405945
135	0x3849b7f8	4.809347e-05
136	0xb9c7316b	-0.00037993057
137	0xb9cf0436	-0.00039485254
138	0x39a20f9c	0.00030910678
139	0x38696972	5.5649733e-05
140	0xb9a500c2	-0.00031471817
141	0xb9acda45	-0.0003296902
142	0x39e40dbe	0.00043497788
143	0x37f79efe	2.9518731e-05
144	0xb9e4b719	-0.00043623967
145	0xb9e92d39	-0.00044474917
146	0x39693d21	0.00022243384
147	0x38621277	5.3899796e-05
148	0xb96fc4a0	-0.00022866065
149	0xb97595b2	-0.00023420787
150	0x39c7ef77	0.00038134653
151	0x37dd96cc	2.6415473e-05
152	0xb9c8485f	-0.00038200893
153	0xb9c8bfad	-0.00038289782
154	0x39bff330	0.00036611548
155	0x39b148fc	0.00033814448
156	0xba00f69b	-0.00049195596
157	0xba0c597e	-0.00053539115
158	0xb9819279	-0.00024713928
159	0xb9c1a5a6	-0.00036935246
160	0x39f36cce	0.00046429638
161	0x39e5b69a	0.00043814332
162	0xb8bf90bc	-9.1345486e-05
163	0x3987bbdb	0.0002588917
164	0x398d3ac0	0.00026937388
165	0x38cc7be6	9.750556e-05
166	0x394f8426	0.00019790287
167	0xb9af5ffa	-0.0003345011
168	0x39275a3e	0.00015959979
169	0x39929788	0.0002796019
170	0xb9fdf746	-0.00048440153
171	0x382841fa	4.0115767e-05
172	0x3a057943	0.0005091617
173	0x395a652f	0.00020827794
174	0x3936a509	0.00017418353
175	0xb9489879	-0.00019130287
176	0x3856b51e	5.1190254e-05
177	0x3a0eb61e	0.00054440077
178	0x3967d943	0.00022110813
179	0x3737336e	1.0919624e-05
180	0xb8f32ded	-0.00011595697
181	0xb8b6c5ce	-8.71528e-05
182	0xb87e9a9d	-6.0702314e-05
183	0x3956b0d5	0.00020474505
184	0xba58f61f	-0.0008276421
185	0xba7480c8	-0.0009327051
186	0xb993ea77	-0.00028212715
187	0x3a8e3cf5	0.0010851907
188	0xba0f0479	-0.00054556836
189	0xb94ec0a8	-0.00019717461
190	0xb8165237	-3.5839355e-05
191	0x3953e994	0.00020209543
192	0x39586ec4	0.00020640629
193	0xb9252754	-0.00015750277
194	0xb817743a	-3.610945e-05
195	0x392b0800	0.00016310811
196	0x3927609f	0.00015962355
197	0xb985ac64	-0.00025496178
198	0xb7ec8990	-2.819745e-05
199	0x398716ed	0.00025766288
200	0x3981f2b2	0.0002478562
201	0xb916e17d	-0.00014389116
202	0xb81e9ad9	-3.781435e-05
203	0x391d9aad	0.00015030308
204	0x3918f4a6	0.00014586988
205	0xb95cb710	-0.00021049031
206	0xb77e5ada	-1.5160733e-05
207	0x395c0684	0.00020983262
208	0x39562c33	0.00020425096
209	0xb8cef069	-9.867625e-05
210	0xb81a258d	-3.6751433e-05
211	0x38dee58d	0.00010628542
212	0x38d03d6d	9.929654e-05
213	0xb93269a6	-0.0001701476
214	0xb75e0e45	-1.32355535e-05
215	0x39311ae8	0.00016890059
216	0x39267da0	0.00015877793
217	0xb9adae4a	-0.00033126987
218	0x3aee2bf8	0.0018171063
219	0xb9d24f9d	-0.00040113638
220	0xba9f0d07	-0.001213462
221	0xb9fe12be	-0.0004846062
222	0x3aa4eda6	0.0012583032
223	0xb92ea48e	-0.00016655235
224	0xb9556654	-0.00020351383
225	0xb9fa59ce	-0.00047750626
226	0x3acb8cf6	0.001552968
227	0xb9c18d18	-0.00036916952
228	0xb9fed046	-0.0004860183
229	0xba3b5c99	-0.0007147282
230	0x3a7127fc	0.00091993785
231	0xb919a625	-0.0001465311
232	0x38d60164	0.00010204574
233	0xba54fb84	-0.0008124637
234	0x3b06fd78	0.0020597856
235	0xba0c977d	-0.00053631497
236	0xb8e3f63a	-0.00010870067
237	0xba31494f	-0.0006762938
238	0x3a30ae1c	0.00067398115
239	0xb66d0749	-3.5319993e-06
240	0x38d4a549	0.000101397345
241	0xba866fd9	-0.0010256722
242	0x3b068ef1	0.0020531977
243	0xb9ab3d14	-0.00032661168
244	0x3a23fd09	0.0006255662
245	0xba6894dd	-0.000887228
246	0x38b89d75	8.8031324e-05
247	0xb9fc2792	-0.00048094668
248	0x39f94c88	0.0004755
249	0x3a017692	0.0004938628
250	0x39c4a1df	0.00037504637
251	0x394752f5	0.00019009023
252	0x3a190859	0.0005837731
253	0xb765df11	-1.37014e-05
254	0xba1087b7	-0.0005513387
255	0xba12f3ff	-0.0005605816

exp_avg_sq f4 [64, 63]
0	0x358f2846	1.0666051e-06
1	0x334e3c7a	4.8018116e-08
2	0x35927151	1.0910827e-06
3	0x358f12e2	1.0659826e-06
4	0x35acb676	1.2868102e-06
5	0x32e187da	2.6255226e-08
6	0x35ae1045	1.2968745e-06
7	0x359e710b	1.1804817e-06
8	0x358a2525	1.0292612e-06
9	0x341153d5	1.3534675e-07
10	0x358e73bb	1.0613506e-06
11	0x358b004f	1.0356397e-06
12	0x35854f63	9.932377e-07
13	0x33813763	6.0171054e-08
14	0x3585c596	9.966777e-07
15	0x3580b35e	9.588946e-07
16	0x352fd50c	6.5502604e-07
17	0x3410dbe2	1.3491038e-07
18	0x35389593	6.8763e-07
19	0x353b4091	6.9756885e-07
20	0x3599eb7e	1.1467926e-06
21	0x33082e60	3.1707145e-08
22	0x35938285	1.099034e-06
23	0x358da7b1	1.0554123e-06
24	0x3500abe9	4.793388e-07
25	0x33c81c2f	9.318352e-08
26	0x350a56d6	5.153537e-07
27	0x350dca4f	5.282099e-07
28	0x36bf7226	5.705532e-06
29	0x36a0966c	4.785883e-06
30	0x36a77630	4.9907467e-06
31	0x37464d96	1.1819784e-05
32	0x366c7ee0	3.5240591e-06
33	0x374b09cc	1.2102024e-05
34	0x361f6d6a	2.3756534e-06
35	0x363ab99a	2.7824194e-06
36	0x366486ea	3.4053178e-06
37	0x379837ca	1.814579e-05
38	0x359e3886	1.1788368e-06
39	0x362fc18e	2.6189696e-06
40	0x36c0978b	5.739688e-06
41	0x37088afd	8.138592e-06
42	0x3589f8c9	1.0279701e-06
43	0x36079dac	2.0208345e-06
44	0x36b380ce	5.3496105e-06
45	0x371a4df5	9.197266e-06
46	0x369c50bb	4.6585606e-06
47	0x36be0e61	5.664115e-06
48	0x36accdc5	5.149954e-06
49	0x36aed81d	5.210763e-06
50	0x33c5defd	9.214089e-08
51	0x3622fafb	2.428597e-06
52	0x36adc4cb	5.1787115e-06
53	0x36e3bd13	6.7871383e-06
54	0x369a24c4	4.5938377e-06
55	0x36ff8f75	7.616293e-06
56	0x36a3a4ab	4.8769484e-06
57	0x366da771	3.5413216e-06
58	0x3674418b	3.6396984e-06
59	0x36e585e8	6.8403206e-06
60	0x3667ef74	3.4561062e-06
61	0x36a257c3	4.838193e-06
62	0x3692c7ce	4.3743994e-06
63	0x35e11c2f	1.6772009e-06
64	0x3368dd5d	5.4218038e-08
65	0x35e6100e	1.7141008e-06
66	0x35d4da9d	1.5858856e-06
67	0x35d43065	1.5809316e-06
68	0x33640bba	5.3096052e-08
69	0x35d7f361	1.6089581e-06
70	0x35c66c4c	1.4783668e-06
71	0x35bf2d21	1.4243743e-06
72	0x32ae1142	2.0264114e-08
73	0x35c2c5b2	1.4511663e-06
74	0x35bdcc19	1.4140998e-06
75	0x35a4004c	1.2219039e-06
76	0x336848e7	5.4083014e-08
77	0x35a57698	1.2327973e-06
78	0x35948a65	1.1067137e-06
79	0x357968ae	9.291206e-07
80	0x3213a330	8.593631e-09
81	0x357b8383	9.369616e-07
82	0x3570f3e4	8.9761875e-07
83	0x350241c4	4.8524475e-07
84	0x33be7420	8.8686875e-08
85	0x35112ea0	5.408456e-07
86	0x350d906b	5.273675e-07
87	0x3511a54e	5.425726e-07
88	0x31e87ab1	6.766037e-09
89	0x35132523	5.481581e-07
90	0x35109034	5.3854023e-07
91	0x36ada844	5.1753905e-06
92	0x360c17f3	2.0875566e-06
93	0x36a24097	4.8354955e-06
94	0x36c02035	5.7257953e-06
95	0x36248451	2.4514923e-06
96	0x3687b6dc	4.044601e-06
97	0x35d9c007	1.6223647e-06
98	0x3687314e	4.0290533e-06
99	0x36ce4e51	6.1483956e-06
100	0x34259ac3	1.5423124e-07
101	0x370752bb	8.065889e-06
102	0x36e7f6d6	6.913072e-06
103	0x370eceee	8.512039e-06
104	0x37481639	1.1926103e-05
105	0x35d08096	1.5534631e-06
106	0x364db2f4	3.0651545e-06
107	0x372018b2	9.542493e-06
108	0x35f23ed6	1.8048693e-06
109	0x37645fdb	1.3612177e-05
110	0x374a3714	1.2052962e-05
111	0x371bb522	9.280893e-06
112	0x371d1d06	9.364687e-06
113	0x34d35bf2	3.9368712e-07
114	0x365730d2	3.2065914e-06
115	0x3700b1fd	7.670836e-06
116	0x33a4689f	7.6558756e-08
117	0x37459b88	1.17783275e-05
118	0x374a5878	1.20607365e-05
119	0x36e8083d	6.915098e-06
120	0x3676a4de	3.6752822e-06
121	0x367350c9	3.6256845e-06
122	0x36ea575f	6.983915e-06
123	0x36a087f9	4.784201e-06
124	0x36bdb488	5.6536555e-06
125	0x3710a1a7	8.6207065e-06
126	0x365e3751	3.3112776e-06
127	0x33444dc0	4.570552e-08
128	0x365d8f3d	3.3014942e-06
129	0x3680df0f	3.8406647e-06
130	0x3662ae47	3.3778067e-06
131	0x333e5686	4.4316515e-08
132	0x36608d1b	3.3460735e-06
133	0x36818d83	3.8609737e-06
134	0x365dbe61	3.3042381e-06
135	0x348f09eb	2.6643042e-07
136	0x365f4958	3.3272281e-06
137	0x3682b610	3.895497e-06
138	0x36899d89	4.1012577e-06
139	0x3348b894	4.6734e-08
140	0x36848c81	3.9502634e-06
141	0x3691fb57	4.3505966e-06
142	0x3682fcd8	3.903737e-06
143	0x34080139	1.2666432e-07
144	0x3682c5c4	3.897325e-06
145	0x36903a9a	4.2983565e-06
146	0x369a309b	4.595216e-06
147	0x3378bcba	5.7913645e-08
148	0x368fb96b	4.2833176e-06
149	0x3694d2a1	4.435264e-06
150	0x36b781c3	5.4689312e-06
151	0x33beb698	8.880778e-08
152	0x36b5e198	5.420483e-06
153	0x36bd665f	5.6445565e-06
154	0x37016b61	7.714e-06
155	0x364ed569	3.0820613e-06
156	0x36ee238e	7.097092e-06
157	0x373de823	1.1319326e-05
158	0x3682df3d	3.9002903e-06
159	0x372a4756	1.0149399e-05
160	0x3627c24a	2.499803e-06
161	0x36adc866	5.179131e-06
162	0x36b04a43	5.253854e-06
163	0x3756d658	1.28053e-05
164	0x3696c26c	4.492982e-06
165	0x36bb05f0	5.5737255e-06
166	0x36a5aae6	4.9372784e-06
167	0x36df3adf	6.6527714e-06
168	0x34eff094	4.4692263e-07
169	0x36781c3e	3.697132e-06
170	0x36b39ae5	5.352648e-06
171	0x36915c55	4.3320856e-06
172	0x36ceb498	6.1603023e-06
173	0x36cb860d	6.065477e-06
174	0x368222d3	3.878356e-06
175	0x36830bc5	3.9054744e-06
176	0x32313813	1.0315506e-08
177	0x368e6133	4.2432453e-06
178	0x3690f71b	4.3203013e-06
179	0x369f4016	4.74603e-06
180	0x367d32aa	3.7729428e-06
181	0x36f2243b	7.21638e-06
182	0x36f50906	7.3026195e-06
183	0x36cfa54e	6.1883247e-06
184	0x3705a6d2	7.966259e-06
185	0x3726176d	9.899825e-06
186	0x36d0125c	6.2010204e-06
187	0x36d9af15	6.487486e-06
188	0x36b07b83	5.2595874e-06
189	0x360de058	2.1141223e-06
190	0x35e36eec	1.69451e-06
191	0x361a43d6	2.2987274e-06
192	0x361b886f	2.3176215e-06
193	0x35f45982	1.8205467e-06
194	0x35d5b4a1	1.5922307e-06
195	0x36084255	2.030419e-06
196	0x36176597	2.2559886e-06
197	0x360cb5d9	2.0967475e-06
198	0x345a8a34	2.035311e-07
199	0x360d73cb	2.1078038e-06
200	0x360d521f	2.1058438e-06
201	0x36085aae	2.0318362e-06
202	0x35da0ff9	1.6246914e-06
203	0x361c223f	2.3265745e-06
204	0x3624a6e4	2.4535047e-06
205	0x3603842a	1.959745e-06
206	0x3422281c	1.5102017e-07
207	0x360489d7	1.9749766e-06
208	0x360d453a	2.1050932e-06
209	0x3623cf7f	2.4409671e-06
210	0x35da8740	1.6281629e-06
211	0x3642a649	2.9005043e-06
212	0x3651e65f	3.127752e-06
213	0x3628d18f	2.515593e-06
214	0x333f2842	4.4507267e-08
215	0x3626b575	2.484155e-06
216	0x362b2e07	2.5507777e-06
217	0x36d4d7dc	6.3432217e-06
218	0x370c0396	8.345485e-06
219	0x36c69b24	5.9189206e-06
220	0x370a0cb9	8.228403e-06
221	0x366fc2e5	3.5727219e-06
222	0x3738eca4	1.1022352e-05
223	0x3619a687	2.2895708e-06
224	0x3631bc12	2.6484527e-06
225	0x367a78dd	3.7323255e-06
226	0x373ae495	1.1139685e-05
227	0x3636e074	2.7250762e-06
228	0x3687a144	4.0420873e-06
229	0x368e4b96	4.240729e-06
230	0x36a58f09	4.9340347e-06
231	0x36336c78	2.6736216e-06
232	0x360ad9f7	2.0690475e-06
233	0x36b73774	5.4602806e-06
234	0x36c33d86	5.818615e-06
235	0x36ae5ddf	5.196532e-06
236	0x36c19bad	5.7699713e-06
237	0x3680199b	3.817678e-06
238	0x3681440d	3.8524217e-06
239	0x3202e4e2	7.619038e-09
240	0x36100ddb	2.1465737e-06
241	0x3651d9ae	3.1270133e-06
242	0x369b40d9	4.6269092e-06
243	0x35e160e4	1.6792005e-06
244	0x36c64b74	5.9096437e-06
245	0x36b56fa3	5.4072166e-06
246	0x37123472	8.714489e-06
247	0x36791a38	3.7119153e-06
248	0x36a0524e	4.777953e-06
249	0x3636959a	2.7207193e-06
250	0x369c07d1	4.6500722e-06
251	0x369036ff	4.297937e-06
252	0x3627f0d0	2.502511e-06
253	0x344dcc1f	1.9166372e-07
254	0x362d1190	2.5789232e-06
255	0x3622b2a8	2.4243873e-06

exp_avg f4 [64]
0	0x3918d5fc	0.00014575565
1	0xb9ec2d29	-0.00045047075
2	0xba2d59c6	-0.00066128036
3	0x39d76ba5	0.00041088197
4	0xba6197d7	-0.0008605695
5	0xba5f8cf0	-0.0008527776
6	0xbaafe80e	-0.0013420598
7	0xb9850939	-0.00025374608
8	0x39322657	0.00016989686
9	0x3a0eba07	0.00054445904
10	0xbaace202	-0.0013189914
11	0xbadee287	-0.0017004766
12	0xb9a93531	-0.00032273823
13	0xba14200b	-0.0005650527
14	0xb8ccbcfc	-9.762679e-05
15	0x390e42ea	0.00013567103
16	0x37e564b3	2.7345819e-05
17	0xba19d128	-0.00058676535
18	0xba0c9da1	-0.0005364065
19	0x388151ab	6.166411e-05
20	0x3a88d3c4	0.0010439088
21	0xba29aac8	-0.0006472287
22	0xba48d6a8	-0.0007661381
23	0x39f1222b	0.0004599256
24	0x3907f1bf	0.0001296466
25	0xba849924	-0.001011644
26	0x398d822c	0.000269906
27	0x3a43b4d3	0.00074656046
28	0x3a5ffe76	0.00085446925
29	0x3a15d35e	0.0005715395
30	0xba04080d	-0.00050366
31	0x3b2483bd	0.0025102936
32	0x39c844cf	0.0003819824
33	0xb8afcb8b	-8.382563e-05
34	0xb8d27c8e	-0.000100367804
35	0x3a0f30c7	0.00054622855
36	0x39186600	0.00014533848
37	0xba9180ec	-0.0011101044
38	0xba4f0e15	-0.0007898522
39	0x39c221dc	0.0003702779
40	0x39533f47	0.000201461
41	0x3a806da9	0.0009798306
42	0xb88db86f	-6.7577574e-05
43	0x39275bce	0.00015960561
44	0x3808e825	3.264113e-05
45	0xb9e8812b	-0.00044346726
46	0xb56c84cf	-8.8110113e-07
47	0xb983886c	-0.0002508791
48	0x3a0c5340	0.00053529814
49	0xba9717d5	-0.0011527488
50	0x379df564	1.8830127e-05
51	0xb8be1747	-9.064242e-05
52	0xbad434ad	-0.0016190015
53	0x3942f410	0.00018592202
54	0x39f329d1	0.00046379727
55	0xbaa2ca30	-0.0012419876
56	0x39627bec	0.00021599204
57	0x395364ce	0.00020160081
58	0x39ddacf5	0.00042281268
59	0x38a86df5	8.031345e-05
60	0xba150108	-0.00056840526
61	0xba92f307	-0.0011211344
62	0xb8d7ff69	-0.00010299573
63	0xba14a62c	-0.00056705135
