Assets/_created_block_bigger_gradual_reward_increased_length_continuous_dynamics_Added_checkpoint_ontriggerenter_Renaming_sensor_beta_0.003_increased_rewards_corrected_blocker/competitor/competitor-3432.pt (torch, 88514 bytes, 40 tensors)

discrete_act_size_vector f4 [1, 3]
000000 00 00 00 40 00 00 00 40 00 00 00 40
       2.0 2.0 2.0

network_body.observation_encoder.processors.0.normalizer.running_mean f4 [28]
000000 f2 45 e6 3d 00 00 00 00 27 24 63 3f 5d 45 67 3f
       0.1124381 0.0 0.8872704 0.90340215
000010 27 69 ce 3d 00 00 00 00 c4 1f 66 3f f4 cb 69 3f
       0.1007865 0.0 0.8989222 0.9132683
000020 89 57 da 3d 00 00 00 00 f8 a1 64 3f 45 7b 68 3f
       0.10661227 0.0 0.89309645 0.90813094
000030 0e 51 99 3d 00 00 00 00 c8 c2 6c 3f d7 fc 6e 3f
       0.07486163 0.0 0.9248471 0.93354553
000040 08 0e a4 3d 00 00 00 00 28 6b 6b 3f 35 12 6e 3f
       0.08010489 0.0 0.9196038 0.9299653
000050 e6 5a 35 3d 00 00 00 00 3f 97 74 3f 1d cb 75 3f
       0.04427614 0.0 0.95543283 0.9601305
000060 c7 bd 37 3d 00 00 00 00 0e 71 74 3f e7 c5 75 3f
       0.04485872 0.0 0.9548501 0.960051

network_body.observation_encoder.processors.0.normalizer.running_variance f4 [28]
000000 a7 cc ab 43 00 00 80 3f d5 2f ac 43 6c 6f 81 43
       343.59885 1.0 344.3737 258.87048
000010 60 10 9c 43 00 00 80 3f 8a 76 9c 43 4c 57 6c 43
       312.12793 1.0 312.9261 236.341
000020 6d fd a3 43 00 00 80 3f 17 62 a4 43 e6 39 78 43
       327.9799 1.0 328.76633 248.22617
000030 b6 c2 6e 43 00 00 80 3f 52 9c 6f 43 0f 3f 3e 43
       238.76059 1.0 239.61063 190.24632
000040 a1 f8 7d 43 00 00 80 3f 84 cf 7e 43 29 f4 44 43
       253.9712 1.0 254.81061 196.95375
000050 22 45 12 43 00 00 80 3f 61 2e 13 43 28 a4 ed 42
       146.27005 1.0 147.18117 118.82062
000060 7e 17 14 43 00 00 80 3f 73 00 15 43 26 75 ec 42
       148.09177 1.0 149.00175 118.228806

network_body.observation_encoder.processors.1.normalizer.running_mean f4 [28]
000000 1d f0 0c 3f 00 00 00 00 97 f9 e5 3e ec 5f 2f 3f
       0.55053884 0.0 0.44916984 0.6850574
000010 82 89 6c 3f 00 00 00 00 38 1b 9b 3d ea a3 c1 3e
       0.9239732 0.0 0.07573551 0.3782037
000020 43 da 69 3f 00 00 00 00 24 95 b0 3d df dc b7 3e
       0.91348666 0.0 0.08622196 0.359107
000030 a5 b3 7f 3f 00 00 00 00 7f 14 65 3a 1a 0f 3f 3e
       0.9988349 0.0 0.0008738711 0.18658105
000040 d5 07 7f 3f 00 00 00 00 83 14 65 3b bb cc 50 3e
       0.99621326 0.0 0.0034954853 0.20390598
000050 e8 ec 7f 3f 00 00 00 00 00 00 00 00 8c 4e 0f 3e
       0.99970865 0.0 0.0 0.13994807
000060 e8 ec 7f 3f 00 00 00 00 00 00 00 00 f5 ab 35 3e
       0.99970865 0.0 0.0 0.17741378

network_body.observation_encoder.processors.1.normalizer.running_variance f4 [28]
000000 d1 9e 54 44 00 00 80 3f 54 98 54 44 67 ef d0 43
       850.4815 1.0 850.3801 417.87033
000010 34 28 72 43 00 00 80 3f 0d 4f 71 43 cf 4d 7d 43
       242.15704 1.0 241.30879 253.30394
000020 1e 27 88 43 00 00 80 3f 36 bd 87 43 15 ee 86 43
       272.3056 1.0 271.4782 269.86002
000030 d4 d9 9f 40 00 00 80 3f 0c d5 7f 40 6c 11 33 42
       4.9953403 1.0 3.9973783 44.767014
000040 5b 36 5f 41 00 00 80 3f 30 54 4f 41 88 59 9d 42
       13.95077 1.0 12.958054 78.674866
000050 79 f6 ff 3f 00 00 80 3f 00 00 80 3f 43 08 8e 41
       1.9997092 1.0 1.0 17.754034
000060 79 f6 ff 3f 00 00 80 3f 00 00 80 3f 55 95 6f 42
       1.9997092 1.0 1.0 59.895832

network_body.observation_encoder.processors.2.normalizer.running_mean f4 [7]
000000 2b fd 95 43 ff c2 10 41 55 05 16 41 e6 2e 07 41
       299.97787 9.047606 9.376302 8.44895
000010 9b f6 06 41 48 af 09 41 26 37 0a 41
       8.435206 8.605293 8.638464

network_body.observation_encoder.processors.2.normalizer.running_variance f4 [7]
000000 e7 0c 28 49 4f 51 c6 48 32 1f 8f 48 06 5b 8b 48
       688334.44 406154.47 293113.56 285400.2
000010 e2 1b 7c 48 fa 77 6d 48 44 b5 88 48
       258159.53 243167.9 279978.12

network_body.processors.0.normalizer.running_mean f4 [28]
000000 f2 45 e6 3d 00 00 00 00 27 24 63 3f 5d 45 67 3f
       0.1124381 0.0 0.8872704 0.90340215
000010 27 69 ce 3d 00 00 00 00 c4 1f 66 3f f4 cb 69 3f
       0.1007865 0.0 0.8989222 0.9132683
000020 89 57 da 3d 00 00 00 00 f8 a1 64 3f 45 7b 68 3f
       0.10661227 0.0 0.89309645 0.90813094
000030 0e 51 99 3d 00 00 00 00 c8 c2 6c 3f d7 fc 6e 3f
       0.07486163 0.0 0.9248471 0.93354553
000040 08 0e a4 3d 00 00 00 00 28 6b 6b 3f 35 12 6e 3f
       0.08010489 0.0 0.9196038 0.9299653
000050 e6 5a 35 3d 00 00 00 00 3f 97 74 3f 1d cb 75 3f
       0.04427614 0.0 0.95543283 0.9601305
000060 c7 bd 37 3d 00 00 00 00 0e 71 74 3f e7 c5 75 3f
       0.04485872 0.0 0.9548501 0.960051

network_body.processors.0.normalizer.running_variance f4 [28]
000000 a7 cc ab 43 00 00 80 3f d5 2f ac 43 6c 6f 81 43
       343.59885 1.0 344.3737 258.87048
000010 60 10 9c 43 00 00 80 3f 8a 76 9c 43 4c 57 6c 43
       312.12793 1.0 312.9261 236.341
000020 6d fd a3 43 00 00 80 3f 17 62 a4 43 e6 39 78 43
       327.9799 1.0 328.76633 248.22617
000030 b6 c2 6e 43 00 00 80 3f 52 9c 6f 43 0f 3f 3e 43
       238.76059 1.0 239.61063 190.24632
000040 a1 f8 7d 43 00 00 80 3f 84 cf 7e 43 29 f4 44 43
       253.9712 1.0 254.81061 196.95375
000050 22 45 12 43 00 00 80 3f 61 2e 13 43 28 a4 ed 42
       146.27005 1.0 147.18117 118.82062
000060 7e 17 14 43 00 00 80 3f 73 00 15 43 26 75 ec 42
       148.09177 1.0 149.00175 118.228806

network_body.processors.1.normalizer.running_mean f4 [28]
000000 1d f0 0c 3f 00 00 00 00 97 f9 e5 3e ec 5f 2f 3f
       0.55053884 0.0 0.44916984 0.6850574
000010 82 89 6c 3f 00 00 00 00 38 1b 9b 3d ea a3 c1 3e
       0.9239732 0.0 0.07573551 0.3782037
000020 43 da 69 3f 00 00 00 00 24 95 b0 3d df dc b7 3e
       0.91348666 0.0 0.08622196 0.359107
000030 a5 b3 7f 3f 00 00 00 00 7f 14 65 3a 1a 0f 3f 3e
       0.9988349 0.0 0.0008738711 0.18658105
000040 d5 07 7f 3f 00 00 00 00 83 14 65 3b bb cc 50 3e
       0.99621326 0.0 0.0034954853 0.20390598
000050 e8 ec 7f 3f 00 00 00 00 00 00 00 00 8c 4e 0f 3e
       0.99970865 0.0 0.0 0.13994807
000060 e8 ec 7f 3f 00 00 00 00 00 00 00 00 f5 ab 35 3e
       0.99970865 0.0 0.0 0.17741378

network_body.processors.1.normalizer.running_variance f4 [28]
000000 d1 9e 54 44 00 00 80 3f 54 98 54 44 67 ef d0 43
       850.4815 1.0 850.3801 417.87033
000010 34 28 72 43 00 00 80 3f 0d 4f 71 43 cf 4d 7d 43
       242.15704 1.0 241.30879 253.30394
000020 1e 27 88 43 00 00 80 3f 36 bd 87 43 15 ee 86 43
       272.3056 1.0 271.4782 269.86002
000030 d4 d9 9f 40 00 00 80 3f 0c d5 7f 40 6c 11 33 42
       4.9953403 1.0 3.9973783 44.767014
000040 5b 36 5f 41 00 00 80 3f 30 54 4f 41 88 59 9d 42
       13.95077 1.0 12.958054 78.674866
000050 79 f6 ff 3f 00 00 80 3f 00 00 80 3f 43 08 8e 41
       1.9997092 1.0 1.0 17.754034
000060 79 f6 ff 3f 00 00 80 3f 00 00 80 3f 55 95 6f 42
       1.9997092 1.0 1.0 59.895832

network_body.processors.2.normalizer.running_mean f4 [7]
000000 2b fd 95 43 ff c2 10 41 55 05 16 41 e6 2e 07 41
       299.97787 9.047606 9.376302 8.44895
000010 9b f6 06 41 48 af 09 41 26 37 0a 41
       8.435206 8.605293 8.638464

network_body.processors.2.normalizer.running_variance f4 [7]
000000 e7 0c 28 49 4f 51 c6 48 32 1f 8f 48 06 5b 8b 48
       688334.44 406154.47 293113.56 285400.2
000010 e2 1b 7c 48 fa 77 6d 48 44 b5 88 48
       258159.53 243167.9 279978.12

network_body._body_endoder.seq_layers.0.weight f4 [64, 63]
000000 74 33 70 3c 72 b7 72 3d a9 2f 06 3e b3 42 62 3d
       0.014660705 0.05925698 0.13104118 0.05523939
000010 a9 73 07 bd de 70 6c 3d 9c 38 ca 3c f9 f6 97 3e
       -0.033069286 0.057724826 0.024685197 0.29680613
000020 3b 44 f3 3d 54 18 01 be ad 3e 5e 3e 6f e9 96 bd
       0.11878248 -0.12606937 0.21703596 -0.07368743
000030 7d 61 8d 3d a9 4c de bd 45 ba 36 3d 21 95 94 3d
       0.0690336 -0.108544655 0.044611234 0.072550066
000040 a1 21 c3 3d 9f db 6c 3d 87 a8 73 bd a7 37 a8 bc
       0.095278986 0.057826634 -0.059486892 -0.02053435
000050 92 43 20 bc 08 f3 e1 bc e1 97 a4 bd 88 26 17 3e
       -0.009781735 -0.027581707 -0.08036781 0.14760792
000060 c7 97 d4 3d 61 44 19 3e ba 97 6a 3c f8 c7 a6 3e
       0.10380512 0.1496749 0.014318401 0.3257444
000070 ba 4f b0 3e 22 ef d2 bd 5a 92 b3 bc 02 f9 f8 bc
       0.34435827 -0.10299517 -0.021920372 -0.030392174
000080 4c b9 19 bd cc 00 e2 3d d6 13 d1 3c 95 0c 3b be
       -0.03753023 0.11035308 0.025522154 -0.18266518
000090 43 9f 7c 3e 1d aa aa bc d3 9b 90 be 34 50 41 bc
       0.24670129 -0.02083307 -0.28243884 -0.011798907
0000a0 45 f8 49 be 33 cc bd bd f8 9c b6 3c 82 90 63 3e
       -0.19723614 -0.092674635 0.022291645 0.22223094
0000b0 f0 93 34 bd 38 69 a6 bd 9f 12 d7 bb 81 95 0d bd
       -0.044086397 -0.08125538 -0.006563499 -0.034566406
0000c0 e2 8f 41 be f2 52 99 be 10 7f 6b bc 01 e5 07 3d
       -0.18902543 -0.29946095 -0.014373556 0.03317738
0000d0 f6 ef 11 be c1 01 c9 3d 6a ac 13 3c 6b a2 86 bd
       -0.14251694 0.09814788 0.009013275 -0.065739475
0000e0 ec 75 e9 3d 73 5d f0 3d 33 73 51 3e 90 de 3a be
       0.11399445 0.11736574 0.20454101 -0.18248963
0000f0 35 f1 68 3e cd 06 38 bd 6f 7e c3 bc 28 db 91 bd
       0.22748263 -0.04492836 -0.023864 -0.07121879
000100 bf 0d 42 3d f8 1d d8 3d 7b c5 24 3b 20 92 6b bd
       0.04737639 0.10552591 0.0025142122 -0.057512403
000110 24 2a ad 3c 1d f2 6b bd 3d 6c 02 3e 49 8a 26 3e
       0.021138258 -0.057603944 0.12736602 0.16263689
000120 83 f8 63 bd 34 17 a1 bd ab 10 0e 3d d1 ba d1 3d
       -0.05565692 -0.07865754 0.034683865 0.102407105
000130 bd 1e 01 bd ab 6e 4c 3e 6f 7f 88 3d f3 76 51 3d
       -0.031523455 0.19964091 0.06664931 0.05113883
000140 7e 46 3a bd 31 84 fe bd e9 dd 9f bd c7 bc 4c 3e
       -0.045477383 -0.12427557 -0.07805998 0.19993888
000150 23 34 3d 3d 7e 01 28 be 73 53 96 be 47 58 90 bc
       0.0461923 -0.16406819 -0.29360542 -0.017620219
000160 34 85 68 3e d5 7c 95 bc 57 e8 eb 3c 55 be 36 bd
       0.22707063 -0.018248001 0.028797312 -0.04461511
000170 17 e4 5d bd 43 1d 87 bc 03 f0 4d bd 55 27 92 3d
       -0.0541726 -0.016493445 -0.05027772 0.07136408
000180 93 d2 19 be 92 16 31 be f8 3e fb bd 45 ba 22 be
       -0.15021734 -0.17293766 -0.1226787 -0.15891369
000190 95 bc 8d bd f4 c5 a0 3d 7b 37 88 3e b3 36 4e 3e
       -0.06920735 0.078502566 0.26604828 0.20138054
0001a0 a2 eb 5c bd cd 29 3a be d4 f9 70 bc 27 9b a5 3d
       -0.053935654 -0.18180008 -0.014708001 0.080862336
0001b0 d6 cd 9e 3d e2 b4 cf 3d d0 27 66 bd 22 be 88 bd
       0.07754104 0.101419225 -0.056190312 -0.0667689
0001c0 6c 2a 44 bd 58 fb 13 3e b2 45 d2 bd e8 b2 a2 3d
       -0.04789202 0.14451349 -0.102671996 0.0794428
0001d0 69 a7 82 be 3e e3 ed 3d 43 f2 17 3c 0b 4f 3a 3d
       -0.2551835 0.11615609 0.009274068 0.045485537
0001e0 66 3c 26 3d e2 1f 13 3c c4 ae 96 bd 1d cc 67 bd
       0.040584944 0.008979769 -0.07357553 -0.056591142
0001f0 70 df 56 be 53 76 18 be 03 5c 80 bd d2 6a 28 be
       -0.20983672 -0.14888887 -0.0626755 -0.16446999
000200 de e1 39 3e 8b 87 d1 bd 8f 7c 44 3e a5 88 93 3c
       0.18152568 -0.10230931 0.1918814 0.018009493
000210 0f 37 d7 3d 43 5f 28 3d 2f 2e f9 bd 88 22 96 bd
       0.105085485 0.041106474 -0.12167012 -0.07330805
000220 ed bd e3 3c 97 b2 57 3d 26 e5 3b 3d 93 1d cc be
       0.027800525 0.05266055 0.04587283 -0.39866313
000230 7b d7 07 be e1 7c 54 3c 6b ef 08 3e 9d 93 80 3d
       -0.13265793 0.012969227 0.1337258 0.06278155
000240 bf c8 8e be b3 53 41 3e 06 2f 39 be 04 ab 4f 3d
       -0.27887532 0.18879585 -0.18084344 0.050700203
000250 14 d5 29 be 08 a0 09 3c 66 b8 87 bd c9 f8 cf 3d
       -0.16585189 0.008399971 -0.06626968 0.10154874
000260 cc 24 13 be 82 19 d5 3c 84 76 f5 bd 6c 15 36 3e
       -0.14369506 0.02601314 -0.11985496 0.1778161
000270 41 79 9b 3d 8f 87 05 3e 2a 6c 24 3e 19 de c3 3d
       0.07591487 0.13039993 0.16056886 0.09563846
000280 c9 89 55 3d c0 87 a3 3d 95 f1 60 3e 4c d3 0f 3e
       0.052133355 0.07984877 0.21967156 0.14045447
000290 ea db be 3c 7a 9c 23 3e 4e 67 11 bc 01 21 8d 3c
       0.023298223 0.1597766 -0.008874727 0.017227652
0002a0 d3 1c bf 3d 84 b3 61 bd a3 46 48 3d 4e e5 da bd
       0.0933167 -0.05510284 0.04889549 -0.10688268
0002b0 87 31 de bd eb d5 37 be a2 99 73 bc d3 b7 32 3e
       -0.1084929 -0.17952697 -0.014868172 0.17452936
0002c0 fe 0b 1e bd e3 e5 58 be 0f 86 bd bd 0d cf e8 3d
       -0.038585655 -0.21181445 -0.09254085 0.11367617
0002d0 6c 5c 80 bd 0a 04 6f be b7 53 71 3d 51 9b b8 bc
       -0.06267628 -0.23341385 0.058917727 -0.022534998
0002e0 3f 16 a6 bd d2 5e 8b 3d ea e1 30 bd de 7d 05 3c
       -0.08109712 0.06805195 -0.0431842 0.008147685
0002f0 12 d1 5f be d4 ad 4a 3e ab 33 92 3e 51 33 c9 3c
       -0.21857098 0.19792873 0.28555045 0.024560602
000300 3d 9e a5 bc 7b 36 e1 bc 2e 01 e6 3d b4 12 b4 3c
       -0.020217055 -0.027491799 0.11230694 0.021981575
000310 92 6d c8 3c 8c 92 08 3b 1e 86 1d be af a7 de 3c
       0.02446631 0.0020839302 -0.15383193 0.027179567
000320 4d dd 2c bd 93 b1 3f 3e fb c3 44 3e 5e e8 d0 bd
       -0.042203236 0.18720083 0.19215386 -0.102005705
000330 5c 2f 5f bc 40 b3 1b 3e 03 18 5a bd fc fa 0f 3e
       -0.013622131 0.15205097 -0.053245556 0.14060587
000340 52 7d 42 bd c3 f8 82 bd de 0e 67 be e9 aa 88 bb
       -0.047482796 -0.06395104 -0.22564265 -0.0041707647
000350 b2 0b a3 bd ed 61 17 be cc 45 b8 be 37 ff 76 3d
       -0.07961215 -0.1478345 -0.3599075 0.060301986
000360 b4 4b b2 3d 07 c3 81 be 05 5b c0 bd 3f 12 44 bc
       0.087058455 -0.25344107 -0.093923606 -0.011967241
000370 e2 10 ab bd 2c 44 fb 3d b0 3f 66 3d 48 9d a5 3d
       -0.083528295 0.12268862 0.05621308 0.0808664
000380 6b fd e6 bc 60 e4 ca 3d 15 f4 d4 bd 37 40 b1 bb
       -0.028197011 0.0990684 -0.103981175 -0.0054092663
000390 39 a4 97 3d 08 bb 89 3e 54 d5 1a 3e 1d 90 2a 3e
       0.0740437 0.26900506 0.1512044 0.16656537
0003a0 e9 e3 aa be 1e 44 e3 3b a8 c7 b4 3d a3 ee 27 bd
       -0.33377007 0.0069356104 0.08827144 -0.040999066
0003b0 08 65 2f be 35 fc b9 bd 82 7d 86 bd a1 e1 ab bd
       -0.17128384 -0.09081308 -0.065669075 -0.08392645
0003c0 c8 a2 78 3d e3 4c 0a be 98 6a 37 bd cb ea 21 bc
       0.060702115 -0.13505892 -0.04477939 -0.009882639
0003d0 13 78 6c 3e c0 8f 88 be e2 13 48 3e c6 9d 7a bd
       0.2309268 -0.26672173 0.19538835 -0.06118562
0003e0 d9 2d 01 bd 7c 3e bb 3c 8d d5 bd 3d 82 f6 0d 3d
       -0.031537864 0.022856943 0.09269247 0.034658916
0003f0 df 6e 67 3c 40 63 cd be 99 3c 07 3e 3d 5b 4a be
       0.014125555 -0.40114784 0.1320671 -0.19761367

network_body._body_endoder.seq_layers.0.bias f4 [64]
000000 00 00 00 00 00 00 00 00 00 00 00 00 00 00 00 00
       0.0 0.0 0.0 0.0
000010 00 00 00 00 00 00 00 00 00 00 00 00 00 00 00 00
       0.0 0.0 0.0 0.0
000020 00 00 00 00 00 00 00 00 00 00 00 00 00 00 00 00
       0.0 0.0 0.0 0.0
000030 00 00 00 00 00 00 00 00 00 00 00 00 00 00 00 00
       0.0 0.0 0.0 0.0
000040 00 00 00 00 00 00 00 00 00 00 00 00 00 00 00 00
       0.0 0.0 0.0 0.0
000050 00 00 00 00 00 00 00 00 00 00 00 00 00 00 00 00
       0.0 0.0 0.0 0.0
000060 00 00 00 00 00 00 00 00 00 00 00 00 00 00 00 00
       0.0 0.0 0.0 0.0
000070 00 00 00 00 00 00 00 00 00 00 00 00 00 00 00 00
       0.0 0.0 0.0 0.0
000080 00 00 00 00 00 00 00 00 00 00 00 00 00 00 00 00
       0.0 0.0 0.0 0.0
000090 00 00 00 00 00 00 00 00 00 00 00 00 00 00 00 00
       0.0 0.0 0.0 0.0
0000a0 00 00 00 00 00 00 00 00 00 00 00 00 00 00 00 00
       0.0 0.0 0.0 0.0
0000b0 00 00 00 00 00 00 00 00 00 00 00 00 00 00 00 00
       0.0 0.0 0.0 0.0
0000c0 00 00 00 00 00 00 00 00 00 00 00 00 00 00 00 00
       0.0 0.0 0.0 0.0
0000d0 00 00 00 00 00 00 00 00 00 00 00 00 00 00 00 00
       0.0 0.0 0.0 0.0
0000e0 00 00 00 00 00 00 00 00 00 00 00 00 00 00 00 00
       0.0 0.0 0.0 0.0
0000f0 00 00 00 00 00 00 00 00 00 00 00 00 00 00 00 00
       0.0 0.0 0.0 0.0

network_body._body_endoder.seq_layers.2.weight f4 [64, 64]
000000 31 87 b5 bd 2f c7 0d bd 37 97 f4 3d cd 52 78 be
       -0.08863676 -0.034613784 0.119429044 -0.24250336
000010 f7 7f 31 be 14 15 98 bc 18 22 34 3c aa 37 62 3d
       -0.17333971 -0.018564738 0.010994457 0.055228867
000020 0e 12 0b 3e f8 1a ea 3d 17 08 92 bc 69 28 82 be
       0.13581106 0.11430925 -0.017826123 -0.25421456
000030 ac 56 35 be 05 20 00 be 93 d0 26 be dc f7 58 be
       -0.17708844 -0.12512214 -0.16290502 -0.21188301
000040 1c ea b8 3e 88 10 9d 3e 2e 46 97 3c 27 07 85 3d
       0.3611611 0.30676675 0.018466081 0.06495505
000050 6e 37 25 be 37 eb 1a bd af be 19 bd 4a 91 10 be
       -0.16134426 -0.037821975 -0.037535366 -0.14117923
000060 da d9 b4 3c 27 f6 03 bd 76 1d 24 3d d7 6c 59 bd
       0.022076536 -0.03221717 0.04006716 -0.053082313
000070 10 8e 85 3d 70 03 12 be 01 68 12 3d 72 6c f1 3d
       0.06521237 -0.14259124 0.035743717 0.117882624
000080 8d c4 29 bc cf 5f 40 3d d9 1c 45 3e 8c 6d 84 3e
       -0.010361803 0.04696637 0.19249286 0.25864828
000090 97 70 3b 3e da a0 6c 3e a2 59 83 bd 72 6b ac 3d
       0.18304668 0.23108235 -0.064135805 0.08418931
0000a0 0d ff e5 3d b8 62 6c 3e 25 ef bd be ac 9c 61 bc
       0.11230288 0.23084533 -0.37096515 -0.013770264
0000b0 ba d7 ad bb 20 a1 8c 3d 04 d1 1b 3e be 15 57 bd
       -0.0053052576 0.0686667 0.15216452 -0.05251097
0000c0 d7 71 4d 3b a3 c2 a7 bd 0a 44 cf 3d ae b1 1e 3e
       0.0031348371 -0.08191421 0.10120399 0.15497467
0000d0 e8 36 b2 bd 58 f9 02 bd 4e 6d ec 3d a7 2d 83 3c
       -0.08701879 -0.031976074 0.11544286 0.01601298
0000e0 b1 b8 b6 bd 73 4f 43 3e 0f 65 36 3e c7 65 83 be
       -0.08921946 0.19073276 0.17811988 -0.25663587
0000f0 01 0c a5 bc 6e 68 70 3c df b5 d2 3d 09 d3 52 3d
       -0.020147325 0.0146733355 0.102885954 0.05147079
000100 36 b1 94 bd 03 b1 ce bd 7c 93 0f 3e bc c9 43 3d
       -0.07260363 -0.10092356 0.14021105 0.04779981
000110 69 d2 05 3e fb fb 21 bc 25 6f a4 3b cd 0c 00 be
       0.13068546 -0.009886737 0.0050181323 -0.12504883
000120 b2 25 b0 3c f5 9c 89 3c 97 db c7 3c dc ba 99 3d
       0.02150235 0.016798476 0.0243967 0.07506344
000130 1a d5 7a 3d 13 a6 17 3e a0 8b 13 be 67 65 22 be
       0.061238386 0.14809446 -0.14408731 -0.15858994
000140 cf 68 01 3e b7 86 47 bd da 88 60 3e 40 cf 8a bc
       0.12637638 -0.04871246 0.21927205 -0.016944528
000150 8e c0 28 bd 28 cf d2 bb a6 6f 50 be ea 17 11 bd
       -0.04119926 -0.0064333864 -0.2035509 -0.035423197
000160 7b dc 31 bd ca 0e b6 bd 5e c0 5a 3e 73 da f6 bd
       -0.043423157 -0.088895395 0.21362445 -0.12053385
000170 2d 63 0b 3c f6 01 33 bc 86 41 ea 3d cf 8f 85 3d
       0.008507532 -0.0109257605 0.11438279 0.0652157
000180 54 74 8a 3c 05 f7 1d be 42 d6 04 3e f2 36 bf 3d
       0.016901173 -0.15426262 0.12972358 0.09336652
000190 03 95 14 3d d3 43 5e 3e 27 60 ef 3c ae 4c 61 3e
       0.03627492 0.2170556 0.029220654 0.22001907
0001a0 30 fc bb bb 3f 8f fc bc b3 33 8f bc c2 42 59 3d
       -0.00573685 -0.030830024 -0.017480707 0.05304218
0001b0 fa 05 b4 3d c0 96 7d 3e 8d 9e 84 be 2f 33 88 bc
       0.087902024 0.24764538 -0.25902215 -0.016625969
0001c0 08 49 68 bd fc e3 e2 3d c7 41 2e bc b8 85 b1 bc
       -0.056710273 0.11078641 -0.0106358 -0.021670207
0001d0 20 e5 8a 3e 4e 67 58 3e 4a 4e 11 be 69 87 bf 3b
       0.27127934 0.21133158 -0.14190021 0.0058449996
0001e0 fb 75 4b 3e 58 cd ba 3c 94 47 b4 3c 84 38 05 bd
       0.19869225 0.022802994 0.022006787 -0.0325246
0001f0 27 05 25 bd 59 d4 e2 bd b4 f7 8c bd e8 2e 0f ba
       -0.040288117 -0.11075658 -0.06883183 -0.00054620067
000200 a9 48 31 3d ad d8 4d be 3f ec b9 bd 8b b3 f7 bb
       0.043282185 -0.20102187 -0.090782635 -0.007559245
000210 a9 a1 0c bd 5c 7c 92 3e 91 c0 13 3e 80 4a f8 3c
       -0.03433386 0.28610504 0.14428927 0.030308962
000220 7a 8a f4 bd 3c fa 2d 3e 6e c7 af bd 6a 58 14 be
       -0.11940475 0.16989988 -0.0858296 -0.14486852
000230 e9 53 8a 3e d4 f5 4a 3e f2 66 84 3c ff df cb bd
       0.27017143 0.19820338 0.01616237 -0.09954833
000240 10 1a 80 bc b7 f4 01 3c bb 33 13 3e 85 a1 82 3a
       -0.015637428 0.00793188 0.14375202 0.000996635
000250 16 82 9d bd ea 6d 8c 3d 44 e7 5f bd b3 04 80 be
       -0.076908275 0.06856902 -0.05466391 -0.25003585
000260 4c d4 97 bd b9 99 c5 bd 5d fd 17 3e 3e 97 70 bd
       -0.07413539 -0.09648461 0.14842744 -0.058737986
000270 42 2b 94 be ed 95 b4 bc e4 4e af bc 20 e5 1f 3e
       -0.28939253 -0.022044146 -0.021399923 0.15614748
000280 f2 bc 90 bc 2e 10 69 3d fb f3 2a be 3b 4e 12 3e
       -0.017668221 0.056900196 -0.16694634 0.14287655
000290 e6 04 eb bd eb 0d cf 3d 77 1d 02 3e 11 5f 9d be
       -0.11475544 0.101100765 0.12706552 -0.30736592
0002a0 37 1a f1 bc 32 1e 29 be fc 8a 8e 3d 1c 46 9f 3d
       -0.029431446 -0.16515425 0.06960103 0.07777044
0002b0 23 de 84 3e bf 05 90 bd a7 0f e8 bd 49 51 2c be
       0.25950727 -0.07032346 -0.113311104 -0.16827883
0002c0 c0 ed 17 be 01 90 31 be f9 69 f1 3d 00 99 c4 bd
       -0.14836788 -0.1734009 0.11787791 -0.09599495
0002d0 cd 9e 84 3b af ec 85 be ae 01 09 bd 81 54 51 bd
       0.004047251 -0.26157138 -0.033448867 -0.05110598
0002e0 74 b0 47 be 1b 59 d8 bc 59 35 20 3d ec 14 53 3d
       -0.19500905 -0.026409676 0.039113376 0.051533625
0002f0 9d ae e0 bc 44 ad d8 3c 6f c7 79 be dd 63 c4 3d
       -0.027427012 0.026449807 -0.24392484 0.0958936
000300 f1 95 4e bd ac ce d8 bb 89 8c 8c be 55 f9 f1 bc
       -0.050435964 -0.006616434 -0.2745097 -0.029537836
000310 b2 73 85 3d 28 15 71 bd 54 ba 2d be f7 f8 21 3e
       0.06516208 -0.058858067 -0.1696561 0.15817629
000320 3f f3 b5 3d cc cb 36 be 33 d1 eb 3d 1a 80 47 3d
       0.08884286 -0.1785118 0.11514511 0.04870615
000330 d4 38 08 bc 55 13 86 bd 21 13 6b bd fa 74 00 bd
       -0.00831433 -0.06546656 -0.05739129 -0.031361558
000340 1f 8f 3b 3d db 55 b8 bd 81 63 c2 3b 76 10 8d be
       0.045790788 -0.09000751 0.005932272 -0.2755162
000350 3e d6 35 bd d2 c3 c0 3d 72 d8 1f 3e c5 8a 73 be
       -0.04439377 0.0941235 0.15609911 -0.23783405
000360 3c 26 35 be ad 6b 54 bd 4e ae 65 3d fb 9b a9 be
       -0.17690367 -0.0518605 0.056074433 -0.33126816
000370 17 f0 5c 3e 6e 4d b5 3d 76 66 16 be 80 0a a9 3d
       0.21575962 0.08852659 -0.14687523 0.08253956
000380 cd 5a f6 bc 6a 35 c4 3c 65 4a 1f be 16 7c 9b bc
       -0.030072594 0.023951251 -0.15555723 -0.018980067
000390 d1 e4 68 ba b1 bb ad 3d 13 fd 4e 3d 47 78 50 be
       -0.0008884194 0.08483065 0.05053432 -0.20358382
0003a0 08 fb 6b bd 0f 37 83 3e b5 73 82 bd 9e 3c 43 3d
       -0.05761245 0.25627944 -0.063697256 0.04766523
0003b0 8d 2b 51 bd 18 c6 99 3d bc b2 69 be 63 50 be bd
       -0.051066924 0.075084865 -0.22822088 -0.09292676
0003c0 51 f0 2a 3d 40 63 f4 3d fd 29 aa bd 89 d5 75 3d
       0.04173309 0.11932993 -0.0830879 0.060018096
0003d0 49 bd 96 bd be ae a5 bd d2 e4 02 3d 4f f9 1c be
       -0.07360322 -0.0808997 0.0319565 -0.15329479
0003e0 4e a0 8d 3c f2 bc 48 3d 01 34 97 3c 8b 77 c0 bc
       0.017288353 0.049008317 0.018457415 -0.023494503
0003f0 b6 9d 55 3e 5f 3c 09 be 03 8e b3 bd 45 1e 4e 3e
       0.20860943 -0.13401936 -0.08767321 0.20128734

network_body._body_endoder.seq_layers.2.bias f4 [64]
000000 00 00 00 00 00 00 00 00 00 00 00 00 00 00 00 00
       0.0 0.0 0.0 0.0
000010 00 00 00 00 00 00 00 00 00 00 00 00 00 00 00 00
       0.0 0.0 0.0 0.0
000020 00 00 00 00 00 00 00 00 00 00 00 00 00 00 00 00
       0.0 0.0 0.0 0.0
000030 00 00 00 00 00 00 00 00 00 00 00 00 00 00 00 00
       0.0 0.0 0.0 0.0
000040 00 00 00 00 00 00 00 00 00 00 00 00 00 00 00 00
       0.0 0.0 0.0 0.0
000050 00 00 00 00 00 00 00 00 00 00 00 00 00 00 00 00
       0.0 0.0 0.0 0.0
000060 00 00 00 00 00 00 00 00 00 00 00 00 00 00 00 00
       0.0 0.0 0.0 0.0
000070 00 00 00 00 00 00 00 00 00 00 00 00 00 00 00 00
       0.0 0.0 0.0 0.0
000080 00 00 00 00 00 00 00 00 00 00 00 00 00 00 00 00
       0.0 0.0 0.0 0.0
000090 00 00 00 00 00 00 00 00 00 00 00 00 00 00 00 00
       0.0 0.0 0.0 0.0
0000a0 00 00 00 00 00 00 00 00 00 00 00 00 00 00 00 00
       0.0 0.0 0.0 0.0
0000b0 00 00 00 00 00 00 00 00 00 00 00 00 00 00 00 00
       0.0 0.0 0.0 0.0
0000c0 00 00 00 00 00 00 00 00 00 00 00 00 00 00 00 00
       0.0 0.0 0.0 0.0
0000d0 00 00 00 00 00 00 00 00 00 00 00 00 00 00 00 00
       0.0 0.0 0.0 0.0
0000e0 00 00 00 00 00 00 00 00 00 00 00 00 00 00 00 00
       0.0 0.0 0.0 0.0
0000f0 00 00 00 00 00 00 00 00 00 00 00 00 00 00 00 00
       0.0 0.0 0.0 0.0

action_model._discrete_distribution.branches.0.weight f4 [2, 64]
000000 2d da 03 3c cc c8 ad ba 6a a2 d0 3b b2 68 aa ba
       0.008047623 -0.0013258695 0.0063670175 -0.0013001172
000010 e7 a8 95 bc 9d aa 3e 3c 42 04 49 3c 11 03 a5 3c
       -0.018269015 0.011637357 0.012269082 0.020143064
000020 24 11 4a bb 34 ab 80 bb 45 ec 4d 3c d5 0b cc bb
       -0.003083297 -0.003926659 0.012568538 -0.0062269964
000030 4c 7b bb ba 32 37 11 3a 4f 10 25 bc cb 41 10 bc
       -0.0014303713 0.0005539536 -0.010074689 -0.008804749
000040 8b 48 a7 bc d8 02 7f 3c 17 ef 40 bc 38 e9 ad bc
       -0.020420333 0.015564643 -0.011775753 -0.021229371
000050 f9 1e 0e b9 78 17 16 3b 5d bf 57 bb af dc dd b8
       -0.00013553714 0.0022902172 -0.0032920458 -0.00010579207
000060 e3 55 0e bc 6a 30 56 bc c3 46 19 bc ac c4 21 3c
       -0.008687469 -0.013073066 -0.00935525 0.00987355
000070 b7 60 27 bb f3 6c 61 3c 69 fd 39 3c d8 cb c1 bb
       -0.0025539824 0.013758886 0.011351922 -0.0059141926
000080 d3 8a 20 3c ef b6 76 3c 87 80 91 bc 8f 2a 14 3c
       0.009798723 0.015058263 -0.017761482 0.00904335
000090 47 8f 42 3b 4f 19 c6 bc 4e ca 0a bc 0b 74 72 b9
       0.002968745 -0.02418199 -0.008471085 -0.00023122148
0000a0 ca 31 68 3c 7b a4 e8 bb 0a ee ab 3b 20 ef 2a 3b
       0.014172027 -0.0070996857 0.0052468823 0.002608247
0000b0 df 81 8e 3b c2 f2 b7 bb 6c 52 9c bc 02 3d 4c 3a
       0.004348978 -0.005613656 -0.01908227 0.00077910733
0000c0 8e 1a bd 3b 70 14 fa 3a bb 60 77 3c 45 9a 70 3c
       0.005770988 0.0019079577 0.015098746 0.014685218
0000d0 ed ff e6 3b c8 cf 9d 3a cd 40 9c bc 83 99 2e bc
       0.0070495517 0.0012040073 -0.019073868 -0.010656717
0000e0 87 1b 35 3b 98 88 b5 bb fa 89 62 3c 46 95 01 bb
       0.0027634816 -0.005539965 0.0138268415 -0.0019772812
0000f0 ab 61 0a 3c 87 ae 38 bc c7 31 b3 ba 57 8a b7 bc
       0.008446137 -0.011272079 -0.0013671451 -0.022404833
000100 6f e1 67 bb 6b d3 f5 3b b6 4f 32 bc b0 9d f1 ba
       -0.0035382172 0.0075020096 -0.010883262 -0.0018433835
000110 00 aa d1 bb d9 a6 82 3b 12 01 d5 3c 1e 14 98 3b
       -0.0063984394 0.003987175 0.026001487 0.00464107
000120 57 10 ee ba a6 a6 99 3c ed 23 e0 3b 3b 7d 8e bb
       -0.0018162829 0.018756222 0.00684022 -0.0043484247
000130 a8 ee 13 bc 5a 10 ae 3b a8 fd 9c 3b 7b 3c e2 bb
       -0.009029068 0.005312008 0.0047909804 -0.0069041825
000140 77 53 81 bb 8a 07 0a bc 8b 36 97 3c d7 8e 8b bc
       -0.0039467174 -0.008424649 0.018458625 -0.017035885
000150 f8 36 94 bc d7 f7 e4 ba ef 88 2c 3b 71 83 45 b9
       -0.018092617 -0.0017468882 0.0026326736 -0.0001883635
000160 9d c1 d4 bb 6f 2b 37 bb 6b 66 f3 3a e0 7a 27 3c
       -0.006492807 -0.0027949472 0.0018569952 0.010222167
000170 a1 f8 1d 3c 99 60 96 bc 7f 70 bb bb e6 15 1e bc
       0.009641797 -0.018356608 -0.0057201977 -0.009648776
000180 3b fd 04 3c f3 02 2b 3c f8 f9 0e bc 49 80 8a 3c
       0.0081170155 0.010437715 -0.008726589 0.016906874
000190 a4 1e 81 bc 43 c1 92 bb 37 e1 ca 3c 73 e3 2f 3b
       -0.01576168 -0.004478605 0.024765594 0.002683845
0001a0 66 82 0b bd 1a 16 bc 3b be a0 04 3c f7 18 c6 bc
       -0.034059905 0.0057399394 0.008094965 -0.024181826
0001b0 92 21 e3 39 0b 06 70 3b d8 23 c2 b9 c7 df 9a 3c
       0.00043321826 0.0036624696 -0.0003702927 0.018905533
0001c0 1c dd ab bb f5 d2 6b bc f7 d1 23 bc 1b 8d d1 3c
       -0.005244864 -0.014393558 -0.00999879 0.02557998
0001d0 ed 9c 97 ba fb c1 09 bc 42 7e 86 b9 df d1 3e 3b
       -0.0011567153 -0.008408065 -0.0002565254 0.0029116792
0001e0 47 73 a4 b9 e4 c5 3b bc 63 73 e0 3c 3a 78 e3 3b
       -0.00031366406 -0.011460755 0.02739877 0.0069418224
0001f0 3f 22 94 bb f6 6a 86 3c b2 69 85 3c 36 1c ad bb
       -0.004520684 0.016408425 0.016285751 -0.005282904

action_model._discrete_distribution.branches.0.bias f4 [2]
000000 00 00 00 00 00 00 00 00
       0.0 0.0

action_model._discrete_distribution.branches.1.weight f4 [2, 64]
000000 b7 46 8c ba 3f 7e e9 3c 26 99 12 3c 89 6a 9b bc
       -0.0010702227 0.028502582 0.008947646 -0.018971698
000010 07 33 23 bc 0b 34 40 3c 60 5a e1 39 bf f3 99 bb
       -0.009960896 0.011731158 0.0004298268 -0.0046982463
000020 56 91 0a 3c ae ec 98 bb 51 ce 80 ba 2e c4 12 ba
       0.008457502 -0.0046668863 -0.0009827112 -0.0005598691
000030 46 e6 8f 39 54 6d ac 3b a1 a5 bf bb 08 fd ae bc
       0.00027446653 0.0052620564 -0.005848602 -0.02136089
000040 a1 e8 10 bd 4b d8 55 3c 2f f8 2e bc 8b 29 9d bb
       -0.035378102 0.013052057 -0.010679289 -0.004796212
000050 f1 1b 8e ba 68 4e fc ba ab bd b2 bc 1a 01 08 3c
       -0.0010842067 -0.0019249441 -0.021818956 0.008301044
000060 d5 7e 31 bc ef 05 40 bc 4b e6 27 3b 07 99 ac 3c
       -0.010833462 -0.011720165 0.0025619443 0.021069063
000070 17 a2 5b ba de 57 07 3d 62 3e cc 3b 1a 7e cf 3a
       -0.000837834 0.03304278 0.0062330225 0.0015830428
000080 f2 6d 9a bc 32 8c 37 3c 2f 6f 6e bb eb 6e b0 bc
       -0.018851254 0.011202859 -0.0036382189 -0.021537265
000090 25 76 d4 3c 5f f9 94 bc 0c c4 30 bc 33 b0 1d bc
       0.025935242 -0.018185316 -0.010788929 -0.009624529
0000a0 7a 62 c2 bb eb fd 97 ba f3 8b cc bc 06 64 93 3b
       -0.0059321495 -0.0011596059 -0.024969077 0.0044980077
0000b0 8b d2 99 3c 42 ea c1 3c 6b 16 70 3c 7f 28 b6 bb
       0.018777153 0.023671273 0.014653782 -0.0055590267
0000c0 77 05 63 bb df b3 a2 bc 29 26 82 3b f8 da 51 bc
       -0.0034640708 -0.01986116 0.003971834 -0.012808554
0000d0 f8 dd a7 3b 52 53 8f bc b5 de 93 3b 50 e7 63 3c
       0.0051228963 -0.017495785 0.0045126327 0.01391013
0000e0 13 df f1 bc 4b 5a 91 bc f3 6f 4d bb 20 3f 53 bc
       -0.029525315 -0.01774325 -0.0031347245 -0.012893468
0000f0 63 5d 7d bc 2b a0 9d 3a a5 60 af 3a 37 c3 c0 bb
       -0.01546416 0.0012025883 0.0013380243 -0.0058826464
000100 b6 ff 22 3c 18 29 f0 ba 0d d8 5c 3b 99 0a 8e 3b
       0.009948662 -0.0018322794 0.0033698112 0.0043347594
000110 44 88 05 3a e4 01 86 bc f2 df 57 3b 1e e8 36 bb
       0.00050938525 -0.016358323 0.0032939878 -0.0027909349
000120 bf a2 08 bc da 42 7b bb f1 62 07 3c 90 cf 74 3a
       -0.008339583 -0.0038339407 0.008263336 0.00093387906
000130 d7 17 1e bc a3 55 80 bc 7f e3 9a ba 8b b6 aa bc
       -0.009649239 -0.015665835 -0.0011817067 -0.020838996
000140 cb ad 27 3d b4 26 bd 3b 21 2f 41 bb fc f2 a6 3b
       0.040937226 0.005772436 -0.0029477554 0.005094884
000150 2a c7 db 3b 3d cd d7 3b 7c fa 47 bb 77 ce fa bb
       0.006707092 0.0065857456 -0.003051429 -0.007654007
000160 df ba 33 3a ee 85 85 3a e3 9d 11 3c 47 40 20 bb
       0.0006856154 0.0010187009 0.008887741 -0.0024452375
000170 17 51 d3 bc 73 17 d4 3a b9 64 30 ba 6c 15 8b bc
       -0.025795503 0.0016181305 -0.0006728876 -0.016977988
000180 12 b0 16 bc cd 52 fc bb 98 e7 1f bb fd c7 25 3c
       -0.009197252 -0.0077003003 -0.0024399515 0.010118482
000190 3d 65 68 bb 4b 4a 82 bc 8a 61 68 3c b3 c8 82 3c
       -0.0035460733 -0.015904566 0.014183411 0.015964841
0001a0 fa 28 e0 ba db af c1 3b 80 30 db 3a bf c6 9c bc
       -0.0017102056 0.005910856 0.0016722828 -0.019137738
0001b0 3a f5 6b bc 08 3d 11 bb d0 01 fe 3b 23 08 61 bb
       -0.014401728 -0.0022161622 0.007751681 -0.0034337125
0001c0 d8 57 f2 bc 5d 19 d8 bb be 9b c6 bb 91 3d 2c bc
       -0.029582903 -0.0065948204 -0.0060610464 -0.010512725
0001d0 76 9a 99 3b 31 cf 29 bc 80 b6 46 bb 6a b5 10 bc
       0.0046876026 -0.01036434 -0.003032118 -0.008832315
0001e0 a3 00 3e bc 77 00 0f bc 7a 2a b5 3b ba 49 b8 bb
       -0.0115968315 -0.008728138 0.0055287452 -0.0056240233
0001f0 5c 5f 4b bc c8 39 84 bc 1a 8a 92 3c 73 84 d6 ba
       -0.012412872 -0.016140833 0.017888118 -0.0016366377

action_model._discrete_distribution.branches.1.bias f4 [2]
000000 00 00 00 00 00 00 00 00
       0.0 0.0

action_model._discrete_distribution.branches.2.weight f4 [2, 64]
000000 88 77 4f bc 3f 93 21 3c 9f 88 a0 bb f4 ce 2c 3c
       -0.012662776 0.009861766 -0.004899099 0.010547388
000010 6e a2 04 bc 2f da 96 3c 9a d5 d2 bb 8b f7 ba bc
       -0.008095367 0.018414585 -0.0064341547 -0.022823116
000020 bf 8e 82 bb 51 c3 c2 ba ab 71 53 bc d3 54 03 bc
       -0.003984302 -0.0014859234 -0.0129055185 -0.008015829
000030 15 4e 29 3b a3 af 2b 3b 92 92 85 3c d3 7e 01 bc
       0.0025833894 0.0026197217 0.016305242 -0.007903772
000040 e3 f8 62 3c ed 32 8f 3c 71 4a a8 3c 62 25 ab 3b
       0.0138532845 0.017480338 0.020543309 0.0052229622
000050 8f d2 a6 3b d3 ef 7c bc db c7 78 bc f5 43 d7 bb
       0.0050910185 -0.015438038 -0.015184368 -0.0065693804
000060 15 89 fc 3b 04 df 31 bc b2 c1 34 3c b0 04 9b bb
       0.007706771 -0.010856394 0.011032509 -0.0047307834
000070 53 fa bf 3c bd 73 3a bb a6 1a 28 bc bd 26 29 3c
       0.023434794 -0.0028450333 -0.01026026 0.010324177
000080 aa ba 3d bc 65 01 31 bb d4 e0 97 3c 11 11 19 bb
       -0.011580149 -0.0027008888 0.018539824 -0.002335612
000090 c5 cb 6e bc 89 b9 98 bc 27 0c 54 bc c2 73 6a bc
       -0.01457495 -0.018643158 -0.0129423505 -0.014309825
0000a0 e4 96 8f bc ba d0 91 bc ef 7c da bc f6 e9 09 3c
       -0.017528005 -0.017799724 -0.026670901 0.008417597
0000b0 aa 3c 2e bc 7f 58 03 bc ec 46 a8 3a 9f 65 13 3c
       -0.010634581 -0.008016705 0.0012838519 0.008996396
0000c0 77 01 b4 ba 1f 7a b7 bb b2 88 8c 3c bb 41 ab bc
       -0.0013733347 -0.0055992748 0.017155025 -0.020905366
0000d0 d3 6a 8c bc 97 64 9d 3c 3d 0c a4 bc eb aa 12 bb
       -0.017140782 0.019213004 -0.020025367 -0.0022379707
0000e0 37 63 5b 3c ca 9e 02 3d af a9 86 bc 33 47 3a ba
       0.013390354 0.031889714 -0.016438333 -0.00071059464
0000f0 13 95 27 3c 63 64 56 bc 2a 47 6c bc aa e9 d7 bb
       0.010228413 -0.0130854575 -0.014421264 -0.006589134
000100 cb c5 79 bb 7b da 57 3c 2b 0f ee ba 18 a3 61 3c
       -0.0038112279 0.013174648 -0.0018162479 0.013771795
000110 80 1d 3b 3c 23 bd 38 3c 8d 6a c4 bc ec 2b 15 3c
       0.011420608 0.011275562 -0.023976589 0.00910471
000120 a8 2a f8 bb de 24 83 bc 9f 49 d3 3b bb 30 44 39
       -0.0075734444 -0.01600879 0.0064479853 0.0001871017
000130 70 e5 ce bc 52 9a 18 3c 18 64 1a bc e0 42 df ba
       -0.025255889 0.009314137 -0.009423278 -0.001703348
000140 cf e4 8b bc b3 49 d8 bb 43 7f 19 3c fb 85 9a bc
       -0.017076878 -0.0066005825 0.00936872 -0.018862715
000150 ba 23 e6 39 1b b1 0c bb d7 e9 87 3c 66 bc 90 bc
       0.00043895637 -0.0021467868 0.016590996 -0.01766796
000160 37 75 d9 ba 9e 9f 03 ba 8f fe 43 3a e0 95 27 bc
       -0.0016590719 -0.0005021038 0.0007476592 -0.010228604
000170 1b a3 c1 bb 98 26 c2 3b 9a 8b c8 3b c5 be fd 3b
       -0.0059093363 0.005925011 0.0061201574 0.0077436888
000180 a2 dd 0a bc 60 f9 74 3c b4 b5 43 39 97 bc d6 bb
       -0.008475693 0.014952034 0.00018664339 -0.0065532434
000190 e2 f1 f4 3a 1f d5 17 3b 8f b8 a8 b9 8c de ba bb
       0.0018687809 0.0023167802 -0.00032180964 -0.005702799
0001a0 c9 12 44 bc aa 25 7e bc 85 9d 4a bc 88 1d 78 bb
       -0.011967369 -0.0155119095 -0.012366657 -0.00378594
0001b0 f9 3b 34 3b 7d 9c ef 3b 6d 23 f6 bb 9c 77 b8 3c
       0.0027501567 0.007312356 -0.0075115473 0.022517972
0001c0 84 d5 8f bb ad 66 8b 3b cf 1e e0 3b f6 a4 23 bc
       -0.0043894667 0.0042541833 0.00683961 -0.00998806
0001d0 71 01 3e bc 6b aa 5e bb ea ea 5c 3c 13 e1 3b 3b
       -0.011597023 -0.0033976089 0.013483742 0.002866809
0001e0 d2 38 36 3b da c8 b7 3c 10 2a a7 bc 6f f2 ba 3c
       0.0027804864 0.02243464 -0.0204058 0.02282068
0001f0 eb a0 42 bc 1b 49 0b bb 27 93 99 3c 08 f6 22 3b
       -0.011879186 -0.002125329 0.018746926 0.0024865884

action_model._discrete_distribution.branches.2.bias f4 [2]
000000 00 00 00 00 00 00 00 00
       0.0 0.0

network_body.observation_encoder.processors.0.normalizer.running_mean f4 [28]
000000 f2 45 e6 3d 00 00 00 00 27 24 63 3f 5d 45 67 3f
       0.1124381 0.0 0.8872704 0.90340215
000010 27 69 ce 3d 00 00 00 00 c4 1f 66 3f f4 cb 69 3f
       0.1007865 0.0 0.8989222 0.9132683
000020 89 57 da 3d 00 00 00 00 f8 a1 64 3f 45 7b 68 3f
       0.10661227 0.0 0.89309645 0.90813094
000030 0e 51 99 3d 00 00 00 00 c8 c2 6c 3f d7 fc 6e 3f
       0.07486163 0.0 0.9248471 0.93354553
000040 08 0e a4 3d 00 00 00 00 28 6b 6b 3f 35 12 6e 3f
       0.08010489 0.0 0.9196038 0.9299653
000050 e6 5a 35 3d 00 00 00 00 3f 97 74 3f 1d cb 75 3f
       0.04427614 0.0 0.95543283 0.9601305
000060 c7 bd 37 3d 00 00 00 00 0e 71 74 3f e7 c5 75 3f
       0.04485872 0.0 0.9548501 0.960051

network_body.observation_encoder.processors.0.normalizer.running_variance f4 [28]
000000 a7 cc ab 43 00 00 80 3f d5 2f ac 43 6c 6f 81 43
       343.59885 1.0 344.3737 258.87048
000010 60 10 9c 43 00 00 80 3f 8a 76 9c 43 4c 57 6c 43
       312.12793 1.0 312.9261 236.341
000020 6d fd a3 43 00 00 80 3f 17 62 a4 43 e6 39 78 43
       327.9799 1.0 328.76633 248.22617
000030 b6 c2 6e 43 00 00 80 3f 52 9c 6f 43 0f 3f 3e 43
       238.76059 1.0 239.61063 190.24632
000040 a1 f8 7d 43 00 00 80 3f 84 cf 7e 43 29 f4 44 43
       253.9712 1.0 254.81061 196.95375
000050 22 45 12 43 00 00 80 3f 61 2e 13 43 28 a4 ed 42
       146.27005 1.0 147.18117 118.82062
000060 7e 17 14 43 00 00 80 3f 73 00 15 43 26 75 ec 42
       148.09177 1.0 149.00175 118.228806

network_body.observation_encoder.processors.1.normalizer.running_mean f4 [28]
000000 1d f0 0c 3f 00 00 00 00 97 f9 e5 3e ec 5f 2f 3f
       0.55053884 0.0 0.44916984 0.6850574
000010 82 89 6c 3f 00 00 00 00 38 1b 9b 3d ea a3 c1 3e
       0.9239732 0.0 0.07573551 0.3782037
000020 43 da 69 3f 00 00 00 00 24 95 b0 3d df dc b7 3e
       0.91348666 0.0 0.08622196 0.359107
000030 a5 b3 7f 3f 00 00 00 00 7f 14 65 3a 1a 0f 3f 3e
       0.9988349 0.0 0.0008738711 0.18658105
000040 d5 07 7f 3f 00 00 00 00 83 14 65 3b bb cc 50 3e
       0.99621326 0.0 0.0034954853 0.20390598
000050 e8 ec 7f 3f 00 00 00 00 00 00 00 00 8c 4e 0f 3e
       0.99970865 0.0 0.0 0.13994807
000060 e8 ec 7f 3f 00 00 00 00 00 00 00 00 f5 ab 35 3e
       0.99970865 0.0 0.0 0.17741378

network_body.observation_encoder.processors.1.normalizer.running_variance f4 [28]
000000 d1 9e 54 44 00 00 80 3f 54 98 54 44 67 ef d0 43
       850.4815 1.0 850.3801 417.87033
000010 34 28 72 43 00 00 80 3f 0d 4f 71 43 cf 4d 7d 43
       242.15704 1.0 241.30879 253.30394
000020 1e 27 88 43 00 00 80 3f 36 bd 87 43 15 ee 86 43
       272.3056 1.0 271.4782 269.86002
000030 d4 d9 9f 40 00 00 80 3f 0c d5 7f 40 6c 11 33 42
       4.9953403 1.0 3.9973783 44.767014
000040 5b 36 5f 41 00 00 80 3f 30 54 4f 41 88 59 9d 42
       13.95077 1.0 12.958054 78.674866
000050 79 f6 ff 3f 00 00 80 3f 00 00 80 3f 43 08 8e 41
       1.9997092 1.0 1.0 17.754034
000060 79 f6 ff 3f 00 00 80 3f 00 00 80 3f 55 95 6f 42
       1.9997092 1.0 1.0 59.895832

network_body.observation_encoder.processors.2.normalizer.running_mean f4 [7]
000000 2b fd 95 43 ff c2 10 41 55 05 16 41 e6 2e 07 41
       299.97787 9.047606 9.376302 8.44895
000010 9b f6 06 41 48 af 09 41 26 37 0a 41
       8.435206 8.605293 8.638464

network_body.observation_encoder.processors.2.normalizer.running_variance f4 [7]
000000 e7 0c 28 49 4f 51 c6 48 32 1f 8f 48 06 5b 8b 48
       688334.44 406154.47 293113.56 285400.2
000010 e2 1b 7c 48 fa 77 6d 48 44 b5 88 48
       258159.53 243167.9 279978.12

network_body.processors.0.normalizer.running_mean f4 [28]
000000 f2 45 e6 3d 00 00 00 00 27 24 63 3f 5d 45 67 3f
       0.1124381 0.0 0.8872704 0.90340215
000010 27 69 ce 3d 00 00 00 00 c4 1f 66 3f f4 cb 69 3f
       0.1007865 0.0 0.8989222 0.9132683
000020 89 57 da 3d 00 00 00 00 f8 a1 64 3f 45 7b 68 3f
       0.10661227 0.0 0.89309645 0.90813094
000030 0e 51 99 3d 00 00 00 00 c8 c2 6c 3f d7 fc 6e 3f
       0.07486163 0.0 0.9248471 0.93354553
000040 08 0e a4 3d 00 00 00 00 28 6b 6b 3f 35 12 6e 3f
       0.08010489 0.0 0.9196038 0.9299653
000050 e6 5a 35 3d 00 00 00 00 3f 97 74 3f 1d cb 75 3f
       0.04427614 0.0 0.95543283 0.9601305
000060 c7 bd 37 3d 00 00 00 00 0e 71 74 3f e7 c5 75 3f
       0.04485872 0.0 0.9548501 0.960051

network_body.processors.0.normalizer.running_variance f4 [28]
000000 a7 cc ab 43 00 00 80 3f d5 2f ac 43 6c 6f 81 43
       343.59885 1.0 344.3737 258.87048
000010 60 10 9c 43 00 00 80 3f 8a 76 9c 43 4c 57 6c 43
       312.12793 1.0 312.9261 236.341
000020 6d fd a3 43 00 00 80 3f 17 62 a4 43 e6 39 78 43
       327.9799 1.0 328.76633 248.22617
000030 b6 c2 6e 43 00 00 80 3f 52 9c 6f 43 0f 3f 3e 43
       238.76059 1.0 239.61063 190.24632
000040 a1 f8 7d 43 00 00 80 3f 84 cf 7e 43 29 f4 44 43
       253.9712 1.0 254.81061 196.95375
000050 22 45 12 43 00 00 80 3f 61 2e 13 43 28 a4 ed 42
       146.27005 1.0 147.18117 118.82062
000060 7e 17 14 43 00 00 80 3f 73 00 15 43 26 75 ec 42
       148.09177 1.0 149.00175 118.228806

network_body.processors.1.normalizer.running_mean f4 [28]
000000 1d f0 0c 3f 00 00 00 00 97 f9 e5 3e ec 5f 2f 3f
       0.55053884 0.0 0.44916984 0.6850574
000010 82 89 6c 3f 00 00 00 00 38 1b 9b 3d ea a3 c1 3e
       0.9239732 0.0 0.07573551 0.3782037
000020 43 da 69 3f 00 00 00 00 24 95 b0 3d df dc b7 3e
       0.91348666 0.0 0.08622196 0.359107
000030 a5 b3 7f 3f 00 00 00 00 7f 14 65 3a 1a 0f 3f 3e
       0.9988349 0.0 0.0008738711 0.18658105
000040 d5 07 7f 3f 00 00 00 00 83 14 65 3b bb cc 50 3e
       0.99621326 0.0 0.0034954853 0.20390598
000050 e8 ec 7f 3f 00 00 00 00 00 00 00 00 8c 4e 0f 3e
       0.99970865 0.0 0.0 0.13994807
000060 e8 ec 7f 3f 00 00 00 00 00 00 00 00 f5 ab 35 3e
       0.99970865 0.0 0.0 0.17741378

network_body.processors.1.normalizer.running_variance f4 [28]
000000 d1 9e 54 44 00 00 80 3f 54 98 54 44 67 ef d0 43
       850.4815 1.0 850.3801 417.87033
000010 34 28 72 43 00 00 80 3f 0d 4f 71 43 cf 4d 7d 43
       242.15704 1.0 241.30879 253.30394
000020 1e 27 88 43 00 00 80 3f 36 bd 87 43 15 ee 86 43
       272.3056 1.0 271.4782 269.86002
000030 d4 d9 9f 40 00 00 80 3f 0c d5 7f 40 6c 11 33 42
       4.9953403 1.0 3.9973783 44.767014
000040 5b 36 5f 41 00 00 80 3f 30 54 4f 41 88 59 9d 42
       13.95077 1.0 12.958054 78.674866
000050 79 f6 ff 3f 00 00 80 3f 00 00 80 3f 43 08 8e 41
       1.9997092 1.0 1.0 17.754034
000060 79 f6 ff 3f 00 00 80 3f 00 00 80 3f 55 95 6f 42
       1.9997092 1.0 1.0 59.895832

network_body.processors.2.normalizer.running_mean f4 [7]
000000 2b fd 95 43 ff c2 10 41 55 05 16 41 e6 2e 07 41
       299.97787 9.047606 9.376302 8.44895
000010 9b f6 06 41 48 af 09 41 26 37 0a 41
       8.435206 8.605293 8.638464

network_body.processors.2.normalizer.running_variance f4 [7]
000000 e7 0c 28 49 4f 51 c6 48 32 1f 8f 48 06 5b 8b 48
       688334.44 406154.47 293113.56 285400.2
000010 e2 1b 7c 48 fa 77 6d 48 44 b5 88 48
       258159.53 243167.9 279978.12

network_body._body_endoder.seq_layers.0.weight f4 [64, 63]
000000 27 96 a9 3d 73 90 82 3e b9 4a 6c 3e 8a fb d2 bc
       0.082805924 0.2550083 0.2307538 -0.025754709
000010 f0 eb 44 3d 13 7a 8d bc 43 93 19 3e 98 2e fe 3c
       0.04807657 -0.017270124 0.14997582 0.031028077
000020 d5 4e 72 bd d9 4a 38 bd c3 bb e3 3d 65 b3 41 3d
       -0.05915721 -0.044993255 0.11119797 0.047290225
000030 f1 2d 4b 3e 64 f5 13 be 48 bb 95 3d cb 5c 6b 3d
       0.19841744 -0.14449078 0.07311112 0.05746154
000040 97 8f 16 bd cf 7d 4d 3d 73 d3 85 bd cb 6e 4d be
       -0.03675803 0.05016881 -0.06534471 -0.20061795
000050 cc 05 a9 bd 2b 7f 1d bc b8 27 87 bd 20 29 cc bd
       -0.08253059 -0.009612839 -0.065993726 -0.099687815
000060 c5 f0 61 bd f2 27 51 be f3 67 83 be 7b d4 e6 bd
       -0.055161256 -0.20425394 -0.25665244 -0.11270996
000070 f0 a5 eb 3d 99 5e 13 be 22 24 0e 3c dd 8e 90 bd
       0.115062594 -0.14391555 0.008675607 -0.07058499
000080 55 c1 97 be f7 50 e0 bd 6a ec 41 3b 72 89 91 3d
       -0.29639688 -0.10952943 0.0029590377 0.07106294
000090 ed 24 d0 bb b2 5e 6a bd e7 96 63 bd 32 a0 e0 bd
       -0.006352058 -0.057219215 -0.055563834 -0.10968055
0000a0 7e b1 41 3e 0d 09 a2 3d be 17 2e 3e 71 1b ff 3d
       0.18915364 0.079118825 0.17001244 0.12456406
0000b0 40 2c 0a 3d 22 cf 21 3e a6 4f ac 3e 57 3c 80 3c
       0.033733606 0.15801671 0.33654517 0.015653772
0000c0 dc e4 e3 3d 8b 20 01 bd 36 f3 04 be 7e ff 65 bd
       0.11127636 -0.031525176 -0.12983403 -0.05615186
0000d0 e6 1d 89 be d9 65 1a 3d 43 27 ed 3d 0e 10 39 be
       -0.26780623 0.037694786 0.11579754 -0.1807253
0000e0 8b 60 0f 3e 9b 74 72 bc 27 35 64 bd 70 48 e5 3d
       0.14001672 -0.014798309 -0.055714753 0.11195457
0000f0 81 c2 00 be af cd 8d 3d 51 3a 1d be 1a 84 1a be
       -0.12574197 0.06923997 -0.15354277 -0.15089455
000100 cc a7 f0 bd e6 b2 43 3d 70 f1 b6 bd bb be c7 bc
       -0.11750755 0.047778033 -0.08932769 -0.02438294
000110 d4 b8 e1 bd 9f 2a 3a bd 21 47 0b 3e ba 6d bc bb
       -0.11021581 -0.045450803 0.13601352 -0.005750385
000120 34 cf 14 bd 4a c6 44 bd 93 a6 f8 3d ce 47 89 bd
       -0.036330417 -0.048040666 0.121411465 -0.06703149
000130 fe 7e 84 bd 8d 17 19 bc 03 2e cf bc fc fc 84 3d
       -0.06469534 -0.009343994 -0.025290495 0.064935654
000140 d3 af a3 3d f7 a8 6d 3d 56 96 1a 3c 42 cd 51 bc
       0.0799252 0.058022466 0.009435257 -0.012805285
000150 7f 3a db bd 78 e6 02 3d 84 35 ad 3d 6e fe 05 be
       -0.107045166 0.031958073 0.08457473 -0.13085338
000160 22 ad 4e 3b 31 33 64 3d 94 8c 93 3d d2 39 13 3d
       0.00315363 0.055712882 0.072045475 0.035943814
000170 d5 06 aa ba 2c 42 8c bd 87 22 0f 3e d3 be 4a bd
       -0.0012972007 -0.06848559 0.13978015 -0.04949839
000180 ac be 22 be f5 86 03 3e 56 cb 8d 3e d8 d1 ca 3b
       -0.15893048 0.12844451 0.27694196 0.006189566
000190 17 a0 2a bd e0 e1 fd bd b0 90 0d be 28 ac 64 bd
       -0.04165658 -0.12396598 -0.13824725 -0.055828243
0001a0 9e fd 56 bc b0 cb 09 bd 8d ad 70 3c ec bf b9 bd
       -0.0131219905 -0.033641517 0.014689815 -0.09069809
0001b0 61 a0 c7 bd bd 62 a7 3d d0 78 1e be 90 78 c5 bc
       -0.09747387 0.0817313 -0.15475774 -0.02410534
0001c0 66 24 4c 3b 07 94 b2 3d ad 9f ef bd 51 b8 34 bd
       0.0031149625 0.0871964 -0.117003776 -0.04412109
0001d0 af 93 02 3e 50 d8 8d 3d 36 42 dc bc 16 6d 39 bc
       0.1275165 0.06926024 -0.02688704 -0.011317512
0001e0 3c 74 95 be 27 2d a4 bc 45 c4 2b bd 3c e4 80 3b
       -0.29190242 -0.020041062 -0.041935224 0.0039334577
0001f0 6c 67 72 3d 52 fe e2 3b 31 42 ab bc cc 4b 56 3d
       0.059180662 0.00692729 -0.020905586 0.05231838
000200 58 52 7a bd d4 65 50 3d ff 4e 98 bd 57 56 6d 3e
       -0.061113685 0.05087836 -0.07436942 0.23177467
000210 82 e4 d9 3d 3d c1 33 3e 86 1b ab bd d7 2f d4 bd
       0.106392875 0.17554183 -0.08354859 -0.10360687
000220 f7 7f e1 bd 9b 9a 6b 3e 18 e1 ef bc 20 45 30 be
       -0.110107355 0.23008196 -0.029282138 -0.17213869
000230 cf 22 9a 3d f7 1e ea 3d 5c 02 08 3c fe fa 41 3e
       0.075261705 0.11431687 0.008301344 0.18943402
000240 59 2c 38 bd e0 47 ae 3d ef 15 ed 3c 1e d3 ad bc
       -0.04496417 0.08509803 0.028941123 -0.021218833
000250 d4 6d 5e 3e c8 a0 a3 3d 76 ea bd 3d 7b 76 4b 3d
       0.21721584 0.07989651 0.092732355 0.04967354
000260 0c 8e 09 3e 03 f8 78 bd 38 cd 56 3b 17 8b 51 be
       0.13433093 -0.060783397 0.0032776129 -0.20463215
000270 61 33 64 be cd 75 05 3e 89 95 cc bd 79 a4 65 be
       -0.22285224 0.13033219 -0.09989459 -0.22426023
000280 d2 d0 8f 3c dd 0a 93 3d 3c 9d 08 3e e2 d7 cc 3d
       0.017555628 0.071798064 0.1334123 0.10002114
000290 26 bc 32 bd 21 2e 9b bb f9 69 bd 3c f7 02 d0 3d
       -0.043636464 -0.0047357236 0.02312182 0.101568155
0002a0 42 90 93 3c 2d 05 c8 3d 77 d6 d4 bd ac 2f 46 be
       0.018013123 0.09766612 -0.103924684 -0.19354123
0002b0 6b b4 bc 3d 6b 04 1c 3c 76 2e 51 bd 92 fa 36 be
       0.092140995 0.009522538 -0.0510697 -0.17869022
0002c0 70 70 23 3e 19 10 79 be 14 ab 69 3d 36 5d 92 3d
       0.1596086 -0.24322547 0.05704792 0.07146685
0002d0 73 48 00 3d 96 5e f0 bd 5d 93 b3 3c bb fc bc 3d
       0.031319093 -0.11736791 0.021920854 0.09227892
0002e0 6a e1 18 3d d2 9a 47 3d 98 30 4d bd cc 4e d6 bb
       0.037324347 0.048731633 -0.05009517 -0.006540155
0002f0 10 a3 20 be 27 5f 9c 3e 5c 4e 4a be 36 cd d5 3d
       -0.15687203 0.30541345 -0.19756454 0.104395315
000300 a7 98 0c 3d f9 ad a6 bc bd 38 31 3e 8a dd 69 3e
       0.034325268 -0.020346629 0.173068 0.22838417
000310 e4 eb 42 3e 1e 71 a9 3e d1 e4 60 bd 45 d8 5e be
       0.19035298 0.33094114 -0.054905716 -0.21762188
000320 f2 d4 91 3d c6 79 b8 3d 60 69 b6 bd 8c 05 5f be
       0.07120694 0.090076014 -0.089068174 -0.2177946
000330 dd b6 00 bd cb d8 b3 3d 76 c6 95 3d 58 74 1e bd
       -0.031424392 0.08781584 0.07313244 -0.038685173
000340 3b ad 59 be 31 68 0f bd b0 7c ca bc ac 59 9c 3d
       -0.21257488 -0.035011474 -0.024717659 0.07634291
000350 5d 8b 52 bc e9 07 04 3e cc 2b 0f 3e 8b fc 75 bd
       -0.01285061 0.12893642 0.13981551 -0.060055297
000360 e2 cb 58 3e 15 ee 12 3e 11 2b 4f be 45 ff 91 bd
       0.21171525 0.14348634 -0.20231272 -0.07128767
000370 fa 2e 40 bd 96 10 50 bd 0b 4e e7 3d c4 87 7d 3d
       -0.0469198 -0.050797068 0.112941824 0.061897054
000380 28 67 2c 3e be 1d 0d bd 13 28 dc 3b 8f 12 37 bd
       0.16836226 -0.034452192 0.0067186444 -0.044695433
000390 fb 37 43 3d 80 25 2e 3d 3e e0 77 be e8 b7 42 be
       0.04766081 0.04251623 -0.24206635 -0.19015467
0003a0 36 56 36 be a0 13 ec 3d 48 2b 23 be a5 f9 08 be
       -0.17806324 0.11527181 -0.15934479 -0.13376482
0003b0 1e 77 77 be b9 e5 29 3d f4 af 3e 3b e9 2f 7f bd
       -0.24166533 0.041478846 0.0029096575 -0.06230155
0003c0 4d 67 81 3c 93 8b ef bd 38 71 16 3c 1d b9 bd bd
       0.015796328 -0.116965435 0.009182267 -0.09263823
0003d0 ad 51 e2 bd be ef 20 3e 9f 1a a1 bc 99 a7 2c bd
       -0.11050735 0.15716454 -0.019666014 -0.04215202
0003e0 f7 95 73 3d d1 fa c3 bd 7c a7 cf 3d d1 0f 81 bd
       0.05946919 -0.09569324 0.10139367 -0.06301845
0003f0 79 89 19 3d 01 20 45 be 0b 81 38 bd 62 c6 94 3d
       0.03748462 -0.1925049 -0.04504494 0.07264401

network_body._body_endoder.seq_layers.0.bias f4 [64]
000000 00 00 00 00 00 00 00 00 00 00 00 00 00 00 00 00
       0.0 0.0 0.0 0.0
000010 00 00 00 00 00 00 00 00 00 00 00 00 00 00 00 00
       0.0 0.0 0.0 0.0
000020 00 00 00 00 00 00 00 00 00 00 00 00 00 00 00 00
       0.0 0.0 0.0 0.0
000030 00 00 00 00 00 00 00 00 00 00 00 00 00 00 00 00
       0.0 0.0 0.0 0.0
000040 00 00 00 00 00 00 00 00 00 00 00 00 00 00 00 00
       0.0 0.0 0.0 0.0
000050 00 00 00 00 00 00 00 00 00 00 00 00 00 00 00 00
       0.0 0.0 0.0 0.0
000060 00 00 00 00 00 00 00 00 00 00 00 00 00 00 00 00
       0.0 0.0 0.0 0.0
000070 00 00 00 00 00 00 00 00 00 00 00 00 00 00 00 00
       0.0 0.0 0.0 0.0
000080 00 00 00 00 00 00 00 00 00 00 00 00 00 00 00 00
       0.0 0.0 0.0 0.0
000090 00 00 00 00 00 00 00 00 00 00 00 00 00 00 00 00
       0.0 0.0 0.0 0.0
0000a0 00 00 00 00 00 00 00 00 00 00 00 00 00 00 00 00
       0.0 0.0 0.0 0.0
0000b0 00 00 00 00 00 00 00 00 00 00 00 00 00 00 00 00
       0.0 0.0 0.0 0.0
0000c0 00 00 00 00 00 00 00 00 00 00 00 00 00 00 00 00
       0.0 0.0 0.0 0.0
0000d0 00 00 00 00 00 00 00 00 00 00 00 00 00 00 00 00
       0.0 0.0 0.0 0.0
0000e0 00 00 00 00 00 00 00 00 00 00 00 00 00 00 00 00
       0.0 0.0 0.0 0.0
0000f0 00 00 00 00 00 00 00 00 00 00 00 00 00 00 00 00
       0.0 0.0 0.0 0.0
