Assets/_created_block_bigger_gradual_reward_increased_length_continuous_dynamics_Added_checkpoint_ontriggerenter_Renaming_sensor_beta_0.003_increased_rewards_corrected_blocker/competitor/competitor-12999945.pt (torch, 238430 bytes, 70 tensors)

discrete_act_size_vector f4 [1, 3]
0	0x40000000	2.0
1	0x40000000	2.0
2	0x40000000	2.0

network_body.observation_encoder.processors.0.normalizer.running_mean f4 [28]
0	0x3e6e991b	0.23300593
1	0x3c0516a1	0.008123071
2	0x3f424461	0.7588559
3	0x3f4b40a9	0.7939554
4	0x3e54b385	0.20771606
5	0x3c0050e8	0.00783179
6	0x3f48d102	0.7844392
7	0x3f503975	0.8133767
8	0x3e6a0b49	0.22855867
9	0x3b9cf0e0	0.0047894567
10	0x3f4442ee	0.76664627
11	0x3f4d6649	0.802342
12	0x3e0d615b	0.1380667
13	0x3c07dc7c	0.008292314
14	0x3f5a895c	0.85365844
15	0x3f5e2fef	0.8679189
16	0x3e13ef24	0.14446694
17	0x3b04db98	0.002027249
18	0x3f5a7edc	0.8534982
19	0x3f5e0259	0.8672233
20	0x3dac9cf4	0.08428374
21	0x3c0044ab	0.007828872
22	0x3f6868bc	0.9078481
23	0x3f6a9da2	0.9164678
24	0x3db9e885	0.09077553
25	0x3ad38f6a	0.0016140763
26	0x3f68592f	0.90761083
27	0x3f6a3218	0.91482687

network_body.observation_encoder.processors.0.normalizer.running_variance f4 [28]
0	0x4a0dcb54	2.323157e+06
1	0x47cc91ae	104739.36
2	0x4a11312d	2.3788272e+06
3	0x49d9adfb	1.7832314e+06
4	0x4a029375	2.1393572e+06
5	0x47c54385	100999.04
6	0x4a062912	2.1980845e+06
7	0x49cda72a	1.6847092e+06
8	0x4a0be66e	2.2921235e+06
9	0x47722bc3	61995.76
10	0x4a0df02c	2.325515e+06
11	0x49d1fb59	1.7201711e+06
12	0x49bcdaf4	1.5471025e+06
13	0x47d0c9d3	106899.65
14	0x49c63ddc	1.6239955e+06
15	0x49a380e5	1.3394206e+06
16	0x49c41be2	1.6065242e+06
17	0x46cd3c6e	26270.215
18	0x49c66a44	1.6254165e+06
19	0x49a49aec	1.3484455e+06
20	0x4974f56a	1.0033506e+06
21	0x47c52fd7	100959.68
22	0x4984b4c0	1.087128e+06
23	0x495cb3f4	903999.25
24	0x4982fb49	1.0730011e+06
25	0x46a39553	20938.662
26	0x4985106a	1.0900612e+06
27	0x4963087a	929927.6

network_body.observation_encoder.processors.1.normalizer.running_mean f4 [28]
0	0x3ea244d4	0.31693137
1	0x3d179d41	0.037015203
2	0x3f24f7fa	0.6444088
3	0x3f646904	0.8922274
4	0x3f3119a7	0.6917977
5	0x3d706d2c	0.058697864
6	0x3e7f72b6	0.24946102
7	0x3f0e217e	0.55519855
8	0x3f43daef	0.7650594
9	0x3d0a3dd0	0.033750355
10	0x3e368887	0.17825519
11	0x3effaa77	0.49934742
12	0x3f4fe242	0.8120462
13	0x3e085bdb	0.1331629
14	0x3d603fbb	0.054748278
15	0x3ed35ce6	0.41281813
16	0x3f5b1860	0.8558407
17	0x3ccc5e32	0.02494726
18	0x3dc948b2	0.09828319
19	0x3e9a9c92	0.3019758
20	0x3f57d6c0	0.8431206
21	0x3e1edee3	0.15514712
22	0x3ade69c6	0.0016968779
23	0x3eb45968	0.35224462
24	0x3f64a0f6	0.89308107
25	0x3c924528	0.017855242
26	0x3d865045	0.06558279
27	0x3e86205b	0.2619656

network_body.observation_encoder.processors.1.normalizer.running_variance f4 [28]
0	0x4a2bc537	2.8142858e+06
1	0x48e24e44	463474.12
2	0x4a35d159	2.9789022e+06
3	0x48ca8c45	414818.16
4	0x4a292c81	2.7717442e+06
5	0x492f5974	718231.25
6	0x4a148d6e	2.4338835e+06
7	0x49a742fc	1.3702075e+06
8	0x4a0e9d8b	2.3366108e+06
9	0x48cf15ca	424110.3
10	0x49e86def	1.9040619e+06
11	0x496b5b93	964025.2
12	0x49f23402	1.9841282e+06
13	0x49b72583	1.5003364e+06
14	0x49243f56	672757.4
15	0x499ad719	1.2684511e+06
16	0x49c3c65b	1.6037874e+06
17	0x489a7d0a	316392.3
18	0x498ca5fe	1.1521918e+06
19	0x4963ce5f	933093.94
20	0x49d1eb28	1.719653e+06
21	0x49cffe2d	1.7038776e+06
22	0x46abdb5e	21997.684
23	0x495ee014	912897.25
24	0x49978be7	1.2414689e+06
25	0x485ec00c	228096.19
26	0x49427252	796453.1
27	0x49653a18	938913.5

network_body.observation_encoder.processors.2.normalizer.running_mean f4 [7]
0	0x43679f17	231.62144
1	0x424d15a7	51.271145
2	0x424eb53d	51.67699
3	0x424bfae5	50.995014
4	0x424cff58	51.24936
5	0x424e001d	51.50011
6	0x424bdbdf	50.964718

network_body.observation_encoder.processors.2.normalizer.running_variance f4 [7]
0	0x5106e308	3.620841e+10
1	0x50cec6e6	2.7753132e+10
2	0x50ce806f	2.7716188e+10
3	0x50ced40e	2.776003e+10
4	0x50ce4905	2.7687135e+10
5	0x50ce2f68	2.7673706e+10
6	0x50ce7d6e	2.7714613e+10

network_body.processors.0.normalizer.running_mean f4 [28]
0	0x3e6e991b	0.23300593
1	0x3c0516a1	0.008123071
2	0x3f424461	0.7588559
3	0x3f4b40a9	0.7939554
4	0x3e54b385	0.20771606
5	0x3c0050e8	0.00783179
6	0x3f48d102	0.7844392
7	0x3f503975	0.8133767
8	0x3e6a0b49	0.22855867
9	0x3b9cf0e0	0.0047894567
10	0x3f4442ee	0.76664627
11	0x3f4d6649	0.802342
12	0x3e0d615b	0.1380667
13	0x3c07dc7c	0.008292314
14	0x3f5a895c	0.85365844
15	0x3f5e2fef	0.8679189
16	0x3e13ef24	0.14446694
17	0x3b04db98	0.002027249
18	0x3f5a7edc	0.8534982
19	0x3f5e0259	0.8672233
20	0x3dac9cf4	0.08428374
21	0x3c0044ab	0.007828872
22	0x3f6868bc	0.9078481
23	0x3f6a9da2	0.9164678
24	0x3db9e885	0.09077553
25	0x3ad38f6a	0.0016140763
26	0x3f68592f	0.90761083
27	0x3f6a3218	0.91482687

network_body.processors.0.normalizer.running_variance f4 [28]
0	0x4a0dcb54	2.323157e+06
1	0x47cc91ae	104739.36
2	0x4a11312d	2.3788272e+06
3	0x49d9adfb	1.7832314e+06
4	0x4a029375	2.1393572e+06
5	0x47c54385	100999.04
6	0x4a062912	2.1980845e+06
7	0x49cda72a	1.6847092e+06
8	0x4a0be66e	2.2921235e+06
9	0x47722bc3	61995.76
10	0x4a0df02c	2.325515e+06
11	0x49d1fb59	1.7201711e+06
12	0x49bcdaf4	1.5471025e+06
13	0x47d0c9d3	106899.65
14	0x49c63ddc	1.6239955e+06
15	0x49a380e5	1.3394206e+06
16	0x49c41be2	1.6065242e+06
17	0x46cd3c6e	26270.215
18	0x49c66a44	1.6254165e+06
19	0x49a49aec	1.3484455e+06
20	0x4974f56a	1.0033506e+06
21	0x47c52fd7	100959.68
22	0x4984b4c0	1.087128e+06
23	0x495cb3f4	903999.25
24	0x4982fb49	1.0730011e+06
25	0x46a39553	20938.662
26	0x4985106a	1.0900612e+06
27	0x4963087a	929927.6

network_body.processors.1.normalizer.running_mean f4 [28]
0	0x3ea244d4	0.31693137
1	0x3d179d41	0.037015203
2	0x3f24f7fa	0.6444088
3	0x3f646904	0.8922274
4	0x3f3119a7	0.6917977
5	0x3d706d2c	0.058697864
6	0x3e7f72b6	0.24946102
7	0x3f0e217e	0.55519855
8	0x3f43daef	0.7650594
9	0x3d0a3dd0	0.033750355
10	0x3e368887	0.17825519
11	0x3effaa77	0.49934742
12	0x3f4fe242	0.8120462
13	0x3e085bdb	0.1331629
14	0x3d603fbb	0.054748278
15	0x3ed35ce6	0.41281813
16	0x3f5b1860	0.8558407
17	0x3ccc5e32	0.02494726
18	0x3dc948b2	0.09828319
19	0x3e9a9c92	0.3019758
20	0x3f57d6c0	0.8431206
21	0x3e1edee3	0.15514712
22	0x3ade69c6	0.0016968779
23	0x3eb45968	0.35224462
24	0x3f64a0f6	0.89308107
25	0x3c924528	0.017855242
26	0x3d865045	0.06558279
27	0x3e86205b	0.2619656

network_body.processors.1.normalizer.running_variance f4 [28]
0	0x4a2bc537	2.8142858e+06
1	0x48e24e44	463474.12
2	0x4a35d159	2.9789022e+06
3	0x48ca8c45	414818.16
4	0x4a292c81	2.7717442e+06
5	0x492f5974	718231.25
6	0x4a148d6e	2.4338835e+06
7	0x49a742fc	1.3702075e+06
8	0x4a0e9d8b	2.3366108e+06
9	0x48cf15ca	424110.3
10	0x49e86def	1.9040619e+06
11	0x496b5b93	964025.2
12	0x49f23402	1.9841282e+06
13	0x49b72583	1.5003364e+06
14	0x49243f56	672757.4
15	0x499ad719	1.2684511e+06
16	0x49c3c65b	1.6037874e+06
17	0x489a7d0a	316392.3
18	0x498ca5fe	1.1521918e+06
19	0x4963ce5f	933093.94
20	0x49d1eb28	1.719653e+06
21	0x49cffe2d	1.7038776e+06
22	0x46abdb5e	21997.684
23	0x495ee014	912897.25
24	0x49978be7	1.2414689e+06
25	0x485ec00c	228096.19
26	0x49427252	796453.1
27	0x49653a18	938913.5

network_body.processors.2.normalizer.running_mean f4 [7]
0	0x43679f17	231.62144
1	0x424d15a7	51.271145
2	0x424eb53d	51.67699
3	0x424bfae5	50.995014
4	0x424cff58	51.24936
5	0x424e001d	51.50011
6	0x424bdbdf	50.964718

network_body.processors.2.normalizer.running_variance f4 [7]
0	0x5106e308	3.620841e+10
1	0x50cec6e6	2.7753132e+10
2	0x50ce806f	2.7716188e+10
3	0x50ced40e	2.776003e+10
4	0x50ce4905	2.7687135e+10
5	0x50ce2f68	2.7673706e+10
6	0x50ce7d6e	2.7714613e+10

network_body._body_endoder.seq_layers.0.weight f4 [64, 63]
0	0xbdca3f29	-0.09875328
1	0x3db1c857	0.0868079
2	0xbb778325	-0.0037767377
3	0x3e875ca7	0.26437876
4	0x3efd70a8	0.49500012
5	0xbedcc466	-0.4311859
6	0xbe6a4a67	-0.22879945
7	0x3cf2d2de	0.029641565
8	0xbd3f7e44	-0.046751276
9	0x3f2e6512	0.6812297
10	0xbd6cbf7c	-0.0577998
11	0x3e0e4f3e	0.13897416
12	0x3f3ab333	0.72929686
13	0x3cfea6e2	0.031085435
14	0xbda77f4e	-0.08178578
15	0xbe2d666e	-0.16933605
16	0xbdc42bce	-0.095786676
17	0x3f751c71	0.95746523
18	0xbdba22cd	-0.09088669
19	0xbec0d3fa	-0.37661725
20	0x3f0862c9	0.53275734
21	0xbe430540	-0.19044971
22	0x3e535c25	0.20640619
23	0x3bcbbc96	0.0062175496
24	0xbeac383e	-0.3363666
25	0x3ee82abf	0.45345113
26	0x3f2df7b5	0.67956096
27	0x3f290c01	0.6603394
28	0x3fc128cb	1.5090574
29	0xbee88f93	-0.45422038
30	0xbf85ef17	-1.046359
31	0xbed0a2dc	-0.40749252
32	0x3f1dae3b	0.6159398
33	0xbe8c1d08	-0.273659
34	0xbc954e68	-0.018225864
35	0x3fd83352	1.6890662
36	0x3e1b935b	0.1519293
37	0x3fc74ba4	1.5569959
38	0xbf95df05	-1.1708685
39	0xbfa1dfc0	-1.2646408
40	0xbc63d003	-0.013904574
41	0x3e78deaf	0.24303697
42	0xbf36a1c8	-0.7134061
43	0xbe5ff20c	-0.21869677
44	0x3de8e0f4	0.113710314
45	0xbc234b77	-0.009966723
46	0xbed1b768	-0.4096024
47	0x3e79f051	0.2440808
48	0xbd9d1adc	-0.07671139
49	0x3ea6d9cf	0.3258805
50	0x3f669b5b	0.90080804
51	0xbf3cef8e	-0.7380303
52	0x3bbfb43b	0.0058503426
53	0xbf9268e7	-1.1438264
54	0x3f90b289	1.1304485
55	0x3eafef41	0.34362224
56	0x3ee6db46	0.45089167
57	0xbda1c4eb	-0.07898887
58	0xbe55503e	-0.20831391
59	0x3f15e3c6	0.5855068
60	0x3e713737	0.23556219
61	0xbf46b88b	-0.7762534
62	0x3e321b8d	0.17393322
63	0x3ed98b4a	0.42489082
64	0x3f2f2aaf	0.68424505
65	0xbed899fc	-0.4230498
66	0xbf39956d	-0.7249363
67	0x3ed775eb	0.42082152
68	0x3ef400c4	0.47656834
69	0xbe448d37	-0.19194494
70	0xbef6827d	-0.4814643
71	0xbf32dec3	-0.6987116
72	0xbeadd5c2	-0.33952147
73	0x3f71faf6	0.9452356
74	0x3f1a1362	0.60185826
75	0x3edf548b	0.4361919
76	0x3f6f94a7	0.935862
77	0xbe8c6c6d	-0.27426472
78	0xbe88b972	-0.26703984
79	0x3faaff0e	1.3359087
80	0x3f7ab4af	0.9793195
81	0xbf98ce9f	-1.1938056
82	0xbf785676	-0.9700693
83	0xbf33e6e6	-0.702742
84	0x3f9ea475	1.2393938
85	0x3f0d74a3	0.552561
86	0x3f40dea6	0.75339735
87	0xbf26a36d	-0.6509312
88	0x3f212ec2	0.6296197
89	0x3f3da9dc	0.7408731
90	0x3f41ec30	0.7575102
91	0x3f756824	0.9586203
92	0xbf0d2145	-0.5512889
93	0xbeded588	-0.43522286
94	0x3e471db2	0.19444922
95	0x3f71a173	0.94386977
96	0xbe9fa5ed	-0.3118128
97	0xbfaa4792	-1.3303092
98	0xbf992a70	-1.1966076
99	0x3e840555	0.25785318
100	0xbfb42a03	-1.4075321
101	0x3f3bf68e	0.7342309
102	0xbf0a15fe	-0.5393981
103	0xbee7463b	-0.4517077
104	0x3f49f6a2	0.78891957
105	0xbeb2cc08	-0.34921288
106	0xbf17e5ea	-0.59335196
107	0x3e4d3ace	0.20041963
108	0xbe129694	-0.14315253
109	0x3e88f639	0.26750353
110	0x3e9d3455	0.3070399
111	0xbea72dbb	-0.32652077
112	0xbe508dad	-0.20366545
113	0x3f5a3faf	0.85253423
114	0x3f221195	0.6330808
115	0xbea19b92	-0.31564003
116	0xbf79e5f6	-0.9761652
117	0x3efe5d19	0.49680403
118	0x3f5b6ea2	0.8571569
119	0x3fe3c4b6	1.7794406
120	0xbf82c999	-1.0217773
121	0xbf7f09df	-0.9962444
122	0x3eb31b68	0.34981847
123	0x3d8422ea	0.06451972
124	0xbefda32f	-0.49538562
125	0xbeda6de7	-0.42661974
126	0xbd9c63fd	-0.07636259
127	0x3e98dafe	0.29854578
128	0x3ec6dcf1	0.3884044
129	0x3e65b476	0.22432122
130	0x3ee065c5	0.43827644
131	0x3f0ab24e	0.5417832
132	0x3a565a46	0.0008176904
133	0x3dc74fd8	0.09732026
134	0xbea37d32	-0.31931454
135	0x3e679ee2	0.22619203
136	0x3eaad038	0.33361983
137	0xbe857314	-0.2606436
138	0x3ebd3206	0.36952227
139	0xbf635d63	-0.8881437
140	0x3f161742	0.5862924
141	0x3f17eec7	0.5934872
142	0xbe0f6cf4	-0.14006406
143	0x3f3b45f3	0.7315361
144	0x3e92c4f9	0.28665903
145	0x3e61283d	0.21988006
146	0x3f39de16	0.726045
147	0x3edaa614	0.42704833
148	0xbe9d0dee	-0.3067469
149	0xbebdac68	-0.37045598
150	0xbe0cf731	-0.13766171
151	0xbdcd9c10	-0.10039532
152	0x3c64b182	0.013958337
153	0xbee12a63	-0.4397765
154	0x3ea30a8d	0.31843987
155	0xbe35330a	-0.17695251
156	0x3dce3c01	0.100700386
157	0xbf9df4cd	-1.2340332
158	0xbeb08093	-0.34473094
159	0x3e935dd2	0.28782517
160	0x3e888837	0.26666424
161	0xc02dbeeb	-2.7147777
162	0x3f5f800f	0.87304777
163	0x3ef4462d	0.4770979
164	0xbecaade5	-0.39585796
165	0x3fffeb69	1.9993716
166	0xbf2a3960	-0.664938
167	0x3f7df824	0.9920676
168	0xbf26dfc7	-0.6518521
169	0xc00b32c8	-2.1749744
170	0x3f1909d1	0.59780604
171	0xbff493d0	-1.9107609
172	0x3f22ebc0	0.63640976
173	0x3e93fc03	0.28903207
174	0x3f58af25	0.8464225
175	0xbf0b55f9	-0.5442806
176	0x3ef2c990	0.47419405
177	0xbf9a7344	-1.2066426
178	0xbf00caa2	-0.50309193
179	0x3f556531	0.8335753
180	0xbdbf4eaf	-0.093411796
181	0xbd627193	-0.055284094
182	0x3ed273da	0.41104013
183	0xbeb2b846	-0.34906214
184	0xbcffaabd	-0.031209344
185	0xbeaa0e84	-0.332142
186	0x3e8266fe	0.25469202
187	0xbec150ff	-0.37757108
188	0xbf147d83	-0.58004016
189	0x3f7e18ea	0.99256766
190	0x3f93f180	1.1558075
191	0xbfc968ee	-1.5735147
192	0xbfb07f14	-1.3788781
193	0xbf3496b9	-0.70542485
194	0x3f9449f3	1.1585068
195	0xbe24eabd	-0.1610517
196	0xbea18540	-0.31546974
197	0x3f4e0be1	0.80486876
198	0x3dd3dd43	0.10344937
199	0xbf85d1df	-1.0454673
200	0xbf5d4664	-0.8643553
201	0xbd81d3c3	-0.063392185
202	0x3e963283	0.29335412
203	0x3e41b1a6	0.18915424
204	0x3d00b543	0.031422865
205	0xbeac4420	-0.33645725
206	0x3ec6a48d	0.38797417
207	0xbb8499f7	-0.0040466744
208	0x3d9641b4	0.073367506
209	0xbebfb868	-0.37445378
210	0x3f4104a1	0.7539769
211	0xbdf84270	-0.12122047
212	0xbe952e1f	-0.2913675
213	0xbf6ca705	-0.9244235
214	0x3f4a8f42	0.79124844
215	0x3f0f74d7	0.5603766
216	0x3f0a5030	0.54028606
217	0x3f627b8d	0.88469774
218	0x3e6af3c5	0.22944553
219	0xbf2092e3	-0.6272413
220	0xbf86ece1	-1.054104
221	0xbeee0176	-0.4648549
222	0x3f1c44fb	0.61042756
223	0x3a59f65d	0.0008314604
224	0x3d18a126	0.037263058
225	0x3e30f590	0.17281175
226	0xbde1c970	-0.11024749
227	0x3f7ced42	0.98799527
228	0xc0057011	-2.084965
229	0x3f549f0b	0.8305518
230	0xbf4d09d1	-0.80093104
231	0x3fa96a81	1.3235627
232	0xbe8c1586	-0.2736017
233	0xbf831314	-1.0240197
234	0x3f21f986	0.6327137
235	0x3fed8636	1.8556583
236	0xbf937efb	-1.1523126
237	0xbdbddb7a	-0.092703775
238	0x3e0631ca	0.1310493
239	0xbf228f27	-0.63499683
240	0xbec8df11	-0.39232686
241	0xbe9319bd	-0.28730574
242	0x3f82feb0	1.0233974
243	0x3df01644	0.11722997
244	0xbf5fdf37	-0.87449974
245	0x3c3a1b25	0.011359011
246	0xbf07fe13	-0.5312206
247	0x3f61c309	0.88188225
248	0xbe92b3fa	-0.28652936
249	0xbee0dcb3	-0.4391838
250	0x3f45c588	0.77254534
251	0x3fd7cb9c	1.6859012
252	0x3f2b0c54	0.66815686
253	0x3ffcb872	1.9743788
254	0xbf2ded7c	-0.679405
255	0xbf2d91e9	-0.67800766

network_body._body_endoder.seq_layers.0.bias f4 [64]
0	0xc0231c0d	-2.548587
1	0xbff9d104	-1.9516912
2	0xbfd46bc4	-1.6595387
3	0xbf8a948b	-1.0826582
4	0xbe99bba8	-0.30025983
5	0xc0191787	-2.392061
6	0xbfeae50c	-1.835115
7	0xbff39b14	-1.9031701
8	0xbf870805	-1.0549322
9	0xc013f634	-2.311902
10	0xbfeede0f	-1.8661517
11	0xc014954e	-2.3216128
12	0xbf36b05c	-0.71362853
13	0xc0018373	-2.023648
14	0xc016d200	-2.3565674
15	0xbfcf48b4	-1.6194062
16	0xbfac5e33	-1.3466247
17	0xbfc92335	-1.5713869
18	0xc004e14d	-2.0762513
19	0xbf8ecb85	-1.1155859
20	0xc058fbd2	-3.39037
21	0xc002cce6	-2.043756
22	0xc03b0d91	-2.922703
23	0xbfcfe7c2	-1.6242602
24	0xc03f32bb	-2.9874713
25	0xbff78351	-1.933695
26	0xbf790ea9	-0.97287995
27	0xbfda3117	-1.7046231
28	0xbf793128	-0.9734063
29	0xbf08073a	-0.53136027
30	0xbf7abfaf	-0.97948736
31	0xbf8c30d5	-1.0952402
32	0xc04a3062	-3.159203
33	0xbf5fb25c	-0.8738153
34	0xc007643a	-2.1154923
35	0xbfd87e69	-1.6913577
36	0xbf906b5f	-1.1282767
37	0xbfeb4c43	-1.8382648
38	0xc0055f5f	-2.083946
39	0xbfdd9ede	-1.7314107
40	0xbfbb0550	-1.4610996
41	0xbf4a50a1	-0.7902928
42	0xbfd2b8d3	-1.6462654
43	0xc01f95a1	-2.4935076
44	0xbf9b535c	-1.2134814
45	0xbf9d3831	-1.2282773
46	0xbfe5abaf	-1.7943019
47	0xbfc7652d	-1.5577751
48	0xbfafd8a0	-1.3737984
49	0xc00ec4d4	-2.2307634
50	0xc0213e3b	-2.5194232
51	0xc00844a1	-2.1291888
52	0xbf845635	-1.0338808
53	0xbf846246	-1.0342491
54	0xbef940dd	-0.486823
55	0xbf3b514d	-0.7317093
56	0xc0247a98	-2.5699825
57	0xc042c96e	-3.0435443
58	0xbfe11fbe	-1.7587812
59	0xbfc23e4e	-1.5175264
60	0xbea2e07f	-0.31811902
61	0xc00c0c3c	-2.1882467
62	0xbfc60aaf	-1.547201
63	0xbf8165be	-1.0109174

network_body._body_endoder.seq_layers.2.weight f4 [64, 64]
0	0x3e2f0496	0.17091593
1	0xbf2236f2	-0.6336509
2	0xbb98a86d	-0.00465875
3	0xbda5fa60	-0.08104396
4	0x3e8f4ff3	0.27990684
5	0xbf06175a	-0.5237938
6	0x3f59a685	0.85019714
7	0xbf090981	-0.53530127
8	0xbf47fa53	-0.7811634
9	0xbf25f1de	-0.64822185
10	0xbea6e344	-0.32595265
11	0xbe8137e7	-0.25237963
12	0xbf56a901	-0.8385163
13	0xbfa283b4	-1.2696443
14	0x3e1d7bb6	0.15379223
15	0x3efadd95	0.4899718
16	0xbfc0d710	-1.5065632
17	0xbf389ac2	-0.7211114
18	0xbfc91476	-1.5709369
19	0xc0089e41	-2.134659
20	0x3f0d1af5	0.5511926
21	0xbf387288	-0.7204976
22	0x3f95058f	1.1642321
23	0x3f0d7cd9	0.5526863
24	0x3dc265e9	0.09492094
25	0x3e8f0c29	0.27938965
26	0xbe3573a3	-0.17719893
27	0xbeb618e9	-0.3556588
28	0x3e074b41	0.13212301
29	0xbe64fa55	-0.22361119
30	0x3e9d2902	0.3069535
31	0xbf97ffb2	-1.1874907
32	0xbfc2ec66	-1.5228393
33	0x3ec10584	0.3769952
34	0xbf99a0df	-1.2002219
35	0xbfa80cb6	-1.3128879
36	0x3f4e1577	0.805015
37	0xbfb97661	-1.4489251
38	0xbe76cce6	-0.241016
39	0x3f3859af	0.72011846
40	0xbf426ce3	-0.759474
41	0x3dd12d0d	0.10213671
42	0x3d89b4dd	0.0672395
43	0xbe955a2c	-0.29170358
44	0x3e2f7a97	0.17136608
45	0x3eb768bc	0.35822093
46	0xbf49a9ff	-0.7877502
47	0x3f63fbf2	0.89056313
48	0x3e11fb90	0.1425612
49	0xbe843edd	-0.2582921
50	0xbebcc562	-0.3686934
51	0xbfc9098f	-1.5706042
52	0xc00b06d2	-2.1722913
53	0xbf674c2c	-0.90350604
54	0xbea8fb4b	-0.3300422
55	0x3e815eb1	0.25267556
56	0x3f547587	0.8299183
57	0xbddbfd2a	-0.107416466
58	0xbea7325b	-0.32655606
59	0xbf088b52	-0.53337586
60	0xbf046ef0	-0.5173178
61	0xbf9020d5	-1.126002
62	0xbfb1106e	-1.3833139
63	0xbf2dac2c	-0.6784084
64	0xbf00d78c	-0.503289
65	0xbe74a781	-0.23892023
66	0x3f39f388	0.72637224
67	0xbf926cf7	-1.1439503
68	0xbf5f05e7	-0.8711838
69	0xbeb51d1b	-0.35373768
70	0xbfa4e304	-1.288178
71	0x3e13f4f4	0.14448911
72	0xbf878e6d	-1.059034
73	0x3d56ed3f	0.05247235
74	0xbf62d3bd	-0.88604337
75	0xbf6f6d6a	-0.9352633
76	0x3f057ba7	0.52141804
77	0xbf22c440	-0.63580704
78	0x3f817e38	1.0116644
79	0x3cecd756	0.028911274
80	0xbf432bb0	-0.76238537
81	0xbe31d56a	-0.17366567
82	0x3f1cbd41	0.6122628
83	0x3cfe6396	0.031053346
84	0x3ea11f7f	0.31469342
85	0x3e95312f	0.29139087
86	0x3e3a550a	0.18196502
87	0xbe880d3d	-0.265726
88	0xbda1b99f	-0.078967325
89	0x3ebd84a7	0.37015268
90	0xbfc2ef4a	-1.5229275
91	0xbf78195c	-0.96913695
92	0xbf8dda4d	-1.1082245
93	0xbe22157f	-0.15828513
94	0xbda363fd	-0.079780556
95	0xbfc5f7b3	-1.5466217
96	0x3f47f6a0	0.78110695
97	0xbf9805f8	-1.1876822
98	0xbf292bea	-0.6608263
99	0xbfb9b6a8	-1.4508867
100	0xbf9cd611	-1.2252828
101	0x3ec74f87	0.38927862
102	0x3d31814b	0.043336194
103	0xbf5dacc3	-0.8659174
104	0xbf9ce277	-1.2256612
105	0xbe329c00	-0.17442322
106	0xbfc08b7d	-1.5042568
107	0xbeb0e2fb	-0.34548172
108	0xbf4418ee	-0.7660054
109	0x3f467689	0.7752462
110	0x3e1621ea	0.14661375
111	0xbff23716	-1.8923061
112	0x3ee8e13e	0.45484346
113	0xbee1f538	-0.441324
114	0x3dce90b6	0.10086195
115	0xbedd9e98	-0.4328506
116	0xbed625b5	-0.41825643
117	0x3f3a929d	0.72879964
118	0xbf625987	-0.8841786
119	0x3d8499bf	0.06474637
120	0xbf8e3a0e	-1.1111467
121	0x3e7fa892	0.24966648
122	0x3f3cfb07	0.7382054
123	0xbe0c268a	-0.13686576
124	0xbecfa345	-0.40554252
125	0xbfc56e08	-1.5424204
126	0xbf0a6f48	-0.5407605
127	0xbc35046d	-0.0110484185
128	0x3e641b5f	0.22276066
129	0x3e9f574c	0.3112129
130	0x3f793a2b	0.9735438
131	0xbe70251c	-0.23451656
132	0xbf3a6228	-0.72806025
133	0xbec70fa5	-0.38879123
134	0x3f386bf8	0.7203975
135	0x3e51fde6	0.20507011
136	0xbdd45cf4	-0.10369292
137	0x3f5f891a	0.87318575
138	0xbd8e0abc	-0.06935641
139	0x3f882746	1.0636985
140	0x3eedd09a	0.46448213
141	0xbfa2d590	-1.2721424
142	0x3eb6e70a	0.35723144
143	0xbea04387	-0.3130152
144	0xbf4fe5db	-0.81210107
145	0xbe2036e5	-0.1564594
146	0x3d582b38	0.05277559
147	0x3e9bd3e9	0.30435112
148	0xbece2189	-0.4025996
149	0xbf73e8f3	-0.9527733
150	0x3e0b2f62	0.13592294
151	0x3f5fe8a7	0.87464374
152	0xbeab8eaa	-0.33507282
153	0x3f4da41d	0.8032854
154	0x3f973d30	1.1815548
155	0xc0025fab	-2.037089
156	0xbfb4f9c0	-1.4138718
157	0xbf1c5226	-0.6106285
158	0xbf94a512	-1.1612875
159	0xc06973c6	-3.6476912
160	0xbfd590b6	-1.6684787
161	0xbe184bcc	-0.14872664
162	0xbf61f984	-0.88271356
163	0xbd207a6d	-0.039179254
164	0xbfbfb145	-1.4975973
165	0xbe1c6fd5	-0.15277036
166	0xbe73108a	-0.23736778
167	0xbf83b72c	-1.0290275
168	0xbe60cf82	-0.21954158
169	0xbffddf5c	-1.9833789
170	0xbde8bc92	-0.11364092
171	0xbd3f5deb	-0.046720427
172	0xbf289d72	-0.6586524
173	0xbbf02e4a	-0.007329737
174	0x3f19f1c9	0.6013456
175	0x3f386e32	0.72043145
176	0xbee40a0e	-0.4453892
177	0xbe121eee	-0.14269611
178	0x3e9741fc	0.2954253
179	0xbe149eac	-0.14513654
180	0xbec2c585	-0.3804132
181	0xbebe906d	-0.37219563
182	0xbf4c6347	-0.79838985
183	0xbfa4fa46	-1.2888877
184	0xbf9c2298	-1.2198057
185	0xbfbec153	-1.4902748
186	0x3f5d1eb0	0.8637495
187	0x3f4c8cd1	0.7990237
188	0xbea221b9	-0.31666353
189	0x3d2013fa	0.03908155
190	0xbfa48b55	-1.2855021
191	0xbf4d290b	-0.8014075
192	0x3f6d96d2	0.9280826
193	0xbf8eaa4c	-1.114572
194	0x3f8c212f	1.0947627
195	0x3f063a52	0.5243274
196	0xbe66b5dd	-0.22530313
197	0xbf19cc4d	-0.60077363
198	0xbf348488	-0.70514727
199	0xbe8f6934	-0.2800995
200	0xbefc1cce	-0.49240726
201	0x3f0c2029	0.5473657
202	0x3f0887cc	0.5333221
203	0x3f07fb0a	0.5311743
204	0xbf86e6ef	-1.0539225
205	0xbf87a618	-1.0597563
206	0x3f069930	0.52577496
207	0x3e6a46cc	0.2287857
208	0xbec2796c	-0.37983263
209	0xbf413c88	-0.7548299
210	0x3e335b2d	0.1751525
211	0xbebfbcb1	-0.37448648
212	0x3f585c9e	0.8451632
213	0xbf935f99	-1.1513549
214	0x3eaabe20	0.3334818
215	0x3d182747	0.037146833
216	0x3f1d9073	0.61548537
217	0xbf42ac60	-0.76044273
218	0xbea37a70	-0.3192935
219	0x3eb1ea21	0.3474894
220	0x3f4a9cf4	0.7914574
221	0x3ee1a6f7	0.44072697
222	0xbf6267ef	-0.8843984
223	0xbf32faea	-0.69914114
224	0xc00b7c6e	-2.1794696
225	0x3e0c7c53	0.13719301
226	0xbf2db698	-0.6785674
227	0x3f86d92b	1.0535024
228	0xbfa49371	-1.2857496
229	0x3f54d89b	0.83143014
230	0xbf4b70f0	-0.79469204
231	0xbf4b8caf	-0.7951154
232	0xbfdbfbfb	-1.7186273
233	0xbf9dbb40	-1.2322769
234	0xbe9c26c3	-0.30498323
235	0xbff80aad	-1.9378258
236	0xc028329a	-2.6280885
237	0x3f240f5a	0.64085925
238	0x3e071120	0.13190126
239	0xbeccff21	-0.40038398
240	0x3f27e410	0.6558237
241	0xbfdc306a	-1.7202275
242	0xbfcb5283	-1.5884556
243	0xbeb473b4	-0.35244524
244	0xc01057ac	-2.255351
245	0xbda78902	-0.08180429
246	0xbe5bef74	-0.21478063
247	0xbf899cc0	-1.0750961
248	0x3eed4268	0.46339726
249	0xbf7469e5	-0.9547408
250	0xbe76e1ba	-0.24109545
251	0xbe9b9a47	-0.30391142
252	0xbf7e7638	-0.9939914
253	0x3e7c5877	0.24643122
254	0xbf1852de	-0.59501445
255	0xbf213461	-0.6297055

network_body._body_endoder.seq_layers.2.bias f4 [64]
0	0xbf96f784	-1.1794286
1	0xbfe3364d	-1.7750946
2	0xbee4004b	-0.44531474
3	0xbf754e5b	-0.95822686
4	0xbe355d67	-0.17711411
5	0xbfaf8b98	-1.3714476
6	0xbfcb1522	-1.5865824
7	0xc0090d5f	-2.141441
8	0xbf5413a5	-0.82842475
9	0xbf80ab75	-1.0052325
10	0xbe3c7dab	-0.18407314
11	0xbf9c5588	-1.2213602
12	0xbf9a3e4a	-1.2050259
13	0xbfc8d6d4	-1.569056
14	0x3f0566bd	0.5210989
15	0xbf84409b	-1.0332216
16	0xbfe29d55	-1.7704264
17	0xbeaab432	-0.33340603
18	0xc0048b32	-2.0709958
19	0x3eae75ad	0.34074154
20	0xbfbe4721	-1.4865457
21	0xbfaceadf	-1.3509177
22	0xbf541ba1	-0.8285466
23	0x3e748b45	0.23881252
24	0xbee2090f	-0.44147536
25	0xbf8f7875	-1.1208636
26	0xbf9ca84f	-1.2238864
27	0xbe945de8	-0.28977895
28	0xbe4e8275	-0.20166953
29	0xbf7ffd02	-0.99995434
30	0xbf9344ff	-1.1505431
31	0xbe979e3e	-0.29612917
32	0xbea09f0a	-0.31371337
33	0xbfae454a	-1.3614895
34	0xbff6302b	-1.923345
35	0xbf8affe4	-1.0859342
36	0xbf322fe0	-0.696043
37	0xbf703a5b	-0.93839043
38	0xbfd955e9	-1.6979343
39	0xbf9f0ba1	-1.2425424
40	0xbe9a6ba8	-0.3016026
41	0xbfe36583	-1.7765354
42	0xbf203656	-0.6258291
43	0xbdc7df9a	-0.097594455
44	0xbfa680ec	-1.3008094
45	0xbec795fa	-0.3898161
46	0xc0092bc1	-2.1432955
47	0xbf480299	-0.78128964
48	0xc00a5eb7	-2.162031
49	0xbeac6957	-0.33674118
50	0xbfa36173	-1.2764114
51	0xbf0198a9	-0.50623566
52	0xbf621643	-0.8831522
53	0xbf9305af	-1.148611
54	0xbf359970	-0.7093725
55	0xbfa79db5	-1.3095003
56	0xbf684c45	-0.9074138
57	0xbf8b57bc	-1.088615
58	0xbef475d3	-0.47746143
59	0xc013a9c3	-2.3072364
60	0xbf9d2bc3	-1.227898
61	0xbf57c623	-0.8428671
62	0x3e8cdf11	0.27513936
63	0xbf2aef24	-0.6677115

action_model._discrete_distribution.branches.0.weight f4 [2, 64]
0	0xbdf77a2d	-0.1208385
1	0x3f558e3a	0.83420146
2	0x3ccbe87e	0.024891134
3	0xbe9238cd	-0.2855896
4	0xbba41e9f	-0.005008533
5	0x3e910fdc	0.28332412
6	0xbe6a046a	-0.22853246
7	0x3e4f3552	0.20235184
8	0xbe0e722d	-0.13910742
9	0x3c0946eb	0.008378725
10	0xbe8455c3	-0.2584668
11	0x3e2eae34	0.1705864
12	0xbe4f7701	-0.2026024
13	0xbd23b0b9	-0.039963458
14	0x3d084ff2	0.033279367
15	0xbd877af6	-0.0661525
16	0xbd2f4227	-0.042787697
17	0xbdfdce97	-0.123929195
18	0x3f571018	0.8400893
19	0xbe07dab6	-0.13267025
20	0xbf5cb49f	-0.86213106
21	0xbf11512d	-0.5676449
22	0xbdb2adc6	-0.08724551
23	0x3d439f89	0.047759566
24	0x3d81f71f	0.06345963
25	0xbe75bf77	-0.2399882
26	0xbca6a326	-0.020341467
27	0x3f4c36ad	0.7977093
28	0xbe11f56a	-0.14253774
29	0x3e487b91	0.19578387
30	0xbeb1dec8	-0.3474028
31	0xbe41b2a7	-0.18915807
32	0x3d188959	0.03724036
33	0x3e83c2e6	0.25734633
34	0x3e70d041	0.23516943
35	0x3fbdefa0	1.4838753
36	0x3e1234da	0.14277974
37	0x3d2b3d18	0.04180631
38	0x3e145c8b	0.14488427
39	0xbf06fbbc	-0.52727866
40	0xbcaaf9eb	-0.020871123
41	0xbc72b8e8	-0.014814593
42	0x3cec1df7	0.028822882
43	0xbe724ee1	-0.23662902
44	0x3f73c147	0.9521679
45	0x3e5608ab	0.20901744
46	0x3f588761	0.8458157
47	0x3f340a77	0.7032847
48	0xbe8af2d3	-0.27138385
49	0xbdbd31a4	-0.09237984
50	0x3f35ad27	0.70967335
51	0xbd58c0a6	-0.0529181
52	0xbe1de53d	-0.15419479
53	0x3d915e24	0.07098034
54	0x3da46505	0.080270804
55	0xbddacf33	-0.10684051
56	0x3e581491	0.21101595
57	0xbf17d6e4	-0.5931227
58	0xbf2330d7	-0.637464
59	0xbfc754f7	-1.5572804
60	0xbea78ea3	-0.3272601
61	0xbe2f1749	-0.17098726
62	0xbda2d43a	-0.07950635
63	0xbe4be5cd	-0.19911881
64	0x3ddceef0	0.10787761
65	0xbf54056c	-0.82820773
66	0xb9138919	-0.00014070085
67	0x3e954945	0.29157463
68	0x3c4e1403	0.012578013
69	0xbe95b847	-0.29242155
70	0x3e6d7d73	0.23192386
71	0xbe45de8d	-0.19323178
72	0x3e179555	0.1480306
73	0xbc41dfa6	-0.011833107
74	0x3e712dfa	0.23552695
75	0xbe308a6b	-0.17240302
76	0x3e5344cc	0.20631713
77	0x3d8926a9	0.06696827
78	0xbbe0317a	-0.0068418356
79	0x3d6fb148	0.058518678
80	0x3d53b00c	0.051681563
81	0x3e1139d6	0.14182219
82	0xbf5a2084	-0.85205865
83	0x3dfa3a3b	0.12218138
84	0x3f5b5ccc	0.8568847
85	0x3f0efae1	0.5585156
86	0x3d96fdda	0.07372637
87	0xbd67ab54	-0.056559876
88	0xbdcd46f9	-0.100233026
89	0x3e8002f1	0.25002244
90	0xbb1a7fdb	-0.0023574743
91	0xbf4e4ab5	-0.80582744
92	0x3e231cd5	0.15928967
93	0xbe3bdf60	-0.1834693
94	0x3e9e8c70	0.3096652
95	0x3e4753f8	0.19465625
96	0xbd22d016	-0.039749227
97	0xbe806fd6	-0.25085324
98	0xbe545977	-0.20737253
99	0xbfbeb37b	-1.4898523
100	0xbe2e6e33	-0.17034225
101	0xbd597839	-0.05309317
102	0xbdfa6d94	-0.122279316
103	0x3f0c7329	0.5486322
104	0x3d0e629e	0.034762017
105	0x3c1dc7a1	0.009630115
106	0xbc3502f7	-0.01104807
107	0x3e6c63b1	0.23084904
108	0xbf74d523	-0.9563772
109	0xbe58d8e0	-0.21176481
110	0xbf53cf39	-0.8273807
111	0xbf359c05	-0.7094119
112	0x3e832fc3	0.25622377
113	0x3db9e472	0.090767756
114	0xbf2f1cb8	-0.68403196
115	0x3caa341c	0.0207768
116	0x3e323f86	0.17407045
117	0xbdb0023d	-0.08594177
118	0xbdb1ccf5	-0.086816706
119	0x3dbdc092	0.092652455
120	0xbe4d6655	-0.20058568
121	0x3f1a297c	0.6021955
122	0x3f1dd70e	0.6165627
123	0x3fca0749	1.5783473
124	0x3ea882d0	0.32912302
125	0x3dd4500f	0.103668325
126	0x3d20b1ef	0.03923219
127	0x3e5321b7	0.2061833

action_model._discrete_distribution.branches.0.bias f4 [2]
0	0x3faf344c	1.3687835
1	0xbfaf343d	-1.3687817

action_model._discrete_distribution.branches.1.weight f4 [2, 64]
0	0xbe3cb9b2	-0.18430212
1	0xc04fa25e	-3.244285
2	0x3e372715	0.17886002
3	0xbbca1826	-0.0061674295
4	0xbdbb850c	-0.09156236
5	0x3cf77669	0.03020783
6	0x3daf2e53	0.085537575
7	0xbf8bd578	-1.092452
8	0xbcaec683	-0.021334892
9	0x3f37723f	0.716587
10	0xba58b2c0	-0.0008266382
11	0xbfe94687	-1.8224648
12	0x3cf8d584	0.03037525
13	0x3e7a243b	0.24427883
14	0xbd384507	-0.044987705
15	0xbf0ab8a4	-0.5418799
16	0xbfc4841c	-1.5352817
17	0x3d1ef547	0.038808133
18	0xbf81ae88	-1.0131388
19	0x3d4dd566	0.05025234
20	0x3ed920f8	0.42407966
21	0xbfcad7ca	-1.5847104
22	0xbc663dae	-0.0140527915
23	0x3e0f34e3	0.13985018
24	0xbe5012c6	-0.20319661
25	0x3af8be62	0.0018977637
26	0xbe942ae8	-0.28938985
27	0xbee4394a	-0.44574958
28	0x3e427590	0.18990159
29	0x3ec26b7d	0.37972632
30	0x3e5e5b3b	0.21714489
31	0x3b22265b	0.00247421
32	0x3d6695ba	0.056295134
33	0x3eb5c972	0.35505253
34	0xbd8851ea	-0.06656249
35	0xbef6eab4	-0.4822594
36	0x3dc2720d	0.0949441
37	0x3edb4b8a	0.4283107
38	0x3e271b8c	0.16319102
39	0xbe5a4d66	-0.21318588
40	0xbf3dfd18	-0.74214315
41	0x3e2313a1	0.15925457
42	0xbe54f1f3	-0.20795421
43	0x3d7bf690	0.061514437
44	0xbfcdeaee	-1.608732
45	0x3e688e8d	0.22710629
46	0xbfbd8c75	-1.4808489
47	0xc0001e29	-2.0018408
48	0xbeb279c1	-0.34858516
49	0xbea97294	-0.3309523
50	0xbe7e3051	-0.24823119
51	0x3e6537d9	0.22384585
52	0x3f0168f3	0.50550765
53	0x3e625d0a	0.22105804
54	0xbd96b4b9	-0.07358689
55	0xbe851e2a	-0.25999576
56	0xbeccdfdc	-0.4001454
57	0x3e4115b1	0.18855931
58	0xbe4bbad8	-0.19895494
59	0x3f26d60f	0.6517038
60	0xc016b808	-2.3549824
61	0xbb76f273	-0.0037681132
62	0xbd29303f	-0.041305777
63	0x3d133bf9	0.035945866
64	0x3e323208	0.17401898
65	0x405042ae	3.2540698
66	0xbe3ee2d2	-0.18641213
67	0x3c5f2b0e	0.013621105
68	0x3db1b2df	0.08676695
69	0xbd15b0f4	-0.03654571
70	0xbda3b02b	-0.07992586
71	0x3f8e7189	1.1128398
72	0x3d24efa4	0.0402676
73	0xbf396623	-0.72421473
74	0x3a949095	0.0011334593
75	0x3fe9e609	1.8273326
76	0xbd7627f3	-0.060096692
77	0xbe98ffb2	-0.2988258
78	0x3cc4356f	0.02395126
79	0x3f0bcc40	0.54608536
80	0x3fc8611d	1.5654637
81	0xbd0127f9	-0.03153226
82	0x3f8564e3	1.0421413
83	0xbced54ef	-0.028971164
84	0xbede641a	-0.43435746
85	0x3fcb0200	1.5859985
86	0x3a4a8ebe	0.0007726959
87	0xbe0af544	-0.13570124
88	0x3e563249	0.2091762
89	0xbba00ac4	-0.004884096
90	0x3e996ebf	0.29967305
91	0x3eeaf40c	0.45889318
92	0xbe4485cb	-0.19191663
93	0xbebbc622	-0.366746
94	0xbe55e113	-0.2088664
95	0xbca33310	-0.01992181
96	0xbd350e06	-0.044202827
97	0xbeb8787b	-0.3602942
98	0x3d7d8233	0.061891746
99	0x3eef77c5	0.46771064
100	0xbd75f514	-0.060048178
101	0xbee1531f	-0.4400873
102	0xbe238bb9	-0.15971269
103	0x3e3efe5c	0.18651718
104	0x3f352340	0.7075691
105	0xbe13d123	-0.14435248
106	0x3e59776c	0.21236962
107	0xbc418f35	-0.011813928
108	0x3fd01868	1.6257448
109	0xbe541ab5	-0.20713313
110	0x3fbc6547	1.4718407
111	0x3ffeed45	1.9916159
112	0x3eb7b2f0	0.35878706
113	0x3ea76d63	0.32700643
114	0x3e8429e2	0.25813204
115	0xbe4e02c1	-0.20118238
116	0xbf03a1b4	-0.51418614
117	0xbe5b79ef	-0.21433233
118	0x3d6b54c6	0.057453893
119	0x3e8135b2	0.2523628
120	0x3ed4d63b	0.41569695
121	0xbe51af0a	-0.20476928
122	0x3e5b3963	0.2140861
123	0xbf26f9e6	-0.65225065
124	0x4018023c	2.3751364
125	0xbc8028c2	-0.015644435
126	0x3d3a8c34	0.045543864
127	0xbcdcacef	-0.02693793

action_model._discrete_distribution.branches.1.bias f4 [2]
0	0xbf8090ff	-1.0044249
1	0x3f809105	1.0044256

action_model._discrete_distribution.branches.2.weight f4 [2, 64]
0	0x3ee8fe0b	0.4550632
1	0x3ebb92d9	0.36635473
2	0xbd590e27	-0.052992012
3	0x3b8bf963	0.0042716726
4	0x3df83633	0.12119713
5	0xbc83624f	-0.016038088
6	0xbd6b275a	-0.057410575
7	0xbe3a7fac	-0.18212765
8	0x3e9ab535	0.30216375
9	0xbcff3ef0	-0.03115794
10	0x3d27869b	0.040899854
11	0x3a21ed7e	0.00061770517
12	0xbda79966	-0.08183555
13	0xbf34d48f	-0.7063684
14	0x3e29800c	0.16552752
15	0xbe0f3a22	-0.1398702
16	0xc023136a	-2.54806
17	0x3f5b64dd	0.8570078
18	0x3fa9bd4a	1.3260891
19	0x3deefe28	0.1166957
20	0x3faa238b	1.3292097
21	0x3d1d4998	0.038400263
22	0x3ec74f7a	0.38927823
23	0x3e0d9753	0.13827257
24	0x3d952a99	0.072835155
25	0x3ef44435	0.47708288
26	0xbec8ac5f	-0.3919401
27	0xbe3d1520	-0.1846509
28	0x3e2e1307	0.16999446
29	0xbd7e215c	-0.062043533
30	0x3f4cb4d6	0.79963434
31	0x3d11cfb9	0.03559849
32	0x3e16e12e	0.14734337
33	0x3c47dbe0	0.012198418
34	0x3dce60f1	0.10077084
35	0x3f092aad	0.53580743
36	0xbd953991	-0.072863705
37	0x3e11abb1	0.14225651
38	0xbe938fba	-0.28820592
39	0xbe8fbf31	-0.28075555
40	0xbed3bafe	-0.413536
41	0xbf063aad	-0.5243328
42	0x3deb8a5f	0.115010016
43	0x3d77df41	0.060515646
44	0x3f6ab5e2	0.9168378
45	0x3dc2dff3	0.09515371
46	0x3eda2074	0.42602885
47	0xbe8f9a31	-0.28047326
48	0xbeb7a6a0	-0.35869312
49	0x3de973da	0.1139905
50	0x3dcffd9a	0.101557925
51	0xbc89a573	-0.016802525
52	0xbdda1080	-0.106476784
53	0xbe4c030b	-0.19923036
54	0x3da85058	0.08218449
55	0xbe73258e	-0.23744795
56	0x3f7cc904	0.98744226
57	0x3e8fb9e1	0.28071502
58	0x3e2da8da	0.16958943
59	0x3e0ce7c9	0.13760294
60	0xc038cbd6	-2.8874412
61	0xbe4efd78	-0.20213878
62	0x3dc88766	0.0979145
63	0x3db949aa	0.090472534
64	0xbedf9e16	-0.43675297
65	0xbeb87e01	-0.36033633
66	0x3d3d95ea	0.046285547
67	0xbba48700	-0.005020976
68	0xbdf82753	-0.121168755
69	0x3c9cc87d	0.019138569
70	0x3d53d603	0.05171777
71	0x3e506e5c	0.20354599
72	0xbeb3ab16	-0.35091466
73	0x3d20a372	0.039218374
74	0xbd185c84	-0.037197605
75	0x3c89f99f	0.016842661
76	0x3d378523	0.044804703
77	0x3f3ac845	0.7296184
78	0xbe3d1d70	-0.18468261
79	0x3e1890fc	0.14899057
80	0x4024790e	2.5698886
81	0xbf6061dc	-0.8764932
82	0xbfa9f599	-1.3278075
83	0xbdc5988f	-0.09648239
84	0xbfad0c05	-1.3519293
85	0xbca6024e	-0.02026477
86	0xbed15854	-0.40887702
87	0xbe08c6ac	-0.13357037
88	0xbd71275c	-0.058875427
89	0xbef9a42d	-0.4875807
90	0x3ec4b2f1	0.3841777
91	0x3e4a31d6	0.19745573
92	0xbe461e32	-0.19347456
93	0x3d6b0d9f	0.057386037
94	0xbf4c6d40	-0.798542
95	0xbd20fa5f	-0.039301272
96	0xbe1e13d4	-0.15437251
97	0x3c30842a	0.010773698
98	0xbd9275b6	-0.07151358
99	0xbf0b57fc	-0.5443113
100	0x3d987c82	0.07445623
101	0xbe0d5b95	-0.13804467
102	0x3e95ef33	0.29284057
103	0x3e9c089a	0.30475312
104	0x3ee20c4e	0.44150013
105	0x3f0a83b4	0.54107213
106	0xbdcc3c1c	-0.099724025
107	0xbd720c7c	-0.059093937
108	0xbf76c156	-0.9638876
109	0xbd8c0641	-0.0683713
110	0xbed9c5d5	-0.42533746
111	0x3e7ee8fc	0.24893564
112	0x3eb050ef	0.34436747
113	0xbdf31525	-0.118692674
114	0xbdc8ca05	-0.09804157
115	0x3d323dae	0.043515854
116	0x3df26108	0.118349135
117	0x3e4f0118	0.20215261
118	0xbdc27724	-0.094953805
119	0x3e740adf	0.23832272
120	0xbf758e0a	-0.9591986
121	0xbe9b82f8	-0.3037336
122	0xbe18a374	-0.14906102
123	0xbe0a8988	-0.13529027
124	0x40398f16	2.8993583
125	0x3e65843e	0.22413728
126	0xbda5e8e0	-0.08101058
127	0xbdbf59c9	-0.09343297

action_model._discrete_distribution.branches.2.bias f4 [2]
0	0xbf96075c	-1.1720996
1	0x3f960764	1.1721005

exp_avg f4 [64, 63]
0	0xb969ce77	-0.00022297526
1	0x3958f4d7	0.00020690575
2	0x38f1aa5c	0.000115235074
3	0x390dd4e1	0.00013526111
4	0xb94c3d3d	-0.00019477769
5	0x3892417b	6.974019e-05
6	0x391b8e2c	0.00014834915
7	0x39367c2b	0.00017403129
8	0xb972100b	-0.00023084895
9	0xb803e997	-3.145038e-05
10	0x3975d3ab	0.00023443873
11	0x397c08cb	0.00024035868
12	0xb93f40b5	-0.00018239285
13	0x38904fe2	6.8813344e-05
14	0x3905b1fd	0.00012750174
15	0x38fcbee4	0.000120518525
16	0xb96a30f3	-0.00022334214
17	0xb82b1f13	-4.0798517e-05
18	0x3977a067	0.0002361551
19	0x39793463	0.00023766006
20	0xb94ede25	-0.00019728446
21	0x3892a919	6.9933194e-05
22	0x3905539d	0.00012715017
23	0x38c6f39a	9.48675e-05
24	0xb92a26ee	-0.00016226966
25	0xb7975767	-1.8041303e-05
26	0x392b70f8	0.00016349915
27	0x392de7d2	0.00016584925
28	0x39d4166b	0.00040452494
29	0x390026e0	0.00012221513
30	0xb9ee3afb	-0.0004543884
31	0xb9c69ac6	-0.00037880818
32	0xb9c81c3a	-0.00038168003
33	0x3a457527	0.00075324107
34	0xb5f8d193	-1.8538434e-06
35	0x399ff39d	0.0003050835
36	0xb8a8c6f7	-8.047924e-05
37	0x3a59370e	0.0008286097
38	0xb9983ed7	-0.0002903852
39	0x38d890f1	0.0001032668
40	0xb9933479	-0.0002807712
41	0x39ccbac1	0.00039049055
42	0xb8d39c14	-0.00010090336
43	0x39717118	0.00023025682
44	0xb88ea00c	-6.800899e-05
45	0xb97ae9bc	-0.00023928931
46	0x39970a1e	0.00028808502
47	0x3908872e	0.00013020329
48	0xb9e0049d	-0.00042728047
49	0x39e22de9	0.00043140285
50	0xb79b25c8	-1.8495033e-05
51	0x3918d528	0.00014575257
52	0xb9878016	-0.00025844638
53	0xb938fe0e	-0.0001764225
54	0x3a0df28d	0.0005414866
55	0x397c54e7	0.00024064221
56	0xb983e018	-0.0002515323
57	0x39e74899	0.00044113843
58	0xb98702be	-0.0002575125
59	0x384041fe	4.5837827e-05
60	0x399eea3a	0.0003031062
61	0x38abc55c	8.1906765e-05
62	0x363b3276	2.7894544e-06
63	0x38d577e0	0.0001017896
64	0x36e6289e	6.8592626e-06
65	0xb8d62afb	-0.00010212321
66	0xb8b2026b	-8.488152e-05
67	0xb8aa2357	-8.112814e-05
68	0x36c869f2	5.972798e-06
69	0x38a561fa	7.886063e-05
70	0x3845bda1	4.7145066e-05
71	0x3936beea	0.00017427994
72	0x36a72d08	4.98223e-06
73	0xb93648b6	-0.0001738396
74	0xb9180bf6	-0.00014500305
75	0x38ac9c31	8.230692e-05
76	0x36cea8e9	6.158942e-06
77	0xb8ab85d6	-8.178844e-05
78	0xb8cb6430	-9.698456e-05
79	0xb7ffba5c	-3.048515e-05
80	0x365b8a63	3.2714095e-06
81	0x37fa9d62	2.987561e-05
82	0x3750f3ff	1.2454576e-05
83	0x38283df1	4.011201e-05
84	0x36c8620b	5.971878e-06
85	0xb828a90c	-4.021176e-05
86	0xb82912fc	-4.031042e-05
87	0x38957be5	7.127951e-05
88	0x3641dc9d	2.8887655e-06
89	0xb8952600	-7.111952e-05
90	0xb8987884	-7.2703726e-05
91	0xb975c796	-0.00023439372
92	0x377150b7	1.4383512e-05
93	0x39741a15	0.0002327937
94	0x39082fcc	0.00012987776
95	0xb83279c3	-4.2551907e-05
96	0x38f021d7	0.00011450395
97	0xb78cf687	-1.6804099e-05
98	0x3928881e	0.00016072436
99	0x38d644db	0.000102171405
100	0x375463c8	1.2659417e-05
101	0xb904dc37	-0.00012670537
102	0x3941aaa9	0.0001846949
103	0xb9ac2b6d	-0.0003283875
104	0x39bc4612	0.0003591036
105	0x37e7fcf8	2.7655144e-05
106	0x396fac64	0.00022857037
107	0xb6425e71	-2.8963225e-06
108	0x3719c308	9.16492e-06
109	0xb7049fa3	-7.904981e-06
110	0x38a35ec2	7.790096e-05
111	0xb9abc141	-0.00032759647
112	0x39ac5e7d	0.00032876796
113	0x3646d19c	2.9626308e-06
114	0x39814ed5	0.00024663532
115	0xb9db1996	-0.00041789998
116	0x36f96218	7.432198e-06
117	0x3980d512	0.00024572812
118	0x39d5f987	0.00040812438
119	0xb939ebc8	-0.0001773081
120	0x38ee7c88	0.0001137192
121	0xb7ad0df2	-2.06297e-05
122	0xb88348dc	-6.260138e-05
123	0x392c2696	0.00016417573
124	0x38c0f9a6	9.201774e-05
125	0xb870172f	-5.724205e-05
126	0x39e5b6ba	0.00043814426
127	0x380e755e	3.3964745e-05
128	0xb9e6be98	-0.00044011022
129	0xb9f8736f	-0.0004738825
130	0x39dcadf0	0.00042091263
131	0x380c90f9	3.3513617e-05
132	0xb9dd7f20	-0.0004224712
133	0xb9f16334	-0.00046041014
134	0x3a00159d	0.0004886033
135	0x37dce7d4	2.6333997e-05
136	0xba004f82	-0.000489466
137	0xba06ff45	-0.00051497325
138	0x39da36a7	0.0004162092
139	0x3810a4c4	3.4485725e-05
140	0xb9d9a055	-0.00041508922
141	0xb9e45fe3	-0.0004355899
142	0x3a073a4d	0.0005158529
143	0x37803250	1.5282218e-05
144	0xba06c26d	-0.0005140666
145	0xba0b0997	-0.0005303858
146	0x39e9eda7	0.00044618288
147	0x380c8808	3.350529e-05
148	0xb9e620c6	-0.00043893437
149	0xb9dc8450	-0.0004206025
150	0x3a07125c	0.0005152577
151	0x377dd074	1.5128509e-05
152	0xba068f31	-0.00051330315
153	0xba084f43	-0.0005199799
154	0xb9d71abc	-0.00041027914
155	0x391d25c1	0.00014986751
156	0x39b11970	0.00033779023
157	0x3a111f01	0.0005535931
158	0xb8850327	-6.3425214e-05
159	0xba29806c	-0.0006465975
160	0x39dba37e	0.00041892746
161	0x38df0a30	0.00010635366
162	0x3a56ba13	0.00081911794
163	0xba5cbbdf	-0.0008420329
164	0xba016e4b	-0.00049373944
165	0xba280645	-0.00064096256
166	0x3a30563a	0.0006726716
167	0xba5aa4e5	-0.0008340611
168	0x38bd69eb	9.031951e-05
169	0xb952061a	-0.00020029434
170	0x3a2741a6	0.0006380327
171	0x383870d9	4.3974116e-05
172	0xba51bdd2	-0.0008001003
173	0xba2a1a96	-0.0006488947
174	0x3a4a2986	0.0007711876
175	0xba4b91bd	-0.0007765552
176	0x378227d7	1.551576e-05
177	0xb8c6939a	-9.468869e-05
178	0x3a457352	0.00075321377
179	0x391326de	0.00014033492
180	0xba016ff1	-0.000493764
181	0xba14614a	-0.0005660249
182	0x3991fb07	0.00027843585
183	0xba179f6f	-0.00057839503
184	0x38c0ad18	9.187515e-05
185	0x3946fa95	0.000189761
186	0xba29300c	-0.0006453998
187	0xb9b37f4d	-0.00034236387
188	0x38d0f8a5	9.9645265e-05
189	0xb9ae3fb2	-0.00033235323
190	0x388fc820	6.8560475e-05
191	0x399bc5a9	0.00029711172
192	0x399eeb97	0.00030311637
193	0xb8c87846	-9.559146e-05
194	0xb948293e	-0.0001908885
195	0x3942b572	0.00018568875
196	0x396b10f2	0.00022417659
197	0xb9b8bdd9	-0.00035236662
198	0x368e172a	4.2346264e-06
199	0x39b6738d	0.00034799837
200	0x399e0dd5	0.00030146414
201	0xb8945d5a	-7.074578e-05
202	0xb94b8133	-0.00019407719
203	0x3939af1b	0.00017708207
204	0x39318400	0.00016929209
205	0xb8bd7a1f	-9.034969e-05
206	0xb8bf5951	-9.124226e-05
207	0x3913f4d8	0.00014110224
208	0x3910a1fd	0.00013793255
209	0xb88e4536	-6.783979e-05
210	0xb951696a	-0.00019971063
211	0x3952dd08	0.00020109501
212	0x392cfa04	0.00016496336
213	0xb8bf85c3	-9.132505e-05
214	0x36c74bfd	5.9395084e-06
215	0x38b5cdae	8.6690634e-05
216	0x38b3c3c6	8.571851e-05
217	0xb9c8ac6f	-0.00038275446
218	0x39787bde	0.00023697267
219	0x39923a77	0.0002789085
220	0x390c45fb	0.0001337751
221	0xba218621	-0.00061616494
222	0x39bbed32	0.00035844144
223	0x39f2a6b4	0.0004628204
224	0x3a026556	0.00049742067
225	0xba349421	-0.0006888528
226	0x3868f53d	5.5541506e-05
227	0x3a431627	0.00074419606
228	0x3a2bc990	0.00065531675
229	0x3926b198	0.00015897152
230	0xb98dfe4f	-0.0002708309
231	0x3909d892	0.00013146017
232	0xb976d2bb	-0.00023538891
233	0xb9fea41c	-0.00048568926
234	0xb9f159bf	-0.00046033968
235	0x3a76d72e	0.00094162195
236	0x3a3c5f3b	0.00071858213
237	0xba32211e	-0.0006795096
238	0x3a32f1d0	0.0006826194
239	0x349a1a30	2.870379e-07
240	0x39a18a0f	0.00030811175
241	0x3a1e52a3	0.00060395355
242	0xb9b6e6a8	-0.00034885597
243	0xb9c79afc	-0.0003807171
244	0x399b8ca3	0.00029668686
245	0xb96705ff	-0.0002203211
246	0xb8d0e7a3	-9.9613586e-05
247	0x37c2c1fc	2.3216933e-05
248	0x39cdf0d2	0.00039280072
249	0x382aa5ff	4.0685754e-05
250	0x39242314	0.00015653326
251	0x391822d8	0.0001450883
252	0x3913212a	0.00014031367
253	0x38363363	4.344004e-05
254	0xb91925e5	-0.00014605334
255	0xb925a31e	-0.00015796392

exp_avg_sq f4 [64, 63]
0	0x3606f41f	2.0109653e-06
1	0x34bfd8b0	3.5734183e-07
2	0x360cd5da	2.0986104e-06
3	0x360eac59	2.1259968e-06
4	0x3620e420	2.3974644e-06
5	0x35743f75	9.0989425e-07
6	0x362a801c	2.5406544e-06
7	0x36267a36	2.4807064e-06
8	0x3601fcc6	1.9369631e-06
9	0x34937e04	2.7472572e-07
10	0x3605fa02	1.9964068e-06
11	0x3605c2ce	1.9931936e-06
12	0x377aceff	1.4949356e-05
13	0x356d39fe	8.837377e-07
14	0x376ece46	1.4233932e-05
15	0x372f3f96	1.0445618e-05
16	0x35b3d3da	1.3398196e-06
17	0x3421ffeb	1.5087396e-07
18	0x35b8efe5	1.3778887e-06
19	0x35b86923	1.3739667e-06
20	0x36a947fb	5.044972e-06
21	0x356a0f93	8.7194456e-07
22	0x36a7317e	4.9827495e-06
23	0x3688cbb8	4.076832e-06
24	0x35895dda	1.023461e-06
25	0x34136f9b	1.3731044e-07
26	0x358f1664	1.0660847e-06
27	0x3591ebe6	1.0871997e-06
28	0x3737cf98	1.0955984e-05
29	0x36c5ff7b	5.9007994e-06
30	0x3721f9f7	9.654547e-06
31	0x37d08738	2.4858498e-05
32	0x3707e6f5	8.100401e-06
33	0x38307d3f	4.2078314e-05
34	0x3660c35b	3.3492313e-06
35	0x36945b27	4.4213552e-06
36	0x37234bff	9.733251e-06
37	0x38871b35	6.442369e-05
38	0x35fc96ca	1.8819348e-06
39	0x37050498	7.928487e-06
40	0x3682e6c2	3.9011657e-06
41	0x36a56a75	4.9297764e-06
42	0x34d8a169	4.0350577e-07
43	0x36963f1e	4.477696e-06
44	0x3785c3b8	1.5945974e-05
45	0x37321ff0	1.0617063e-05
46	0x37ab3a2f	2.0411882e-05
47	0x37918781	1.7348446e-05
48	0x36970248	4.5004163e-06
49	0x36983e52	4.537208e-06
50	0x32803e83	1.4929588e-08
51	0x369a1581	4.592061e-06
52	0x36ca0f13	6.021824e-06
53	0x36d5a8d8	6.3675507e-06
54	0x36cf957a	6.186482e-06
55	0x37a4c55b	1.9642224e-05
56	0x37300c13	1.0493229e-05
57	0x370034f4	7.641724e-06
58	0x36c0018d	5.7222264e-06
59	0x37525023	1.2535634e-05
60	0x36b231fa	5.3106314e-06
61	0x36a39c85	4.876e-06
62	0x37384b47	1.09847815e-05
63	0x35632d2a	8.462981e-07
64	0x326b21dc	1.3686499e-08
65	0x355fac9c	8.3325153e-07
66	0x354fba41	7.7384544e-07
67	0x358777e3	1.0093175e-06
68	0x3267f42b	1.3501487e-08
69	0x35840a98	9.83785e-07
70	0x35665c38	8.581587e-07
71	0x34fa38a1	4.6607332e-07
72	0x31cf4f27	6.0334915e-09
73	0x34fb995d	4.686398e-07
74	0x34ff540e	4.755861e-07
75	0x358355db	9.785248e-07
76	0x325e6f6b	1.2947434e-08
77	0x357abdeb	9.3408624e-07
78	0x3558d75a	8.077965e-07
79	0x34eb9e29	4.3887238e-07
80	0x31626c8f	3.2949037e-09
81	0x34ea949f	4.3694033e-07
82	0x34dfe73b	4.170523e-07
83	0x35073177	5.03634e-07
84	0x325506c5	1.2399771e-08
85	0x34ff73c2	4.7581676e-07
86	0x350987ac	5.1233906e-07
87	0x34ac9949	3.2149026e-07
88	0x31457fcf	2.8739924e-09
89	0x34ab92d5	3.1958066e-07
90	0x34a92b7c	3.1510342e-07
91	0x35adcff1	1.2950023e-06
92	0x34b62d88	3.393327e-07
93	0x359e7db1	1.1808498e-06
94	0x35afe687	1.3105608e-06
95	0x354c9fe5	7.62286e-07
96	0x360327c7	1.9543675e-06
97	0x3500f296	4.8036725e-07
98	0x35726721	9.03021e-07
99	0x35e310ae	1.6917672e-06
100	0x332a3f74	3.963892e-08
101	0x3618eb3b	2.2786687e-06
102	0x36046028	1.9725503e-06
103	0x36172781	2.2523748e-06
104	0x36546e0f	3.1654524e-06
105	0x34e7e9e8	4.3197292e-07
106	0x355065e4	7.763431e-07
107	0x362252e4	2.418813e-06
108	0x34b0b10e	3.291138e-07
109	0x366a0516	3.4871678e-06
110	0x3647439f	2.9692671e-06
111	0x36253605	2.461836e-06
112	0x36273d83	2.4920744e-06
113	0x31007ed7	1.8698552e-09
114	0x354a11f6	7.5277e-07
115	0x35e1065c	1.6765657e-06
116	0x32bbe7de	2.1875106e-08
117	0x3630c35c	2.6339758e-06
118	0x364ff07b	3.0985382e-06
119	0x35e1b11d	1.6815353e-06
120	0x358a1c62	1.0290062e-06
121	0x355803ff	8.0472086e-07
122	0x35db4942	1.6338092e-06
123	0x35c88b8a	1.4941772e-06
124	0x35cd2ecc	1.528731e-06
125	0x35bd299a	1.4093705e-06
126	0x367f375d	3.8030187e-06
127	0x340f73fc	1.3360108e-07
128	0x368117ad	3.847256e-06
129	0x36902b15	4.29655e-06
130	0x36890487	4.083445e-06
131	0x33884e40	6.347227e-08
132	0x3688b6c3	4.074392e-06
133	0x3693899e	4.396962e-06
134	0x36793123	3.7132493e-06
135	0x346a67e9	2.183075e-07
136	0x367ade14	3.738217e-06
137	0x368d2856	4.206823e-06
138	0x36c2d1c8	5.8060723e-06
139	0x339005fe	6.7066125e-08
140	0x36bb44fc	5.581065e-06
141	0x36b90adb	5.5146934e-06
142	0x368877c8	4.06706e-06
143	0x3329f969	3.9575216e-08
144	0x3687cb42	4.046976e-06
145	0x36921801	4.3539335e-06
146	0x3700cae4	7.676634e-06
147	0x338688bb	6.2647324e-08
148	0x36ee0f58	7.094739e-06
149	0x36dde72d	6.6132257e-06
150	0x36aa53f9	5.0761705e-06
151	0x325d90d0	1.289682e-08
152	0x36a80ca3	5.0082613e-06
153	0x36adae50	5.1760944e-06
154	0x373ad118	1.1135147e-05
155	0x36e9ed91	6.9715975e-06
156	0x372ab051	1.01738415e-05
157	0x376329fd	1.35400305e-05
158	0x36b10571	5.2756445e-06
159	0x376ade48	1.3999241e-05
160	0x363f9af7	2.855142e-06
161	0x36f2aac0	7.23204e-06
162	0x372fa613	1.046948e-05
163	0x37920479	1.7406639e-05
164	0x372f6303	1.0453866e-05
165	0x373f2de3	1.1395171e-05
166	0x37223158	9.667441e-06
167	0x37620348	1.3471414e-05
168	0x34f49174	4.5554373e-07
169	0x36927e3e	4.3658356e-06
170	0x375310aa	1.258046e-05
171	0x367f0d9e	3.8005887e-06
172	0x37910c69	1.7291126e-05
173	0x37873fb8	1.6122925e-05
174	0x372be1f7	1.0245006e-05
175	0x372dac4e	1.0351721e-05
176	0x32ba5423	2.169151e-08
177	0x366c4444	3.5206476e-06
178	0x370d4e5b	8.4224985e-06
179	0x370b7446	8.312118e-06
180	0x3705fee7	7.986767e-06
181	0x378a54af	1.6490316e-05
182	0x37641d01	1.3596612e-05
183	0x37a7757c	1.996266e-05
184	0x3736722d	1.0874629e-05
185	0x36c48df0	5.857779e-06
186	0x370d7079	8.430442e-06
187	0x36f983e6	7.4361333e-06
188	0x36c00b69	5.723374e-06
189	0x363ebd17	2.842227e-06
190	0x36839e64	3.9225433e-06
191	0x3663f540	3.396839e-06
192	0x367f1587	3.8010492e-06
193	0x36365a9d	2.7172857e-06
194	0x37455c13	1.1763553e-05
195	0x36939867	4.3986834e-06
196	0x36adeda7	5.183468e-06
197	0x36389b79	2.7508634e-06
198	0x3562ca36	8.4485816e-07
199	0x36402614	2.8632394e-06
200	0x3655d037	3.186067e-06
201	0x3782c1b0	1.55874e-05
202	0x3741c14d	1.1548703e-05
203	0x37917c4d	1.7343229e-05
204	0x376f727f	1.4272168e-05
205	0x363c937f	2.8100037e-06
206	0x34f58a28	4.5735328e-07
207	0x364343de	2.9096768e-06
208	0x36503c4e	3.1029517e-06
209	0x368a246d	4.116961e-06
210	0x3740287b	1.1453517e-05
211	0x370f8d37	8.556343e-06
212	0x371ca84c	9.337509e-06
213	0x3672015d	3.6061604e-06
214	0x34c51faa	3.6717148e-07
215	0x367a608c	3.73091e-06
216	0x368310db	3.9060665e-06
217	0x371103ac	8.643528e-06
218	0x37d255a6	2.5073834e-05
219	0x37128c7a	8.734985e-06
220	0x37b85b0b	2.1976904e-05
221	0x372d53f1	1.0331148e-05
222	0x388218c1	6.203494e-05
223	0x36638fec	3.390941e-06
224	0x36908d94	4.3080163e-06
225	0x37772f2a	1.47333285e-05
226	0x38a12740	7.684389e-05
227	0x36eabf9b	6.9960493e-06
228	0x3737ba1f	1.0950985e-05
229	0x36d17e05	6.243356e-06
230	0x370b84a5	8.315929e-06
231	0x35afef8f	1.3108237e-06
232	0x36863926	4.000164e-06
233	0x37c23df0	2.3155444e-05
234	0x376a263d	1.395639e-05
235	0x3801aec0	3.0918745e-05
236	0x37c7f502	2.383674e-05
237	0x3745b492	1.1784157e-05
238	0x37480ee9	1.19244005e-05
239	0x322bcea8	1.0000498e-08
240	0x3689a6ff	4.102359e-06
241	0x371150a7	8.661452e-06
242	0x37897e66	1.6390532e-05
243	0x3622e087	2.4270573e-06
244	0x37da7329	2.604125e-05
245	0x3760d93f	1.3402022e-05
246	0x36e11796	6.7082683e-06
247	0x37022e6d	7.759413e-06
248	0x37814ae3	1.541287e-05
249	0x36ac95c2	5.1434336e-06
250	0x36e273c7	6.748803e-06
251	0x376eeb6d	1.424072e-05
252	0x3658c90e	3.2303537e-06
253	0x345af2fb	2.0391228e-07
254	0x3659ecdb	3.2473388e-06
255	0x364ba1e9	3.0343601e-06

exp_avg f4 [64]
0	0x39eaf30c	0.00044813042
1	0xb8968ab1	-7.178391e-05
2	0xb9c51a40	-0.00037594326
3	0xb6e96097	-6.9551857e-06
4	0xba12118c	-0.00055720727
5	0xb916bab6	-0.0001437467
6	0x38fe4a76	0.00012125533
7	0xb921f06f	-0.00015443725
8	0xb89fe478	-7.6242664e-05
9	0x39badb61	0.00035640135
10	0x3a1f6ac5	0.00060812786
11	0xb8d48d9a	-0.00010135323
12	0xb9f54a44	-0.00046785374
13	0xb8c841a4	-9.54897e-05
14	0x39c26a80	0.00037081912
15	0xb96c3f14	-0.00022530212
16	0xba1a6146	-0.00058891287
17	0x3a1e5273	0.00060395076
18	0x3942c09a	0.00018573031
19	0xba61c72f	-0.00086127495
20	0x397added	0.00023924532
21	0xb9b15584	-0.00033823785
22	0x38dd67dc	0.000105574465
23	0x39fd636d	0.00048329998
24	0x396d1f5b	0.00022613762
25	0xb7f43b02	-2.9114544e-05
26	0xb9a5136b	-0.0003148572
27	0xb91f7275	-0.0001520606
28	0x397d9871	0.00024184749
29	0x39882c0f	0.00025972768
30	0xb854bc75	-5.0720253e-05
31	0x3ac4895f	0.0014994553
32	0x370684f8	8.017982e-06
33	0x39e5c5dd	0.00043825703
34	0x3a2189f5	0.000616222
35	0x3a89494b	0.0010474114
36	0x39857d44	0.00025461067
37	0xb9a2a554	-0.00031022227
38	0x39840ba8	0.00025185687
39	0x384aede2	4.83821e-05
40	0x392f6a1a	0.00016728826
41	0x39dbdd2a	0.00041935715
42	0xba3c2ea8	-0.0007178583
43	0x3915499a	0.00014237166
44	0xb997b503	-0.0002893583
45	0xb99e64bd	-0.00030211164
46	0xba3c4ee4	-0.00071833865
47	0xb9447605	-0.00018735982
48	0xb9cca7d2	-0.00039034948
49	0x389617db	7.157001e-05
50	0x38d9dff3	0.0001038908
51	0xba3d547a	-0.0007222366
52	0x38fabdf8	0.000119563134
53	0xba78975d	-0.0009483004
54	0xb87cfd5f	-6.0317452e-05
55	0xb4c8d1bb	-3.7405502e-07
56	0x397debae	0.00024215758
57	0x388c95d2	6.7036264e-05
58	0xb7ee4da8	-2.8407972e-05
59	0xb92a4a0a	-0.00016240045
60	0xb9b22847	-0.00033980815
61	0x392a3e2a	0.00016235621
62	0x3a5b5387	0.00083666336
63	0xba1d7ff2	-0.000600814
