Assets/_created_block_bigger_gradual_reward_increased_length_continuous_dynamics_Added_checkpoint_ontriggerenter_Renaming_sensor_beta_0.003_increased_rewards_corrected_blocker/competitor/competitor-12939411.onnx (onnx, 47196 bytes, 17 tensors)

discrete_act_size_vector f4 [1, 3]
000000 00 00 00 40 00 00 00 40 00 00 00 40
       2.0 2.0 2.0

network_body.observation_encoder.processors.0.normalizer.running_mean f4 [28]
000000 f0 97 6e 3e 32 57 05 3c a8 43 42 3f 8f 3f 4b 3f
       0.23300147 0.008138465 0.75884485 0.7939386
000010 b2 b7 54 3e 11 b1 00 3c 78 ce 48 3f 27 37 50 3f
       0.20773199 0.007854716 0.78440046 0.81334156
000020 d2 0a 6a 3e 63 18 9d 3b af 42 44 3f 60 65 4d 3f
       0.2285569 0.004794167 0.7666425 0.8023281
000030 dd 62 0d 3e 03 4b 08 3c 40 87 5a 3f e3 2d 5e 3f
       0.13807245 0.008318665 0.85362625 0.8678877
000040 49 f5 13 3e 97 57 05 3b d9 7c 5a 3f 59 00 5e 3f
       0.14449038 0.0020346397 0.8534675 0.8671928
000050 4b ae ac 3d 23 b0 00 3c dc 64 68 3f 4a 9a 6a 3f
       0.08431681 0.007854494 0.907789 0.91641676
000060 59 f8 b9 3d 6d 63 d4 3a c7 56 68 3f e6 2f 6a 3f
       0.09080572 0.0016203948 0.9075741 0.9147934

network_body.observation_encoder.processors.1.normalizer.running_mean f4 [28]
000000 18 49 a2 3e c2 b2 17 3d 74 f4 24 3f 86 66 64 3f
       0.3169639 0.03703571 0.64435506 0.8921894
000010 92 1e 31 3f 5c 7f 70 3d 68 5a 7f 3e 26 1f 0e 3f
       0.6918727 0.05871521 0.24936831 0.5551628
000020 e7 db 43 3f 84 48 0a 3d 21 85 36 3e 6f ad ff 3e
       0.7650742 0.033760563 0.17824222 0.49937007
000030 1a e6 4f 3f 66 54 08 3e df 1e 60 3d 5f 5b d3 3e
       0.8121048 0.13313445 0.05471694 0.41280648
000040 52 1b 5b 3f f2 77 cc 3c c3 2b c9 3d 1b 9a 9a 3e
       0.8558856 0.024959538 0.098228 0.30195698
000050 41 d7 57 3f 51 db 1e 3e fa 4f df 3a 70 57 b4 3e
       0.84312826 0.1551335 0.0017037385 0.3522296
000060 32 a1 64 3f 8b 4f 92 3c a3 4d 86 3d 51 1c 86 3e
       0.89308465 0.017860195 0.06557777 0.2619348

network_body.observation_encoder.processors.2.normalizer.running_mean f4 [7]
000000 dd a0 67 43 c6 07 4d 42 ee 7f 4e 42 9f ee 4b 42
       231.62837 51.25759 51.62493 50.98303
000010 8c e6 4c 42 f4 e4 4d 42 e8 c5 4b 42
       51.225143 51.473587 50.943268

network_body._body_endoder.seq_layers.0.weight f4 [64, 63]
000000 dd 96 97 bd ac 5e 5b 3d 5f 90 ba bc 98 77 7b 3e
       -0.07401822 0.053557083 -0.02277392 0.2455734
000010 97 d0 06 3f 27 df ec be 09 c2 81 be 3b 5e 2d 3c
       0.5266203 -0.46264002 -0.2534335 0.010581548
000020 44 f2 1b bd b3 29 21 3f 4d 63 6b bd 85 fe 0d 3e
       -0.03807284 0.6295425 -0.057467747 0.13866623
000030 d0 00 3f 3f 4e 41 fc bb 2f 2b c3 bd 42 52 31 be
       0.74610615 -0.0076982146 -0.09529721 -0.17316535
000040 c7 1d f1 bd 94 42 6c 3f 7a d9 81 bd 48 65 b4 be
       -0.11773258 0.9228909 -0.063403085 -0.3523352
000050 aa 10 08 3f df a5 5b be 6e a1 58 3e 41 82 6a 3c
       0.5315043 -0.21449994 0.2115533 0.0143132815
000060 bf 30 ad be e0 eb cc 3e 5d 37 31 3f 2a 46 2c 3f
       -0.33826253 0.40023708 0.692251 0.6729456
000070 fb 16 c2 3f eb 15 e2 be 9c 77 86 bf c4 25 bc be
       1.5163263 -0.44157347 -1.0505252 -0.36747563
000080 ee e8 25 3f b2 e0 8d be 4e 28 85 bc 42 82 d7 3f
       0.6480855 -0.2771049 -0.01625457 1.6836627
000090 30 3d 23 3e db 24 c6 3f 6a 91 8e bf 56 f9 a0 bf
       0.1594131 1.5479997 -1.1138127 -1.2576091
0000a0 e0 28 34 bd ba 9f 86 3e 6f af 2d bf 98 35 45 be
       -0.043984294 0.26293737 -0.67845815 -0.19258726
0000b0 8c 2f fb 3d 3f 92 72 3c 36 7d d2 be 3c 17 79 3e
       0.12264928 0.014805376 -0.41111153 0.2432527
0000c0 e5 5a aa bd 12 5c aa 3e c2 ab 66 3f 1e 10 3c bf
       -0.08318118 0.3327337 0.9010583 -0.7346209
0000d0 a2 43 76 3c 4f 90 93 bf 33 35 92 3f 63 60 ac 3e
       0.015030773 -1.1528414 1.1422485 0.33667287
0000e0 f6 7c e0 3e e2 f6 76 bd 0d 08 73 be 9f e3 0a 3f
       0.43845338 -0.06029404 -0.2373354 0.5425357
0000f0 ce dc 99 3e aa b7 44 bf 04 07 0f 3e 5b 0c de 3e
       0.30051273 -0.7684275 0.1396752 0.433688
000100 75 83 33 3f c8 44 dd be 9f 19 39 bf d3 66 db 3e
       0.7012246 -0.43216538 -0.7230472 0.42851886
000110 34 e9 f2 3e 85 78 4b be 58 fe f8 be 4f 8f 29 bf
       0.47443545 -0.19870193 -0.4863155 -0.66234297
000120 a5 7d 99 be 9c 6f 68 3f 4b 7e 0f 3f 03 55 d9 3e
       -0.29978672 0.907953 0.5605208 0.4244767
000130 1b b4 6e 3f 88 02 86 be 04 17 84 be 2d 20 ac 3f
       0.9324357 -0.26173806 -0.2579881 1.3447319
000140 dc df 82 3f ad 18 9a bf b2 d0 7b bf aa d2 35 bf
       1.0224566 -1.203878 -0.9836532 -0.7102457
000150 06 2d 9e 3f a1 aa 0f 3f 57 a8 43 3f 4a 14 1b bf
       1.235749 0.56119734 0.7642874 -0.60577834
000160 47 46 2d 3f 5d b1 31 3f 9e 55 36 3f 97 4d 69 3f
       0.6768536 0.6941126 0.7122439 0.9113402
000170 84 c4 06 bf 98 75 c5 be 0b f5 7a 3e e0 32 72 3f
       -0.5264361 -0.3856628 0.24507539 0.9460888
000180 96 6e 62 be 60 90 b5 bf 68 fd 92 bf 78 bc 8d 3e
       -0.22112498 -1.4184685 -1.1483583 0.27682853
000190 25 f3 b3 bf 29 28 36 3f 33 30 0d bf 48 01 d1 be
       -1.4058577 0.7115503 -0.5515167 -0.4082129
0001a0 5a d5 40 3f 0f cb bc be 65 06 1f bf ca 19 62 3e
       0.7532555 -0.3687367 -0.6211913 0.2208015
0001b0 26 19 f5 bd b0 38 74 3e e8 ea 93 3e 1a 75 b0 be
       -0.11967687 0.2384975 0.28890157 -0.3446434
0001c0 22 14 3e be 13 9c 5f 3f f1 d5 30 3f ed d5 d3 be
       -0.18562368 0.87347525 0.6907645 -0.4137415
0001d0 3c c6 77 bf 21 4b 12 3f 8d 5c 54 3f fd aa e2 3f
       -0.96786857 0.5714589 0.8295372 1.7708431
0001e0 3c a8 80 bf 16 dd 8b bf b0 7f d9 3e 4f a1 95 bc
       -1.0051341 -1.0926845 0.4248023 -0.018265394
0001f0 d4 86 04 bf d4 9c be be 97 83 b2 bd 41 65 9a 3e
       -0.5176823 -0.37229025 -0.08716505 0.30155376
000200 ad c8 cb 3e 54 4f 6f 3e 8f 52 d2 3e 32 64 08 3f
       0.3980154 0.23370105 0.41078612 0.53277886
000210 67 5f e6 3c cb 52 ec 3d cd c5 a6 be c7 2d 8d 3e
       0.028121663 0.11539229 -0.32572785 0.27573988
000220 da f8 a9 3e 2c 6a 86 be 0a 24 b8 3e 5b b5 65 bf
       0.3319767 -0.26252878 0.35964996 -0.8972985
000230 01 a5 18 3f 86 70 19 3f 42 cf 08 be 21 4c 34 3f
       0.59626776 0.5993732 -0.13360313 0.70428663
000240 36 2c 90 3e 46 9a 5c 3e 2b c1 3d 3f 58 d1 d5 3e
       0.2815873 0.21543226 0.74122876 0.4176128
000250 24 c4 a4 be 23 05 c3 be 80 d6 f6 bd 3d c0 e9 bd
       -0.32180893 -0.38089857 -0.120526314 -0.1141362
000260 55 94 43 bb 3b de e8 be e0 4f 9d 3e 0b dd 39 be
       -0.0029843051 -0.45482048 0.30725002 -0.18150727
000270 f9 5c e0 3d 5b ed a0 bf 70 3f c3 be 83 da b3 3e
       0.10955233 -1.2572435 -0.38134336 0.3512765
000280 72 08 83 3e f0 94 2d c0 ef b1 64 3f b1 57 00 3f
       0.2559238 -2.7122154 0.89334005 0.50133806
000290 00 1b db be b1 ac fe 3f 45 97 22 bf 46 0f 77 3f
       -0.42794037 1.9896451 -0.6351207 0.9650768
0002a0 8d e5 29 bf 47 20 0a c0 a4 0e 19 3f 28 c9 f0 bf
       -0.6636589 -2.15822 0.59787965 -1.8811388
0002b0 eb d5 20 3f 04 98 8f 3e d9 54 5e 3f b5 f6 10 bf
       0.6282641 0.28045666 0.8684822 -0.56626445
0002c0 07 b7 ef 3e da 98 9a bf c0 42 05 bf d4 57 61 3f
       0.46819326 -1.2077897 -0.5205498 0.8802464
0002d0 96 44 d8 bd b8 b5 90 bd 9f e9 e0 3e 68 aa 98 be
       -0.10559957 -0.0706591 0.4392824 -0.2981751
0002e0 a5 6b 74 bc 6c 04 b2 be c6 3d a5 3e 3c 02 cd be
       -0.014918243 -0.34769 0.32273692 -0.40040767
0002f0 e5 c9 17 bf 17 fa 81 3f e3 d5 94 3f c6 42 cd bf
       -0.5929244 1.0154446 1.1627773 -1.6036003
000300 67 62 b3 bf 8b d1 2f bf 71 c9 92 3f 15 ff 2c be
       -1.4014405 -0.6867911 1.1467725 -0.16894181
000310 e8 05 a3 be ef 18 4a 3f 88 24 f6 3d b7 4c 84 bf
       -0.31840444 0.78944296 0.120186865 -1.0335912
000320 58 81 59 bf c0 ad 01 bd 39 85 97 3e 9c 3b 1c 3e
       -0.8496299 -0.03165984 0.29593828 0.15257114
000330 44 42 2a bc 40 f6 ac be 57 c8 b4 3e 21 93 94 3b
       -0.0103917755 -0.33781624 0.35309097 0.0045341407
000340 b6 75 a6 3d d4 3d c2 be 52 f5 47 3f a5 3f f6 bd
       0.0812792 -0.37937796 0.78108704 -0.12023858
000350 56 ef 95 be 9f 8c 6e bf 70 d3 3b 3f 98 01 14 3f
       -0.2928416 -0.9318332 0.73369503 0.5781493
000360 9b f4 0e 3f 34 8e 65 3f 3e 55 44 3e e2 8e 21 bf
       0.5584199 0.8967011 0.19173142 -0.63108647
000370 08 30 88 bf da 27 df be 90 16 20 3f 7f 76 be bd
       -1.0639658 -0.43585092 0.6253443 -0.09299945
000380 98 b0 85 bb 3d a5 3b 3e 52 92 a8 bd 43 59 71 3f
       -0.0040798895 0.18324752 -0.082310334 0.9427683
000390 a2 4d 05 c0 c6 fe 5e 3f fa 95 55 bf f5 5b a5 3f
       -2.0828633 0.87107503 -0.8343197 1.2918688
0003a0 37 f9 9d be fd 72 7e bf c1 45 16 3f a3 4f eb 3f
       -0.30854198 -0.9939421 0.58700186 1.8383678
0003b0 94 2f 95 bf 7a 18 b8 bd 7f 3e 03 3e 96 c8 1d bf
       -1.1655145 -0.089890435 0.12816809 -0.61634195
0003c0 3b 1d d0 be ae 50 8c be 85 4e 7f 3f e9 a6 46 3e
       -0.406473 -0.27405304 0.99729186 0.19399609
0003d0 b2 f8 5e bf af 3f d6 3c 0d 58 0e bf d8 c8 59 3f
       -0.8709823 0.026153414 -0.55603105 0.8507209
0003e0 e7 a0 8d be d2 2d e8 be 65 9f 3f 3f 80 ca dd 3f
       -0.2766182 -0.45347458 0.7485259 1.7327423
0003f0 e6 4c 25 3f 3f 1c f7 3f 8b 4c 27 bf ec f4 28 bf
       0.6457046 1.9305495 -0.6535117 -0.6599872

network_body._body_endoder.seq_layers.0.bias f4 [64]
000000 c2 96 22 c0 4a be fc bf 21 ef d2 bf de b6 8d bf
       -2.5404515 -1.9745572 -1.6479226 -1.1071432
000010 88 0d 88 be a1 ad 17 c0 e3 84 e8 bf e8 db ef bf
       -0.26572824 -2.3699725 -1.8165554 -1.8738985
000020 ae 44 8c bf bf d3 15 c0 73 a0 f0 bf a8 61 14 c0
       -1.0958459 -2.341049 -1.8798965 -2.3184605
000030 93 fe 36 bf 2f 82 fe bf c3 4c 17 c0 c5 3c c8 bf
       -0.714822 -1.9883479 -2.3640602 -1.5643545
000040 d1 43 ab bf 21 68 cc bf 8c 9a 03 c0 58 2e 8f bf
       -1.3380071 -1.5969278 -2.0563078 -1.1186018
000050 c6 ea 57 c0 98 1b 02 c0 93 92 3c c0 0e c3 cc bf
       -3.3737044 -2.0329342 -2.9464462 -1.5997026
000060 c4 39 41 c0 33 e4 fb bf c6 02 7a bf 07 66 da bf
       -3.0191507 -1.9679016 -0.9766048 -1.7062386
000070 d8 27 78 bf 39 47 12 bf a3 34 77 bf 64 87 8d bf
       -0.96935797 -0.5713993 -0.9656469 -1.1056943
000080 e7 55 48 c0 a2 7a 5b bf f2 d0 05 c0 15 12 d7 bf
       -3.130243 -0.85734 -2.090878 -1.6802393
000090 b7 e9 8e bf f2 5f e5 bf 9e de 05 c0 f1 7b d6 bf
       -1.1165074 -1.7919905 -2.0917125 -1.6756574
0000a0 3a 0c b7 bf f3 49 48 bf a1 dc cf bf c8 68 1f c0
       -1.4300606 -0.7823784 -1.6239206 -2.4907703
0000b0 36 20 95 bf 9c d2 a0 bf 1a 5d e6 bf e6 5d cc bf
       -1.1650455 -1.2564273 -1.7997162 -1.5966156
0000c0 fd 6a ae bf 64 f3 0e c0 6c 03 1f c0 fa 19 08 c0
       -1.36264 -2.2336054 -2.4845839 -2.1265855
0000d0 14 8b 83 bf 23 c1 82 bf 23 50 fb be 3d d0 40 bf
       -1.0276818 -1.0215191 -0.49084577 -0.75317746
0000e0 d8 04 23 c0 97 48 44 c0 b2 ab dc bf b0 43 c1 bf
       -2.5471706 -3.0669305 -1.7239897 -1.5098782
0000f0 88 39 97 be 29 69 0b c0 37 5b c5 bf ba fd 82 bf
       -0.2953608 -2.1782935 -1.5418462 -1.0233681

network_body._body_endoder.seq_layers.2.weight f4 [64, 64]
000000 22 8a 38 3e bc 69 29 bf ed 8a 0d bd 52 e9 ce bd
       0.18021443 -0.6617696 -0.034556318 -0.10103096
000010 e4 85 92 3e 1f e9 03 bf df f5 4b 3f d5 55 08 bf
       0.28617775 -0.5152759 0.79672045 -0.5325597
000020 08 4d 44 bf 81 0c 36 bf bd 0a b7 be 07 33 8e be
       -0.7668004 -0.7111283 -0.3575038 -0.27773306
000030 99 a6 55 bf 81 52 a1 bf 0a 6d f2 3d 2f b0 ee 3e
       -0.8345733 -1.2603303 0.11837204 0.46618792
000040 6a a7 c0 bf 1c 10 3e bf df 43 c4 bf 6c 7c 08 c0
       -1.5051091 -0.7424333 -1.5333213 -2.132594
000050 79 50 0b 3f 1a 41 34 bf 82 86 94 3f 35 8d 10 3f
       0.54419667 -0.7041184 1.1603549 0.56465465
000060 f0 fc b8 3d f9 a1 8b 3e 8d 4e 1c be 8a 51 b5 be
       0.09032619 0.27272013 -0.1526434 -0.35413772
000070 52 fb 00 3e dc db 88 be f3 0e a4 3e 47 a2 95 bf
       0.12595871 -0.2673024 0.32042655 -1.1690148
000080 4d 1e be bf 35 c7 b4 3e 62 be 9d bf 46 2b aa bf
       -1.4852997 0.35308233 -1.2323725 -1.3294456
000090 6c 7c 4f 3f 4f 5f b9 bf e6 98 8f be 73 9b 3f 3f
       0.8104923 -1.4482211 -0.2804634 0.7484657
0000a0 44 96 41 bf fa 51 17 3d 26 9f 52 3d bc 0f 84 be
       -0.7561991 0.036943413 0.051421307 -0.25793254
0000b0 ad fa 27 3e 86 40 af 3e 72 78 50 bf f9 09 61 3f
       0.16404219 0.34228915 -0.81433785 0.8790584
0000c0 2e 87 15 3e 79 b4 5b be a3 37 ab be d6 51 ca bf
       0.14602348 -0.21455564 -0.33440885 -1.5806224
0000d0 6d d2 0c c0 7d 46 66 bf 23 53 a8 be f5 2b 5e 3e
       -2.2003434 -0.89951307 -0.32875928 0.21696456
0000e0 43 f4 47 3f 4c 15 b0 bd af 27 d1 be bb 4e 0a bf
       0.7810709 -0.08597812 -0.4085059 -0.54026383
0000f0 94 85 01 bf 78 7b 98 bf 14 99 b7 bf d1 59 2e bf
       -0.5059445 -1.191268 -1.4343591 -0.681058
000100 63 66 04 bf bb 13 5a be 58 6c 3f 3f 44 b6 8c bf
       -0.5171873 -0.21296589 0.74774694 -1.0993123
000110 2f f5 60 bf 19 f9 d4 be 5c e4 a2 bf dd 44 de 3d
       -0.8787412 -0.41596296 -1.272594 0.108529784
000120 c9 cd 85 bf 6a 8c c2 3d f4 c3 64 bf 85 b2 73 bf
       -1.0453426 0.09499438 -0.893615 -0.95194274
000130 c9 7b 0b 3f bf f8 10 bf 37 3c 80 3f 1b 8e 02 3d
       0.54485756 -0.56629556 1.0018376 0.031873804
000140 79 db 3b bf ef 90 05 be 6c 64 11 3f 2a 18 8a 3d
       -0.73381764 -0.13043569 0.56793857 0.0674289
000150 bb 57 b6 3e b5 6c 94 3e 3a d5 46 3e fc 41 75 be
       0.35613808 0.28989187 0.19417277 -0.23950952
000160 57 ea a6 bd d3 48 b8 3e f2 4b b6 bf df 36 83 bf
       -0.081501655 0.3599306 -1.4241927 -1.025112
000170 29 33 83 bf e4 b2 1b be 26 cf 84 bc 9c aa c1 bf
       -1.0249988 -0.1520496 -0.016212057 -1.5130191
000180 a8 02 4e 3f 84 27 96 bf 5c 3f 22 bf bc 66 b6 bf
       0.80472803 -1.1730809 -0.6337793 -1.4250102
000190 b6 8e 97 bf fe 98 dd 3e 37 98 0f 3d 38 35 58 bf
       -1.1840427 0.43280786 0.035057273 -0.84456205
0001a0 3b b8 9b bf ae 5d 30 be 06 18 bc bf 4b 45 94 be
       -1.2165598 -0.17223236 -1.4694831 -0.28959116
0001b0 59 41 45 bf 1a 02 4c 3f 39 ab 19 3e 13 8e f2 bf
       -0.7705284 0.79690707 0.15006723 -1.8949608
0001c0 c6 2f e1 3e e5 4a db be 0c 8f e1 3d 3a 0e ce be
       0.4398176 -0.42830577 0.11013612 -0.4024523
0001d0 09 72 d0 be 09 04 43 3f 21 15 49 bf 5f a6 a5 3d
       -0.40712002 0.7617803 -0.78547865 0.080883734
0001e0 f3 db 8b bf 7b fe 6b 3e dd 23 4a 3f e0 16 12 be
       -1.0926498 0.23046295 0.78960973 -0.14266539
0001f0 fe c5 cd be c3 9f d1 bf ef e7 00 bf 13 b4 29 3b
       -0.4019012 -1.637688 -0.503539 0.0025894686
000200 af 97 77 3e a8 1c a7 3e f5 5d 80 3f f2 9b 6d be
       0.24178956 0.3263905 1.0028673 -0.2320402
000210 f6 4a 35 bf 0d ae df be 7c 41 35 3f 06 8c 89 3e
       -0.70817506 -0.43687478 0.70803046 0.26864642
000220 77 98 ed bd ee a2 41 3f 4f 0c cd bd 85 f5 88 3f
       -0.11601346 0.75639236 -0.10012113 1.0699927
000230 99 7d f6 3e 28 f9 a2 bf 83 02 ab 3e e1 87 b2 be
       0.48142698 -1.2732286 0.33400354 -0.34869292
000240 89 6e 4c bf 45 fd f6 bd 15 d0 e5 3d 86 41 90 3e
       -0.79856163 -0.12060026 0.11221329 0.2817499
000250 95 81 c4 be 08 f7 72 bf db 2d 01 3e d8 6f 62 3f
       -0.38380113 -0.9490819 0.12615149 0.8845191
000260 de bc bb be 41 9b 57 3f fc 9e 97 3f fe ea fe bf
       -0.36667532 0.84221274 1.1845393 -1.9915464
000270 71 ad aa bf ea 65 24 bf 2b 6b 94 bf 74 92 66 c0
       -1.333418 -0.6421801 -1.1595205 -3.6026888
000280 5e ba d4 bf c3 eb f3 bd d4 c2 54 bf 26 e8 43 bb
       -1.6619375 -0.11910202 -0.83109784 -0.002989301
000290 3a 55 c1 bf 41 b0 2b be 30 7c 6b be a0 31 8b bf
       -1.5104134 -0.16766454 -0.22996593 -1.0874519
0002a0 92 24 4d be 0d d7 ff bf aa e4 13 be 35 fd 57 bd
       -0.20033482 -1.9987503 -0.14442697 -0.05273171
0002b0 87 52 17 bf e9 cf e1 3c d5 a4 1d 3f 5f 64 38 3f
       -0.591103 0.02756496 0.6157964 0.72028154
0002c0 0c 10 d0 be d1 26 0b be 51 19 b0 3e d5 2c 84 be
       -0.40637243 -0.13589026 0.34394315 -0.25815454
0002d0 8e e3 bb be a6 8d c2 be 20 a0 5f bf c7 24 9f bf
       -0.36697048 -0.37998694 -0.87353706 -1.2433099
0002e0 6a a7 9b bf e9 11 be bf 88 3e 58 3f e7 15 59 3f
       -1.2160466 -1.4849216 0.84470415 0.84799045
0002f0 88 35 9c be 2d a7 58 bd 75 1e 9e bf ce 9b 60 bf
       -0.3050959 -0.052893806 -1.2353045 -0.8773774
000300 4d 69 6d 3f df 0c 87 bf 18 38 93 3f 68 b6 03 3f
       0.927388 -1.0550803 1.1501493 0.51450205
000310 91 ee 8b be b7 22 13 bf fb da 36 bf 60 41 b1 be
       -0.2733045 -0.57474846 -0.7142789 -0.3462019
000320 9f 39 04 bf b0 bb 05 3f f6 8e ff 3e b4 bd fc 3e
       -0.5165042 0.52239513 0.49913758 0.49363482
000330 55 5c 80 bf 33 eb 8f bf 2c 48 15 3f a5 3e 8d 3e
       -1.0028177 -1.1243652 0.5831325 0.27586856
000340 e6 c2 cb be ee 9a 3f bf 79 bd 13 3e e9 07 c3 be
       -0.39797133 -0.7484578 0.14427747 -0.38091972
000350 99 ea 54 3f d8 81 96 bf a5 17 92 3e b7 a1 d9 3c
       0.8317047 -1.1758375 0.28533664 0.02656637
000360 00 b3 18 3f da 83 33 bf f4 67 96 be e8 ed a0 3e
       0.5964813 -0.70123065 -0.29376185 0.31431508
000370 bc 06 54 3f 27 6b bc 3e b6 23 62 bf 68 a2 2f bf
       0.82822776 0.368005 -0.8833574 -0.6860719
000380 b5 4c 0c c0 fb 17 2b 3e 44 d5 31 bf 38 9a 87 3f
       -2.1921818 0.16708367 -0.6946604 1.0593939
000390 c9 15 99 bf 3e 93 4e 3f c7 ab 4a bf 43 cd 4f bf
       -1.1959773 0.80693424 -0.7916836 -0.8117258
0003a0 1e 75 df bf e6 b3 ac bf 87 d2 9d be 3f d7 f6 bf
       -1.7457616 -1.3492401 -0.30824682 -1.9284438
0003b0 90 b7 2c c0 1b 9a 33 3f 64 c1 49 3e 39 f5 b3 be
       -2.6987038 0.7015702 0.19702679 -0.35148028
0003c0 c8 92 29 3f 7c 7b df bf c8 f7 cb bf 85 e5 b5 be
       0.66239595 -1.745956 -1.5934992 -0.35526672
0003d0 14 31 11 c0 e3 f1 ab bd d4 b7 53 be 4f 0a 8b bf
       -2.2686205 -0.083957456 -0.20675594 -1.0862521
0003e0 96 f6 fc 3e 94 82 7f bf 55 4f 70 be b1 6f 84 be
       0.4940688 -0.9980862 -0.23467763 -0.25866464
0003f0 5b 3f 7f bf dc 4d 71 3e 90 4c 0a bf b5 3f 20 bf
       -0.9970605 0.23564857 -0.54023075 -0.6259721

network_body._body_endoder.seq_layers.2.bias f4 [64]
000000 bc 75 98 bf 73 cb e3 bf 2b a4 da be 2c 23 71 bf
       -1.191093 -1.7796463 -0.42703375 -0.94194293
000010 36 8d 3a be bb 38 ad bf 60 1b c7 bf f0 fb 07 c0
       -0.1821793 -1.3532938 -1.5555229 -2.124752
000020 aa 17 57 bf 8e 76 81 bf bb 5e 36 be a8 86 9e bf
       -0.84020483 -1.0114305 -0.17809574 -1.2384844
000030 af 3e 9b bf a7 30 c8 bf 5a ed 03 3f 05 77 85 bf
       -1.2128505 -1.5639848 0.51534045 -1.0426947
000040 73 e5 e3 bf d2 f6 a5 be a6 fa 05 c0 a2 52 b7 3e
       -1.7804397 -0.3241487 -2.0934234 0.3580523
000050 7a 31 bd bf 01 82 a9 bf da c0 53 bf 04 3d 7a 3e
       -1.4780724 -1.3242799 -0.82716143 0.24437338
000060 6b d3 d9 be 68 19 93 bf 8b 8f 9a bf 18 32 9c be
       -0.42544112 -1.1492128 -1.2075056 -0.30506968
000070 96 a9 2e be fa fa 85 bf 19 55 8f bf 0f 8f ad be
       -0.1705688 -1.0467217 -1.1197845 -0.33898208
000080 a6 d9 a5 be 34 c9 ab bf a0 19 f8 bf 2f 82 8b bf
       -0.32392615 -1.3420777 -1.938282 -1.0899104
000090 fe 24 34 bf 80 43 7a bf d1 a1 d9 bf 5a 06 9f bf
       -0.70368946 -0.97759247 -1.7002507 -1.2423813
0000a0 70 63 86 be 26 1e e4 bf b3 3a 27 bf f9 69 e7 bd
       -0.2624774 -1.78217 -0.6532394 -0.112995096
0000b0 a1 a1 a7 bf c6 1e be be 4a 83 09 c0 a3 06 4b bf
       -1.30962 -0.37132853 -2.1486382 -0.79307
0000c0 ba 63 0b c0 a2 4b ad be 28 64 a2 bf dc 18 00 bf
       -2.1779618 -0.33846766 -1.2686815 -0.5003793
0000d0 10 56 66 bf 4f 4b 94 bf b2 70 39 bf d7 74 a5 bf
       -0.8997507 -1.1585482 -0.72437584 -1.2926282
0000e0 60 84 6f bf e5 87 8a bf ec f7 f3 be 96 87 13 c0
       -0.93561363 -1.0822722 -0.47650087 -2.3051505
0000f0 8a 73 9c bf b1 ed 56 bf 15 7c 6a 3e a5 62 2a bf
       -1.222276 -0.8395644 0.22898896 -0.6655677

action_model._discrete_distribution.branches.0.weight f4 [2, 64]
000000 2a b7 07 be 21 2b 59 3f 0c 6c d3 3c 30 e2 b5 be
       -0.13253465 0.84831434 0.025808357 -0.3552413
000010 05 2d 43 3c 9a ed 76 3e 33 e1 62 be 16 76 4d 3e
       0.011912589 0.24114075 -0.22156219 0.20064577
000020 ad 9d 15 be 83 52 b4 3c b8 68 80 be 84 05 1e 3e
       -0.1461093 0.022012 -0.25079894 0.15431792
000030 6d 6d 7b be ea 83 86 bd 46 8e c3 3c bf 33 52 bd
       -0.24553461 -0.06568129 0.023871552 -0.05131888
000040 4e cc a7 bb e0 50 f9 bd d2 bf 32 3f 87 7f fc bd
       -0.0051207906 -0.12173629 0.69823945 -0.123290114
000050 b6 33 4c bf d5 b0 13 bf f2 c1 eb bd 5d 8e 3b 3d
       -0.79766405 -0.576917 -0.115116015 0.045790065
000060 eb b8 0d 3d 65 a6 6d be ef 2f 84 bc 0c 89 48 3f
       0.03460018 -0.23208006 -0.016136138 0.78334117
000070 f7 72 30 be fc 7d 75 3e 3f 77 a5 be a5 0c 4b be
       -0.17231356 0.2397384 -0.3231754 -0.19829042
000080 6c c8 36 3d f5 a0 8e 3e c7 ee 85 3e b9 62 c2 3f
       0.04462473 0.27857175 0.26158735 1.5186378
000090 25 09 e0 3d d7 29 dc 3d 00 b8 a1 3d a3 8b 02 bf
       0.10939244 0.10750168 0.07896423 -0.5099432
0000a0 63 d6 de bc 23 94 6a bd 13 7e 74 39 c5 c7 75 be
       -0.027201837 -0.05727018 0.0002331662 -0.24001987
0000b0 ae 76 70 3f 06 2c 55 3e 62 53 49 3f a7 ac 24 3f
       0.9393109 0.20817575 0.7864286 0.64325947
0000c0 ac 7a 4f be df 69 db bd 6c 9c 3f 3f 71 fd 3a bd
       -0.2026164 -0.10713553 0.74848056 -0.045651857
0000d0 29 ba 09 be 9c 84 bb 3d 4b 55 91 3d ab 75 c4 bd
       -0.1344992 0.091561526 0.070963465 -0.09592756
0000e0 20 19 2d 3e ec e2 0b bf 08 51 1c bf 92 f6 c9 bf
       0.16904116 -0.5464313 -0.61061144 -1.5778372
0000f0 78 aa 89 be 3a 5a f8 bd 02 51 89 bd 41 7f 51 be
       -0.2688787 -0.12126584 -0.06704904 -0.204587
000100 3a e3 f4 3d 53 a2 57 bf b8 a8 8a ba a9 f2 b8 3e
       0.119574025 -0.8423206 -0.0010578847 0.36122635
000110 c3 50 8e bb 36 1f 80 be 38 5a 66 3e 4f 1f 44 be
       -0.0043431236 -0.25023812 0.22495353 -0.19152568
000120 d6 c0 1e 3e dd 9e d0 bc ac 53 69 3e b7 e1 1f be
       0.15503249 -0.025466377 0.22785825 -0.15613447
000130 4a 3b 7f 3e 2f d2 bd 3d 84 29 28 3b 16 ef 32 3d
       0.2492496 0.09268605 0.002565951 0.04368504
000140 e1 9d 65 3c fb fa 0e 3e 3e d0 35 bf af 04 e7 3d
       0.014014692 0.13962929 -0.7102088 0.1128019
000150 e8 db 4a 3f 89 5a 11 3f 06 12 d0 3d 28 9a 5f bd
       0.792418 0.5677877 0.10159688 -0.054590374
000160 45 2c 92 bd da ec 77 3e dc 0c d7 bb 13 9d 4a bf
       -0.0713735 0.24211445 -0.0065628123 -0.79145926
000170 5e 9a 41 3e cb e1 68 be e8 24 92 3e f4 ad 50 3e
       0.18906543 -0.22742383 0.28543782 0.20378858
000180 2e 0f 41 bd ea 4d 8b be bc 66 6f be 94 26 c3 bf
       -0.047133617 -0.2720788 -0.23379034 -1.5246148
000190 ed 3d 0c be 69 47 f3 bd e3 d8 66 bd 0e 03 08 3f
       -0.13695498 -0.11878855 -0.056359183 0.5312966
0001a0 e3 50 28 3d c8 57 55 3d 7d b3 8f 3c 95 dc 6f 3e
       0.041092765 0.052085668 0.017541641 0.23423989
0001b0 8b 8a 71 bf 3b fc 57 be 39 9b 44 bf 37 3e 26 bf
       -0.94352025 -0.21092312 -0.7679935 -0.6493868
0001c0 95 f4 3f 3e ad 1c d8 3d 00 0c 39 bf fd 5a 5d 3c
       0.18745644 0.105523445 -0.72283936 0.013510463
0001d0 6d 14 1e 3e b6 28 da bd 3d bd 9e bd 06 67 a7 3d
       0.1543748 -0.10652296 -0.07750938 0.08173947
0001e0 e7 6a 22 be 86 35 0e 3f 3f f7 16 3f e5 a8 cc 3f
       -0.15861093 0.5555042 0.5897102 1.5989043
0001f0 a5 9e 8a 3e bd f7 5c 3d e5 56 db 3c 2d bb 58 3e
       0.2707416 0.0539472 0.026774833 0.21165152

action_model._discrete_distribution.branches.0.bias f4 [2]
000000 8f f5 b3 3f 82 f5 b3 bf
       1.4059314 -1.4059298

action_model._discrete_distribution.branches.1.weight f4 [2, 64]
000000 5b 89 25 be e4 11 4d c0 cf c2 2b 3e c7 7c 47 3c
       -0.16165678 -3.204217 0.16773532 0.012175745
000010 e3 ea 8c bd be 0a da 3c 8b 28 dc 3d 77 90 94 bf
       -0.068807386 0.02661645 0.107499205 -1.1606587
000020 4c bb e9 bc 27 4e 3d 3f 12 36 8a bb d3 50 ef bf
       -0.028531693 0.73947376 -0.0042178715 -1.869654
000030 e4 74 55 3d 99 f7 07 3e 4c 47 23 bd bb fd 0b bf
       0.05211343 0.13278045 -0.039862916 -0.54684037
000040 bb 89 c1 bf 1b 07 12 3d 77 a4 7c bf 73 ad 50 3d
       -1.5120157 0.035651308 -0.98688453 0.050946664
000050 41 80 00 3f e8 bb c4 bf 25 7a 61 3c 1f c4 05 3e
       0.501957 -1.5369844 0.013762032 0.13063096
000060 55 2e 67 be 11 6d 1e 3d bd 75 88 be c6 3f da be
       -0.22576268 0.038678233 -0.26652327 -0.4262678
000070 58 0e 46 3e ca c5 b3 3e 80 18 89 3e 75 d3 88 3c
       0.19341409 0.3511184 0.26776505 0.016702393
000080 51 a2 38 3d 23 9a a8 3e 76 d0 10 bd e8 86 df be
       0.045076672 0.32930097 -0.035355054 -0.43657613
000090 29 f2 f5 3d 96 36 c3 3e f7 cb 00 3e 4a 09 1f be
       0.12009079 0.38127583 0.12577806 -0.15530887
0000a0 5e da 3a bf 59 b5 02 3e 8c cb 67 be e3 14 5a 3d
       -0.7298945 0.12764491 -0.2263624 0.053242575
0000b0 60 ae cd bf 14 f4 4d 3e b9 ef bd bf 3d 01 f9 bf
       -1.606884 0.2011264 -1.4838783 -1.9453503
0000c0 7a dc 74 be de 79 9d be 08 c2 8a be 34 5e 6b 3e
       -0.2391223 -0.3075704 -0.2710116 0.22985154
0000d0 20 05 e3 3e cd e7 3d 3e 87 cc 6c bd f6 cf 8a be
       0.44339848 0.18545456 -0.05781224 -0.27111787
0000e0 55 75 c4 be 15 51 09 3e 9a 46 28 be 23 11 29 3f
       -0.38370767 0.13409837 -0.16433182 0.66041774
0000f0 32 39 17 c0 c4 5b c6 bc 6c d3 02 bd 33 e8 0c 3d
       -2.362866 -0.02421368 -0.03193991 0.03440113
000100 b1 01 1b 3e 35 b2 4d 40 8f 7e 33 be 97 bb 9a bb
       0.15137364 3.214002 -0.17528747 -0.0047220695
000110 ba 18 83 3d 22 fb 06 bd 5d aa d0 bd 89 2c 97 3f
       0.064012006 -0.032954343 -0.10188744 1.1810466
000120 10 6a 42 3d 0f 42 3f bf e1 43 94 3b 55 f0 ef 3f
       0.04746443 -0.7471017 0.0045246934 1.8745219
000130 fe 98 a7 bd c6 d2 3f be 24 3a 9a 3c 57 11 0d 3f
       -0.08183478 -0.18732747 0.018826552 0.55104584
000140 bd 66 c5 3f a0 73 e8 bc 9d 08 82 3f 06 05 f3 bc
       1.5421978 -0.028375447 1.0158879 -0.029665481
000150 d2 21 03 bf 1a e6 c4 3f 94 87 dd bc 86 84 01 be
       -0.5122348 1.5382721 -0.027042188 -0.1264821
000160 d7 4d 6d 3e 7e a8 2a bd 96 b9 8d 3e 88 fa e0 3e
       0.23174225 -0.041664593 0.27680653 0.4394114
000170 91 1e 48 be 6f 20 ad be 6f db 84 be dd e0 0b bd
       -0.1954291 -0.33813807 -0.25948665 -0.034149993
000180 9d 1a 07 bd 2d 49 ab be 7a 5d fb 3c fc 13 d8 3e
       -0.032984365 -0.33454266 0.030684222 0.42202747
000190 a9 7a ae bd 2c 3e c9 be 40 78 fa bd 3e ba 03 3e
       -0.08519489 -0.39305246 -0.12229967 0.12864015
0001a0 86 00 32 3f a5 e5 e6 bd 06 51 6c 3e 86 22 68 bb
       0.6953205 -0.1127427 0.23077783 -0.0035420968
0001b0 dc db cf 3f 3b 80 39 be 8b c8 bc 3f 2a b2 f7 3f
       1.6238971 -0.18115322 1.4748701 1.9351246
0001c0 c7 4e 7f 3e af 74 9b 3e c6 d3 8f 3e 1d 29 54 be
       0.24932395 0.3036246 0.28091258 -0.20718808
0001d0 ad 76 e7 be b1 04 37 be db b7 2a 3d 7f e7 86 3e
       -0.4520773 -0.17872883 0.041679244 0.26348493
0001e0 ac 6b cc 3e 76 ea 19 be 26 c5 37 3e fa 34 29 bf
       0.39925897 -0.15030846 0.179463 -0.6609646
0001f0 66 83 18 40 b1 52 9d 3b 51 2f 14 3d 77 05 d0 bc
       2.38302 0.0048011173 0.036177937 -0.02539323

action_model._discrete_distribution.branches.1.bias f4 [2]
000000 d3 e8 7a bf de e8 7a 3f
       -0.9801151 0.9801158

action_model._discrete_distribution.branches.2.weight f4 [2, 64]
000000 3a a6 e4 3e 30 c4 a9 3e 14 9a 7a bd e4 8e 0f 3c
       0.4465807 0.33157492 -0.061182097 0.008762095
000010 8b 03 ed 3d fe 05 3f bc e1 7f 95 bd 6d 55 41 be
       0.115729414 -0.0116591435 -0.072997816 -0.18880244
000020 42 a6 8c 3e 22 a2 02 bd c6 43 44 3d 6f ff b4 3c
       0.27470595 -0.031892903 0.047916196 0.022094456
000030 34 3f c0 bd 8b d7 4d bf b2 24 2d 3e 70 34 06 be
       -0.09387055 -0.8040702 0.1690853 -0.13105941
000040 02 60 22 c0 7f 7b 59 3f d9 4f ab 3f 4a 02 ce 3d
       -2.5371099 0.84954065 1.3383743 0.1005903
000050 ee 92 ac 3f 70 41 48 3d 11 4c e6 3e a6 94 00 3e
       1.3482339 0.04889053 0.4497991 0.12556705
000060 0b e1 b6 3d 8d bf e9 3e a0 5e cc be 9f 4c 40 be
       0.08929642 0.45653954 -0.39915943 -0.18779229
000070 98 56 1f 3e 81 b5 7f bd 43 74 49 3f e7 dd f3 3c
       0.15560377 -0.062428955 0.78693026 0.029768897
000080 b4 3d 17 3e c6 e2 91 3b 21 91 85 3d 89 48 0a 3f
       0.14769632 0.0044520823 0.06521822 0.5401693
000090 97 e6 31 bd 46 ec 09 3e 9c 6e 8c be 90 cc a8 be
       -0.0434328 0.13469037 -0.27428138 -0.3296857
0000a0 5b a4 e3 be df 99 e7 be bc bc e6 3d 1f d8 34 3d
       -0.4446133 -0.45234582 0.11266467 0.04415142
0000b0 1d 27 85 3f 84 51 b8 3d 04 4a c8 3e b5 b9 6c be
       1.0402561 0.08999923 0.3911897 -0.23117717
0000c0 5e 4f ba be 3b 16 06 3e 77 41 c1 3d 79 11 d7 bc
       -0.36388677 0.13094418 0.094363146 -0.026253449
0000d0 e1 b4 cc bd 88 60 29 be 05 cc be 3d 81 08 6f be
       -0.099954374 -0.1654073 0.093162574 -0.23343088
0000e0 d7 b7 74 3f 98 51 6d 3e 18 ab 45 3e d7 63 17 3e
       0.9559302 0.23175657 0.19303548 0.1478418
0000f0 0d 15 34 c0 4f 43 60 be b4 7c d2 3d 65 17 b0 3d
       -2.8137848 -0.21900676 0.102776915 0.08598212
000100 43 46 db be 58 af a6 be de 21 5f 3d bd d5 1b bc
       -0.42827043 -0.32555652 0.054475658 -0.009511408
000110 ad f4 ec bd 57 d2 71 3c 33 d7 89 3d 1d 44 57 3e
       -0.11570106 0.014759622 0.06730499 0.21022077
000120 22 9c a5 be 0b a6 23 3d b2 19 35 bd 29 d9 97 bb
       -0.32345682 0.039953273 -0.044213958 -0.004634042
000130 dc d0 68 3d 41 cb 53 3f 19 c2 40 be 60 8b 0f 3e
       0.05683981 0.82732016 -0.18824042 0.14018011
000140 a6 c5 23 40 7d 78 5e bf 2a 88 ab bf ad 9c a4 bd
       2.5589385 -0.869026 -1.3400929 -0.08037696
000150 69 7b af bf 41 f2 fb bc ea 54 f0 be f8 87 f7 bd
       -1.3709537 -0.030755164 -0.46939784 -0.12086481
000160 21 4a 9a bd 86 1f ef be 32 65 c8 3e 53 69 4d 3e
       -0.0753367 -0.46703738 0.39139706 0.20059709
000170 c3 61 37 be be a1 6c 3d ad 2c 49 bf 91 19 09 bd
       -0.17908387 0.057771437 -0.78583795 -0.033471648
000180 5b 70 1e be 2a b7 97 3c c2 4b 13 bd d9 75 0c bf
       -0.15472548 0.018519957 -0.03596092 -0.5486732
000190 90 6c 38 3d 3e 9c 05 be 15 ce 8e 3e fa 15 b5 3e
       0.04502541 -0.13047883 0.27891603 0.3536833
0001a0 ac f5 f1 3e ee 2b f0 3e 79 6e c7 bd 55 05 2f bd
       0.47257745 0.46908516 -0.09737868 -0.042729694
0001b0 d7 2c 8b bf e2 77 81 bd 65 ef c7 be 40 6e 4c 3e
       -1.0873059 -0.06321694 -0.3904983 0.19963932
0001c0 aa f9 b2 3e ea e6 0a be e1 0d ba bd a4 f3 58 3d
       0.34956104 -0.13564649 -0.090846784 0.05296673
0001d0 68 05 e5 3d 95 5e 2c 3e d5 f2 d8 bd ce ed 6f 3e
       0.11182672 0.16832955 -0.105931915 0.23430559
0001e0 df 7c 6d bf cc 71 82 be ae a5 30 be 96 05 15 be
       -0.92768663 -0.25477445 -0.17250702 -0.14552912
0001f0 4d d8 34 40 13 ca 76 3e 2d de af bd 88 27 b6 bd
       2.825702 0.24100523 -0.085872985 -0.08894259

action_model._discrete_distribution.branches.2.bias f4 [2]
000000 5d a2 99 bf 64 a2 99 3f
       -1.2002674 1.2002683

onnx::Div_104 f4 [28]
000000 63 70 d8 3e 8c 00 b8 3d 8a 05 db 3e 55 a3 bd 3e
       0.42273244 0.08984479 0.42777663 0.37038675
000010 1d b5 cf 3e 69 c7 b4 3d 14 8c d2 3e af 54 b8 3e
       0.40567866 0.08827097 0.41122496 0.36002108
000020 41 fd d6 3e 97 7f 8d 3d 26 8d d8 3e 42 41 ba 3e
       0.41990092 0.069091015 0.42295188 0.36377913
000030 7b a1 b0 3e f6 01 ba 3d fd fa b4 3e 14 5d a4 3e
       0.344982 0.09082405 0.3534774 0.32102263
000040 ef ff b3 3e d5 76 38 3d 0b 0f b5 3e 88 ea a4 3e
       0.351562 0.045035202 0.3536304 0.32210183
000050 44 44 8e 3e 48 c6 b4 3d 72 1a 94 3e 46 0d 87 3e
       0.27786458 0.08826882 0.28926426 0.26377314
000060 21 1e 93 3e f4 b4 24 3d 65 49 94 3e 56 f6 88 3e
       0.28733924 0.040211633 0.28962246 0.2675044

onnx::Div_107 f4 [28]
000000 ba 3a ee 3e 66 66 41 3e 60 19 f5 3e 83 fb 36 3e
       0.4652918 0.18886718 0.47870922 0.17869382
000010 4e 66 ec 3e ab b9 70 3e c3 82 dd 3e 95 2f a6 3e
       0.46171802 0.23508327 0.43263826 0.32458177
000020 c2 0f d9 3e 95 fb 38 3e 05 f1 c3 3e a3 6d 8b 3e
       0.42394835 0.18064721 0.3826982 0.27232084
000030 4b 00 c8 3e 36 ec ad 3e 95 e2 68 3e d4 e9 9f 3e
       0.39062724 0.33969277 0.22742684 0.31233084
000040 60 cf b3 3e bf c9 1f 3e 87 63 98 3e 60 26 89 3e
       0.35119152 0.15604304 0.29763433 0.2678709
000050 bb 36 ba 3e 54 5a b9 3e da d4 28 3d 5f aa 87 3e
       0.3636988 0.36201727 0.041218616 0.2649717
000060 cc 37 9e 3e 64 a8 07 3e 15 73 7d 3e 27 92 89 3e
       0.30901945 0.1324783 0.24750932 0.26869318

onnx::Div_110 f4 [7]
000000 ed 1a 53 42 ed d2 38 42 60 b2 38 42 51 d9 38 42
       52.776295 46.205982 46.174194 46.212223
000010 53 9b 38 42 11 8f 38 42 66 b2 38 42
       46.151684 46.139713 46.174217
