Assets/_created_block_bigger_gradual_reward_increased_length_continuous_dynamics_Added_checkpoint_ontriggerenter_Renaming_sensor_beta_0.003_increased_rewards_corrected_blocker/competitor/competitor-13999982.onnx (onnx, 47196 bytes, 17 tensors)

discrete_act_size_vector f4 [1, 3]
2.0 2.0 2.0
00000000: 0000 0040 0000 0040 0000 0040

network_body.observation_encoder.processors.0.normalizer.running_mean f4 [28]
0.23344088 0.007906113 0.75864494 0.7937627 0.20795842 0.007514629 0.784505 0.813379
0.22911385 0.0047380626 0.7661478 0.80197734 0.1385578 0.007922705 0.8535367 0.8677786
0.14498748 0.0019347367 0.8530612 0.8668547 0.08420834 0.0074709775 0.90827644 0.9167971
0.09110688 0.0015551393 0.907344 0.91457033
00000000: 200b 6f3e a488 013c 8e36 423f 0834 4b3f
00000010: 0df3 543e 473d f63b 52d5 483f 9b39 503f
00000020: d29c 6a3e c041 9b3b 4322 443f 634e 4d3f
00000030: 19e2 0d3e 3cce 013c 6281 5a3f bd26 5e3f
00000040: 9977 143e fe96 fd3a 3862 5a3f 31ea 5d3f
00000050: 6c75 ac3d 1acf f43b ce84 683f 37b3 6a3f
00000060: 3e96 ba3d d1d5 cb3a b247 683f 4821 6a3f

network_body.observation_encoder.processors.1.normalizer.running_mean f4 [28]
0.31689072 0.036839467 0.6446349 0.8925107 0.69017094 0.058981977 0.25080293 0.55575275
0.7640737 0.03360712 0.17901483 0.4994705 0.81054395 0.13421606 0.05519671 0.41283616
0.85479194 0.024742879 0.099487595 0.30265343 0.8427744 0.15554598 0.0016448908 0.3523729
0.8925307 0.01769386 0.06623245 0.26289403
00000000: 803f a23e fbe4 163d cb06 253f 957b 643f
00000010: 0baf 303f 1697 713d 3e69 803e d045 0e3f
00000020: 569a 433f 9fa7 093d aa4f 373e 99ba ff3e
00000030: cf7f 4f3f ef6f 093e f215 623d 435f d33e
00000040: a5d3 5a3f 94b1 ca3c 27c0 cb3d 64f5 9a3e
00000050: 10c0 573f 7247 1f3e 6099 d73a 396a b43e
00000060: e47c 643f b7f2 903c e1a4 873d 0c9a 863e

network_body.observation_encoder.processors.2.normalizer.running_mean f4 [7]
231.47173 51.185986 51.641487 50.803974 51.067486 51.40568 51.09896
00000000: c378 6743 73be 4c42 e290 4e42 4537 4b42
00000010: 1b45 4c42 6b9f 4d42 5665 4c42

network_body._body_endoder.seq_layers.0.weight f4 [64, 63]
-0.16718014 0.16962045 0.058962822 0.35583624 0.3579114 -0.40150717 -0.10142043 0.17882761
-0.023878487 0.8248412 -0.104005985 0.13094376 0.59221363 0.41598648 -0.0036063597 -0.10612413
-0.16255131 1.0950329 -0.037205264 -0.31654277 0.5253736 -0.07302303 0.23310666 -0.01754394
-0.3153605 0.3828734 0.6965613 0.6390046 1.2495875 -0.62342787 -0.750672 -0.36687824
0.71268153 -0.28973627 -0.10245126 1.7584685 0.08166974 1.5217346 -1.1713594 -1.2404032
0.014320461 0.1815104 -0.41648751 -0.037156027 -0.037046812 -0.11636795 -0.17878847 0.40705258
0.002822866 0.23284614 1.0349754 -0.9311353 0.0931712 -1.02322 0.94290775 0.28109333
0.4912041 0.04510163 -0.00397594 0.962451 0.12176733 -0.71671474 0.35481748 0.567889
0.5834147 -0.5554093 -0.87509984 0.5259384 0.34349144 -0.25317606 -0.5530374 -0.72509974
-0.37072292 0.9719683 0.60076547 0.47632492 0.8875499 -0.28759256 -0.28802028 1.2112057
1.0377467 -1.0895898 -0.88483965 -0.68959314 1.3725268 0.49695757 0.73612225 -0.8777407
0.5775026 0.97151023 1.0043443 0.9032276 -0.80767554 -0.35225984 0.20156518 1.1544992
-0.29713207 -1.6563461 -1.3993685 0.053755723 -1.2937938 0.8034117 -0.5538729 -0.45741507
0.735232 -0.3589926 -0.5071316 0.056359295 -0.08522731 0.36861417 0.41039336 -0.34829208
-0.16757783 0.9585824 1.0347914 -0.37816462 -1.0166148 0.5754173 0.7687153 1.8043952
-0.99928063 -1.0047606 0.34701237 -0.059047513 -0.4933071 -0.3401349 -0.06264419 0.1920479
0.3847074 0.1974628 0.40231153 0.4527154 0.046627108 0.118141755 -0.261255 0.21004663
0.2682023 -0.3286725 0.41670132 -1.0329238 0.55521667 0.55145186 -0.13135548 0.603263
0.2913521 0.20145552 0.74326944 0.42689916 -0.3258288 -0.4418803 -0.117672026 -0.17107601
-0.005172158 -0.4997772 0.49895555 -0.4256301 0.007910646 -1.2318585 -0.18545197 0.17370203
0.1914184 -2.8372717 0.7348361 0.32989457 -0.18553211 2.0407088 -0.676499 1.0220776
-0.718811 -2.2477376 0.61216855 -2.0909595 0.63993263 0.41201794 0.91402173 -0.5980995
0.36841068 -1.275468 -0.42054096 0.88199174 -0.19270375 0.1563894 0.2995776 -0.517151
-0.26717746 -0.41291046 0.27890173 -0.3505521 -0.45485783 0.85361516 1.2376394 -1.5060223
-1.3225574 -0.7818716 1.064292 -0.124234214 -0.25611156 0.7475314 -0.008307054 -0.9633667
-0.8202405 -0.15111372 0.11151838 0.23355731 0.09225048 -0.30440176 0.35597366 -0.039979037
0.062924564 -0.39696383 0.58138216 -0.12405623 -0.2561642 -0.8477437 0.5356718 0.48538753
0.5049976 1.1191643 0.3180856 -0.9055389 -1.358444 -0.45304924 0.700646 -0.18939571
-0.34334177 0.29530632 -0.049908195 0.6552494 -2.4096801 0.77039486 -0.75496614 1.4068992
-0.25328827 -1.1283433 0.7026961 1.8764848 -1.1851302 -0.1307285 0.18101744 -0.98232317
-0.5191893 -0.42709014 1.1476904 0.18473381 -0.7884584 -0.06918911 -0.45949474 0.76526994
-0.3053834 -0.55538654 0.28965455 1.7996633 0.5078736 1.9740692 -0.5149386 -0.5035622
00000000: 4531 2bbe fcb0 2d3e 0083 713d 2b30 b63e
00000010: 2a40 b73e 5992 cdbe 84b5 cfbd 961e 373e
00000020: d19c c3bc cb28 533f 1701 d5bd 1f16 063e
00000030: 509b 173f 2efc d43e ad58 6cbb 9c57 d9bd
00000040: da73 26be 0a2a 8c3f 8c64 18bd e511 a2be
00000050: e27e 063f 198d 95bd 83b3 6e3e 4fb8 8fbc
00000060: ee76 a1be fb07 c43e d751 323f ce95 233f
00000070: 7cf2 9f3f f898 1fbf 0a2c 40bf 77d7 bbbe
00000080: 4c72 363f 5058 94be f7d1 d1bd 7f15 e13f
00000090: 7742 a73d 33c8 c23f 1bef 95bf 88c5 9ebf
000000a0: 5ea0 6a3c dddd 393e da3d d5be eb30 18bd
000000b0: 66be 17bd 5252 eebd 5314 37be 3269 d03e
000000c0: d5ff 383b 386f 6e3e 137a 843f e25e 6ebf
000000d0: 8bd0 be3d dff8 82bf 6762 713f 77eb 8f3e
000000e0: 1b7f fb3e 7dbc 383d 9a48 82bb 3063 763f
000000f0: 2661 f93d 9e7a 37bf a3aa b53e 2c61 113f
00000100: aa5a 153f 4e2f 0ebf 8b06 60bf e6a3 063f
00000110: 1cde af3e 4ba0 81be dc93 0dbf 23a0 39bf
00000120: 65cf bdbe ead2 783f c4cb 193f dce0 f33e
00000130: 7836 633f 553f 93be 6577 93be ca08 9b3f
00000140: e2d4 843f ae77 8bbf da84 62bf 2d89 30bf
00000150: f5ae af3f 3971 fe3e 8272 3c3f 9db3 60bf
00000160: 36d7 133f e5b4 783f 5b8e 803f ed39 673f
00000170: d3c3 4ebf 675b b4be 1a67 4e3e a1c6 933f
00000180: b221 98be 2603 d4bf 821e b3bf f62e 5c3d
00000190: 099b a5bf 64ac 4d3f 9dca 0dbf 4f32 eabe
000001a0: 2a38 3c3f e1cd b7be 60d3 01bf 01d9 663d
000001b0: a88b aebd ffba bc3e 141f d23e 5753 b2be
000001c0: 8699 2bbe a865 753f 0b74 843f cb9e c1be
000001d0: 6f20 82bf 8c4e 133f 87ca 443f 6cf6 e63f
000001e0: dbd0 7fbf ff9b 80bf 9bab b13e cedb 71bd
000001f0: c092 fcbe 2926 aebe 994b 80bd 34a8 443e
00000200: 5ef8 c43e b033 4a3e c7fb cd3e 50ca e73e
00000210: 11fc 3e3d 4ef4 f13d 37c3 85be 7716 573e
00000220: d051 893e c347 a8be e059 d53e d936 84bf
00000230: ae22 0e3f f32b 0d3f 0d82 06be 726f 1a3f
00000240: 1a2c 953e 5b4a 4e3e e846 3e3f 8792 da3e
00000250: 08d3 a6be 223e e2be 08fe f0bd 8d2e 2fbe
00000260: 357b a9bb cce2 ffbe 1a77 ff3e 30ec d9be
00000270: a79b 013c 8aad 9dbf 1fe7 3dbe f2de 313e
00000280: 2f03 443e dc95 35c0 381e 3c3f f1e7 a83e
00000290: 21fc 3dbe f99a 0240 0a2f 2dbf 70d3 823f
000002a0: ff03 38bf efda 0fc0 14b7 1c3f 48d2 05c0
000002b0: a0d2 233f 04f4 d23e 54fd 693f 0d1d 19bf
000002c0: 53a0 bc3e 8942 a3bf 2551 d7be 36ca 613f
000002d0: 2254 45be 8b24 203e 3c62 993e 0264 04bf
000002e0: 7ccb 88be 0069 d3be 35cc 8e3e 917b b3be
000002f0: 20e3 e8be 8686 5a3f f86a 9e3f 57c5 c0bf
00000300: 9049 a9bf bd28 48bf b83a 883f 826e febd
00000310: 0e21 83be 385e 3f3f 4f1a 08bc 339f 76bf
00000320: 48fb 51bf 8ebd 1abe c063 e43d a629 6f3e
00000330: d2ed bc3d 8cda 9bbe 2e42 b63e 0fc1 23bd
00000340: 98de 803d d83e cbbe 76d5 143f 3111 febd
00000350: f427 83be bb05 59bf c921 093f b784 f83e
00000360: 8647 013f c740 8f3f 1edc a23e 66d1 67bf
00000370: 7ee1 adbf 12f6 e7be 895d 333f f3f0 41be
00000380: 7eca afbe 6432 973e 896c 4cbd 6dbe 273f
00000390: 3338 1ac0 9938 453f 7645 41bf 4615 b43f
000003a0: 00af 81be 8e6d 90bf e4e3 333f a730 f03f
000003b0: 59b2 97bf b1dd 05be a35c 393e 8879 7bbf
000003c0: 97e9 04bf 8fab dabe 85e7 923f dc2a 3d3e
000003d0: 69d8 49bf 05b3 8dbd e542 ebbe bbe8 433f
000003e0: 375b 9cbe d02d 0ebf 9a4d 943e 5e5b e63f
000003f0: 0104 023f 4dae fc3f 04d3 03bf 74e9 00bf

network_body._body_endoder.seq_layers.0.bias f4 [64]
-2.895726 -1.9303246 -1.6319396 -0.853754 -0.35047588 -2.5356016 -1.995433 -2.0476751
-1.2536759 -2.4628856 -1.85301 -2.4733975 -0.7068852 -2.1257489 -2.6089525 -1.7933716
-1.317346 -1.4924024 -2.0354514 -1.1462917 -3.4455538 -2.058013 -2.9610536 -1.6488307
-2.8948457 -1.9608095 -1.0341948 -1.6094514 -0.9817053 -0.3252205 -0.9633074 -1.1296046
-3.1497507 -0.9518657 -2.1496232 -1.785955 -1.3437617 -1.9407797 -2.171608 -1.7432286
-1.2877359 -0.73765594 -1.8173838 -2.608909 -1.1289779 -1.1237519 -1.678405 -1.7432535
-1.3656555 -2.2541223 -2.6130211 -2.2488122 -1.0778939 -1.2333684 -0.48138964 -0.7860523
-2.6362507 -3.2281003 -1.7343785 -1.7381645 -0.393652 -2.272068 -1.5514367 -0.97728884
00000000: 9353 39c0 e014 f7bf 66e3 d0bf 9f8f 5abf
00000010: 9371 b3be 4c47 22c0 596a ffbf 1c0d 03c0
00000020: 7478 a0bf eb9f 1dc0 6f2f edbf 254c 1ec0
00000030: 6ef6 34bf 450c 08c0 14f9 26c0 338d e5bf
00000040: cb9e a8bf 0b07 bfbf d644 02c0 b0b9 92bf
00000050: f483 5cc0 7cb6 03c0 e781 3dc0 e20c d3bf
00000060: 2745 39c0 cefb fabf 7f60 84bf 8102 cebf
00000070: 0a51 7bbf 4d83 a6be 509b 76bf e296 90bf
00000080: 8495 49c0 78ad 73bf 6d93 09c0 2c9a e4bf
00000090: 6200 acbf 786b f8bf a0fb 0ac0 1d22 dfbf
000000a0: 88d4 a4bf 05d7 3cbf 08a0 e8bf 5df8 26c0
000000b0: 5982 90bf 1ad7 8fbf fad5 d6bf ee22 dfbf
000000c0: cdcd aebf 8a43 10c0 bd3b 27c0 8aec 0fc0
000000d0: 6df8 89bf 04df 9dbf b478 f6be b93a 49bf
000000e0: 55b8 28c0 3299 4ec0 1d00 debf 2d7c debf
000000f0: c18c c9be 9069 11c0 7a95 c6bf 9a2f 7abf

network_body._body_endoder.seq_layers.2.weight f4 [64, 64]
0.40032375 -0.41984832 -0.043779075 -0.15459368 0.052455474 -0.56913626 0.56515276 -0.4207709
-0.96725035 -0.7587014 -0.36297786 -0.1913251 -0.68343675 -1.3150125 0.115266934 0.28318968
-1.6200657 -0.6525074 -1.7227397 -2.3511426 0.4956148 -0.619737 1.4525539 0.5125445
0.1928338 0.35521698 -0.2680518 -0.25005683 0.49996918 -0.063397795 0.15043855 -1.1786922
-1.2480692 0.09875805 -0.75639224 -1.5379239 0.71920234 -1.4312279 -0.31781247 0.6404733
-0.7307109 0.22345684 0.08852649 -0.40077728 0.19909184 0.37339494 -0.9369482 0.9064723
0.107701965 -0.07445965 0.009910055 -1.2460686 -2.1381059 -0.65748453 -0.4569149 -0.11773287
1.018101 -0.15167816 0.14842859 -0.53059196 -0.5223525 -0.94878757 -1.0672405 -0.52198434
-0.6631401 -0.38128975 0.66882426 -1.2881414 -0.83314043 -0.30482 -1.4312744 0.12758128
-1.1813946 0.091349855 -0.81582296 -0.7939213 0.5744123 -0.66394705 1.1240067 0.3476173
-1.2054794 -0.16802341 0.596609 0.13018544 0.22995782 0.23853599 -0.0847309 -0.08284233
-0.08597518 0.049310833 -1.3316891 -1.0187495 -1.1196413 -0.121343546 0.08928113 -1.8227746
1.1089956 -1.0301182 -0.79021025 -1.2346219 -1.3583312 0.44998994 0.3194351 -0.9913336
-1.0394694 -0.14151223 -1.297745 -0.18104124 -0.4041965 0.71210766 0.22166185 -1.8345712
0.43482497 -0.39764738 0.16337249 -0.37163273 -0.33495915 0.6047691 -0.82936364 -0.06988796
-1.1666332 0.35629693 0.67474884 0.018719459 -0.25180873 -1.8445954 -0.59164685 -0.09100992
0.2246384 0.027858416 0.91322315 -0.27630845 -0.6056348 -0.43901512 0.6645718 0.33175948
0.0847407 0.8022356 -0.46858045 0.9667249 0.44576675 -1.0867991 0.5157491 -0.1814763
-0.36881417 -0.12299638 -0.3468699 0.31557962 -0.69333154 -1.3646481 0.1961779 0.9612588
-0.6607198 0.90293527 0.99201655 -1.3402265 -1.5211105 -0.6143912 -1.6890534 -3.9735677
-1.6196415 -0.1293642 -0.8223573 -0.1642566 -1.7279719 0.1704514 -0.17113698 -1.2855656
-0.07141857 -1.8939275 0.17076893 0.05031206 -0.43338224 -0.046255022 0.56460977 0.47686085
-0.7471755 -0.304758 0.2810056 -0.08441294 -0.1807882 0.18157792 -0.683433 -1.11382
-1.3795685 -1.723898 0.8863088 1.0238425 -0.56964004 0.2964613 -1.2174964 -1.0649494
0.6652552 -1.2307409 0.8892147 0.6128228 -0.085447006 -0.44929856 -0.72537124 -0.045785498
-0.64171547 0.62725496 0.554204 0.56107026 -1.1707934 -0.93711126 0.44381446 0.3643948
-0.58813196 -0.72014487 0.056217078 -0.22659384 0.8644008 -0.9750872 0.60990846 -0.2918119
0.39485505 -0.8914074 -0.34176758 0.15018126 0.8888177 0.3338708 -0.8853314 -0.95234615
-2.144637 0.13140506 -0.4685993 0.95063955 -1.6246583 0.79430544 -0.74539834 -0.7788567
-2.1824522 -1.3371685 -0.23219578 -1.9538865 -2.7031977 0.71936345 -0.05464629 -0.28850102
0.62540025 -1.6507324 -1.1521597 -0.4090945 -1.7844179 -0.08750907 -0.22324629 -1.2428403
0.7227016 -0.85318977 0.45972052 -0.16925551 -1.1222115 0.087413386 -0.6141284 -0.6735084
00000000: 3cf7 cc3e 5cf6 d6be b051 33bd ce4d 1ebe
00000010: 8ddb 563d eab2 11bf daad 103f 496f d7be
00000020: b89d 77bf 413a 42bf 3cd8 b9be baea 43be
00000030: b6f5 2ebf 5452 a8bf 1211 ec3d 3dfe 903e
00000040: 505e cfbf ba0a 27bf bc82 dcbf 1f79 16c0
00000050: 39c1 fd3e 16a7 1ebf 49ed b93f 1e36 033f
00000060: 3976 453e 00df b53e 163e 89be 7307 80be
00000070: f6fb ff3e b4d6 81bd 900c 1a3e 63df 96bf
00000080: bbc0 9fbf a941 ca3d eca2 41bf b1da c4bf
00000090: a51d 383f 7a32 b7bf 51b8 a2be 0ff6 233f
000000a0: df0f 3bbf dfd1 643e 604d b53d ae32 cdbe
000000b0: bbde 4b3e 9f2d bf3e d6db 6fbf 920e 683f
000000c0: d992 dc3d 4d7e 98bd c95d 223c 2d7f 9fbf
000000d0: bad6 08c0 e850 28bf c0f0 e9be ee1d f1bd
000000e0: 2251 823f 8551 1bbe aafd 173e e0d4 07bf
000000f0: e5b8 05bf bee3 72bf 569b 88bf c4a0 05bf
00000100: 8dc3 29bf 6938 c3be 1138 2b3f d1e1 a4bf
00000110: b148 55bf 5e11 9cbe 0034 b7bf aba4 023e
00000120: f037 97bf a215 bb3d c6d9 50bf 6d3e 4bbf
00000130: af0c 133f 6ff8 29bf 74df 8f3f e5fa b13e
00000140: 264d 9abf 540e 2cbe 5ebb 183f 554f 053e
00000150: 107a 6b3e c742 743e 6587 adbd 3da9 a9bd
00000160: c113 b0bd 28fa 493d ca74 aabf 6266 82bf
00000170: 6850 8fbf f782 f8bd 06d9 b63d ae50 e9bf
00000180: 91f3 8d3f eada 83bf 384b 4abf 1708 9ebf
00000190: ccdd adbf 1565 e63e ff8c a33e 0ac8 7dbf
000001a0: 550d 85bf 95e8 10be 821c a6bf e062 39be
000001b0: d8f2 cebe b04c 363f 53fb 623e 3bd3 eabf
000001c0: 61a1 de3e 7098 cbbe 1e4b 273e a546 bebe
000001d0: c47f abbe 26d2 1a3f 2d51 54bf 6b21 8fbd
000001e0: 3d54 95bf 8d6c b63e 57bc 2c3f 8d59 993c
000001f0: 13ed 80be b41b ecbf 2b76 17bf 6963 babd
00000200: 9c07 663e 5537 e43c fec8 693f 4d78 8dbe
00000210: e20a 1bbf 97c6 e0be 6121 2a3f 61dc a93e
00000220: 888c ad3d 505f 4d3f c7e9 efbe 487b 773f
00000230: 8a3b e43e 3c1c 8bbf 2208 043f ecd4 39be
00000240: 36d5 bcbe 87e5 fbbd ee98 b1be a793 a13e
00000250: 2d7e 31bf caac aebf dce2 483e 0f15 763f
00000260: ef24 29bf c426 673f ccf4 7d3f 8b8c abbf
00000270: c0b3 c2bf be48 1dbf e732 d8bf ef4e 7ec0
00000280: 6a50 cfbf 0d78 04be 0286 52bf e232 28be
00000290: 2f2e ddbf d08a 2e3e 883e 2fbe 6a8d a4bf
000002a0: e643 92bd 376c f2bf 0dde 2e3e 0514 4e3d
000002b0: 47e4 ddbe e875 3dbd 448a 103f 1b27 f43e
000002c0: e546 3fbf 3e09 9cbe f7df 8f3e b1e0 acbd
000002d0: 8b20 39be 90ef 393e 77f5 2ebf a791 8ebf
000002e0: b395 b0bf b1a8 dcbf 22e5 623f 450d 833f
000002f0: eed3 11bf c7c9 973e ecd6 9bbf 4350 88bf
00000300: 2a4e 2a3f eb88 9dbf 93a3 633f f4e1 1c3f
00000310: d7fe aebd 760a e6be eeb1 39bf 9389 3bbd
00000320: 7747 24bf c893 203f 50e0 0d3f 4da2 0f3f
00000330: 8fdc 95bf 86e6 6fbf a63b e33e f591 ba3e
00000340: d18f 16bf 6a5b 38bf e143 663d 3708 68be
00000350: 5f49 5d3f 519f 79bf f622 1c3f 5f68 95be
00000360: 712a ca3e 4633 64bf 29fc aebe 1ec9 193e
00000370: 8f89 633f 1df1 aa3e 14a5 62bf f5cc 73bf
00000380: bc41 09c0 0c8f 063e 3fec efbe 1d5d 733f
00000390: cef4 cfbf 9a57 4b3f 6dd2 3ebf 2763 47bf
000003a0: 4cad 0bc0 5628 abbf bbc4 6dbe f418 fabf
000003b0: 3101 2dc0 3428 383f cad4 5fbd 68b6 93be
000003c0: 3b1a 203f 334b d3bf f879 93bf d674 d1be
000003d0: ce67 e4bf f537 b3bd ad9a 64be 6415 9fbf
000003e0: f902 393f a56a 5abf 7d60 eb3e 5151 2dbe
000003f0: a0a4 8fbf ca05 b33d 8537 1dbf 0c6b 2cbf

network_body._body_endoder.seq_layers.2.bias f4 [64]
-1.3807455 -1.7478812 -0.46486172 -1.0229223 -0.22291791 -1.3478087 -1.6683888 -2.240214
-0.8131528 -0.9842309 -0.15010354 -1.3764935 -1.4305186 -1.5165144 0.48277152 -1.2127155
-1.8895725 -0.38700786 -2.3527944 0.42841557 -1.6759493 -1.33771 -0.731029 0.18659186
-0.6023236 -0.981864 -1.3033032 -0.36413753 -0.3296732 -0.89828676 -1.2736671 -0.47701845
-0.18514366 -1.335114 -2.0864453 -1.3736168 -0.75005525 -0.7683094 -1.7241434 -1.3010386
-0.357969 -1.8504344 -0.78873235 -0.23766814 -1.5336853 -0.21321458 -2.223511 -1.0373493
-2.0680366 -0.3246994 -1.3083949 -0.6624446 -0.8504748 -1.2265002 -0.7863249 -1.2946368
-0.95264894 -1.2109044 -0.49849194 -2.270979 -1.2750617 -0.9115951 0.07018704 -0.8324909
00000000: 45bc b0bf 92ba dfbf 5b02 eebe 1eef 82bf
00000010: 9844 64be ff84 acbf c48d d5bf ab5f 0fc0
00000020: c82a 50bf 8ef6 7bbf beb4 19be f030 b0bf
00000030: 3c1b b7bf 251d c2bf d42d f73e 433a 9bbf
00000040: 83dd f1bf e525 c6be 2f94 16c0 4959 db3e
00000050: 8285 d6bf 153a abbf b724 3bbf f011 3f3e
00000060: e131 1abf 705b 7bbf a4d2 a6bf 3c70 babe
00000070: edca a8be 1ff6 65bf 8607 a3bf c33b f4be
00000080: 4d96 3dbe 04e5 aabf 5288 05c0 add2 afbf
00000090: 9f03 40bf edaf 44bf bbb0 dcbf 6f88 a6bf
000000a0: b647 b7be 09db ecbf 5dea 49bf 475f 73be
000000b0: cd4f c4bf ec54 5abe 014e 0ec0 ddc7 84bf
000000c0: b65a 04c0 003f a6be 7c79 a7bf f895 29bf
000000d0: b7b8 59bf f5fd 9cbf 974c 49bf a9b6 a5bf
000000e0: cde0 73bf eafe 9abf 563a ffbe b857 11c0
000000f0: 3935 a3bf 4c5e 69bf 39be 8f3d 201e 55bf

action_model._discrete_distribution.branches.0.weight f4 [2, 64]
-0.20249487 0.6225492 0.0978842 -0.20243901 0.041417237 0.2752987 -0.3748442 0.06778274
-0.10684962 -0.10520378 -0.23596627 0.3452942 -0.32478186 -0.017086579 0.039966702 -0.021693163
-0.07694309 -0.14499183 0.39736468 -0.12631355 -1.1511519 -0.32548863 -0.23875841 0.14151272
-0.059966426 -0.30961996 -0.20677012 0.91007453 -0.3027645 0.04723474 -0.089337446 -0.28132054
0.029251622 0.23058689 0.39775133 1.7208803 0.14519767 -0.026479576 -0.03132613 0.06117895
0.05129032 -0.22832018 -0.09234407 -0.23021023 0.8875474 0.09606215 0.691849 0.5368551
-0.9842183 -0.07242605 0.69116277 -0.0575543 -0.3464337 0.082785755 0.14634198 -0.07014066
-0.023136677 -0.6171572 -0.7365492 -1.7718691 -0.51699877 -0.25048384 -0.08140586 -0.3241994
0.18953443 -0.6165558 -0.07313442 0.20842324 -0.03384776 -0.28439575 0.3782347 -0.058662884
0.115772724 0.10174886 0.21302564 -0.34711146 0.32849756 0.04409108 -0.013529344 0.01405928
0.085837156 0.16288607 -0.4093348 0.11582512 1.145906 0.31635958 0.22523975 -0.15031327
0.023192076 0.31965348 0.18407123 -0.91819024 0.3195173 -0.03492017 0.051599573 0.28681874
-0.03176017 -0.22409323 -0.36995345 -1.7268566 -0.17275858 0.015192825 0.0539302 -0.039823957
-0.037399013 0.22313483 0.11011921 0.22443035 -0.8917571 -0.0988102 -0.67341757 -0.5429836
0.96905595 0.070813745 -0.66551965 0.02541313 0.366309 -0.097747646 -0.15288831 0.055953346
0.033565518 0.62622976 0.7156484 1.7929358 0.51886255 0.18316954 0.041130602 0.331265
00000000: d15a 4fbe 625f 1f3f 8377 c83d 2c4c 4fbe
00000010: 1fa5 293d f4f3 8c3e 94eb bfbe add1 8a3d
00000020: f9d3 dabd 1475 d7bd 24a1 71be 67ca b03e
00000030: cf49 a6be 27f9 8bbc 20b4 233d dcb5 b1bc
00000040: 5794 9dbd bd78 14be 6273 cb3e 5758 01be
00000050: f258 93bf 72a6 a6be 167d 74be b6e8 103e
00000060: 5b9f 75bd 8286 9ebe 8cbb 53be a5fa 683f
00000070: f303 9bbe 3779 413d 8df6 b6bd 3f09 90be
00000080: 19a1 ef3c f81e 6c3e 10a6 cb3e ce45 dc3f
00000090: b3ae 143e b2eb d8bc d44f 00bd c796 7a3d
000000a0: cc15 523d c4cc 69be e31e bdbd 3bbc 6bbe
000000b0: 4e36 633f 3cbc c43d 041d 313f 566f 093f
000000c0: bbf5 7bbf 1c54 94bd 0bf0 303f 0fbe 6bbd
000000d0: c25f b1be 948b a93d acda 153e e8a5 8fbd
000000e0: 2189 bdbc 04fe 1dbf 7d8e 3cbf 9bcc e2bf
000000f0: 085a 04bf 6b3f 80be 1eb8 a6bd 77fd a5be
00000100: 5015 423e 9ad6 1dbf 80c7 95bd e76c 553e
00000110: f3a3 0abd 529c 91be fba7 c13e 7e48 70bd
00000120: 401a ed3d b561 d03d 6523 5a3e 98b8 b1be
00000130: d530 a83e d998 343d 2faa 5dbc e558 663c
00000140: 64cb af3d 9bcb 263e 5594 d1be b835 ed3d
00000150: 0cad 923f e2f9 a13e 40a5 663e b9eb 19be
00000160: 4ffd bd3c 9fa9 a33e 2b7d 3c3e 840e 6bbf
00000170: c697 a33e 7408 0fbd 135a 533d e8d9 923e
00000180: f416 02bd b278 65be 8a6a bdbe a309 ddbf
00000190: a0e7 30be 54eb 783c eae5 5c3d 721e 23bd
000001a0: b52f 19bd 757d 643e 2e86 e13d 12d1 653e
000001b0: 314a 64bf 015d cabd 1865 2cbf f900 0bbf
000001c0: 0d14 783f cc06 913d 7f5f 2abf 322f d03c
000001d0: da8c bb3e eb2f c8bd c18e 1cbe 562f 653d
000001e0: ff7b 093d 9850 203f bc34 373f ec7e e53f
000001f0: 2dd4 043f cc90 3b3e 9078 283d 919b a93e

action_model._discrete_distribution.branches.0.bias f4 [2]
1.5013784 -1.5013769
00000000: 2b2d c03f 1e2d c0bf

action_model._discrete_distribution.branches.1.weight f4 [2, 64]
-0.14197567 -3.135277 0.13612987 -0.015407361 -0.29957697 -0.03263172 -0.058970567 -1.0537621
-0.03475284 0.90094316 -0.012373887 -1.6923742 0.02534321 0.1131198 -0.0130801285 -0.26783752
-1.670553 0.13879679 -0.9779594 0.07772479 0.0965587 -1.8476877 0.022663236 0.14831723
-0.33290684 0.1311617 0.009050864 -0.2048822 0.09222671 0.30610502 -0.12545082 -0.1133623
0.0842238 0.49013016 -0.057834115 -0.5871687 0.1497174 0.26938453 0.18538629 -0.26124126
-0.40673018 0.25740102 -0.2282721 0.068140425 -1.2322595 0.16523588 -1.9294024 -1.6832646
-0.40987867 -0.32914194 -0.027150784 0.16646135 0.98853827 0.26122308 -0.102145955 -0.19582687
-0.76346445 0.3683962 -0.30476564 0.4440667 -2.689787 0.11258195 -0.08911984 0.015023447
0.13169283 3.1450593 -0.14368142 0.02286074 0.2947827 0.026293982 0.064581856 1.0741484
0.053685736 -0.9085704 0.012680944 1.6972394 -0.055064704 -0.16766572 -0.007956708 0.2720439
1.7007345 -0.13152081 1.0069605 -0.056443766 -0.10683511 1.8489757 -0.035943184 -0.1441684
0.33888656 -0.13414773 0.0012329104 0.2180258 -0.09424159 -0.2931238 0.13372956 0.095915616
-0.07213158 -0.4953716 0.0531637 0.57262117 -0.11482224 -0.28116056 -0.18190815 0.23457357
0.37215668 -0.24249883 0.23268665 -0.018439922 1.2492725 -0.14526156 1.9203936 1.6730413
0.42007992 0.32519704 0.037051592 -0.1437966 -0.9972154 -0.25449646 0.08601295 0.18819556
0.7790169 -0.38460746 0.31989706 -0.444613 2.709941 -0.13199544 0.0933587 -0.006015143
00000000: 1262 11be 61a8 48c0 a165 0b3e 286f 7cbc
00000010: 2762 99be d7a8 05bd 1f8b 71bd ade1 86bf
00000020: fe58 0ebd 36a4 663f d8bb 4abc b89f d8bf
00000030: 909c cf3c 5bab e73d 094e 56bc 0022 89be
00000040: aed4 d5bf bf20 0e3e 8c5b 7abf 2d2e 9f3d
00000050: 91c0 c53d 0881 ecbf 40a8 b93c 79e0 173e
00000060: c472 aabe 414f 063e 134a 143c a4cc 51be
00000070: 5be1 bc3d ccb9 9c3e 2e76 00be 7e2a e8bd
00000080: 877d ac3d 57f2 fa3e 77e3 6cbd b050 16bf
00000090: 854f 193e c5ec 893e e7d5 3d3e 6ac1 85be
000000a0: f03e d0be 11ca 833e 29c0 69be 358d 8b3d
000000b0: aeba 9dbf 9833 293e a8f6 f6bf 3775 d7bf
000000c0: 9edb d1be 4b85 a8be 526b debc d874 2a3e
000000d0: d810 7d3f 08bf 853e e631 d1bd d786 48be
000000e0: 6872 43bf 6d9e bc3e 3e0a 9cbe b65c e33e
000000f0: 7825 2cc0 5e91 e63d 7684 b6bd e724 763c
00000100: 7cda 063e a748 4940 3921 13be 7246 bb3c
00000110: c2ed 963e 7a66 d73c 7e43 843d b27d 893f
00000120: 93e5 5b3d 1298 68bf bcc3 4f3c 243f d93f
00000130: 878b 61bd 90b0 2bbe da5c 02bc 5749 8b3e
00000140: abb1 d93f 64ad 06be 15e4 803f 9431 67bd
00000150: 5ecc dabd 3cab ec3f 2939 13bd e2a0 13be
00000160: 8a82 ad3e 065e 09be 9c99 a13a 2842 5f3e
00000170: bc01 c1bd 5314 96be 67f0 083e 686f c43d
00000180: b9b9 93bd 59a1 fdbe 2ec2 593d 4d97 123f
00000190: ec27 ebbd 47f4 8fbe 2146 3abe 0e34 703e
000001a0: 528b be3e 9d51 78be 6945 6e3e 520f 97bc
000001b0: 29e8 9f3f 72bf 14be 75cf f53f 3826 d63f
000001c0: b714 d73e 3a80 a63e 69c3 173d 6a3f 13be
000001d0: 8249 7fbf 5c4d 82be 8f27 b03d 56b6 403e
000001e0: a76d 473f 45eb c4be 8cc9 a33e 51a4 e3be
000001f0: ac6f 2d40 d029 07be d932 bf3d ad1a c5bb

action_model._discrete_distribution.branches.1.bias f4 [2]
-1.4427758 1.4427768
00000000: e1ac b8bf e9ac b83f

action_model._discrete_distribution.branches.2.weight f4 [2, 64]
0.6350922 0.7213894 -0.17696303 0.019231703 0.09381611 -0.022818146 -0.2835116 -0.23927608
0.2448098 -0.0692677 0.047283087 0.42600727 -0.08163736 -0.34374952 0.17597052 -0.2549369
-2.1423948 0.4322043 1.2363414 0.08654107 1.6161109 0.3801064 0.24420926 0.119757466
-0.17218404 0.5526295 -0.38044986 0.07589781 0.09052867 -0.16323273 1.3535323 0.013328645
0.11952301 -0.013666007 0.42412618 0.73245597 -0.013479751 -0.21633822 -0.27622026 -0.67375934
-0.38395125 -0.59021074 0.09009528 0.0912258 0.7770766 0.09034626 -0.18568438 -0.04278915
-0.43714863 0.05703719 0.15022999 0.059097435 -0.05444965 -0.23911087 0.11812708 -0.13033238
0.49514785 0.91307825 0.26962078 -0.0061452026 -3.036581 -0.08301348 0.1155694 0.072001606
-0.6167811 -0.7153708 0.1702569 -0.019980654 -0.093787745 0.025918944 0.27781856 0.26069558
-0.2935612 0.07732855 -0.043580897 -0.4085476 0.04460691 0.36699945 -0.19512537 0.26405743
2.1642241 -0.45168442 -1.2380601 -0.06632744 -1.6388302 -0.36197028 -0.26380718 -0.11505502
0.18614386 -0.56312776 0.37268746 -0.063093364 -0.11400931 0.15857506 -1.3524382 -0.017031558
-0.12655196 0.036638353 -0.39486903 -0.74095947 0.015072286 0.22055025 0.28085506 0.69775677
0.41191664 0.6069513 -0.07480937 -0.08980384 -0.82412523 -0.06356372 0.18637565 0.011251376
0.4228226 -0.061738554 -0.14671367 -0.032383937 0.06632186 0.24203253 -0.13089696 0.13120706
-0.4669023 -0.93609715 -0.24909227 0.008457676 3.048498 0.105012216 -0.09866588 -0.07496228
00000000: 6795 223f faac 383f cc35 35be ce8b 9d3c
00000010: a922 c03d 1fed babc 6f28 91be ca04 75be
00000020: 6caf 7a3e 39dc 8dbd e9ab 413d a01d da3e
00000030: 7d31 a7bd f0ff afbe 9e31 343e 1787 82be
00000040: ff1c 09c0 e249 dd3e 6f40 9e3f 723c b13d
00000050: b9dc ce3f 4e9d c23e fe11 7a3e 6743 f53d
00000060: 0351 30be 2079 0d3f 53ca c2be 5070 9b3d
00000070: 1867 b93d 7b26 27be 8c40 ad3f 6460 5a3c
00000080: 7bc8 f43d 63e7 5fbc 1127 d93e 3c82 3b3f
00000090: 2cda 5cbc c487 5dbe be6c 8dbe 7e7b 2cbf
000000a0: 4295 c4be 0d18 17bf e083 b83d 98d4 ba3d
000000b0: 7eee 463f 7607 b93d 0c24 3ebe ad43 2fbd
000000c0: f2d1 dfbe d49f 693d e4d5 193e 2710 723d
000000d0: 9906 5fbd 7bd9 74be 9cec f13d da75 05be
000000e0: 0584 fd3e 7fbf 693f bc0b 8a3e b25d c9bb
000000f0: 5857 42c0 f902 aabd a6af ec3d 9475 933d
00000100: 5ee5 1dbf 8a22 37bf d357 2e3e 78ae a3bc
00000110: ca13 c0bd f753 d43c 3c3e 8e3e e479 853e
00000120: a74d 96be 6e5e 9e3d e281 32bd 272d d1be
00000130: bcb5 363d 5ae7 bb3e f2ce 47be 8932 873e
00000140: a682 0a40 2e43 e7be c178 9ebf aed6 87bd
00000150: 30c5 d1bf 2b54 b9be bc11 87be f7a1 ebbd
00000160: 7f9c 3e3e 2429 10bf e4d0 be3e 1837 81bd
00000170: b77d e9bd 8061 223e b21c adbf c485 8bbc
00000180: d696 01be 1912 163d 462c cabe 85af 3dbf
00000190: c0f1 763c edd7 613e 3ccc 8f3e 30a0 323f
000001a0: bde6 d23e 2961 1b3f a835 99bd 13eb b7bd
000001b0: dff9 52bf b22d 82bd 42d9 3e3e b157 383c
000001c0: 347c d83e 91e1 7cbd 1c3c 16be 05a5 04bd
000001d0: c1d3 873d 60d7 773e da09 06be 255b 063e
000001e0: d10d efbe 10a4 6fbf 0b12 7fbe 1092 0a3c
000001f0: 971a 4340 a510 d73d 5611 cabd d385 99bd

action_model._discrete_distribution.branches.2.bias f4 [2]
-1.277303 1.2773043
00000000: aa7e a3bf b57e a33f

onnx::Div_104 f4 [28]
0.4230069 0.0885642 0.42789865 0.37048647 0.40585676 0.08635612 0.41115165 0.36003402
0.42026222 0.06868826 0.42326468 0.36395967 0.34548813 0.088653944 0.35355818 0.32113692
0.3520698 0.043914996 0.35402724 0.32241273 0.2777012 0.08610619 0.28856575 0.26329896
0.2877635 0.039392933 0.2899521 0.2678344
00000000: 5c94 d83e 2661 b53d 8815 db3e 67b0 bd3e
00000010: 75cc cf3e 7adb b03d 7882 d23e 6156 b83e
00000020: 9c2c d73e 6eac 8c3d 26b6 d83e ec58 ba3e
00000030: d2e3 b03e 3390 b53d 9405 b53e 0f6c a43e
00000040: 7e42 b43e 36e0 333d 0f43 b53e 4813 a53e
00000050: da2e 8e3e 7158 b03d e4be 933e 1fcf 863e
00000060: bd55 933e 7c5a 213d 9a74 943e 9721 893e

onnx::Div_107 f4 [28]
0.46526155 0.18839881 0.47862518 0.17792566 0.46242067 0.2355791 0.43346632 0.32576552
0.42457426 0.18026209 0.38335675 0.27250648 0.39185914 0.34083605 0.2283601 0.31277323
0.35230184 0.15539838 0.29932362 0.2688776 0.36401132 0.3624331 0.040499974 0.26526275
0.30974182 0.13187885 0.24866565 0.27008885
00000000: c336 ee3e 9eeb 403e 5c0e f53e 2532 363e
00000010: 67c2 ec3e a63b 713e 4cef dd3e bdca a63e
00000020: cc61 d93e a096 383e 5647 c43e f885 8b3e
00000030: c3a1 c83e 1082 ae3e 3bd7 693e d023 a03e
00000040: e860 b43e c120 1f3e f240 993e 53aa 893e
00000050: b15f ba3e d590 b93e 4de3 253d 85d0 873e
00000060: 7b96 9e3e 400b 073e 35a2 7e3e 1649 8a3e

onnx::Div_110 f4 [7]
52.777046 46.205013 46.189766 46.23518 46.18448 46.160686 46.170773
00000000: b21b 5342 efd1 3842 52c2 3842 d3f0 3842
00000010: e8bc 3842 8ba4 3842 dfae 3842
