Assets/_created_block_bigger_gradual_reward_increased_length_continuous_dynamics_Added_checkpoint_ontriggerenter_Renaming_sensor_beta_0.003_increased_rewards_corrected_blocker/competitor/competitor-200.pt (torch, 88471 bytes, 40 tensors)

discrete_act_size_vector f4 [1, 3]
000000 00 00 00 40 00 00 00 40 00 00 00 40
       2.0 2.0 2.0

network_body.observation_encoder.processors.0.normalizer.running_mean f4 [28]
000000 fa d5 18 3e 00 00 00 00 76 84 58 3f 05 fa 5d 3f
       0.14925376 0.0 0.8457712 0.86709625
000010 60 8d 09 3e 00 00 00 00 9c 56 5c 3f 52 81 61 3f
       0.13432837 0.0 0.86069655 0.8808795
000020 5b f8 d5 3d 00 00 00 00 e8 fa 63 3f 89 ba 66 3f
       0.10447761 0.0 0.8905473 0.9012838
000030 f6 c7 cb 3d 00 00 00 00 f4 40 65 3f e8 98 68 3f
       0.09950249 0.0 0.89552236 0.90858316
000040 5e 06 a3 3d 00 00 00 00 27 59 6a 3f ca 2f 6c 3f
       0.07960199 0.0 0.91542286 0.9226042
000050 2b 67 37 3d 00 00 00 00 81 43 73 3f 73 c5 74 3f
       0.044776123 0.0 0.9502488 0.95613784
000060 c3 28 60 3d 00 00 00 00 67 b7 70 3f 29 2d 72 3f
       0.054726373 0.0 0.9402985 0.9460016

network_body.observation_encoder.processors.0.normalizer.running_variance f4 [28]
000000 db 2d d4 41 00 00 80 3f 52 c0 d9 41 ec 93 a6 41
       26.52239 1.0 27.218906 20.822227
000010 2e fc c2 41 00 00 80 3f c7 cb c8 41 f9 22 98 41
       24.373135 1.0 25.0995 19.017076
000020 a0 72 9e 41 00 00 80 3f 7f bc a4 41 bd f5 88 41
       19.80597 1.0 20.59204 17.11999
000030 61 14 98 41 00 00 80 3f a0 72 9e 41 8e 3c 79 41
       19.00995 1.0 19.80597 15.577284
000040 35 9f 7b 41 00 00 80 3f 5d 7f 84 41 60 f2 61 41
       15.726369 1.0 16.56219 14.121674
000050 60 8d 19 41 00 00 80 3f 2f 0a 28 41 ee a4 07 41
       9.597015 1.0 10.502486 8.477766
000060 40 5e 36 41 00 00 80 3f 8c 89 44 41 2a c1 24 41
       11.39801 1.0 12.283581 10.297159

network_body.observation_encoder.processors.1.normalizer.running_mean f4 [28]
000000 0e cd e7 3e 00 00 00 00 6c d3 0a 3f 02 9a 3a 3f
       0.45273632 0.0 0.54228854 0.7289125
000010 34 9f 6b 3f 00 00 00 00 f8 d5 98 3d 09 4b b2 3e
       0.920398 0.0 0.07462686 0.34822872
000020 0e cd 67 3f 00 00 00 00 2c 67 b7 3d e5 34 bb 3e
       0.90547264 0.0 0.08955225 0.36563793
000030 f3 b9 7e 3f 00 00 00 00 00 00 00 00 51 05 3a 3e
       0.99502486 0.0 0.0 0.1816609
000040 f3 b9 7e 3f 00 00 00 00 00 00 00 00 93 08 48 3e
       0.99502486 0.0 0.0 0.19534521
000050 f3 b9 7e 3f 00 00 00 00 00 00 00 00 3a 1a 10 3e
       0.99502486 0.0 0.0 0.14072505
000060 f3 b9 7e 3f 00 00 00 00 00 00 00 00 96 1e 2f 3e
       0.99502486 0.0 0.0 0.17101511

network_body.observation_encoder.processors.1.normalizer.running_variance f4 [28]
000000 39 34 4b 42 00 00 80 3f ec 8f 4b 42 58 68 c6 41
       50.801 1.0 50.89055 24.80095
000010 34 9f 7b 41 00 00 80 3f ed 16 6e 41 e6 9c 61 41
       15.726368 1.0 14.880597 14.100805
000020 c0 a1 91 41 00 00 80 3f bf 1a 8b 41 cb bd 89 41
       18.20398 1.0 17.38806 17.217672
000030 f3 5c ff 3f 00 00 80 3f 00 00 80 3f 74 16 53 40
       1.9950241 1.0 1.0 3.2982454
000040 f3 5c ff 3f 00 00 80 3f 00 00 80 3f 19 7c 9b 40
       1.9950241 1.0 1.0 4.8588986
000050 f3 5c ff 3f 00 00 80 3f 00 00 80 3f 23 3a 03 40
       1.9950241 1.0 1.0 2.0504234
000060 f3 5c ff 3f 00 00 80 3f 00 00 80 3f be 80 88 40
       1.9950241 1.0 1.0 4.2657156

network_body.observation_encoder.processors.2.normalizer.running_mean f4 [7]
000000 78 3a 92 43 ac 96 99 40 ae 34 a1 40 3a be a0 40
       292.4568 4.7996426 5.0376806 5.023221
000010 be ac ad 40 5c b3 aa 40 de e4 90 40
       5.4273367 5.3343945 4.527938

network_body.observation_encoder.processors.2.normalizer.running_variance f4 [7]
000000 6c 72 01 49 12 c4 a7 45 86 55 f5 45 0e b3 02 46
       530214.75 5368.509 7850.6904 8364.764
000010 82 91 f5 45 43 d2 cd 45 a0 7c 3e 45
       7858.1885 6586.2827 3047.789

network_body.processors.0.normalizer.running_mean f4 [28]
000000 fa d5 18 3e 00 00 00 00 76 84 58 3f 05 fa 5d 3f
       0.14925376 0.0 0.8457712 0.86709625
000010 60 8d 09 3e 00 00 00 00 9c 56 5c 3f 52 81 61 3f
       0.13432837 0.0 0.86069655 0.8808795
000020 5b f8 d5 3d 00 00 00 00 e8 fa 63 3f 89 ba 66 3f
       0.10447761 0.0 0.8905473 0.9012838
000030 f6 c7 cb 3d 00 00 00 00 f4 40 65 3f e8 98 68 3f
       0.09950249 0.0 0.89552236 0.90858316
000040 5e 06 a3 3d 00 00 00 00 27 59 6a 3f ca 2f 6c 3f
       0.07960199 0.0 0.91542286 0.9226042
000050 2b 67 37 3d 00 00 00 00 81 43 73 3f 73 c5 74 3f
       0.044776123 0.0 0.9502488 0.95613784
000060 c3 28 60 3d 00 00 00 00 67 b7 70 3f 29 2d 72 3f
       0.054726373 0.0 0.9402985 0.9460016

network_body.processors.0.normalizer.running_variance f4 [28]
000000 db 2d d4 41 00 00 80 3f 52 c0 d9 41 ec 93 a6 41
       26.52239 1.0 27.218906 20.822227
000010 2e fc c2 41 00 00 80 3f c7 cb c8 41 f9 22 98 41
       24.373135 1.0 25.0995 19.017076
000020 a0 72 9e 41 00 00 80 3f 7f bc a4 41 bd f5 88 41
       19.80597 1.0 20.59204 17.11999
000030 61 14 98 41 00 00 80 3f a0 72 9e 41 8e 3c 79 41
       19.00995 1.0 19.80597 15.577284
000040 35 9f 7b 41 00 00 80 3f 5d 7f 84 41 60 f2 61 41
       15.726369 1.0 16.56219 14.121674
000050 60 8d 19 41 00 00 80 3f 2f 0a 28 41 ee a4 07 41
       9.597015 1.0 10.502486 8.477766
000060 40 5e 36 41 00 00 80 3f 8c 89 44 41 2a c1 24 41
       11.39801 1.0 12.283581 10.297159

network_body.processors.1.normalizer.running_mean f4 [28]
000000 0e cd e7 3e 00 00 00 00 6c d3 0a 3f 02 9a 3a 3f
       0.45273632 0.0 0.54228854 0.7289125
000010 34 9f 6b 3f 00 00 00 00 f8 d5 98 3d 09 4b b2 3e
       0.920398 0.0 0.07462686 0.34822872
000020 0e cd 67 3f 00 00 00 00 2c 67 b7 3d e5 34 bb 3e
       0.90547264 0.0 0.08955225 0.36563793
000030 f3 b9 7e 3f 00 00 00 00 00 00 00 00 51 05 3a 3e
       0.99502486 0.0 0.0 0.1816609
000040 f3 b9 7e 3f 00 00 00 00 00 00 00 00 93 08 48 3e
       0.99502486 0.0 0.0 0.19534521
000050 f3 b9 7e 3f 00 00 00 00 00 00 00 00 3a 1a 10 3e
       0.99502486 0.0 0.0 0.14072505
000060 f3 b9 7e 3f 00 00 00 00 00 00 00 00 96 1e 2f 3e
       0.99502486 0.0 0.0 0.17101511

network_body.processors.1.normalizer.running_variance f4 [28]
000000 39 34 4b 42 00 00 80 3f ec 8f 4b 42 58 68 c6 41
       50.801 1.0 50.89055 24.80095
000010 34 9f 7b 41 00 00 80 3f ed 16 6e 41 e6 9c 61 41
       15.726368 1.0 14.880597 14.100805
000020 c0 a1 91 41 00 00 80 3f bf 1a 8b 41 cb bd 89 41
       18.20398 1.0 17.38806 17.217672
000030 f3 5c ff 3f 00 00 80 3f 00 00 80 3f 74 16 53 40
       1.9950241 1.0 1.0 3.2982454
000040 f3 5c ff 3f 00 00 80 3f 00 00 80 3f 19 7c 9b 40
       1.9950241 1.0 1.0 4.8588986
000050 f3 5c ff 3f 00 00 80 3f 00 00 80 3f 23 3a 03 40
       1.9950241 1.0 1.0 2.0504234
000060 f3 5c ff 3f 00 00 80 3f 00 00 80 3f be 80 88 40
       1.9950241 1.0 1.0 4.2657156

network_body.processors.2.normalizer.running_mean f4 [7]
000000 78 3a 92 43 ac 96 99 40 ae 34 a1 40 3a be a0 40
       292.4568 4.7996426 5.0376806 5.023221
000010 be ac ad 40 5c b3 aa 40 de e4 90 40
       5.4273367 5.3343945 4.527938

network_body.processors.2.normalizer.running_variance f4 [7]
000000 6c 72 01 49 12 c4 a7 45 86 55 f5 45 0e b3 02 46
       530214.75 5368.509 7850.6904 8364.764
000010 82 91 f5 45 43 d2 cd 45 a0 7c 3e 45
       7858.1885 6586.2827 3047.789

network_body._body_endoder.seq_layers.0.weight f4 [64, 63]
000000 98 36 b5 3b eb 47 5b 3e 5a 1b 3a bb 7e 66 19 be
       0.0055301897 0.21414153 -0.002839765 -0.14980504
000010 b1 08 50 be e9 fe 23 bd 04 c7 06 3d 17 75 9e bb
       -0.20315816 -0.040038023 0.03290464 -0.0048357355
000020 99 03 62 3d c5 67 0a 3e f0 26 45 bd 62 dd 76 3e
       0.055179212 0.13516147 -0.048132837 0.24107888
000030 92 76 84 3d 84 5a 23 bd 0d 45 b2 bd 98 62 49 3c
       0.06467928 -0.039881244 -0.08704577 0.012291573
000040 be 66 8c 3e 59 fb 5a bd 76 73 94 bd 36 6b e7 3c
       0.27422136 -0.05346236 -0.07248585 0.028249364
000050 ad 65 82 bd 14 19 0c 3e 9e 30 ef 3c 00 f5 05 be
       -0.06367049 0.13681442 0.029197987 -0.13081741
000060 5c 02 94 3a 51 08 17 bd 9c 14 fb 3d 3b 5b 83 bc
       0.0011292207 -0.036873166 0.1225979 -0.016034713
000070 a4 37 a4 3d 1e 30 a4 3d 68 96 47 bd 82 71 1a 3a
       0.08018425 0.0801699 -0.048727423 0.0005891548
000080 49 6e 5d bd c7 1f 1e bd d9 5d ac bc a7 5d 0a be
       -0.054060254 -0.038604524 -0.021040844 -0.13512288
000090 44 00 8b be 9a 70 dd bc e7 76 52 be ef 28 fe 3d
       -0.2714864 -0.027031232 -0.2055317 0.12410151
0000a0 73 39 97 3d 57 5d 35 3d 1f 3f 67 bd b3 d6 14 3e
       0.073840044 0.04427847 -0.05645668 0.14535026
0000b0 f3 f5 99 3c c4 67 cc bb 40 fb bd 3d 30 48 7d 3e
       0.018794036 -0.0062379558 0.09276438 0.24734569
0000c0 d4 95 97 3d f4 d8 d8 bd dc dc f4 3d b3 f1 9b 3d
       0.07401624 -0.105882555 0.11956188 0.0761446
0000d0 a8 16 20 3d 7f 6a 5d 3d 74 28 17 be 31 0e 16 3e
       0.039084107 0.05405664 -0.14761525 0.14653851
0000e0 2b 2f 25 bd a2 5e e4 3d ef 3a bf 3d ab 1b 10 be
       -0.040328186 0.11150862 0.093374126 -0.14073054
0000f0 7c 07 15 3d a5 0d a6 3d 25 65 f9 bc c7 2f 10 3e
       0.03638409 0.08108071 -0.030443737 0.14080726
000100 b7 81 35 be ad 79 41 3e 2d 16 bf 3d 66 8d de 3d
       -0.17725264 0.18894072 0.093304016 0.10866813
000110 ef 4c c3 3b 24 5f c7 bc eb bd ab bc 21 92 44 bd
       0.005960099 -0.024337359 -0.020964583 -0.047990922
000120 c1 99 9c 3b 89 7f 45 bd 8a 19 34 bd 17 80 00 be
       0.004779071 -0.04821733 -0.04396967 -0.12548862
000130 de c6 9e be 09 92 e6 bc c6 6b 38 bd b0 63 3b bd
       -0.310111 -0.028145807 -0.045024656 -0.045749366
000140 cb cc 16 3e 5b 1c 12 3e a9 22 92 be 3f c3 12 be
       0.1472656 0.14268629 -0.2854207 -0.14332293
000150 ce 84 0d 3e 3e 7a 93 3d b2 3a a1 bd c7 73 5a 3e
       0.13820192 0.0720105 -0.07872523 0.21333228
000160 a1 07 77 3d e7 0f 0c be 34 f5 75 3d 32 94 b6 bd
       0.06031001 -0.13677941 0.060048297 -0.08914985
000170 c0 10 e4 bd 4f ca 29 bd 15 bc e8 ba 8c 54 56 be
       -0.11136007 -0.041452702 -0.0017756248 -0.2093069
000180 b7 43 6a 3d 12 37 30 3e b7 ad ed 3d 66 fb 59 bd
       0.057193484 0.17208508 0.11605399 -0.053218268
000190 a5 dc 3e bd fb 55 12 3e 1c 27 33 3c 77 0c a9 bd
       -0.04659714 0.14290611 0.010934617 -0.082543306
0001a0 52 09 a8 3d a9 6a 2d 3d 04 46 32 3c af 13 f3 bd
       0.08204903 0.042338047 0.010880951 -0.11868989
0001b0 01 10 3b be 70 0d aa 3c af 6a 9d 3d 44 84 63 bc
       -0.18267824 0.02075836 0.07686364 -0.013886515
0001c0 56 e7 8a bd e1 2d e5 3c 13 27 c2 bd 23 58 a4 3c
       -0.06782405 0.027975978 -0.09480109 0.020061558
0001d0 12 2c 18 be ab 4b 07 3e 21 d4 41 3e 62 9a 88 bc
       -0.14860561 0.13212459 0.18928577 -0.016675178
0001e0 4c df bb bd 97 00 28 be a4 8e cb bd 14 47 ac bc
       -0.0917345 -0.16406475 -0.09939316 -0.021029986
0001f0 14 3b 4c 3d c0 88 7d bd 4a 92 f6 3c c9 fd 27 bd
       0.04986103 -0.061897993 0.030099053 -0.041013513
000200 0b f6 93 3d 2a 37 5f 3e e3 fa 5a be b2 a6 22 bb
       0.07224663 0.21798387 -0.21384768 -0.0024818596
000210 f4 25 c8 bd 13 9d 4a 3d 99 86 be 3d e1 d7 2b 3d
       -0.09772864 0.049466204 0.09303016 0.041953925
000220 8a d5 1f be c0 66 86 be 2a 23 6e be b1 ab 80 bd
       -0.15608802 -0.26250267 -0.23255602 -0.062827475
000230 7d 0f b5 3c d7 fb 4d 3c d8 73 86 be 2d 4c 0c 3c
       0.022102112 0.01257225 -0.26260257 0.008563084
000240 f2 78 a8 be d9 50 24 3c 1a af ed bd e1 21 6f 3d
       -0.32904774 0.010029041 -0.116056636 0.05838192
000250 e6 34 9f 3c b3 cd ba bd d6 93 0a 3e a7 27 1d 3e
       0.019434404 -0.09121265 0.13532957 0.15347157
000260 d7 cd 90 bd 57 1d c9 bd 5c f3 ed bd 62 12 41 be
       -0.07070511 -0.09820049 -0.11618683 -0.18854669
000270 a5 c6 28 3d e0 6a 7a 3c f6 2c 48 3e d7 e6 d9 bc
       0.041205067 0.01528427 0.19548401 -0.02659933
000280 c4 a1 9b bd 24 4d 2d 3e 8b 7f 61 3d 1f a8 16 3d
       -0.07599214 0.16923958 0.055053275 0.036781427
000290 7f 07 0c be e0 45 5e 3e 73 57 71 bd 73 ea b1 bd
       -0.13674735 0.21706343 -0.05892129 -0.08687296
0002a0 79 0d 08 3e 9d 4c 0d 3d 92 0a d2 3c b0 0b d7 bd
       0.1328639 0.034496892 0.025639806 -0.10500276
0002b0 48 0a ec 3d 2f 0d 27 3e 2a 25 78 3d a0 53 29 3a
       0.115253985 0.16313623 0.060582317 0.00064592995
0002c0 27 9f 52 bd e8 d8 81 3c db 5c 7b 3e 84 5c 43 3e
       -0.05142131 0.0158505 0.2454714 0.1907826
0002d0 09 dd e0 3d 01 d7 08 3d 8c 6d 44 3d 7b e6 5b be
       0.10979659 0.03340817 0.047956035 -0.2147464
0002e0 99 56 64 be 70 14 39 bd 3c 6e 19 3e 21 24 02 3c
       -0.2229866 -0.045185506 0.14983457 0.007943184
0002f0 8c 4d b4 3d 31 8e 92 3e 70 70 b4 bd 6c d8 b1 bd
       0.088038534 0.28624108 -0.08810508 -0.08683857
000300 f2 52 51 be 86 bb 23 be 83 24 08 be c0 e8 4c bc
       -0.20441797 -0.15989503 -0.13295178 -0.012506664
000310 c2 78 84 bd 8b e1 be bc 75 96 bb 3c ee b4 e5 bc
       -0.06468345 -0.023300907 0.022898892 -0.028040376
000320 04 cc f6 bd 40 e2 40 3d a8 ca d7 bd 00 eb 17 be
       -0.12050632 0.04709077 -0.105367005 -0.14835739
000330 3a 00 84 bb df 56 b5 3d 24 63 ed bc 2e 16 2a be
       -0.0040283473 0.0885446 -0.028977938 -0.16610023
000340 00 aa 4d 3e 70 44 a7 bd 2d 0a 81 bd dc d5 a3 bd
       0.20084381 -0.0816735 -0.06300769 -0.07999775
000350 ff e5 ab 3d 08 83 d3 bd 64 82 9e 3b e6 11 c2 3d
       0.08393478 -0.103277266 0.004837321 0.0947607
000360 ad e7 b3 bd bd 77 37 be d3 1b 8a bc 3a c0 1b 3e
       -0.08784423 -0.1791677 -0.01685897 0.15210047
000370 0d 96 01 3e f9 26 e0 ba ee bb 7c 3d 5d e2 81 3c
       0.12654896 -0.0017101459 0.06170266 0.015855009
000380 1a 93 b4 bd 42 e7 40 bd 67 5d 4d 3d 67 a0 45 3d
       -0.0881712 -0.047095545 0.050137904 0.048248675
000390 83 c8 32 3b 69 76 ea bd 05 51 70 bc 6a 72 8e 3c
       0.0027280159 -0.11448366 -0.014667754 0.017388541
0003a0 c2 7f 02 3d 2f ce 1f 3e 3d fa 38 3e 24 d6 54 3e
       0.03186012 0.15605997 0.18064208 0.20784813
0003b0 52 c1 d0 bc a8 eb 9c bd 16 b4 84 be 7a e9 93 3d
       -0.025482807 -0.07662135 -0.25918645 0.072222665
0003c0 dd c6 ee 3d 17 9c dc 3b 2a 64 92 bd f0 2b cb 3d
       0.11659024 0.0067324745 -0.07148011 0.0992049
0003d0 5d e4 f2 3d 8b 21 3b bc 92 ac 8c 3c a1 21 94 3c
       0.11859963 -0.0114215715 0.017172132 0.018082442
0003e0 47 e6 c9 3d a8 7e 8d 3b 93 f9 5b bd ea 0d 0c 3e
       0.09858375 0.004318077 -0.05370481 0.13677183
0003f0 2b 3a a7 3d e3 7d a8 3d a2 4d 4b 3d 87 7d 80 3e
       0.081653915 0.08227136 0.049634583 0.2509577

network_body._body_endoder.seq_layers.0.bias f4 [64]
000000 00 00 00 00 00 00 00 00 00 00 00 00 00 00 00 00
       0.0 0.0 0.0 0.0
000010 00 00 00 00 00 00 00 00 00 00 00 00 00 00 00 00
       0.0 0.0 0.0 0.0
000020 00 00 00 00 00 00 00 00 00 00 00 00 00 00 00 00
       0.0 0.0 0.0 0.0
000030 00 00 00 00 00 00 00 00 00 00 00 00 00 00 00 00
       0.0 0.0 0.0 0.0
000040 00 00 00 00 00 00 00 00 00 00 00 00 00 00 00 00
       0.0 0.0 0.0 0.0
000050 00 00 00 00 00 00 00 00 00 00 00 00 00 00 00 00
       0.0 0.0 0.0 0.0
000060 00 00 00 00 00 00 00 00 00 00 00 00 00 00 00 00
       0.0 0.0 0.0 0.0
000070 00 00 00 00 00 00 00 00 00 00 00 00 00 00 00 00
       0.0 0.0 0.0 0.0
000080 00 00 00 00 00 00 00 00 00 00 00 00 00 00 00 00
       0.0 0.0 0.0 0.0
000090 00 00 00 00 00 00 00 00 00 00 00 00 00 00 00 00
       0.0 0.0 0.0 0.0
0000a0 00 00 00 00 00 00 00 00 00 00 00 00 00 00 00 00
       0.0 0.0 0.0 0.0
0000b0 00 00 00 00 00 00 00 00 00 00 00 00 00 00 00 00
       0.0 0.0 0.0 0.0
0000c0 00 00 00 00 00 00 00 00 00 00 00 00 00 00 00 00
       0.0 0.0 0.0 0.0
0000d0 00 00 00 00 00 00 00 00 00 00 00 00 00 00 00 00
       0.0 0.0 0.0 0.0
0000e0 00 00 00 00 00 00 00 00 00 00 00 00 00 00 00 00
       0.0 0.0 0.0 0.0
0000f0 00 00 00 00 00 00 00 00 00 00 00 00 00 00 00 00
       0.0 0.0 0.0 0.0

network_body._body_endoder.seq_layers.2.weight f4 [64, 64]
000000 85 ba a4 bd 6c 4d e2 3d 3e 38 2a be f3 b4 88 3e
       -0.08043388 0.11049923 -0.16623017 0.26700553
000010 e5 20 22 bd f4 c8 4a bd e6 35 11 3d bb b0 65 3e
       -0.039582152 -0.04950805 0.035451792 0.22430699
000020 76 ed 3f be 04 d1 94 3d cb 3c 65 bd 33 9f 67 bd
       -0.18742928 0.07266429 -0.05596618 -0.05654831
000030 5e e7 36 bd cc 29 f8 bd fc 07 dc bd 4e d1 eb 3d
       -0.044654243 -0.12117347 -0.107437104 0.11514531
000040 ce 5c ef 3d ec 25 b2 bc ee b8 70 3c a8 d5 14 be
       0.11687623 -0.021746598 0.014692528 -0.14534628
000050 90 a7 61 bd cd 0b 23 bb 19 5f cd 3c 41 42 3d 3e
       -0.05509144 -0.002487886 0.02506976 0.18482305
000060 0d 30 76 3d 49 97 91 3c 53 27 d9 bd e3 25 07 3e
       0.06010442 0.017772334 -0.106032036 0.13198046
000070 51 0c 46 3d 65 7f 76 be 8b 98 7f be 60 30 53 bd
       0.04835159 -0.24072035 -0.24960534 -0.051559806
000080 5f 80 18 3e 8c ae 1a 3e f9 52 1a be 43 69 9d 3d
       0.1489272 0.15105647 -0.15070714 0.07686093
000090 e7 fd 28 bd d6 69 03 be 1b 34 03 3d 81 20 65 3e
       -0.041257765 -0.12833342 0.032032114 0.2237568
0000a0 92 d7 c0 bc 0f 0c ae 3d 06 68 26 bb 76 e4 31 bd
       -0.023540292 0.08498394 -0.0025391593 -0.043430768
0000b0 44 45 e1 bd cb 58 62 bd 5f ba 3c be 44 f7 ee 3c
       -0.109995395 -0.05526046 -0.1843047 0.02917064
0000c0 42 62 55 bc b0 3d 2b be 64 24 ed bd aa 67 19 be
       -0.013023915 -0.1672275 -0.115792066 -0.14980951
0000d0 9f 88 5f 3d b5 6c 6e bd 90 68 c3 3c f4 1b 99 3d
       0.05457365 -0.05820914 0.02385357 0.07476035
0000e0 ef e2 97 3e 8e c5 da be 73 20 a0 3c b6 1e 43 3e
       0.29665324 -0.42728847 0.019546723 0.19054684
0000f0 72 87 76 3e 46 90 10 3e d2 b7 f8 3d 25 e9 87 3d
       0.24075106 0.14117536 0.12144436 0.06636266
000100 89 b7 3a bd f9 a2 ee 3b 17 19 93 3d 84 10 f4 bc
       -0.04558519 0.0072826114 0.0718252 -0.029793032
000110 85 61 33 3e f3 bd ce bd de 7d 40 bd a2 6c aa 3c
       0.1751767 -0.10094824 -0.046995036 0.020803753
000120 28 e1 0e 3e dc 13 32 3e 59 99 22 3e c2 21 6c 3e
       0.13953078 0.17390388 0.1587881 0.23059753
000130 81 ca b6 bd 88 90 00 bc d3 b3 58 be 63 e7 c8 3d
       -0.08925343 -0.007846959 -0.21162347 0.098097585
000140 ea e4 30 be 40 34 81 be d1 0f 0c 3d 54 67 be 3d
       -0.17274824 -0.25235176 0.03419477 0.09297052
000150 9c 21 58 bd 28 a4 bb bd 0d 7e b5 bd bc f1 c2 bc
       -0.052766427 -0.0916217 -0.08861933 -0.023796909
000160 ca 75 23 bc 91 39 96 3d f6 47 0a bd 11 42 d7 bc
       -0.009976814 0.07335199 -0.033760034 -0.02627662
000170 1b 27 d3 3d fd fb 80 3e b5 81 aa 3d 9c 56 1d be
       0.10310193 0.25192252 0.08325521 -0.1536507
000180 ba 10 81 bd ca 44 60 bd 05 45 70 be 76 f0 5b be
       -0.063020185 -0.054753102 -0.23463829 -0.21478447
000190 da a9 09 3c b1 5f 9f bd 58 87 c2 3d 73 ff f9 bc
       0.008402312 -0.077819236 0.09498471 -0.030517315
0001a0 1d 51 60 3e 7a 47 31 be 94 c9 53 3c 1c ff b4 3c
       0.21905942 -0.17312422 0.012926478 0.022094302
0001b0 61 b5 d5 bc a7 7c 50 3e f1 a5 ae bd 1f b2 34 bd
       -0.026087465 0.20360051 -0.085277446 -0.044115182
0001c0 53 4a df 3d 6a 1a 67 3e 13 3f a7 bd 2c 04 85 3d
       0.10902848 0.2256867 -0.08166327 0.06494936
0001d0 1e 46 95 3d 46 24 81 3c 03 ba a2 bd 70 68 91 bd
       0.072887644 0.015764367 -0.07945635 -0.07099998
0001e0 43 99 90 bb c3 cc 3e 3d 56 b8 19 bd dd 4d 65 3d
       -0.0044128015 0.046581995 -0.037529312 0.05598246
0001f0 3c 07 42 3d f9 a8 89 3d 51 8a 7a bd 65 58 65 3c
       0.04737018 0.06721682 -0.061167065 0.013998126
000200 78 57 1a 3d ef ad f1 bd 4d 2c 7a 3d a0 08 94 be
       0.037681073 -0.11800753 0.061077405 -0.2891283
000210 86 8c 32 3d fe bf 2e be 8b ee 42 3d 64 37 26 bd
       0.043591045 -0.17065427 0.047590774 -0.04058017
000220 1a 23 10 be 76 26 a2 bd 0b 4b 19 bd be 2b d0 3d
       -0.1407589 -0.07917492 -0.037425082 0.10164593
000230 0b dd 50 3e b1 25 b0 3c 5c b4 9f 3d 82 51 19 3d
       0.20396821 0.021502348 0.07798073 0.037431248
000240 4c 8e 9d 3d 78 78 84 3c 3e 18 46 3e a4 00 08 be
       0.076931566 0.016170725 0.19345185 -0.13281494
000250 8f 1a 51 3d be cb 03 bc d9 a7 97 bc 4e 1d 5f bd
       0.05105072 -0.008044181 -0.018512653 -0.054471307
000260 10 ef b8 3d 0a dd 63 3e d5 2c fb 3c 77 3b 44 3c
       0.090299726 0.22252288 0.030661026 0.011977068
000270 61 0a c0 bd 4e 6a ed 3d ca 4f a2 bd d8 61 16 3e
       -0.093769796 0.11592542 -0.07925375 0.14685762
000280 6d 30 b1 3d 88 56 46 bd 17 da ed bd da 78 02 3e
       0.086518146 -0.048422366 -0.11613863 0.12741414
000290 e4 aa 99 bd 32 4b 8e 3d 2f 1a 72 bc ca 45 54 3e
       -0.07503298 0.06947936 -0.0147767505 0.20729747
0002a0 05 d6 bc 3d ef 4e 8d 3d 0f 5d 14 bd c6 dd 56 3d
       0.092205085 0.06899821 -0.03622156 0.052457593
0002b0 0f 91 f1 bd 60 a5 d5 3d 08 3b bc 3c ab 9f 78 bc
       -0.11795246 0.104319334 0.022977367 -0.015174787
0002c0 d8 5d db bc fa 0f 5b 3e 96 d3 90 be 18 0a 93 bd
       -0.026778147 0.21392813 -0.28286427 -0.071796596
0002d0 78 fb ea 3d 1a bc 16 bd b1 3e 52 be cd 17 bf 3d
       0.11473745 -0.03680048 -0.20531727 0.093307115
0002e0 f1 cb ba bd 66 8f a1 bd 38 36 1a 3e 93 15 d8 3c
       -0.0912093 -0.07888679 0.15059745 0.026377475
0002f0 cf 08 81 3e d2 20 cd bd 45 bc 0f be fa 6e 83 bc
       0.25202033 -0.100160256 -0.14036663 -0.016044129
000300 ef 17 90 3d 8e 12 72 3e 85 eb 23 be 05 f6 39 3d
       0.07035815 0.2363989 -0.16007812 0.045400638
000310 02 99 a0 bd 4e 50 34 3d 52 db 93 bd 3d c7 54 3c
       -0.07841684 0.044021897 -0.072195664 0.012986955
000320 74 69 d3 3d b6 23 42 be dd ca 1d 3c 3f 37 01 3e
       0.10322848 -0.18958935 0.009630886 0.12618731
000330 23 77 ca bc a8 fe 45 3e 89 b6 80 3e 0f 07 75 3e
       -0.024715012 0.19335425 0.25139263 0.23928474
000340 35 18 a1 bd a1 b6 68 3e b0 24 4e be 39 7f e0 bd
       -0.07865945 0.22725917 -0.20131183 -0.10961766
000350 f9 04 d2 bd 3a 6f 27 be b5 51 8c bd 72 44 3b 3c
       -0.10254855 -0.16351023 -0.06851522 0.011429893
000360 a8 52 cb bd 1e ee 01 3d d8 0a 0d be 4b cb ca 3c
       -0.09927875 0.031721227 -0.13773668 0.02475514
000370 0b 13 cd 3d 25 61 d4 bd 91 8a 8f 3c ad d7 97 bd
       0.10013398 -0.10370091 0.017522128 -0.07414184
000380 3c c0 be bd 51 53 81 3e 96 92 d7 bd 9d 3f 40 be
       -0.093140095 0.25258878 -0.10526006 -0.18774267
000390 ab 90 c8 3d 83 7a 16 be 8f be 9a bd dd f5 11 3e
       0.09793218 -0.14695172 -0.075558774 0.14253946
0003a0 90 52 7f bd f7 2c b2 3d be e5 e1 bb 61 c1 8c bd
       -0.062334597 0.086999826 -0.0068938425 -0.068728216
0003b0 da 48 d8 bc 16 d0 12 be 78 a8 d5 3d 15 3a 4b 3e
       -0.026401926 -0.14337191 0.104325235 0.19846375
0003c0 ce 93 08 be a8 29 3b be dc 1d 03 bd 78 4b 81 3d
       -0.13337633 -0.1827761 -0.032010898 0.06313223
0003d0 22 00 c6 3d 6f 73 bf bd f1 3b 24 be d5 b5 e1 3d
       0.09667994 -0.09348189 -0.16038491 0.1102101
0003e0 d7 61 b4 bb 23 b4 05 bd 74 97 89 3c cb cb 27 bd
       -0.0055048275 -0.032642495 0.016795851 -0.040965836
0003f0 82 6f a2 bc 07 17 8e bd 8f 8d f6 bd c6 9e f5 bd
       -0.019828562 -0.06937986 -0.12038719 -0.11993174

network_body._body_endoder.seq_layers.2.bias f4 [64]
000000 00 00 00 00 00 00 00 00 00 00 00 00 00 00 00 00
       0.0 0.0 0.0 0.0
000010 00 00 00 00 00 00 00 00 00 00 00 00 00 00 00 00
       0.0 0.0 0.0 0.0
000020 00 00 00 00 00 00 00 00 00 00 00 00 00 00 00 00
       0.0 0.0 0.0 0.0
000030 00 00 00 00 00 00 00 00 00 00 00 00 00 00 00 00
       0.0 0.0 0.0 0.0
000040 00 00 00 00 00 00 00 00 00 00 00 00 00 00 00 00
       0.0 0.0 0.0 0.0
000050 00 00 00 00 00 00 00 00 00 00 00 00 00 00 00 00
       0.0 0.0 0.0 0.0
000060 00 00 00 00 00 00 00 00 00 00 00 00 00 00 00 00
       0.0 0.0 0.0 0.0
000070 00 00 00 00 00 00 00 00 00 00 00 00 00 00 00 00
       0.0 0.0 0.0 0.0
000080 00 00 00 00 00 00 00 00 00 00 00 00 00 00 00 00
       0.0 0.0 0.0 0.0
000090 00 00 00 00 00 00 00 00 00 00 00 00 00 00 00 00
       0.0 0.0 0.0 0.0
0000a0 00 00 00 00 00 00 00 00 00 00 00 00 00 00 00 00
       0.0 0.0 0.0 0.0
0000b0 00 00 00 00 00 00 00 00 00 00 00 00 00 00 00 00
       0.0 0.0 0.0 0.0
0000c0 00 00 00 00 00 00 00 00 00 00 00 00 00 00 00 00
       0.0 0.0 0.0 0.0
0000d0 00 00 00 00 00 00 00 00 00 00 00 00 00 00 00 00
       0.0 0.0 0.0 0.0
0000e0 00 00 00 00 00 00 00 00 00 00 00 00 00 00 00 00
       0.0 0.0 0.0 0.0
0000f0 00 00 00 00 00 00 00 00 00 00 00 00 00 00 00 00
       0.0 0.0 0.0 0.0

action_model._discrete_distribution.branches.0.weight f4 [2, 64]
000000 8b c6 f6 bb 7f be aa bb 21 08 80 bb de 5f b3 ba
       -0.0075309924 -0.005210697 -0.003907219 -0.0013685187
000010 d7 94 ab 3c 4b 37 45 3c b5 e9 b6 3c b6 d1 13 bc
       0.020944996 0.012037109 0.022328237 -0.009022167
000020 5a 32 02 bc 3b db b6 bc e0 02 62 3c 9b c3 fb 3b
       -0.007946575 -0.022321334 0.013794631 0.00768323
000030 a8 3b 67 3c 0b b9 a5 3c d5 75 60 bc 0b 88 f1 ba
       0.014113344 0.020229837 -0.013699968 -0.0018427385
000040 bf 05 5c 3b 08 85 e2 bc 62 8d 69 bc f8 3a 96 bb
       0.003357276 -0.027651325 -0.0142549 -0.0045846663
000050 d2 c3 62 bb 2b f2 c9 bb ca 3f 9d 3c af 11 5b 3c
       -0.0034601581 -0.006162902 0.019195456 0.013370915
000060 2d 95 83 3b d2 d6 5f 3c 58 dd d8 3a d8 67 86 bc
       0.004015586 0.013662057 0.0016545458 -0.016406938
000070 05 94 f8 bb 5f e7 b3 bc c3 29 01 bc a4 c1 88 3c
       -0.0075860047 -0.021960912 -0.007883492 0.016693898
000080 a9 14 42 bb 58 dc 87 bb a7 43 2c 3c b3 7f 83 3c
       -0.0029614365 -0.00414614 0.010514176 0.016052103
000090 42 01 8a 3c 96 80 26 3c 35 ce d5 3b b6 e6 a4 bc
       0.016846303 0.010162493 0.006524826 -0.020129543
0000a0 f3 e3 dd bb 25 a6 23 3c 80 d9 6e bb 53 36 6b bc
       -0.0067715584 0.009988342 -0.0036445558 -0.014356214
0000b0 43 16 d5 bb 47 40 b2 3a 35 a2 87 3c 3c a9 88 ba
       -0.006502898 0.0013599478 0.016556839 -0.0010426412
0000c0 b2 e1 45 bc 3b d6 14 3b 8f ae a8 3b 6e f8 35 3b
       -0.012077736 0.00227107 0.005147762 0.0027766484
0000d0 29 24 29 bc 38 59 8d bc a9 87 37 3c 0a 8b d5 3b
       -0.010323563 -0.017254457 0.0112017775 0.006516819
0000e0 7d 29 6e bc 50 e2 2a 3b 6b e6 bf bb 28 ef 7b bc
       -0.014536259 0.0026074834 -0.0058563254 -0.0153768435
0000f0 7d c7 27 bc 80 a9 ff 3a 57 88 40 bc 78 70 0e 3b
       -0.010240433 0.0019505471 -0.011751256 0.0021734517
000100 68 9e f0 bb 34 51 3f 3c ee fb 31 b9 62 57 5a 39
       -0.0073431022 0.011677075 -0.00016973887 0.00020822653
000110 a2 31 cd 3a 7f 47 4f bc c7 05 96 b9 82 55 80 bc
       0.001565505 -0.012651323 -0.00028614534 -0.015665773
000120 2c 54 0a 3d fb 78 8d bc ca 28 0f 3b d7 d6 b4 3b
       0.03377168 -0.017269602 0.002184438 0.005518775
000130 9f 8a da b9 7d 1e 84 bb dd f0 63 bb c2 c5 c1 bb
       -0.0004168348 -0.004031955 -0.0034781017 -0.005913467
000140 5f ae 99 3a 39 c9 c4 3c 0a 97 79 bb 83 21 a9 3c
       0.001172494 0.024021732 -0.003808441 0.020645862
000150 7b f2 51 3c 3b fc a2 bc 45 62 5b 3c be 9f 36 3b
       0.0128141595 -0.019895663 0.0133901285 0.002786621
000160 08 ea 39 bc 78 27 59 3b 24 8c 82 3c 3e 41 af 3b
       -0.011347301 0.0033135097 0.015935965 0.0053483536
000170 f5 63 0e bb 28 ce 32 bc 3e ee 91 3c bb 31 8d 3b
       -0.002172706 -0.010913409 0.017813798 0.004308907
000180 5f 40 c2 bb d7 9c ba 3c e9 2b b1 bb 0c 62 48 3a
       -0.005928084 0.022779865 -0.005406846 0.00076440047
000190 ae ff 2b bb 94 fe c3 bc 53 86 60 3c d3 6b 63 bc
       -0.0026244926 -0.023925103 0.0137039 -0.013880688
0001a0 b2 22 cd 3c d3 6a 3d bc 90 df e8 bc 6d 07 8d bb
       0.025040958 -0.011561113 -0.028426915 -0.0043038637
0001b0 a7 e4 51 3b cb 65 54 bc 5a 0f f9 bb 55 13 62 38
       0.0032027157 -0.012963722 -0.007600707 5.3900603e-05
0001c0 b6 51 a1 bb 7a dd 84 bb 69 2a 1b bc fa a1 54 bc
       -0.004923071 -0.0040547224 -0.009470561 -0.012978071
0001d0 7b fc e5 bb 7a 01 65 3c 71 d7 af 3c 47 c6 2f bb
       -0.0070186234 0.013977403 0.021465035 -0.0026821063
0001e0 60 33 3a bb 32 45 69 3c 88 4c e2 3a 6f 75 58 3b
       -0.002841197 0.014237689 0.001726524 0.003302898
0001f0 cd 5e 87 3c 62 a9 67 3c 67 b3 0f 3c 7f c4 4f 3c
       0.016524697 0.014139505 0.0087708 0.012681126

action_model._discrete_distribution.branches.0.bias f4 [2]
000000 00 00 00 00 00 00 00 00
       0.0 0.0

action_model._discrete_distribution.branches.1.weight f4 [2, 64]
000000 42 3a a3 bc cd 31 7c bb b2 8f 35 3c ea 5e 36 bb
       -0.01992524 -0.0038481832 0.011081623 -0.002782757
000010 09 8f ca bb 80 f3 45 3a f5 99 a2 ba 10 68 a0 bb
       -0.006181602 0.0007551238 -0.0012405502 -0.0048952177
000020 54 0a 93 bc a3 58 2b 3b 97 d1 13 bc 4f 06 40 bb
       -0.01794926 0.002614536 -0.009022138 -0.0029300635
000030 f3 78 7c 3a 37 3f b0 bb 49 47 cb bc 87 19 b0 bb
       0.000963106 -0.0053786295 -0.024814265 -0.005374137
000040 ef aa 03 ba f8 85 55 bb fa f0 97 3c 74 34 3c bb
       -0.00050227245 -0.0032581072 0.018547524 -0.0028717788
000050 52 78 06 bc 76 e3 c3 bc b5 10 24 3c a3 b9 d4 bc
       -0.008207398 -0.023912173 0.010013749 -0.025967425
000060 fc ae 49 bb c6 d3 04 bd 2f a0 03 bc f6 87 46 3b
       -0.0030774465 -0.032428525 -0.008033796 0.0030293441
000070 81 99 4b 3b 33 c0 b4 3b 7c bf 18 3c 63 8f e0 39
       0.0031066837 0.005516076 0.009322997 0.0004283144
000080 90 f4 33 3c 8b 05 28 3c 6a 87 cf 3b ef 8e 28 bc
       0.010983601 0.010255228 0.0063332813 -0.010287984
000090 54 ca 3c bb 1e 50 93 bb 97 d6 99 39 ef d0 11 3c
       -0.002880712 -0.0044956347 0.00029342316 0.008899911
0000a0 f2 21 67 3b f0 0d da 3c 6b 64 dd bc 79 78 33 bc
       0.0035268036 0.026617974 -0.027025422 -0.010954016
0000b0 f9 4d 81 bc b9 e2 2c 3a ef 2d 8a 3c 4d 90 6d 3c
       -0.01578425 0.00065950636 0.016867606 0.014499736
0000c0 ba 5d 91 bc 6e e4 94 3c f0 bd 58 3c 4c be 19 3c
       -0.017744888 0.01817533 0.013228878 0.009383749
0000d0 88 40 13 bb 38 b5 57 bc c8 4e 93 bc a7 58 29 bc
       -0.0022468884 -0.0131657645 -0.017981902 -0.010336078
0000e0 65 84 85 3c 20 c1 f8 3a 77 0f 77 bb 77 da 5b bb
       0.016298482 0.0018978454 -0.0037698427 -0.0033546963
0000f0 a1 01 ac 3b 0b 7c e0 bb e5 55 5f 3b bb 51 f1 bb
       0.0052492176 -0.0068507246 0.0034078297 -0.0073644794
000100 98 84 7a 3c 97 98 28 bc b0 46 15 3c e3 fc bf 3b
       0.015290402 -0.0102902865 0.0091110915 0.005859004
000110 a9 8c a7 bc 7f 25 1f 3c 4d a2 f8 bc b5 9c ce 3b
       -0.020452814 0.00971353 -0.030350829 0.006305302
000120 87 75 21 bc 12 70 93 bc 8b bf 09 bc df 82 6c 3c
       -0.009854681 -0.017997775 -0.008407484 0.014435499
000130 d0 28 7f bc 9b 28 37 3c 08 91 2b 3b e3 fa cd 3b
       -0.015573695 0.011179115 0.0026178975 0.0062860115
000140 40 16 3b bc b8 a1 4e bb e7 07 08 bc f9 45 b5 bc
       -0.011418879 -0.0031529497 -0.008302665 -0.022128092
000150 ce d3 9f 3b 54 ee 13 3a 70 5c ee bb 90 9e 49 bc
       0.004877544 0.00056431186 -0.007274203 -0.012305871
000160 95 a5 3b bb e8 71 93 3a 10 4b f5 bb 78 f4 87 bc
       -0.002863263 0.0011249157 -0.007485755 -0.016596064
000170 e8 d4 cd b9 9f d7 6b 3b ad e2 73 3c 91 82 3d b9
       -0.00039259274 0.0035986674 0.014885587 -0.00018073084
000180 f5 12 73 3c e5 73 cd 3b b8 93 6f 3c 0d 58 01 bc
       0.014836063 0.006269919 0.014622621 -0.007894528
000190 9f e5 86 bc 6f 9a ca bb d9 0a 1a 3c 06 47 3d bc
       -0.016466914 -0.0061829607 0.009402 -0.011552578
0001a0 45 f3 bc 3b 1a ca cf bc af bc f1 ba 4a 67 ed 3a
       0.0057663047 -0.025364924 -0.0018443073 0.0018112448
0001b0 76 af 1a bc a8 15 33 3c 07 01 57 bc 65 f3 53 ba
       -0.009441247 0.010930456 -0.0131228035 -0.000808528
0001c0 04 e4 2f 3c f8 63 64 3c 6a 16 22 3c 2e 43 43 3c
       0.0107355155 0.01393985 0.009893039 0.011917872
0001d0 d3 1e 78 3c de 17 ad bb 15 15 f2 39 3c de a0 bc
       0.015144068 -0.005282386 0.00046173544 -0.01963722
0001e0 3c 74 82 3c 83 6b 40 3c 6f 8c b1 3c ea 48 fc 3b
       0.015924565 0.011744383 0.02167341 0.0076991217
0001f0 8d e4 13 bc d6 3e 13 bc db d9 65 bc 38 3e e5 bb
       -0.009026659 -0.008987149 -0.014028992 -0.0069959424

action_model._discrete_distribution.branches.1.bias f4 [2]
000000 00 00 00 00 00 00 00 00
       0.0 0.0

action_model._discrete_distribution.branches.2.weight f4 [2, 64]
000000 d3 ba 92 bc 3d cc db 3b 51 9e 94 3c 61 ac bb 3a
       -0.01791135 0.0067076967 0.018141897 0.0014318341
000010 4f 25 88 3c 65 4f 86 3c c3 b1 a7 bc 83 16 02 3c
       0.016619353 0.01639528 -0.020470506 0.0079399375
000020 dd f8 ea b9 e4 d1 8b bc 2b 8b 40 bb 31 08 19 bb
       -0.00044817376 -0.017067857 -0.0029379826 -0.002335083
000030 a8 22 21 bc f8 b5 66 3c bf ad 4a 3c 75 39 70 bb
       -0.009834923 0.014081471 0.012370526 -0.003665534
000040 5b 03 d4 ba a8 4e c6 bb 5b f9 27 3c 7d a1 11 3c
       -0.0016175316 -0.006051857 0.010252322 0.008888599
000050 21 24 85 3c d4 02 93 bc 8d 4f 5e 3a f3 71 90 bc
       0.01625258 -0.017945684 0.0008480482 -0.01763246
000060 ff 15 7e 3c ad 5d fb 3b 18 fe ed bb 6f 87 56 3a
       0.015508174 0.007671079 -0.0072629564 0.00081836333
000070 27 bb 42 3c d7 93 7a bc 9a 18 76 bc 37 a9 f1 3c
       0.011885441 -0.015294037 -0.015020514 0.029499633
000080 b7 e6 a5 bb 98 32 ed 3a 45 df a9 bc 34 cb 02 3c
       -0.0050629037 0.0018096743 -0.020736346 0.007983018
000090 d0 9c c6 3a b2 47 6f bc 7a d9 7c 3c 77 6e ce 3b
       0.0015152935 -0.014604496 0.01543271 0.0062997895
0000a0 ad 0a 77 3c e0 2f c5 3b 8e 17 0b bc 27 68 af 38
       0.015078229 0.00601767 -0.008489503 8.36405e-05
0000b0 0b 6c 13 3b 27 9a f3 3c f3 6f 78 3b 72 e8 ba 3b
       0.0022494819 0.029736592 0.0037908524 0.005703979
0000c0 29 a7 bb bb 89 82 c5 3c 6a e6 cb 3b 59 e8 08 bc
       -0.005726714 0.024110096 0.006222536 -0.008356177
0000d0 80 b7 77 bc 85 42 ca bc 32 7f 81 bb f8 1a ce 3b
       -0.015119433 -0.024689922 -0.0039519304 0.006289836
0000e0 03 c9 41 3b 63 df b5 3a 42 40 ab bb 5c 36 08 bc
       0.0029569275 0.0013875779 -0.005226166 -0.008313742
0000f0 9c 44 0c bc 86 79 15 3c 7a da 8b bc 90 9c 56 bc
       -0.00856128 0.009123212 -0.017071951 -0.013098851
000100 0b eb b9 3c 57 fc 16 3a 7f 2a 48 bc 62 ec d6 3a
       0.022695085 0.00057596475 -0.012217163 0.0016397352
000110 43 0b 12 3c ad f3 04 bb 45 a6 fa 3b 6a f0 01 bc
       0.008913818 -0.0020286844 0.0076492154 -0.007930854
000120 53 09 76 bc 10 c3 73 bc 76 27 00 bb 07 96 62 bc
       -0.0150168715 -0.0148780495 -0.001955477 -0.013829715
000130 d1 b8 c2 3b fa e0 fd 3b 14 23 90 bc 25 ab 04 3c
       0.005942442 0.0077477666 -0.017594852 0.008097445
000140 9b 74 9d 3c 9f 47 83 bc 73 08 a3 3b 7b 4a db b9
       0.01922064 -0.016025363 0.0049753725 -0.00041826427
000150 ae f0 1c ba 80 1e cb bc 23 4f 52 3c 9d 55 9b bc
       -0.0005986792 -0.024794817 0.0128362505 -0.018961722
000160 b3 fa 4c 3b c7 05 f2 bb aa 6c 07 bc 33 20 83 3c
       0.0031277358 -0.0073859426 -0.008265654 0.016006565
000170 62 3d 8b 3b 3f 85 24 3c 30 32 f2 bc 21 87 20 3c
       0.0042492608 0.010041534 -0.029564947 0.009797842
000180 02 3f 8d 3b 9c df 89 3b bf 22 d3 bb 02 59 63 3c
       0.0043104896 0.0042075645 -0.006443351 0.013876202
000190 25 ea 44 3b d7 53 bf ba aa da d4 3b 77 2b 7d 3b
       0.0030046788 -0.001459713 0.0064957934 0.0038630643
0001a0 79 76 22 bc 2d c6 3e 3b 13 ee 5c bb 03 52 c8 ba
       -0.009915941 0.0029109821 -0.003371124 -0.001528323
0001b0 a9 14 44 bc 13 b2 a5 bc 82 ab ff ba a5 dc c3 bc
       -0.011967816 -0.020226514 -0.0019506069 -0.023908922
0001c0 db 15 2c 3a c0 e1 d6 bb 48 ab 63 bc f0 76 c0 3c
       0.0006564536 -0.006557673 -0.013895817 0.023494214
0001d0 23 cd 00 bb f3 e8 5b bc 96 7b 44 3b f7 08 61 3c
       -0.001965352 -0.013422239 0.002998089 0.013735048
0001e0 8b d8 cb bb 27 84 0e bc 5c 91 26 bc 4b b5 75 3b
       -0.0062208823 -0.0086985 -0.010166492 0.0037492092
0001f0 f3 1e 11 3c 33 96 8f 3b e3 56 2f bb 5f 45 f8 3b
       0.0088574765 0.004381919 -0.002675467 0.007576629

action_model._discrete_distribution.branches.2.bias f4 [2]
000000 00 00 00 00 00 00 00 00
       0.0 0.0

network_body.observation_encoder.processors.0.normalizer.running_mean f4 [28]
000000 fa d5 18 3e 00 00 00 00 76 84 58 3f 05 fa 5d 3f
       0.14925376 0.0 0.8457712 0.86709625
000010 60 8d 09 3e 00 00 00 00 9c 56 5c 3f 52 81 61 3f
       0.13432837 0.0 0.86069655 0.8808795
000020 5b f8 d5 3d 00 00 00 00 e8 fa 63 3f 89 ba 66 3f
       0.10447761 0.0 0.8905473 0.9012838
000030 f6 c7 cb 3d 00 00 00 00 f4 40 65 3f e8 98 68 3f
       0.09950249 0.0 0.89552236 0.90858316
000040 5e 06 a3 3d 00 00 00 00 27 59 6a 3f ca 2f 6c 3f
       0.07960199 0.0 0.91542286 0.9226042
000050 2b 67 37 3d 00 00 00 00 81 43 73 3f 73 c5 74 3f
       0.044776123 0.0 0.9502488 0.95613784
000060 c3 28 60 3d 00 00 00 00 67 b7 70 3f 29 2d 72 3f
       0.054726373 0.0 0.9402985 0.9460016

network_body.observation_encoder.processors.0.normalizer.running_variance f4 [28]
000000 db 2d d4 41 00 00 80 3f 52 c0 d9 41 ec 93 a6 41
       26.52239 1.0 27.218906 20.822227
000010 2e fc c2 41 00 00 80 3f c7 cb c8 41 f9 22 98 41
       24.373135 1.0 25.0995 19.017076
000020 a0 72 9e 41 00 00 80 3f 7f bc a4 41 bd f5 88 41
       19.80597 1.0 20.59204 17.11999
000030 61 14 98 41 00 00 80 3f a0 72 9e 41 8e 3c 79 41
       19.00995 1.0 19.80597 15.577284
000040 35 9f 7b 41 00 00 80 3f 5d 7f 84 41 60 f2 61 41
       15.726369 1.0 16.56219 14.121674
000050 60 8d 19 41 00 00 80 3f 2f 0a 28 41 ee a4 07 41
       9.597015 1.0 10.502486 8.477766
000060 40 5e 36 41 00 00 80 3f 8c 89 44 41 2a c1 24 41
       11.39801 1.0 12.283581 10.297159

network_body.observation_encoder.processors.1.normalizer.running_mean f4 [28]
000000 0e cd e7 3e 00 00 00 00 6c d3 0a 3f 02 9a 3a 3f
       0.45273632 0.0 0.54228854 0.7289125
000010 34 9f 6b 3f 00 00 00 00 f8 d5 98 3d 09 4b b2 3e
       0.920398 0.0 0.07462686 0.34822872
000020 0e cd 67 3f 00 00 00 00 2c 67 b7 3d e5 34 bb 3e
       0.90547264 0.0 0.08955225 0.36563793
000030 f3 b9 7e 3f 00 00 00 00 00 00 00 00 51 05 3a 3e
       0.99502486 0.0 0.0 0.1816609
000040 f3 b9 7e 3f 00 00 00 00 00 00 00 00 93 08 48 3e
       0.99502486 0.0 0.0 0.19534521
000050 f3 b9 7e 3f 00 00 00 00 00 00 00 00 3a 1a 10 3e
       0.99502486 0.0 0.0 0.14072505
000060 f3 b9 7e 3f 00 00 00 00 00 00 00 00 96 1e 2f 3e
       0.99502486 0.0 0.0 0.17101511

network_body.observation_encoder.processors.1.normalizer.running_variance f4 [28]
000000 39 34 4b 42 00 00 80 3f ec 8f 4b 42 58 68 c6 41
       50.801 1.0 50.89055 24.80095
000010 34 9f 7b 41 00 00 80 3f ed 16 6e 41 e6 9c 61 41
       15.726368 1.0 14.880597 14.100805
000020 c0 a1 91 41 00 00 80 3f bf 1a 8b 41 cb bd 89 41
       18.20398 1.0 17.38806 17.217672
000030 f3 5c ff 3f 00 00 80 3f 00 00 80 3f 74 16 53 40
       1.9950241 1.0 1.0 3.2982454
000040 f3 5c ff 3f 00 00 80 3f 00 00 80 3f 19 7c 9b 40
       1.9950241 1.0 1.0 4.8588986
000050 f3 5c ff 3f 00 00 80 3f 00 00 80 3f 23 3a 03 40
       1.9950241 1.0 1.0 2.0504234
000060 f3 5c ff 3f 00 00 80 3f 00 00 80 3f be 80 88 40
       1.9950241 1.0 1.0 4.2657156

network_body.observation_encoder.processors.2.normalizer.running_mean f4 [7]
000000 78 3a 92 43 ac 96 99 40 ae 34 a1 40 3a be a0 40
       292.4568 4.7996426 5.0376806 5.023221
000010 be ac ad 40 5c b3 aa 40 de e4 90 40
       5.4273367 5.3343945 4.527938

network_body.observation_encoder.processors.2.normalizer.running_variance f4 [7]
000000 6c 72 01 49 12 c4 a7 45 86 55 f5 45 0e b3 02 46
       530214.75 5368.509 7850.6904 8364.764
000010 82 91 f5 45 43 d2 cd 45 a0 7c 3e 45
       7858.1885 6586.2827 3047.789

network_body.processors.0.normalizer.running_mean f4 [28]
000000 fa d5 18 3e 00 00 00 00 76 84 58 3f 05 fa 5d 3f
       0.14925376 0.0 0.8457712 0.86709625
000010 60 8d 09 3e 00 00 00 00 9c 56 5c 3f 52 81 61 3f
       0.13432837 0.0 0.86069655 0.8808795
000020 5b f8 d5 3d 00 00 00 00 e8 fa 63 3f 89 ba 66 3f
       0.10447761 0.0 0.8905473 0.9012838
000030 f6 c7 cb 3d 00 00 00 00 f4 40 65 3f e8 98 68 3f
       0.09950249 0.0 0.89552236 0.90858316
000040 5e 06 a3 3d 00 00 00 00 27 59 6a 3f ca 2f 6c 3f
       0.07960199 0.0 0.91542286 0.9226042
000050 2b 67 37 3d 00 00 00 00 81 43 73 3f 73 c5 74 3f
       0.044776123 0.0 0.9502488 0.95613784
000060 c3 28 60 3d 00 00 00 00 67 b7 70 3f 29 2d 72 3f
       0.054726373 0.0 0.9402985 0.9460016

network_body.processors.0.normalizer.running_variance f4 [28]
000000 db 2d d4 41 00 00 80 3f 52 c0 d9 41 ec 93 a6 41
       26.52239 1.0 27.218906 20.822227
000010 2e fc c2 41 00 00 80 3f c7 cb c8 41 f9 22 98 41
       24.373135 1.0 25.0995 19.017076
000020 a0 72 9e 41 00 00 80 3f 7f bc a4 41 bd f5 88 41
       19.80597 1.0 20.59204 17.11999
000030 61 14 98 41 00 00 80 3f a0 72 9e 41 8e 3c 79 41
       19.00995 1.0 19.80597 15.577284
000040 35 9f 7b 41 00 00 80 3f 5d 7f 84 41 60 f2 61 41
       15.726369 1.0 16.56219 14.121674
000050 60 8d 19 41 00 00 80 3f 2f 0a 28 41 ee a4 07 41
       9.597015 1.0 10.502486 8.477766
000060 40 5e 36 41 00 00 80 3f 8c 89 44 41 2a c1 24 41
       11.39801 1.0 12.283581 10.297159

network_body.processors.1.normalizer.running_mean f4 [28]
000000 0e cd e7 3e 00 00 00 00 6c d3 0a 3f 02 9a 3a 3f
       0.45273632 0.0 0.54228854 0.7289125
000010 34 9f 6b 3f 00 00 00 00 f8 d5 98 3d 09 4b b2 3e
       0.920398 0.0 0.07462686 0.34822872
000020 0e cd 67 3f 00 00 00 00 2c 67 b7 3d e5 34 bb 3e
       0.90547264 0.0 0.08955225 0.36563793
000030 f3 b9 7e 3f 00 00 00 00 00 00 00 00 51 05 3a 3e
       0.99502486 0.0 0.0 0.1816609
000040 f3 b9 7e 3f 00 00 00 00 00 00 00 00 93 08 48 3e
       0.99502486 0.0 0.0 0.19534521
000050 f3 b9 7e 3f 00 00 00 00 00 00 00 00 3a 1a 10 3e
       0.99502486 0.0 0.0 0.14072505
000060 f3 b9 7e 3f 00 00 00 00 00 00 00 00 96 1e 2f 3e
       0.99502486 0.0 0.0 0.17101511

network_body.processors.1.normalizer.running_variance f4 [28]
000000 39 34 4b 42 00 00 80 3f ec 8f 4b 42 58 68 c6 41
       50.801 1.0 50.89055 24.80095
000010 34 9f 7b 41 00 00 80 3f ed 16 6e 41 e6 9c 61 41
       15.726368 1.0 14.880597 14.100805
000020 c0 a1 91 41 00 00 80 3f bf 1a 8b 41 cb bd 89 41
       18.20398 1.0 17.38806 17.217672
000030 f3 5c ff 3f 00 00 80 3f 00 00 80 3f 74 16 53 40
       1.9950241 1.0 1.0 3.2982454
000040 f3 5c ff 3f 00 00 80 3f 00 00 80 3f 19 7c 9b 40
       1.9950241 1.0 1.0 4.8588986
000050 f3 5c ff 3f 00 00 80 3f 00 00 80 3f 23 3a 03 40
       1.9950241 1.0 1.0 2.0504234
000060 f3 5c ff 3f 00 00 80 3f 00 00 80 3f be 80 88 40
       1.9950241 1.0 1.0 4.2657156

network_body.processors.2.normalizer.running_mean f4 [7]
000000 78 3a 92 43 ac 96 99 40 ae 34 a1 40 3a be a0 40
       292.4568 4.7996426 5.0376806 5.023221
000010 be ac ad 40 5c b3 aa 40 de e4 90 40
       5.4273367 5.3343945 4.527938

network_body.processors.2.normalizer.running_variance f4 [7]
000000 6c 72 01 49 12 c4 a7 45 86 55 f5 45 0e b3 02 46
       530214.75 5368.509 7850.6904 8364.764
000010 82 91 f5 45 43 d2 cd 45 a0 7c 3e 45
       7858.1885 6586.2827 3047.789

network_body._body_endoder.seq_layers.0.weight f4 [64, 63]
000000 2d 55 0d bd ab a8 52 3d 67 13 36 3e f6 02 84 3d
       -0.034505058 0.051430386 0.17780839 0.06445877
000010 87 2a 1f be 90 9d 3e 3b e5 e3 b7 bc 19 ea bb 3d
       -0.15543567 0.0029085614 -0.022447536 0.0917551
000020 4f 5e 55 be 4a c2 07 be 6c 1a 42 bd 1e 81 1e bd
       -0.20836757 -0.13257709 -0.04738848 -0.038697354
000030 65 58 47 bd 96 72 eb bd 34 0a d8 bd dd e7 37 3c
       -0.048668284 -0.11496465 -0.10548821 0.011224714
000040 d4 3e a4 bd 95 58 3e 3e 73 91 45 bc e7 a6 36 bc
       -0.08019796 0.18588479 -0.012058604 -0.011148191
000050 76 27 d8 3d d3 6b 24 bd dd 43 59 3e 75 65 05 be
       0.105544016 -0.04014189 0.21217294 -0.13026984
000060 05 19 fc 3d ff 45 47 bd 9e 29 13 3e 89 bf 0e be
       0.123094596 -0.048650738 0.14371344 -0.13940252
000070 c6 54 31 3e bd 9e 5c bd b1 89 88 bc 03 75 fb 3c
       0.17317495 -0.053862322 -0.016667219 0.030695444
000080 ba 3c c3 bd d7 94 b0 be 1d 90 b0 3d 66 dc b6 3d
       -0.09533067 -0.34488556 0.086212374 0.089287564
000090 ce aa 31 bd a2 27 f5 3d db ee a0 bd 97 c1 5f 3e
       -0.043375783 0.1197045 -0.07858058 0.21851192
0000a0 d2 57 07 bc b8 26 48 3e eb d3 46 3d b6 9a ba 3d
       -0.008260684 0.1954602 0.048541944 0.0911154
0000b0 7c 5b f6 bd fe 8f 08 be a3 b8 69 bc 62 77 0b be
       -0.12029168 -0.13336179 -0.014265212 -0.1361976
0000c0 e1 dd 24 bd c9 e4 43 be 9b fd 5a be 45 1c ea bd
       -0.040250663 -0.19130243 -0.21385805 -0.11431173
0000d0 a2 f5 23 3d 3a af 7c bd 33 a8 cf 3d 19 77 92 3d
       0.040029176 -0.061690547 0.10139503 0.07151622
0000e0 cb c2 4c 3d d1 d0 19 bd bd d7 b1 3d 4d 1d c4 3c
       0.049990457 -0.03755266 0.08683727 0.023939753
0000f0 02 a4 35 bd b5 36 20 3d c9 6f 46 3b 47 cb 28 bd
       -0.044345863 0.039114673 0.0030279031 -0.041209485
000100 43 39 67 be 7b 90 11 3e 81 30 31 3e 5a f7 3a 3e
       -0.22580437 0.14215271 0.17303659 0.1825842
000110 1f b6 64 bd d3 81 8f be b7 72 33 3e 64 09 27 bd
       -0.055837747 -0.28028736 0.17524229 -0.04078044
000120 d7 6b 3e 3d b2 27 21 be fc 08 0d 3e c6 1a 16 3c
       0.046489563 -0.15737799 0.13772959 0.009161657
000130 5c 97 c6 3d 74 b8 06 be 72 40 1a 3e 5a cf 9e 3d
       0.09696838 -0.13156301 0.15063646 0.07754393
000140 e6 5f 99 3c 0d 28 95 3d c5 9f ad be 9e 12 1d 3e
       0.018722486 0.0728303 -0.33910957 0.15339133
000150 24 bd 36 3d 86 2f c9 3c f8 31 33 3d 5c 39 b4 3c
       0.044613972 0.024558794 0.043748826 0.022000007
000160 75 2d 55 3e 6f 29 af bd 6e 54 5e bd 8f fe 13 3e
       0.20818122 -0.08552825 -0.054279737 0.14452575
000170 ae 43 3d 3e da f7 d9 bd c9 ed 0e 3e 6a d6 00 be
       0.18482849 -0.10642977 0.13957895 -0.12581792
000180 16 25 38 be d5 92 37 3e 30 98 d6 bd 8c 9b 7b be
       -0.17982897 0.17927106 -0.10478246 -0.24571055
000190 c7 65 57 3e 8b 2a 35 3d 3d 80 67 bd 4c e5 a7 3d
       0.21034919 0.044230025 -0.056518782 0.08198032
0001a0 8c 29 5a be 10 47 de bd eb 38 6b 3d e9 6b 0a 3d
       -0.21304911 -0.10853398 0.057427328 0.033794317
0001b0 8d 08 75 3c 23 b0 74 3e 13 ef f0 3b 9f c3 be 3d
       0.014955652 0.23895316 0.0073527186 0.093146555
0001c0 e7 17 69 3e 4b 2d 15 3d 53 c1 22 3d 25 0a 6a bd
       0.22763024 0.036420148 0.03973515 -0.05713858
0001d0 e1 99 62 be 1e 41 fd 3d df ec e5 bd fa a4 3d 3d
       -0.22129013 0.12365936 -0.1122682 0.046299912
0001e0 68 01 28 be 84 2a 88 be c2 15 97 3d b3 a7 fa 3c
       -0.16406786 -0.26594937 0.07377197 0.030597543
0001f0 e7 76 85 bc 44 5e 77 bd b3 1b a3 3d 97 ad ae bd
       -0.016292049 -0.060392633 0.079642676 -0.085292034
000200 05 05 c5 bd 5b 15 39 bd 49 f9 23 bc 79 18 39 bd
       -0.09620098 -0.04518638 -0.010008165 -0.045189355
000210 68 47 42 3c 73 e6 12 bd 81 96 23 be 1d 65 ab bd
       0.011857845 -0.035864305 -0.15975381 -0.08368895
000220 b6 d5 4e bd 65 fb 35 bd db d4 d5 bd 6e cc 2e bd
       -0.05049678 -0.0444292 -0.104409896 -0.042675428
000230 61 e1 9c bd c4 d2 80 3d 48 b6 3a 3d 99 da 76 be
       -0.07660175 0.062902 0.045583993 -0.24106826
000240 c4 4c 80 bd 6f c0 ed bd f8 93 1a 3c 79 fa 0e 3d
       -0.06264642 -0.116089694 0.009434693 0.034906838
000250 2e 81 72 bd d5 03 aa 3b 5f 87 04 3e a9 1a 39 3c
       -0.059205227 0.005188445 0.12942265 0.01129786
000260 2b 2c a9 bb c1 a7 98 ba d9 24 8c 3e a9 36 af bc
       -0.005162736 -0.0011646674 0.27371863 -0.021388369
000270 f2 35 ec bd 71 6c 66 3e 62 a5 ca 3d ca 41 4a bd
       -0.11533727 0.22502305 0.098948255 -0.049379148
000280 65 9d db 3b 51 e2 7b be ca b5 a5 be 8b 50 9d be
       0.0067021125 -0.24598052 -0.32365257 -0.30725512
000290 38 74 a4 3c a7 2e 4b 3c 8c 6c 4a be 78 e7 b5 bd
       0.020074949 0.0124012595 -0.1976797 -0.0888204
0002a0 4d 76 39 3e ef d9 6c be 1f fb 69 be 0d 14 2f 3d
       0.18111534 -0.2313001 -0.22849701 0.04274373
0002b0 5b 07 76 bd 4f ad 3b 3e ac 59 9e bd 03 27 0d 3e
       -0.06006561 0.1832783 -0.07731947 0.13784413
0002c0 9d 87 49 3d 55 ba ed 3c 5c f9 15 bd f5 4d 67 be
       0.049201597 0.029019514 -0.03661476 -0.22588332
0002d0 d7 5b 55 3b ae dd 1a be b0 61 db 3d a7 3d 93 bc
       0.0032555962 -0.15123627 0.10711992 -0.017973734
0002e0 29 c2 07 3e ca 33 d8 b9 92 e8 8c bd 2b 5f 98 3b
       0.1325766 -0.00041237316 -0.06880297 0.004650017
0002f0 c6 d2 06 3d 00 98 03 3d 9a 7c 61 3e 83 2c 99 3d
       0.032915853 0.03212738 0.22020188 0.07479193
000300 b2 77 f4 3d 30 fa a6 be 54 8b c3 3d eb 62 69 be
       0.119368926 -0.32612753 0.09548059 -0.2279164
000310 56 6f 1c 3e c9 b8 20 be 0e f1 0b be 71 c1 2a be
       0.15276846 -0.1569549 -0.13666174 -0.16675355
000320 5b cc 78 3e 37 e5 00 bd 89 34 11 3e 38 75 85 bd
       0.24296705 -0.031468596 0.14180197 -0.06516498
000330 27 4e c3 bc 29 34 cc bd b8 d0 a1 bc 0a 52 4e be
       -0.023840977 -0.09970886 -0.019752845 -0.20148483
000340 3a 22 98 bd 50 ba 7c 3c 76 49 23 bd 40 06 ca bd
       -0.07428403 0.01542528 -0.03986498 -0.09864473
000350 7d 1d cc bd 23 7b c7 3d e0 c0 65 bd 72 b9 94 bd
       -0.09966562 0.09740283 -0.056092143 -0.072619334
000360 14 1f cb b8 0c dc 71 be 8f 1c 4d 3d dd 0e b0 bc
       -9.685583e-05 -0.23619097 0.050076064 -0.021491462
000370 4b 5c 06 3d 3c c5 f1 3d e7 08 c8 bb f3 41 14 bc
       0.03280286 0.118051976 -0.006104577 -0.009048927
000380 3d 92 17 3e 3a c7 31 be 06 0e 45 3e fd ff 59 3e
       0.14801879 -0.17361155 0.19243631 0.21289058
000390 e0 e1 42 3e 16 e5 01 bd a9 ab c7 3c 8a 07 5f bd
       0.19031477 -0.031712614 0.024373846 -0.05445055
0003a0 c8 6b 7d 3d 85 57 16 3d b9 05 06 be cf 25 88 3c
       0.061870366 0.03670456 -0.1308812 0.016619591
0003b0 9a 1d df 3d 43 d0 bd bd 7a 44 06 be 57 bb dc bd
       0.10894318 -0.092682384 -0.13112059 -0.1077792
0003c0 2c b5 0c 3e 04 e5 cf bc 0f d4 0e be ae a0 2a be
       0.13740987 -0.025377758 -0.13948081 -0.16662857
0003d0 21 bb 55 3d 94 ff 2c 3e e4 28 dd bd 82 c9 e9 bd
       0.052180413 0.1689437 -0.10798815 -0.11415388
0003e0 63 74 8b 3c 83 5e f0 bd e1 1f 29 3e 22 5b db bd
       0.017023271 -0.11736777 0.16516067 -0.107107416
0003f0 9e 01 fc 3d ce 72 80 bd fa 07 b4 3d c8 c3 4e 3e
       0.12304996 -0.06271897 0.08790584 0.20191872

network_body._body_endoder.seq_layers.0.bias f4 [64]
000000 00 00 00 00 00 00 00 00 00 00 00 00 00 00 00 00
       0.0 0.0 0.0 0.0
000010 00 00 00 00 00 00 00 00 00 00 00 00 00 00 00 00
       0.0 0.0 0.0 0.0
000020 00 00 00 00 00 00 00 00 00 00 00 00 00 00 00 00
       0.0 0.0 0.0 0.0
000030 00 00 00 00 00 00 00 00 00 00 00 00 00 00 00 00
       0.0 0.0 0.0 0.0
000040 00 00 00 00 00 00 00 00 00 00 00 00 00 00 00 00
       0.0 0.0 0.0 0.0
000050 00 00 00 00 00 00 00 00 00 00 00 00 00 00 00 00
       0.0 0.0 0.0 0.0
000060 00 00 00 00 00 00 00 00 00 00 00 00 00 00 00 00
       0.0 0.0 0.0 0.0
000070 00 00 00 00 00 00 00 00 00 00 00 00 00 00 00 00
       0.0 0.0 0.0 0.0
000080 00 00 00 00 00 00 00 00 00 00 00 00 00 00 00 00
       0.0 0.0 0.0 0.0
000090 00 00 00 00 00 00 00 00 00 00 00 00 00 00 00 00
       0.0 0.0 0.0 0.0
0000a0 00 00 00 00 00 00 00 00 00 00 00 00 00 00 00 00
       0.0 0.0 0.0 0.0
0000b0 00 00 00 00 00 00 00 00 00 00 00 00 00 00 00 00
       0.0 0.0 0.0 0.0
0000c0 00 00 00 00 00 00 00 00 00 00 00 00 00 00 00 00
       0.0 0.0 0.0 0.0
0000d0 00 00 00 00 00 00 00 00 00 00 00 00 00 00 00 00
       0.0 0.0 0.0 0.0
0000e0 00 00 00 00 00 00 00 00 00 00 00 00 00 00 00 00
       0.0 0.0 0.0 0.0
0000f0 00 00 00 00 00 00 00 00 00 00 00 00 00 00 00 00
       0.0 0.0 0.0 0.0
