Assets/_created_block_bigger_gradual_reward_increased_length_continuous_dynamics_Added_checkpoint_ontriggerenter_Renaming_sensor_beta_0.003_increased_rewards_corrected_blocker/competitor/competitor-432316.onnx (onnx, 47196 bytes, 17 tensors)

discrete_act_size_vector f4 [1, 3]
0	0x40000000	2.0
1	0x40000000	2.0
2	0x40000000	2.0

network_body.observation_encoder.processors.0.normalizer.running_mean f4 [28]
0	0x3e1cb26e	0.1530244
1	0x3b10033e	0.0021974589
2	0x3f58433d	0.844776
3	0x3f5e259b	0.8677613
4	0x3e079b42	0.1324282
5	0x3b8237ce	0.0039739376
6	0x3f5d149f	0.8635959
7	0x3f6226ce	0.8834046
8	0x3e243e57	0.16039406
9	0x3a3f9cec	0.0007309455
10	0x3f56c05b	0.8388726
11	0x3f5d02c3	0.8633234
12	0x3dac58a4	0.08415344
13	0x3baaebb2	0.0052160854
14	0x3f691eef	0.91062826
15	0x3f6bc3fe	0.92095935
16	0x3dfb1e1b	0.122616015
17	0x3a477ee6	0.0007610157
18	0x3f606a30	0.8766203
19	0x3f648cf3	0.8927757
20	0x3d494e19	0.049146745
21	0x3ba12488	0.004917685
22	0x3f7228ac	0.9459331
23	0x3f73ff62	0.9531156
24	0x3da3b4a4	0.07993439
25	0x3a99696e	0.0011704394
26	0x3f6b3c9d	0.91889364
27	0x3f6e0cbf	0.929882

network_body.observation_encoder.processors.1.normalizer.running_mean f4 [28]
0	0x3eddcdbf	0.43321034
1	0x3c32154c	0.010869335
2	0x3f0dba3a	0.55362284
3	0x3f556715	0.83360416
4	0x3f514398	0.81743765
5	0x3bd413f0	0.0064721033
6	0x3e33dca6	0.1756464
7	0x3efa7db4	0.4892403
8	0x3f45d63b	0.77280015
9	0x3c5f2e9a	0.0136219505
10	0x3e4924f4	0.19643003
11	0x3f020116	0.50782907
12	0x3f6ed2e5	0.9329055
13	0x3b1f52e8	0.002431089
14	0x3d839030	0.06423986
15	0x3eaae5f6	0.3337857
16	0x3f6e32b7	0.93046135
17	0x3c6297c0	0.013830125
18	0x3d36ecb3	0.044659328
19	0x3e8f1221	0.2794352
20	0x3f70e34b	0.9409682
21	0x3aaaff04	0.0013045971
22	0x3d6ac27d	0.057314385
23	0x3e92fedc	0.28710067
24	0x3f718e57	0.9435782
25	0x3c420014	0.011840839
26	0x3d09a561	0.033604983
27	0x3e69943a	0.2281045

network_body.observation_encoder.processors.2.normalizer.running_mean f4 [7]
0	0x438128a3	258.31747
1	0x4228aa86	42.166527
2	0x42269a1f	41.65051
3	0x4227573a	41.835182
4	0x422741d6	41.814293
5	0x422791c6	41.892357
6	0x4227e4dc	41.973495

network_body._body_endoder.seq_layers.0.weight f4 [64, 63]
0	0xbeb94af1	-0.36189988
1	0xbdcd0f85	-0.10012726
2	0x3e35cec9	0.17754664
3	0x3e891700	0.2677536
4	0xbe70ae39	-0.2350396
5	0x3e01055e	0.12599704
6	0xbdbeb6ee	-0.09312235
7	0x3e6ad95d	0.2293448
8	0xbd9132cb	-0.07089766
9	0x3e5b1df3	0.21398143
10	0x3e2a48d0	0.16629338
11	0x3d25ccbf	0.040478464
12	0xbc1dfd9b	-0.009642984
13	0x3eae4805	0.34039322
14	0xbdfe97fd	-0.12431333
15	0x3b5c132f	0.003358077
16	0x3d365d2f	0.04452246
17	0x3e7a2626	0.24428615
18	0xbc9a8947	-0.018864287
19	0xbdc4ef23	-0.09615924
20	0x3cce86fb	0.025210848
21	0xbd96f02d	-0.07370029
22	0x3e99d08d	0.30041924
23	0x3d21d788	0.039512187
24	0x3e521031	0.20513989
25	0x3d3cb915	0.046074945
26	0xbdf5d13e	-0.120028004
27	0xbdc446c6	-0.095838115
28	0xbc084fcc	-0.008319806
29	0xbe42cd2c	-0.1902358
30	0x3e14762e	0.14498207
31	0x3f13d02a	0.5773951
32	0x3ea53690	0.3226819
33	0x3ea05547	0.3131506
34	0xbe21d452	-0.1580365
35	0x3d5e7bfc	0.05431746
36	0x3e37e7d0	0.17959523
37	0x3e2099e4	0.15683705
38	0x3ced539d	0.028970534
39	0x3ee2b49c	0.4427842
40	0xbc1bfa2a	-0.009520093
41	0x3da40180	0.080080986
42	0xbe6881e1	-0.22705795
43	0xbec64747	-0.38726255
44	0x3f13025e	0.5742549
45	0xbd691961	-0.05690897
46	0xbda80683	-0.08204367
47	0xbaf14b69	-0.0018409315
48	0xbe051839	-0.12997521
49	0x3e2cdd25	0.16881235
50	0xbdc0de8d	-0.09417448
51	0xbeef9b4d	-0.46798173
52	0xbe2bbcd0	-0.16771245
53	0xbdf38bdd	-0.11891911
54	0xbe611957	-0.21982323
55	0x3ef98c71	0.4873996
56	0x3e402e27	0.18767606
57	0x3da54f06	0.08071713
58	0xbc0f2562	-0.00873694
59	0xbda28559	-0.0793559
60	0x3edf48d1	0.43610242
61	0xbeafcbb2	-0.34335095
62	0x3e872df7	0.26402256
63	0x3e5bdfe6	0.21472129
64	0xbe1d3a80	-0.15354347
65	0xbc1e1028	-0.009647407
66	0x3c4a5424	0.012349162
67	0xbe3d4258	-0.1848234
68	0xbe20ea03	-0.15714268
69	0xbd4eaf6c	-0.050460264
70	0x3d13ebcd	0.03611355
71	0x3d8b34cd	0.0679718
72	0xbcc3b72c	-0.023891054
73	0xbe4d373f	-0.20040606
74	0xbe0effe0	-0.13964796
75	0xbe3db6b2	-0.18526724
76	0x3da5fab8	0.081044614
77	0x3ead2711	0.33818868
78	0x3c615c47	0.013754911
79	0xbe1af0a2	-0.15130857
80	0xbdb160fa	-0.08661075
81	0x3e4735b4	0.1945408
82	0xbe418228	-0.18897307
83	0xbce83cb2	-0.028349254
84	0xbeb9670b	-0.36211428
85	0x3f0a0453	0.5391285
86	0x3e7e2928	0.24820387
87	0x3d971f91	0.07379068
88	0xbe3acb68	-0.18241656
89	0xbeb0cbd5	-0.34530511
90	0x3e363c17	0.1779636
91	0xbed6f411	-0.41983083
92	0x3ea28331	0.31740716
93	0xbcfaebe1	-0.030630054
94	0xbe53d415	-0.20686372
95	0xbdee3993	-0.11632075
96	0xbe64616c	-0.22302788
97	0x3d786db8	0.06065151
98	0x3e44532d	0.19172354
99	0x3e2778ba	0.16354647
100	0xbd9e51ac	-0.077304214
101	0xbeb063a4	-0.3445102
102	0xbea0deac	-0.31419885
103	0xbd75df77	-0.060027566
104	0xbea0cd96	-0.3140685
105	0x3d3b4f96	0.045730196
106	0xbb2c9ccb	-0.0026338573
107	0xbed0e38b	-0.40798602
108	0xbe8d688c	-0.27618825
109	0x3e081476	0.13289055
110	0xbe689335	-0.22712405
111	0xbedeaa84	-0.43489468
112	0xbe2ad12c	-0.16681355
113	0x3dbda873	0.09260645
114	0xbe4732ea	-0.19453016
115	0xbd312cac	-0.043255493
116	0xbe620aae	-0.22074386
117	0x3d9586bf	0.073010914
118	0x3e78b894	0.24289161
119	0x3dbe4bc2	0.092917934
120	0xbed5292e	-0.4163298
121	0xbe712bf8	-0.23551929
122	0x3e369bda	0.1783289
123	0xbeb46855	-0.3523585
124	0xbf8162ad	-1.0108238
125	0x3e0550ed	0.13019152
126	0xbeeccced	-0.46250096
127	0x3e95a943	0.292307
128	0x3ee47108	0.44617486
129	0x3e709082	0.23492625
130	0x3e3655e2	0.17806199
131	0xbe6e21c1	-0.23255064
132	0x3eb91648	0.36149812
133	0x3d8a8ffe	0.067657456
134	0x3e4f2dda	0.20232335
135	0xbe43afc9	-0.19110025
136	0xbeb38eeb	-0.35069975
137	0x3d28ef5f	0.041243907
138	0xbd8bc8bb	-0.06825396
139	0xbe45d949	-0.19321169
140	0xbe094274	-0.13404256
141	0x3e713ee5	0.23559149
142	0x3e09d1c9	0.13458933
143	0xbcfc349f	-0.03078681
144	0xbd980478	-0.07422727
145	0xbe0d2cd4	-0.13786632
146	0xbeb31be0	-0.34982204
147	0x3e836c1b	0.25668415
148	0x3e1fc771	0.15603425
149	0xbe5f2457	-0.21791206
150	0x3d94fade	0.072744116
151	0xbe2d1b10	-0.16904855
152	0x3e4e96c0	0.20174694
153	0x3e60c6b5	0.219508
154	0xbcf13502	-0.029444221
155	0x3ef15c3c	0.47140682
156	0xba5a434b	-0.00083260675
157	0x3f13c66a	0.5772463
158	0x3df83181	0.12118817
159	0xbdb00329	-0.08594353
160	0xbe0f82cd	-0.1401474
161	0xbdfd5682	-0.12370016
162	0xbe96b177	-0.2943227
163	0xbe8daa3b	-0.27668938
164	0xbebd0028	-0.36914182
165	0xbe9312bb	-0.28725228
166	0xbe895848	-0.26825166
167	0x3ea3b77d	0.31975928
168	0x3d3cbaf7	0.04607674
169	0x3c9a40ae	0.01882967
170	0x3de6a296	0.112614796
171	0xbe7158f4	-0.23569089
172	0x3e243c0f	0.16038536
173	0x3ea602ef	0.32424113
174	0x3db49754	0.08817926
175	0x3ea50c73	0.3223606
176	0xbe5d93f2	-0.21638468
177	0xbd99f6e8	-0.07517797
178	0xba979569	-0.0011564913
179	0xbee56dfd	-0.44810477
180	0xbe8407eb	-0.2578729
181	0xbe064e15	-0.13115723
182	0xbda442f3	-0.08020582
183	0xbecdc11e	-0.401864
184	0xbf05b1be	-0.5222434
185	0xbdd50967	-0.10402184
186	0x3e4a8944	0.19778925
187	0x3df5ad01	0.119958885
188	0xbe070ec2	-0.13189223
189	0x3d429346	0.047503732
190	0x3cdecd4a	0.027197499
191	0xbcd3e11a	-0.025864173
192	0xbe11f7d5	-0.14254697
193	0x3ecd97a6	0.4015476
194	0x3dac3f5e	0.08410524
195	0xbe1f5a10	-0.155617
196	0xbe5d25e5	-0.21596487
197	0x3e0c43e2	0.1369777
198	0x3d610d9c	0.05494462
199	0x3e3e7642	0.185998
200	0x3e460591	0.19338061
201	0xbd74e243	-0.059786092
202	0x3d81c25b	0.063358985
203	0xbd808a90	-0.06276429
204	0xbe1bbac7	-0.15207969
205	0xbd41c9d6	-0.047311626
206	0x3ca4c9a1	0.020115675
207	0x3e2ff34e	0.17182657
208	0x3de559e7	0.11198788
209	0xbd994ff1	-0.07485951
210	0xbe84abf4	-0.2591244
211	0xbd869dc1	-0.06573058
212	0x3e5e1c2f	0.21690439
213	0xbeff3a1f	-0.4984903
214	0xbd0f468f	-0.0349794
215	0x3e926871	0.28595307
216	0x3ea4e395	0.3220488
217	0x3e7de7f7	0.24795519
218	0x3ddf8fad	0.10916076
219	0xbd7568a8	-0.05991426
220	0xbe6f2580	-0.23354149
221	0x3e4ecf07	0.20196162
222	0xbd6fb853	-0.058525395
223	0x3ea413e9	0.3204644
224	0x3e477f86	0.1948224
225	0x3da1529d	0.07877085
226	0xbd008dca	-0.03138522
227	0xbe62d6c3	-0.22152238
228	0xbf1f02a7	-0.6211342
229	0x3e9015c6	0.28141612
230	0xbdd73edf	-0.105100386
231	0xbf1dbad4	-0.616132
232	0xbf0d297b	-0.5514142
233	0xbb555b36	-0.0032555587
234	0x3e230b07	0.15922175
235	0x3e181f4b	0.14855687
236	0x3e0bf55a	0.13667813
237	0x3e35c0b3	0.1774929
238	0x3ec3e2d0	0.38258982
239	0xbe9ae191	-0.3025022
240	0xbee72fac	-0.45153558
241	0x3c8199c3	0.01582039
242	0x3dcc9463	0.0998924
243	0x3de72e30	0.112881064
244	0x3e4b9d75	0.19884284
245	0x3d5abed6	0.05340465
246	0xbdf8fd82	-0.12157728
247	0x3ceb0481	0.028688671
248	0xbe955797	-0.29168388
249	0x3d1b20fc	0.037873253
250	0xbe74157b	-0.23836319
251	0xbde506c7	-0.11182933
252	0xbe7357db	-0.23763983
253	0x3eab526d	0.33461323
254	0x3e249497	0.16072308
255	0xbd212919	-0.039345834

network_body._body_endoder.seq_layers.0.bias f4 [64]
0	0xbe168cd1	-0.14702155
1	0xbe362d34	-0.17790681
2	0x3d5cc5fa	0.053899743
3	0xbe0d7274	-0.13813192
4	0xbebe7991	-0.37202123
5	0xbeae6021	-0.34057716
6	0xbdfb4001	-0.12268067
7	0xbeb7fa4d	-0.35933152
8	0xbc05f798	-0.008176707
9	0xbe2d6e31	-0.16936566
10	0xbd0d740c	-0.0345345
11	0xbe4d1804	-0.20028692
12	0xbec161b9	-0.3776987
13	0xbb2b92f5	-0.0026180123
14	0xbcf2e956	-0.029652279
15	0xbe759a2b	-0.23984592
16	0xbe8a0926	-0.26960105
17	0xbe8ad50b	-0.27115664
18	0x3da0a945	0.078447856
19	0xbeb2e1fb	-0.34938034
20	0xbe5ca7db	-0.21548407
21	0xbdd3bef0	-0.10339153
22	0xbe9241ac	-0.2856573
23	0xbe0ac5b0	-0.13551974
24	0x3dbf253b	0.09333273
25	0xbe08d626	-0.13362941
26	0xbe31e307	-0.1737176
27	0xbe37a7e8	-0.17935145
28	0xbe9af71f	-0.30266663
29	0xbeba8469	-0.36429146
30	0xbdb290ef	-0.0871905
31	0xbecd7872	-0.40130955
32	0xbe170e43	-0.14751534
33	0xbd62601a	-0.05526743
34	0xbe393b0f	-0.18088935
35	0xbe5c8cf2	-0.21538141
36	0xbe8f2d8b	-0.27964434
37	0xbe9725bb	-0.29520974
38	0xbe41185b	-0.18856947
39	0xbe45d488	-0.19319355
40	0xbe1d0305	-0.15333183
41	0xbe780b15	-0.24222977
42	0xbd442d2c	-0.04789464
43	0xbe1bee2f	-0.15227579
44	0xbe8d5e1b	-0.2761086
45	0x3e1bb3d7	0.15205322
46	0xbe8efdc6	-0.2792799
47	0xbe7b9bcc	-0.2457115
48	0xbe9e7793	-0.30950603
49	0xbe83563f	-0.25651738
50	0xbe15c8cd	-0.1462738
51	0xbda41112	-0.080110684
52	0xbdbd0c02	-0.09230806
53	0xbdccc610	-0.09998715
54	0xbe552366	-0.20814285
55	0xbe89538b	-0.2682155
56	0xbed306df	-0.4121618
57	0xbe322a3a	-0.1739892
58	0xbe5f51be	-0.21808526
59	0xbd9bd15b	-0.07608291
60	0xbe68f97a	-0.22751418
61	0xbe5f28bc	-0.21792883
62	0xbc118b5e	-0.008883325
63	0xbeab8c45	-0.33505455

network_body._body_endoder.seq_layers.2.weight f4 [64, 64]
0	0xbee2ab6c	-0.4427141
1	0xbda48fbd	-0.080352284
2	0xbf18d8be	-0.5970572
3	0xbea6e03e	-0.32592958
4	0xbeb8709a	-0.36023408
5	0x3ee3ce41	0.44493297
6	0x3d734d92	0.05940015
7	0xbd46ee6e	-0.048567228
8	0xbdb9c0eb	-0.09069999
9	0x3d9b9c1c	0.07598135
10	0x3e4fe0c5	0.20300587
11	0x3db33675	0.08750621
12	0x3cac47e3	0.021030372
13	0x3d8162b6	0.06317656
14	0xbe31dfdf	-0.17370556
15	0x3c13eeb6	0.009029081
16	0xbd9433b8	-0.07236427
17	0xbe23e1d3	-0.16004114
18	0xbeebb6c7	-0.46037886
19	0xbdd132ed	-0.102147914
20	0xbe4e1bc4	-0.20127779
21	0xbe2b50f5	-0.16730101
22	0xbdea3b48	-0.11437088
23	0xbea42653	-0.3206049
24	0xbded102a	-0.11575349
25	0x3e68bb31	0.22727658
26	0xbbb7bbea	-0.005607118
27	0x3e7c22b0	0.24622607
28	0x3e800cd5	0.2500979
29	0xbe5964b3	-0.2122982
30	0xbe6c934b	-0.23103063
31	0x3e025922	0.12729314
32	0xbedeffd5	-0.4355456
33	0xbcdd5e33	-0.027022457
34	0x3ed503aa	0.41604358
35	0xbf1a8785	-0.60363036
36	0x3ce9cca9	0.028539972
37	0xbd9c9639	-0.0764584
38	0xbf2cf59e	-0.6756228
39	0x3e536ad2	0.20646217
40	0xbdf1ba3c	-0.118030995
41	0x3e7b98b1	0.24569966
42	0x3b71f707	0.0036920921
43	0xbe1784ec	-0.147968
44	0x3e3e7fac	0.1860339
45	0x3da63ff3	0.08117666
46	0xbedf412d	-0.43604413
47	0x3d7fa0ea	0.06240932
48	0xbe08a1f6	-0.13343033
49	0xbdd2fd2d	-0.10302196
50	0xbe1e5aea	-0.15464368
51	0x3e40ceb2	0.18828848
52	0x3e75a32a	0.23988023
53	0x3eb143b2	0.3462196
54	0x3dcc8ba1	0.099875696
55	0xbe49aac1	-0.19694044
56	0x3e2161e9	0.15760006
57	0xbdbf73b3	-0.0934824
58	0xbdbd5d85	-0.09246353
59	0x3eed53c4	0.4635297
60	0xbe4ebc2b	-0.20188968
61	0xbee85064	-0.45373833
62	0xbf1ee02d	-0.62060815
63	0x3dd23df1	0.10265721
64	0x3e1245ff	0.14284514
65	0xbe7a2a21	-0.24430133
66	0xbd396434	-0.045261577
67	0x3df8d250	0.12149489
68	0x3d3f1177	0.046647515
69	0xbed327b6	-0.41241235
70	0xbda4ed73	-0.08053102
71	0xbe90c38c	-0.2827419
72	0x3e33947a	0.17537108
73	0x3c8f0350	0.017457634
74	0x3d9e6599	0.07734222
75	0xbe610aa9	-0.21976723
76	0xbcb8f38f	-0.022577075
77	0xbec0aa48	-0.37629914
78	0x3b3373ad	0.002738218
79	0xbe4fa40f	-0.20277427
80	0x3e7b4f04	0.24541861
81	0xbf006bd2	-0.5016452
82	0xbe08ecd0	-0.13371587
83	0xbdbe1b06	-0.09282498
84	0xbeec8071	-0.46191743
85	0x3d836f4c	0.064177126
86	0x3e58df49	0.21178927
87	0xbe866451	-0.2624841
88	0xbef4936a	-0.47768718
89	0xbe8ce0a4	-0.27515137
90	0x3ea031c5	0.3128797
91	0xbf0069e8	-0.501616
92	0xbf13b6a7	-0.5770058
93	0x3e08b40e	0.13349935
94	0x3e0166ff	0.12636946
95	0xbd47e516	-0.048802458
96	0x3e32391a	0.17404595
97	0xbe54407d	-0.20727725
98	0x3e268880	0.16263008
99	0x3d487af1	0.04894537
100	0x3e072dc3	0.1320105
101	0x3e250b96	0.16117701
102	0xbea388d4	-0.3194033
103	0xbeee5275	-0.46547285
104	0xbe7542e1	-0.23951294
105	0x3e2c87fd	0.1684875
106	0x3d9c25a4	0.07624367
107	0x3e5ab708	0.21358883
108	0xbe4efc4b	-0.2021343
109	0x3d7c8b7e	0.061656468
110	0xbc7793ac	-0.015110891
111	0xbde429bb	-0.11140772
112	0x3ddac568	0.106821835
113	0x3d368b43	0.044566404
114	0xbe212099	-0.15735091
115	0x3d343bee	0.044002466
116	0x3e35d289	0.17756094
117	0xbeda32f2	-0.42616993
118	0xbe40b60b	-0.18819444
119	0x3e475c34	0.19468766
120	0x3bed85f4	0.0072486345
121	0xbce14b37	-0.027501686
122	0x3e7ac8d7	0.24490677
123	0x3e168929	0.1470076
124	0xbd621d92	-0.05520398
125	0xbee1e946	-0.44123286
126	0xbe38d4e0	-0.18049955
127	0xbdd4e791	-0.1039573
128	0x3cc492f2	0.02399585
129	0xbeb1e8d1	-0.34747937
130	0xbdb07e16	-0.08617799
131	0xbe927b01	-0.2860947
132	0x3e91308e	0.28357357
133	0x3dbf218a	0.09332569
134	0xbeb6eab2	-0.35725933
135	0xbe5da468	-0.21644747
136	0xbd9c3df0	-0.07629001
137	0xbe0000f4	-0.12500364
138	0xbe57748b	-0.21040551
139	0x3e9b3bff	0.3031921
140	0xbf349387	-0.7053761
141	0x3c0705a2	0.008241089
142	0x3d52de75	0.051481683
143	0xbeb05130	-0.3443694
144	0x3ec19ea0	0.37816334
145	0xbe8ec16b	-0.2788194
146	0xbd8491e8	-0.06473142
147	0x3d922259	0.071354575
148	0x3c8e755e	0.01738995
149	0xbe3e4eac	-0.18584698
150	0x3bf3803f	0.0074310596
151	0xbea3f6e5	-0.32024303
152	0xbeb8694d	-0.36017838
153	0x3ea4d292	0.32191902
154	0xbeaf0936	-0.34186715
155	0x3e09a02d	0.13440008
156	0x3ca14f81	0.01969123
157	0x3d459e2d	0.04824655
158	0xbd8252a0	-0.06363416
159	0x3d256203	0.040376674
160	0x3df62915	0.120195545
161	0xbcba45da	-0.022738386
162	0x3e364a87	0.17801867
163	0xbdc81e22	-0.097713724
164	0xbe4c2cdf	-0.19938992
165	0xbeac5c05	-0.33663955
166	0x3d887627	0.06663161
167	0xbf12cd8f	-0.5734491
168	0xbeeb8397	-0.45998833
169	0xbe94e515	-0.29081026
170	0xbe724973	-0.23660831
171	0x3d9d7d09	0.07689864
172	0x3e1ed590	0.15511155
173	0x3db6b1b5	0.08920614
174	0x3e2dc50b	0.16969697
175	0xbe7c8359	-0.2465948
176	0xbda7fea5	-0.082028665
177	0xbd9ef11e	-0.07760833
178	0xbdfa42a3	-0.12219741
179	0xbd97dfe3	-0.0741575
180	0x3e8ef4bf	0.279211
181	0xbe4bb846	-0.19894513
182	0x3dc9664d	0.098339655
183	0x3e98547f	0.29751965
184	0x3d523432	0.05131931
185	0x3b7ca16c	0.0038548363
186	0xbe903a3d	-0.28169432
187	0x3e35a582	0.17738917
188	0xbdb6781d	-0.089096285
189	0xbeaa1428	-0.33218503
190	0xbdc67055	-0.096893944
191	0x3d8a6fdd	0.067596175
192	0xbd26ef3f	-0.040755507
193	0xbc8c1ce5	-0.017103622
194	0x3e49b2f4	0.19697171
195	0x3e5b96fc	0.21444315
196	0x3dfacd86	0.12246232
197	0x3e22ee9f	0.15911339
198	0xbe9cfa51	-0.30659726
199	0xbcaa4963	-0.020786947
200	0xbeb6a492	-0.35672432
201	0x3dbf2b53	0.09334435
202	0x3d3b0932	0.045663066
203	0xbe444f98	-0.19170988
204	0xbe764374	-0.24049169
205	0xbdde2ce4	-0.10848406
206	0xbe86a88c	-0.26300466
207	0xbd27045e	-0.04077565
208	0xbeb37012	-0.3504644
209	0x3c717243	0.014736715
210	0x3e79f5f8	0.24410236
211	0x3e6c4e13	0.23076658
212	0xbe6e4613	-0.23268919
213	0xbe334685	-0.1750737
214	0xbe18f3d4	-0.14936763
215	0x3ea4c086	0.32178134
216	0xbc013faf	-0.0078887185
217	0xbcdf089e	-0.027225789
218	0xbe140581	-0.14455225
219	0x3e080fa7	0.13287221
220	0x3da14490	0.078744054
221	0x3ddb697e	0.107134804
222	0xbea9eb9f	-0.33187577
223	0x3d667dbe	0.05627226
224	0xbdaa4607	-0.08314138
225	0x3e9bf9ab	0.3046392
226	0x3ec554be	0.38541216
227	0x3e7cd25a	0.24689618
228	0x3f12a53d	0.57283384
229	0xbdabd335	-0.08389894
230	0x3e550b4a	0.20805088
231	0xbca7edeb	-0.02049919
232	0xbea6a277	-0.32545826
233	0x3e959a34	0.2921921
234	0xbeedf05f	-0.4647245
235	0xbe0a238a	-0.1349012
236	0xbce8dd6d	-0.028425897
237	0x3e2d44fd	0.16920848
238	0x3eb724f5	0.35770383
239	0xbe319680	-0.17342567
240	0xbde948f6	-0.11390869
241	0x3d1ce857	0.038307514
242	0xbebd2647	-0.36943266
243	0xbf07e64a	-0.5308577
244	0xbe3ca6d6	-0.18423018
245	0xbeec8c92	-0.46200997
246	0xbd8a1bf0	-0.0674361
247	0x3d51846d	0.05115168
248	0x3ee08dea	0.43858272
249	0xbe69b09c	-0.22821277
250	0x3c2a9229	0.010410824
251	0x3e0a46f9	0.13503636
252	0xbec7fb93	-0.39059123
253	0xbd40da0d	-0.04708295
254	0xbd6a561a	-0.05721102
255	0xbdcca653	-0.09992661

network_body._body_endoder.seq_layers.2.bias f4 [64]
0	0xbe197ee3	-0.1498981
1	0xbe104b21	-0.1409116
2	0xbe082d98	-0.13298643
3	0xbda8a242	-0.08234073
4	0xbd7c0545	-0.061528463
5	0xbe18c597	-0.14919125
6	0xbe8a509d	-0.27014628
7	0x3d7708be	0.06031107
8	0x3b0cea8d	0.0021502108
9	0xbdba9f04	-0.09112361
10	0xbdf092f2	-0.117467776
11	0xbde99fac	-0.11407408
12	0xbdbf70be	-0.09347676
13	0x3d82e63c	0.0639157
14	0xbe66f958	-0.22556055
15	0xbc960bd7	-0.018316193
16	0xbe2a648a	-0.16639915
17	0xbe071836	-0.1319283
18	0x3c8ca970	0.017170638
19	0xbeaa51f1	-0.3326564
20	0xbe496b06	-0.19669732
21	0x3ca8bc64	0.020597644
22	0xbe6dbaa3	-0.23215728
23	0xbc81076e	-0.015750613
24	0xbd3f71b2	-0.046739288
25	0xbddfe3f0	-0.109321475
26	0x3e0a08df	0.13479947
27	0xbdb4deac	-0.08831534
28	0x3d5f232b	0.0544769
29	0xbe0a094b	-0.13480107
30	0xbed4280a	-0.41436797
31	0xbdd49308	-0.103796065
32	0xbd118d87	-0.03553536
33	0xbd6f9e9f	-0.058500882
34	0x3ccd3658	0.025050327
35	0xbce13f26	-0.027495932
36	0x3ced760b	0.028986951
37	0x3dc332d1	0.09531177
38	0xbe06c0bf	-0.13159464
39	0xbe5ae49a	-0.21376267
40	0xbe14ca15	-0.14530213
41	0xbe8e9d9a	-0.27854615
42	0xbdbc1169	-0.09183008
43	0xbe2630a2	-0.1622949
44	0x3cb0b871	0.021572324
45	0xbd08eb20	-0.033427358
46	0xbdc5eb38	-0.09664005
47	0xbe3921f0	-0.18079352
48	0xbe10f342	-0.14155295
49	0xbe8d628d	-0.2761425
50	0x3d3f0e7a	0.046644665
51	0xbdaf7def	-0.08568942
52	0xbe0f4add	-0.13993402
53	0xbe1876c1	-0.14889051
54	0xbdac4ec4	-0.08413461
55	0xbe13ba7a	-0.14426604
56	0xbe0c4cf5	-0.13701232
57	0xbd600342	-0.054690607
58	0x3d050f78	0.032485455
59	0xbd6d3fd0	-0.057922184
60	0x3d51fb12	0.05126483
61	0xbd756753	-0.05991299
62	0xbdc4cdc7	-0.096095614
63	0x3dbbc284	0.0916796

action_model._discrete_distribution.branches.0.weight f4 [2, 64]
0	0x3d5325ab	0.051549595
1	0xbcf28d02	-0.029608253
2	0xbc5c3eef	-0.013442739
3	0x3d599be9	0.053127203
4	0x3ca45a12	0.02006248
5	0x3d3d8801	0.04627228
6	0xbd74a4f8	-0.05972764
7	0x3e46d528	0.1941725
8	0xbe527d73	-0.20555668
9	0xbe46a02b	-0.19397037
10	0xbe8de17c	-0.27711093
11	0x3e382286	0.1798192
12	0xbd2c1623	-0.0420133
13	0xbd4cec5a	-0.05003009
14	0x3e3242ec	0.17408341
15	0xbd24268c	-0.040075824
16	0xbe74ab69	-0.23893513
17	0xbe86f512	-0.2635885
18	0x3ed33060	0.41247845
19	0x3d6de3b7	0.058078494
20	0x3da43244	0.080174
21	0xbe4dceea	-0.20098463
22	0xbb0fa343	-0.002191738
23	0xbdf361d2	-0.11883892
24	0x3cf8fb15	0.030393163
25	0xbe9750a4	-0.2955371
26	0xbe1597c5	-0.14608677
27	0xbd8d2491	-0.0689174
28	0xbe6233b9	-0.22090043
29	0x3e024740	0.12722492
30	0xbdde5ab9	-0.10857148
31	0xbdb4580c	-0.08805856
32	0xbda5cdff	-0.08095931
33	0x3d462c41	0.048382048
34	0x3d3a29bc	0.045449957
35	0x3e303333	0.17207031
36	0xbdf484e0	-0.119394064
37	0xbe841826	-0.25799674
38	0x3d56310a	0.05229286
39	0x3dce25a1	0.10065771
40	0x3ea26b3e	0.31722444
41	0xbdbe55bd	-0.09293697
42	0xbd05500e	-0.03254705
43	0x3cfd74fd	0.030939573
44	0x3e060668	0.13088381
45	0xbe7a6f68	-0.2445656
46	0xbe39e2c7	-0.18152915
47	0xbc9887c4	-0.018619426
48	0x3d825448	0.063637316
49	0x38834686	6.259703e-05
50	0xbe22366c	-0.15841073
51	0xbe4f0310	-0.20216012
52	0x3c8b3515	0.016993085
53	0x3e0430d4	0.12909251
54	0x3db7ff04	0.08984187
55	0x3d1407cb	0.036140244
56	0x3dd7bed8	0.105344474
57	0x3e4c7a7c	0.19968599
58	0xbe54d71a	-0.2078518
59	0x3e11a38e	0.14222547
60	0x3c08bb1e	0.008345393
61	0xbd1f1c21	-0.038845185
62	0xbe771191	-0.24127795
63	0x3e75bd93	0.23998098
64	0xbd9eb893	-0.077500485
65	0x3d220a5a	0.039560653
66	0xbbf2d337	-0.0074104327
67	0xbcf164b4	-0.029466964
68	0xbc785102	-0.0151560325
69	0xbd2d2164	-0.042268172
70	0x3d9d17a9	0.076705284
71	0xbe4a525a	-0.19757977
72	0x3e568147	0.20947753
73	0x3e332128	0.17493117
74	0x3e939d62	0.2883101
75	0xbe34ab77	-0.17643534
76	0x3db4b3ad	0.08823333
77	0x3d91c88a	0.07118328
78	0xbe1aaab9	-0.15104188
79	0x3c8fc3fe	0.017549511
80	0x3e82dbb2	0.2555824
81	0x3e7e9a83	0.24863629
82	0xbed60838	-0.41803145
83	0xbd5abd88	-0.053403407
84	0xbd8754e5	-0.06607989
85	0x3e49f6db	0.19723074
86	0x3c4ca0e8	0.012489535
87	0x3dfd8efb	0.12380787
88	0xbb81bf24	-0.0039595533
89	0x3e8774de	0.2645635
90	0x3df4f000	0.11959839
91	0x3d8a4419	0.0675127
92	0x3e6afd63	0.22948222
93	0xbdf4c0a7	-0.11950808
94	0x3dea2cf3	0.11434355
95	0x3db37ba7	0.08763819
96	0x3dbb67ce	0.091506585
97	0xbd8b1719	-0.06791515
98	0xbd0351e2	-0.03206051
99	0xbe5359c1	-0.20639707
100	0x3df0628b	0.117375456
101	0x3e82e549	0.25565556
102	0xbd5e4ef9	-0.054274533
103	0xbdaf32c0	-0.08554602
104	0xbe917c7e	-0.28415293
105	0x3df18a92	0.11794008
106	0x3d25cba6	0.040477417
107	0xbccabaa1	-0.024747195
108	0xbe1863c3	-0.14881806
109	0x3e8359eb	0.2565454
110	0x3e330e07	0.1748582
111	0x3bfeb058	0.0077724867
112	0xbd4d30c5	-0.05009534
113	0x3cc4ade9	0.024008708
114	0x3e23e851	0.1600659
115	0x3e579970	0.21054626
116	0xbcc58dae	-0.02411541
117	0xbe0aeeb9	-0.13567628
118	0xbdc6717e	-0.09689616
119	0xbd1a7638	-0.0377104
120	0xbdb7b69d	-0.089703776
121	0xbe71e45b	-0.23622267
122	0x3e3b6aee	0.18302509
123	0xbdf06822	-0.11738612
124	0xbc9f3f94	-0.019439496
125	0x3d0f75f5	0.035024602
126	0x3e775525	0.24153574
127	0xbe664e13	-0.2249072

action_model._discrete_distribution.branches.0.bias f4 [2]
0	0xbc8c0b3f	-0.017095206
1	0x3c8c0b1d	0.017095143

action_model._discrete_distribution.branches.1.weight f4 [2, 64]
0	0x3e18b8dc	0.14914268
1	0xbe3e4ed9	-0.18584765
2	0x3e0056fa	0.12533179
3	0xbe1977f2	-0.14987162
4	0x3e402310	0.18763375
5	0x3e5bdc24	0.21470696
6	0x3d5bd170	0.053666532
7	0xbbb57300	-0.0055373907
8	0x3dc6d2d0	0.09708178
9	0xbd8c9fc8	-0.06866413
10	0xbe1f0c1c	-0.15531963
11	0xbdb69052	-0.08914246
12	0x3e37fbee	0.17967197
13	0xbe196946	-0.14981565
14	0xbd894619	-0.06702823
15	0x3e0d4f1f	0.13799714
16	0xbe4d4806	-0.20047006
17	0x3e17c97a	0.14822951
18	0xbdc464eb	-0.09589561
19	0xbe4e695c	-0.20157379
20	0x3e31676a	0.17324606
21	0xbdf59e89	-0.11993129
22	0x3e92e9e4	0.2869407
23	0xbd954063	-0.072876714
24	0x3e3095a1	0.17244579
25	0x3d3d338e	0.046191745
26	0xbdd5e236	-0.10443537
27	0x3e1b8403	0.15187077
28	0x3d46761a	0.048452474
29	0xbe57296f	-0.210119
30	0x3dc06dd8	0.09395951
31	0x3d466765	0.04843845
32	0xbddc34c7	-0.10752254
33	0x3b9928ef	0.004674069
34	0xbe8d2cfd	-0.27573386
35	0xbd7d3079	-0.061813805
36	0xbe0648e2	-0.1311374
37	0xbce713fd	-0.028207773
38	0x3daf87bb	0.085708104
39	0x3e2a57e7	0.16635095
40	0xbd44b5e5	-0.04802503
41	0x3e438a90	0.19095826
42	0xbe862d4f	-0.26206443
43	0x3e483009	0.19549574
44	0xbd87d76f	-0.066328876
45	0x3d900379	0.07031912
46	0x3da73264	0.08163908
47	0xbdc46d2e	-0.09591137
48	0x3c936721	0.017993512
49	0x3e784619	0.2424549
50	0xbe1a885b	-0.15091078
51	0x3e6ddc99	0.23228683
52	0x3d323082	0.043503292
53	0x3e24de5d	0.1610045
54	0x3ea61536	0.32438058
55	0x3c38e389	0.011284717
56	0x3d32682c	0.043556377
57	0xbd44f46a	-0.048084654
58	0xbc67e859	-0.014154517
59	0xbe28847c	-0.16456789
60	0xbc3e62fa	-0.011620278
61	0x3e50d0ac	0.20392102
62	0xbe4b48fa	-0.19852057
63	0x3d8ded33	0.06930008
64	0xbe14f275	-0.14545615
65	0x3e42ad91	0.19011523
66	0xbe040a48	-0.12894547
67	0x3e2f79c5	0.17136295
68	0xbe5ecb65	-0.21757276
69	0xbe73fe1f	-0.23827408
70	0xbda55fbb	-0.080749
71	0x3cd86eea	0.026420075
72	0xbddd8b6d	-0.10817609
73	0x3d4e695c	0.050393447
74	0x3e173d6c	0.14769524
75	0x3ddf64c5	0.10907892
76	0xbe23eabf	-0.16007517
77	0x3e3426ec	0.17592973
78	0x3d2a0e3a	0.041517474
79	0xbe1ad6dd	-0.15121026
80	0x3e72fb05	0.23728569
81	0xbe0f348b	-0.13984887
82	0x3d83604a	0.0641485
83	0x3e42e779	0.19033612
84	0xbe2928dd	-0.16519494
85	0x3dfa7b71	0.12230576
86	0xbe893cbc	-0.2680415
87	0x3d882bc9	0.06648976
88	0xbe342e7d	-0.17595859
89	0xbd486685	-0.048925895
90	0x3dd5da80	0.10442066
91	0xbe143321	-0.14472629
92	0xbcdf83f8	-0.027284607
93	0x3e509f61	0.20373298
94	0xbd2e8ba8	-0.042613655
95	0xbd908510	-0.0705663
96	0x3de11f68	0.109923184
97	0xba87205c	-0.0010309326
98	0x3e8c2edc	0.273795
99	0x3d5eb892	0.05437524
100	0x3e2800b5	0.1640652
101	0x3d0d4163	0.034486186
102	0xbd98650e	-0.0744115
103	0xbe1d464e	-0.1535885
104	0x3d76a4ca	0.06021575
105	0xbe53b217	-0.20673405
106	0x3e80ce77	0.2515752
107	0xbe27a0c4	-0.16369921
108	0x3d94ab78	0.072592676
109	0xbd882f34	-0.06649628
110	0xbdbace77	-0.09121411
111	0x3d9bccb4	0.076074034
112	0x3947839a	0.00019027144
113	0xbe786da9	-0.24260582
114	0x3e1f6eb5	0.15569575
115	0xbe65e35f	-0.22450016
116	0xbbf588a5	-0.007493096
117	0xbe238b56	-0.15971121
118	0xbea3b468	-0.31973577
119	0x3b511f9e	0.0031909714
120	0xbd176a0e	-0.036966376
121	0x3cf33fc6	0.029693495
122	0x3c90584c	0.017620228
123	0x3e1cfc37	0.15330587
124	0xbbe6998b	-0.0070373467
125	0xbe35a015	-0.17736848
126	0x3e3db762	0.18526986
127	0xbda022aa	-0.07819112

action_model._discrete_distribution.branches.1.bias f4 [2]
0	0xbddccab5	-0.10780851
1	0x3ddccab6	0.107808515

action_model._discrete_distribution.branches.2.weight f4 [2, 64]
0	0x3e7dd347	0.24787627
1	0xbdaaa381	-0.08331967
2	0xbe0ee985	-0.13956268
3	0xbe8228d8	-0.25421786
4	0x3dde0fff	0.10842895
5	0xbd294711	-0.04132754
6	0xbe23ab81	-0.15983392
7	0x3c952626	0.018206667
8	0xbdd1f9a0	-0.1025269
9	0xbcfd2b1f	-0.03090435
10	0x3bcebe72	0.006309324
11	0x3c0533bf	0.008130013
12	0xbe24195f	-0.16025303
13	0xbdd9961e	-0.10624336
14	0x3dd68d12	0.10476126
15	0x3deee21d	0.116642214
16	0xbe182126	-0.14856395
17	0xbe93c555	-0.2886149
18	0xbd9dbbc4	-0.07701829
19	0xbe333a12	-0.17502621
20	0xbd9e1e53	-0.07720628
21	0xbd6f86ae	-0.05847805
22	0xbdd7d16e	-0.105379924
23	0x3ebdb38b	0.37051043
24	0x3e112f73	0.14178257
25	0xbdd5b485	-0.10434822
26	0x3d9b984c	0.07597408
27	0xbecbe008	-0.3981936
28	0xbd69f62a	-0.057119526
29	0xbe3d1932	-0.18466642
30	0x3d6945c2	0.05695129
31	0x3c4af593	0.012387651
32	0x3d900bc3	0.07033493
33	0xbe795a11	-0.24350764
34	0xbd1cccbf	-0.0382812
35	0x3db1c8f6	0.086809084
36	0x3ce1373f	0.027492164
37	0x3dfae798	0.12251204
38	0xbe5c642c	-0.21522588
39	0xbd544ace	-0.05182915
40	0xbd73f131	-0.05955619
41	0x3dc86d4d	0.097864725
42	0xbdc8f703	-0.09812739
43	0x3e0308c5	0.12796314
44	0x3e41d5c9	0.18929209
45	0x3c522bd4	0.012827832
46	0xbe50a306	-0.20374689
47	0xbe345dd3	-0.17613916
48	0x3d8c03a2	0.068366304
49	0xbe311cee	-0.17296192
50	0x3df53b1f	0.11974167
51	0x3d27c222	0.040956624
52	0xbe5e76df	-0.21725033
53	0xbd34986e	-0.04409068
54	0xbd3d5cce	-0.046231084
55	0xbe47c61a	-0.19509163
56	0x3e9d6808	0.30743432
57	0xbe2f73c5	-0.17134006
58	0xbc558e6e	-0.013034446
59	0xbccf7d78	-0.025328383
60	0x3e87f8a7	0.26556894
61	0x3cb5bd2d	0.022184933
62	0x3e00cd5a	0.12578335
63	0xbe39bdba	-0.18138781
64	0xbe836378	-0.25661826
65	0x3d969eb5	0.0735449
66	0x3e1256bb	0.14290898
67	0x3e870e0a	0.26377898
68	0xbdf62fd0	-0.12020838
69	0x3d88b8cf	0.066758744
70	0x3e37f429	0.17964233
71	0xbd2a9c13	-0.04165275
72	0x3df0fbde	0.1176679
73	0x3cca99c9	0.024731534
74	0x3c67d4f4	0.014149893
75	0xbd1d16b4	-0.03835173
76	0x3e360221	0.1777425
77	0x3e123702	0.14278796
78	0xbddce486	-0.10785775
79	0xbdf6f0a8	-0.1205762
80	0x3e1aeb5c	0.15128845
81	0x3e857f82	0.26073843
82	0x3d9ec643	0.07752659
83	0x3e28bd35	0.16478427
84	0x3d630552	0.055424996
85	0x3d824554	0.063608795
86	0x3ddfc90e	0.1092702
87	0xbebb9862	-0.36639696
88	0xbe1f4fec	-0.15557832
89	0x3db451ab	0.088046394
90	0xbdb1ee98	-0.08688086
91	0x3eca7fd3	0.39550647
92	0x3d45c9d2	0.048288174
93	0x3e4db760	0.20089483
94	0xbd92a84c	-0.07161006
95	0x3b2a1ad3	0.002595593
96	0xbdc32ef6	-0.095304415
97	0x3e6ac259	0.229257
98	0x3d23bfeb	0.03997795
99	0xbd286c29	-0.041118775
100	0xbd3ed619	-0.0465909
101	0xbe1a128e	-0.1504614
102	0x3e59e51b	0.21278803
103	0x3d669b14	0.056300238
104	0x3d5d3e5e	0.054014556
105	0xbde81b57	-0.1133334
106	0x3dbcc213	0.09216704
107	0xbe0297ce	-0.12753221
108	0xbe30a078	-0.17248714
109	0xbcc40d14	-0.023932017
110	0x3e635a84	0.22202498
111	0x3e4d7c7b	0.20067017
112	0xbd48a9e1	-0.048990134
113	0x3e151a0f	0.14560722
114	0xbdb679d9	-0.08909959
115	0xbda23056	-0.079193756
116	0x3e63c6a5	0.22243746
117	0x3d7277b3	0.059196185
118	0x3d61db9c	0.055141076
119	0x3e5dbafb	0.21653359
120	0xbe8ddab9	-0.27705935
121	0x3e24d76c	0.16097802
122	0x3b9a7399	0.0047134873
123	0x3c7a9ea1	0.015296609
124	0xbe980940	-0.29694557
125	0xbcc57859	-0.024105238
126	0xbe010d9a	-0.12602845
127	0x3e42fa2c	0.19040745

action_model._discrete_distribution.branches.2.bias f4 [2]
0	0x3e820cca	0.25400382
1	0xbe820cd0	-0.254004

onnx::Div_104 f4 [28]
0	0x3eb853cc	0.36001432
1	0x3d3fe612	0.04685027
2	0x3eb967ed	0.36212102
3	0x3e9fd2f6	0.31215638
4	0x3ead8c0f	0.3389592
5	0x3d80e298	0.06293219
6	0x3eafbaa5	0.34322086
7	0x3e980ec8	0.29698777
8	0x3ebbe403	0.36697397
9	0x3cddbf60	0.027068794
10	0x3ebc3cc6	0.36765116
11	0x3ea18bd6	0.31552
12	0x3e8e2476	0.27762192
13	0x3d938edf	0.07204985
14	0x3e9210b5	0.2852837
15	0x3e82660d	0.25468484
16	0x3ea7ef90	0.3279996
17	0x3ce23ed5	0.027617851
18	0x3ea86260	0.32887554
19	0x3e93d152	0.28870636
20	0x3e5d5e3d	0.2161798
21	0x3d8f4c7a	0.069970086
22	0x3e679508	0.22615445
23	0x3e4bea4d	0.19913597
24	0x3e8ada24	0.27119553
25	0x3d0c3002	0.03422547
26	0x3e8bc726	0.27300376
27	0x3e74e848	0.23916733

onnx::Div_107 f4 [28]
0	0x3efdb4e9	0.49552086
1	0x3dd4603f	0.1036992
2	0x3efe8652	0.49711853
3	0x3e7559a5	0.23959978
4	0x3ec5ca81	0.3863106
5	0x3da44182	0.08020307
6	0x3ec2d3d6	0.38052243
7	0x3e993a6e	0.2992739
8	0x3ed68a6d	0.41902485
9	0x3ded6a56	0.115925476
10	0x3ecb6af7	0.39730045
11	0x3e9b3a56	0.30317944
12	0x3e8018e0	0.25018978
13	0x3d49cee6	0.04926958
14	0x3e7b11a0	0.24518442
15	0x3e8dbebc	0.2768458
16	0x3e823d38	0.2543733
17	0x3def3273	0.11679544
18	0x3e538491	0.20656039
19	0x3e68e165	0.22742231
20	0x3e7157f5	0.23568709
21	0x3d13faa6	0.03612771
22	0x3e6e06b3	0.23244743
23	0x3e87299d	0.26398936
24	0x3e6c46d8	0.230739
25	0x3ddd8d9a	0.10818024
26	0x3e388aaf	0.18021654
27	0x3e50ae76	0.20379052

onnx::Div_110 f4 [7]
0	0x423ce68a	47.225136
1	0x4227212a	41.782387
2	0x42279de4	41.90419
3	0x4225bab2	41.43232
4	0x42272022	41.78138
5	0x42272e69	41.795322
6	0x42270191	41.75153
