Assets/_created_block_bigger_gradual_reward_increased_length_continuous_dynamics_Added_checkpoint_ontriggerenter_Renaming_sensor_beta_0.003_increased_rewards_corrected_blocker/competitor/competitor-11999972.pt (torch, 238430 bytes, 70 tensors)

discrete_act_size_vector f4 [1, 3]
000000 00 00 00 40 00 00 00 40 00 00 00 40
       2.0 2.0 2.0

network_body.observation_encoder.processors.0.normalizer.running_mean f4 [28]
000000 2f 8f 6e 3e b1 d7 08 3c cb 37 42 3f 44 2d 4b 3f
       0.23296808 0.008352206 0.75866383 0.79365945
000010 4c b9 54 3e 33 08 06 3c 56 b9 48 3f ef 1f 50 3f
       0.2077381 0.008180666 0.784078 0.81298727
000020 93 36 6a 3e a2 de 9a 3b 56 3c 44 3f 05 52 4d 3f
       0.22872381 0.004726247 0.76654565 0.80203277
000030 83 0c 0d 3e f3 e3 0e 3c b8 82 5a 3f 81 25 5e 3f
       0.13774304 0.0087213395 0.8535571 0.86775976
000040 0e d1 14 3e ed 88 05 3b f4 45 5a 3f 9b cb 5d 3f
       0.14532873 0.0020375804 0.8526299 0.866388
000050 7d 9f ad 3d de 0f 07 3c 4e 2d 68 3f af 66 6a 3f
       0.084776856 0.008243529 0.9069413 0.9156293
000060 01 84 bb 3d 38 2e dc 3a 24 22 68 3f 8b ff 69 3f
       0.09156037 0.0016798442 0.90677094 0.9140555

network_body.observation_encoder.processors.0.normalizer.running_variance f4 [28]
000000 8a df 02 4a d3 1d c2 47 a7 18 06 4a 25 4f c9 49
       2.1442265e+06 99387.65 2.1970338e+06 1.6491246e+06
000010 98 14 f1 49 1a 21 be 47 bc fc f7 49 c9 3b be 49
       1.974931e+06 97346.2 2.0315115e+06 1.5583931e+06
000020 01 34 01 4a 01 97 5c 47 78 0f 03 4a 79 45 c2 49
       2.1168642e+06 56471.004 2.147294e+06 1.5914711e+06
000030 15 fb ad 49 85 9f ca 47 2e 1a b7 49 49 31 97 49
       1.4252506e+06 103743.04 1.4999738e+06 1.2385691e+06
000040 d7 eb b5 49 b4 6d be 46 e0 0e b8 49 b1 c8 98 49
       1.4902989e+06 24374.852 1.507804e+06 1.2516061e+06
000050 fb 51 63 49 c0 93 bf 47 18 2b 77 49 51 8f 4d 49
       931103.7 98087.5 1.0124015e+06 841973.06
000060 b3 b0 73 49 a9 28 9d 46 ec af 77 49 c8 42 53 49
       998155.2 20116.33 1.01452675e+06 865324.5

network_body.observation_encoder.processors.1.normalizer.running_mean f4 [28]
000000 10 fe a2 3e b4 5a 18 3d 7b 91 24 3f 91 36 64 3f
       0.3183446 0.037195876 0.64284486 0.8914576
000010 25 8e 31 3f 6e b9 6f 3d ff cc 7d 3e 98 de 0d 3f
       0.6935752 0.05852645 0.24785231 0.55417776
000020 e2 f3 43 3f 17 6b 0a 3d 7f 49 36 3e 65 15 00 3f
       0.7654401 0.033793535 0.17801474 0.50032645
000030 68 65 50 3f c1 2f 07 3e cc b9 5c 3d 7b f7 d2 3e
       0.81404734 0.1320181 0.053888127 0.41204438
000040 59 65 5b 3f 8b 3b cd 3c 4e d0 c6 3d d2 77 9a 3e
       0.8570152 0.025052806 0.097077 0.3016954
000050 b1 f2 57 3f 35 71 1e 3e 6c 73 dd 3a 97 06 b4 3e
       0.8435469 0.15472873 0.001689536 0.35161278
000060 f2 d7 64 3f 5d 33 92 3c 7f c9 84 3d 65 cf 85 3e
       0.89392006 0.017846758 0.06483745 0.26134792

network_body.observation_encoder.processors.1.normalizer.running_variance f4 [28]
000000 48 ef 1e 4a 37 da d1 48 40 29 28 4a 2a 2f bd 48
       2.603986e+06 429777.72 2.755152e+06 387449.3
000010 05 a9 1b 4a b9 6b 21 49 7c 87 08 4a fe 71 99 49
       2.5503372e+06 661179.56 2.236895e+06 1.2570238e+06
000020 2a 7f 03 4a 4d 5e bf 48 a4 53 d6 49 43 be 58 49
       2.1544425e+06 391922.4 1.7557645e+06 887780.2
000030 57 bb dd 49 c3 d3 a7 49 79 5e 15 49 fb 57 8e 49
       1.8164269e+06 1.3748404e+06 611815.56 1.1660794e+06
000040 48 80 b3 49 90 29 8f 48 5a 65 80 49 14 7b 50 49
       1.470473e+06 293196.5 1.0518192e+06 853937.25
000050 c2 5b c1 49 9b 88 bf 49 7c f5 9d 46 58 0e 4d 49
       1.5839922e+06 1.5690434e+06 20218.742 839909.5
000060 6a e5 8a 49 63 7e 4d 48 ac 8f 31 49 59 4e 51 49
       1.1378372e+06 210425.55 727290.75 857317.56

network_body.observation_encoder.processors.2.normalizer.running_mean f4 [7]
000000 78 cb 67 43 16 aa 4c 42 7f 52 4d 42 79 13 4b 42
       231.7948 51.1661 51.330563 50.769016
000010 fc d2 4c 42 d5 0d 4d 42 59 7c 4a 42
       51.20604 51.263508 50.621433

network_body.observation_encoder.processors.2.normalizer.running_variance f4 [7]
000000 14 1a f9 50 3b fa be 50 8b c0 be 50 3d 00 bf 50
       3.3433887e+10 2.5632561e+10 2.5602316e+10 2.563571e+10
000010 be 56 be 50 17 62 be 50 83 b0 be 50
       2.5546846e+10 2.5552796e+10 2.5593911e+10

network_body.processors.0.normalizer.running_mean f4 [28]
000000 2f 8f 6e 3e b1 d7 08 3c cb 37 42 3f 44 2d 4b 3f
       0.23296808 0.008352206 0.75866383 0.79365945
000010 4c b9 54 3e 33 08 06 3c 56 b9 48 3f ef 1f 50 3f
       0.2077381 0.008180666 0.784078 0.81298727
000020 93 36 6a 3e a2 de 9a 3b 56 3c 44 3f 05 52 4d 3f
       0.22872381 0.004726247 0.76654565 0.80203277
000030 83 0c 0d 3e f3 e3 0e 3c b8 82 5a 3f 81 25 5e 3f
       0.13774304 0.0087213395 0.8535571 0.86775976
000040 0e d1 14 3e ed 88 05 3b f4 45 5a 3f 9b cb 5d 3f
       0.14532873 0.0020375804 0.8526299 0.866388
000050 7d 9f ad 3d de 0f 07 3c 4e 2d 68 3f af 66 6a 3f
       0.084776856 0.008243529 0.9069413 0.9156293
000060 01 84 bb 3d 38 2e dc 3a 24 22 68 3f 8b ff 69 3f
       0.09156037 0.0016798442 0.90677094 0.9140555

network_body.processors.0.normalizer.running_variance f4 [28]
000000 8a df 02 4a d3 1d c2 47 a7 18 06 4a 25 4f c9 49
       2.1442265e+06 99387.65 2.1970338e+06 1.6491246e+06
000010 98 14 f1 49 1a 21 be 47 bc fc f7 49 c9 3b be 49
       1.974931e+06 97346.2 2.0315115e+06 1.5583931e+06
000020 01 34 01 4a 01 97 5c 47 78 0f 03 4a 79 45 c2 49
       2.1168642e+06 56471.004 2.147294e+06 1.5914711e+06
000030 15 fb ad 49 85 9f ca 47 2e 1a b7 49 49 31 97 49
       1.4252506e+06 103743.04 1.4999738e+06 1.2385691e+06
000040 d7 eb b5 49 b4 6d be 46 e0 0e b8 49 b1 c8 98 49
       1.4902989e+06 24374.852 1.507804e+06 1.2516061e+06
000050 fb 51 63 49 c0 93 bf 47 18 2b 77 49 51 8f 4d 49
       931103.7 98087.5 1.0124015e+06 841973.06
000060 b3 b0 73 49 a9 28 9d 46 ec af 77 49 c8 42 53 49
       998155.2 20116.33 1.01452675e+06 865324.5

network_body.processors.1.normalizer.running_mean f4 [28]
000000 10 fe a2 3e b4 5a 18 3d 7b 91 24 3f 91 36 64 3f
       0.3183446 0.037195876 0.64284486 0.8914576
000010 25 8e 31 3f 6e b9 6f 3d ff cc 7d 3e 98 de 0d 3f
       0.6935752 0.05852645 0.24785231 0.55417776
000020 e2 f3 43 3f 17 6b 0a 3d 7f 49 36 3e 65 15 00 3f
       0.7654401 0.033793535 0.17801474 0.50032645
000030 68 65 50 3f c1 2f 07 3e cc b9 5c 3d 7b f7 d2 3e
       0.81404734 0.1320181 0.053888127 0.41204438
000040 59 65 5b 3f 8b 3b cd 3c 4e d0 c6 3d d2 77 9a 3e
       0.8570152 0.025052806 0.097077 0.3016954
000050 b1 f2 57 3f 35 71 1e 3e 6c 73 dd 3a 97 06 b4 3e
       0.8435469 0.15472873 0.001689536 0.35161278
000060 f2 d7 64 3f 5d 33 92 3c 7f c9 84 3d 65 cf 85 3e
       0.89392006 0.017846758 0.06483745 0.26134792

network_body.processors.1.normalizer.running_variance f4 [28]
000000 48 ef 1e 4a 37 da d1 48 40 29 28 4a 2a 2f bd 48
       2.603986e+06 429777.72 2.755152e+06 387449.3
000010 05 a9 1b 4a b9 6b 21 49 7c 87 08 4a fe 71 99 49
       2.5503372e+06 661179.56 2.236895e+06 1.2570238e+06
000020 2a 7f 03 4a 4d 5e bf 48 a4 53 d6 49 43 be 58 49
       2.1544425e+06 391922.4 1.7557645e+06 887780.2
000030 57 bb dd 49 c3 d3 a7 49 79 5e 15 49 fb 57 8e 49
       1.8164269e+06 1.3748404e+06 611815.56 1.1660794e+06
000040 48 80 b3 49 90 29 8f 48 5a 65 80 49 14 7b 50 49
       1.470473e+06 293196.5 1.0518192e+06 853937.25
000050 c2 5b c1 49 9b 88 bf 49 7c f5 9d 46 58 0e 4d 49
       1.5839922e+06 1.5690434e+06 20218.742 839909.5
000060 6a e5 8a 49 63 7e 4d 48 ac 8f 31 49 59 4e 51 49
       1.1378372e+06 210425.55 727290.75 857317.56

network_body.processors.2.normalizer.running_mean f4 [7]
000000 78 cb 67 43 16 aa 4c 42 7f 52 4d 42 79 13 4b 42
       231.7948 51.1661 51.330563 50.769016
000010 fc d2 4c 42 d5 0d 4d 42 59 7c 4a 42
       51.20604 51.263508 50.621433

network_body.processors.2.normalizer.running_variance f4 [7]
000000 14 1a f9 50 3b fa be 50 8b c0 be 50 3d 00 bf 50
       3.3433887e+10 2.5632561e+10 2.5602316e+10 2.563571e+10
000010 be 56 be 50 17 62 be 50 83 b0 be 50
       2.5546846e+10 2.5552796e+10 2.5593911e+10

network_body._body_endoder.seq_layers.0.weight f4 [64, 63]
000000 11 15 34 3a 95 2e 0c be 0f 77 15 bd 51 cb 6b 3e
       0.0006869594 -0.13689645 -0.036490496 0.23026778
000010 0f cb 09 3f c2 47 07 bf f1 cc 91 be 71 4a fe bc
       0.5382547 -0.5284387 -0.2847667 -0.031041356
000020 aa d0 06 3e ee fe f9 3e d7 6d 48 be de 20 74 bc
       0.13165537 0.48827308 -0.1957315 -0.014900414
000030 28 d8 27 3f be 57 4a be bf 2b 54 bc 45 2e c3 bd
       0.65564203 -0.19760033 -0.012949883 -0.095303096
000040 f3 a9 be bd bd 53 4d 3f 9e c9 87 bd 8c 86 af be
       -0.09309759 0.802059 -0.06630252 -0.3428234
000050 41 6d 05 3f b7 80 90 be c3 d6 50 3e 02 a2 10 bc
       0.52119833 -0.28223202 0.20394425 -0.008827688
000060 07 70 ea be 80 82 ca 3e 87 09 43 3f 3e ad 39 3f
       -0.45788595 0.3955269 0.7618641 0.7252997
000070 57 4e b6 3f ce ef 97 be 3b 0d 82 bf e5 00 f3 be
       1.4242657 -0.29675144 -1.0160288 -0.4746162
000080 7d 88 02 3f c9 98 83 be e2 2f c1 3d b3 ce d4 3f
       0.50989515 -0.25702503 0.09432961 1.662558
000090 c2 fa 7a 3e 7b a6 d2 3f 5c 15 b1 bf 28 f6 8d bf
       0.24509719 1.6457056 -1.3834643 -1.1090746
0000a0 1e 52 a1 be 1a f1 ce 3e ee ab 5e be 93 f8 7a 3d
       -0.31507963 0.4041832 -0.21745273 0.061272215
0000b0 29 62 51 3e fc 31 0c be 4d 19 9d be bb 1b d1 3e
       0.20447601 -0.13690943 -0.30683365 0.4084147
0000c0 a4 dd ea bd a1 7b b3 3e 6b e4 14 3f 06 66 40 bf
       -0.11468056 0.3505526 0.5816104 -0.75155675
0000d0 b1 45 1f 3c a4 42 a3 bf 2e d1 9a 3f 2b 44 13 3f
       0.009721206 -1.2754712 1.2095087 0.5752589
0000e0 15 3c b4 3e 7e b8 16 bd bc 52 21 bf 3d 52 e4 3e
       0.3520209 -0.03679704 -0.6301687 0.44593993
0000f0 3f 10 cb 3e 68 44 24 bf 1c c9 ab 3e 6f 61 b6 3e
       0.39660832 -0.6416688 0.33551872 0.3562121
000100 20 7b 38 3f 12 e7 bb be 1c 88 1e bf 15 a6 0c 3f
       0.72062874 -0.3669973 -0.61926436 0.5494092
000110 dd 13 94 3e c6 0b 9b be 05 47 10 bf 26 1a 1b bf
       0.28921404 -0.3028242 -0.5635837 -0.60586774
000120 58 f5 ba be 04 17 5a 3f 39 2e 04 3f a1 6c b0 3e
       -0.36515307 0.8519137 0.5163303 0.34457877
000130 11 43 30 3f 50 83 29 be 57 49 3d be 03 0c a9 3f
       0.68852335 -0.16553998 -0.18485008 1.3206791
000140 32 d1 38 3f 61 7e 94 bf 31 7d 75 bf 99 65 21 bf
       0.72194207 -1.1601068 -0.9589415 -0.6304565
000150 e0 f2 81 3f 7f 49 02 3f 6a 14 34 3f f4 0e 18 bf
       1.0152245 0.50893396 0.7034365 -0.59397817
000160 41 72 bf 3e b2 06 36 3f 22 b9 3f 3f 98 9d 57 3f
       0.37391856 0.71103966 0.74891865 0.84224844
000170 1d 54 00 bf f4 4f 8c be 09 93 3a 3e 4e f4 80 3f
       -0.50128347 -0.2740475 0.18220152 1.0074556
000180 5d 5e b4 be 74 af ad bf 65 11 8d bf b2 80 48 3e
       -0.35228243 -1.3569169 -1.1020933 0.19580343
000190 cc 2e ca bf cc 48 4a 3f 7b 0f 02 bf 84 6f f2 be
       -1.5795531 0.7901733 -0.5080487 -0.47350705
0001a0 ee 0c 4a 3f b7 3a f1 be 46 ed e2 be db 96 96 3e
       0.7892598 -0.47115108 -0.4432165 0.2941197
0001b0 0b 40 a8 be b2 e2 14 3e 9d f8 7f 3e 17 1b 17 bf
       -0.3286136 0.14539602 0.24997182 -0.5902571
0001c0 03 1e bd 3d c0 1d 54 3f 77 4f 6e 3f 40 14 c6 be
       0.0923424 0.82857895 0.93090004 -0.38687325
0001d0 0c a3 80 bf 0b 1b 03 3f 27 95 36 3f c2 57 ed 3f
       -1.0049758 0.5121314 0.7132134 1.8542407
0001e0 38 fa 9c bf a8 ec 59 bf 45 4f dc 3e ac a9 ab be
       -1.2263861 -0.85126734 0.43029228 -0.33527887
0001f0 3d eb 84 be d5 b5 d8 be 0c 00 23 3d a0 56 8f 3d
       -0.25960723 -0.42326227 0.039794967 0.06998944
000200 5a cd 94 3e e5 74 05 3e 02 a3 f1 3e 1b 9e d6 3e
       0.2906292 0.13032873 0.47194678 0.419175
000210 7a 73 fa bc 6e 47 92 3d dc a6 57 be 27 40 f6 bd
       -0.030572642 0.071425304 -0.21059746 -0.12023955
000220 02 aa 89 3e 03 b6 a6 be a6 eb e8 3e da 25 80 bf
       0.26887518 -0.3256074 0.45492285 -1.0011551
000230 46 65 00 3f 60 00 04 3f fb 1c e1 bc 2b 41 0a 3f
       0.5015453 0.5156307 -0.02747964 0.5400569
000240 33 b8 44 3e fb 3e 19 3e ac ba 53 3f e4 b3 c2 3e
       0.19210891 0.14965431 0.82706714 0.3802787
000250 0f ec d1 be f1 16 d9 be 8a 29 2a be bc 6e 53 be
       -0.4100041 -0.42400315 -0.16617408 -0.2064771
000260 81 04 2b 3d 6e 17 c2 be 46 f6 28 3f 1a d2 da be
       0.041752342 -0.379085 0.66000783 -0.4273842
000270 3e 23 23 be 63 7c bf bf 96 e5 72 be 4f 18 86 3e
       -0.15931413 -1.4959835 -0.23720393 0.2619042
000280 d2 b7 4e 3e 17 04 30 c0 72 12 56 3f 9d 87 99 3e
       0.2018731 -2.7502496 0.83621895 0.29986277
000290 de ae 97 be d3 53 ea 3f 30 41 0e bf 82 63 68 3f
       -0.296256 1.8306831 -0.5556822 0.90776837
0002a0 e0 53 3e bf 65 f3 03 c0 6e f1 3c 3f a8 59 f0 bf
       -0.74346733 -2.0617306 0.7380589 -1.8777361
0002b0 ce c7 fa 3e 87 17 ec 3d 6b 2e 5f 3f 51 01 18 bf
       0.48980564 0.11527925 0.87180203 -0.5937701
0002c0 f3 7b ff 3e e2 ee a4 bf 86 1c 01 be bb 1e 22 3f
       0.49899253 -1.2885401 -0.12608537 0.6332814
0002d0 21 bd ba be a5 3b 29 be 90 0e df 3e cb ba 84 3c
       -0.3647242 -0.16526659 0.43565798 0.016202351
0002e0 c6 4d 88 3e 68 3c 08 be f9 bf b7 3e 2b ac 21 bf
       0.26621836 -0.13304293 0.3588865 -0.6315333
0002f0 02 29 09 bf 54 0c 72 3f de 9d 85 3f 0e 52 c3 bf
       -0.535782 0.9455006 1.0438802 -1.5259416
000300 17 f3 ad bf 33 e3 32 bf bd 81 91 3f f1 81 84 be
       -1.358981 -0.6987793 1.1367718 -0.25880387
000310 9e 2c df be 1c 4f 31 3f cb 18 1f 3d f9 e6 6b bf
       -0.43588728 0.69261336 0.038842004 -0.9214931
000320 8f 41 4c bf bf cc 3a be 4b 01 af 3e 45 2d 60 3e
       -0.79787534 -0.18242167 0.34180674 0.21892269
000330 47 e1 b5 ba 64 5b de bd f5 cd 8a 3e 90 78 52 be
       -0.0013876342 -0.10857275 0.27110258 -0.20553803
000340 1f 71 ce bd 09 86 bc be 5a 07 51 3f b1 f9 48 be
       -0.1008017 -0.3682101 0.8165184 -0.196265
000350 66 2c bc be 5b 8f 50 bf b3 11 74 3f 44 80 b1 3e
       -0.36752623 -0.81468743 0.95339507 0.3466817
000360 ce 7f a7 3e fd c1 33 3f 4d d4 f7 3e ba 25 4a bf
       0.32714695 0.7021788 0.4840416 -0.78963816
000370 74 6b 8e bf 88 69 bc be 5b 17 f6 3e 70 ad 17 bd
       -1.1126542 -0.36799264 0.48064694 -0.037030637
000380 bf d6 f8 3c 92 e3 7b 3e 1a c4 9c bd 06 89 7f 3f
       0.030375836 0.2459853 -0.07654591 0.99818456
000390 c8 59 0a c0 72 22 4d 3f f7 32 48 bf 72 41 a2 3f
       -2.1617298 0.80130684 -0.78202766 1.2676222
0003a0 5b db 83 bd 7e 4d 80 bf 14 a0 22 3f 0a 50 e1 3f
       -0.06438323 -1.0023649 0.6352551 1.7602551
0003b0 c8 5b 95 bf 92 45 77 be 2c c9 63 3e 48 68 3f bf
       -1.1668634 -0.24147633 0.2224471 -0.74768496
0003c0 a9 b1 99 be 3c 35 9b be 10 62 90 3f 7e 29 ec 3e
       -0.30018356 -0.30314052 1.1279926 0.46125406
0003d0 c1 84 45 bf b0 97 31 be 25 fc d8 be 91 bb 93 3f
       -0.7715569 -0.1734302 -0.4237987 1.1541616
0003e0 00 64 87 bd 0c fa cd be 06 c1 02 3f 7b f9 c6 3f
       -0.0661087 -0.40229833 0.5107578 1.5544885
0003f0 c3 98 4e 3f d8 81 ed 3f bb eb 40 bf bf 32 44 bf
       0.80701846 1.855525 -0.75359696 -0.7663993

network_body._body_endoder.seq_layers.0.bias f4 [64]
000000 3f 82 16 c0 5e 0f f3 bf ce a7 c2 bf da a1 61 bf
       -2.3516996 -1.8989065 -1.520746 -0.8813759
000010 01 68 e3 be 9c be 19 c0 03 76 d0 bf 86 c8 fe bf
       -0.44415286 -2.4022589 -1.6286014 -1.9904945
000020 26 b5 9c bf 52 58 0f c0 95 32 dc bf 39 01 06 c0
       -1.2242782 -2.2397656 -1.7202936 -2.0938246
000030 03 55 3d bf 9f f5 e7 bf fd 85 11 c0 e9 24 c1 bf
       -0.7395784 -1.8121833 -2.273803 -1.5089389
000040 bb 84 97 bf 60 5b c3 bf 6c 90 f4 bf 55 84 85 bf
       -1.1837381 -1.526226 -1.9106574 -1.043101
000050 49 a5 4e c0 e6 6f f0 bf 7b 64 30 c0 5c 77 db bf
       -3.2288382 -1.8784149 -2.7561328 -1.71458
000060 dd ed 41 c0 cf fa f3 bf f4 da 66 bf b1 c2 d4 bf
       -3.030143 -1.9060916 -0.90177846 -1.6621915
000070 b1 6d 6f bf 6d 4f fa be 38 62 75 bf 93 86 87 bf
       -0.9352675 -0.48888722 -0.95852995 -1.0587944
000080 d1 d8 4e c0 c6 1e f0 be b9 3a f9 bf 0e 16 c8 bf
       -3.2319834 -0.46898478 -1.9471046 -1.563173
000090 aa 82 85 bf 5a 55 d9 bf dd 7d f9 bf cd b9 cc bf
       -1.04305 -1.6979172 -1.9491535 -1.5994202
0000a0 1a 7d a2 bf 6c b8 23 bf 2b 13 a4 bf 26 dd 15 c0
       -1.2694428 -0.6395328 -1.281835 -2.3416228
0000b0 bd ac 8b bf 80 c8 9e bf 28 56 e7 bf 3c 7e aa bf
       -1.091209 -1.2404938 -1.8073168 -1.3319774
0000c0 10 71 bc bf b8 ad 10 c0 e7 ab 1c c0 4c 85 eb bf
       -1.4722004 -2.260603 -2.447992 -1.8400054
0000d0 e1 a3 96 bf 2b 31 67 bf 89 7c 05 bf ce af 2e bf
       -1.1768762 -0.903094 -0.5214315 -0.68237007
0000e0 33 3f 24 c0 c5 d2 3d c0 b0 ed ba bf 47 9b b9 bf
       -2.5663574 -2.9659894 -1.4603786 -1.4500512
0000f0 97 85 81 be 9e 17 0d c0 6e 82 b7 bf 7c e0 75 bf
       -0.25297233 -2.2045665 -1.4336679 -0.9604566

network_body._body_endoder.seq_layers.2.weight f4 [64, 64]
000000 a7 56 95 3d a0 ca 03 bf 5e a4 ce bd 91 ab dd bd
       0.07291918 -0.51481056 -0.10089944 -0.10823739
000010 d6 5a c2 3e 53 f6 92 be 75 22 37 3f 66 c9 80 bf
       0.37959927 -0.28703555 0.7153695 -1.0061462
000020 93 86 1b bf b1 6c ec be 57 82 22 be 0e c8 a0 be
       -0.6075222 -0.46176675 -0.15870033 -0.3140263
000030 d4 1f 10 bf 59 06 47 bf 6e 3a 6f 3d 5b 29 2b 3f
       -0.56298566 -0.7774406 0.058405332 0.6685998
000040 77 e0 87 bf 85 c3 3b bf 8b bb c6 bf 89 39 fc bf
       -1.0615376 -0.73345214 -1.5525984 -1.9705058
000050 40 9c 60 3e 84 e0 43 bf f9 b6 94 3f 58 9e 29 3f
       0.21934605 -0.7651446 1.1618339 0.6625724
000060 eb 80 5f 3b cc 6b b4 3e 7f d7 ea be e6 e4 3e be
       0.003410394 0.35238492 -0.45867535 -0.18642005
000070 58 3c 83 3d ba ee 6e be 34 b4 5f 3e 4d 12 ad bf
       0.06407994 -0.23333254 0.21846086 -1.352121
000080 0f 04 a0 bf fc c0 04 3f 50 86 15 bf 51 0b c4 bf
       -1.2501239 0.5185697 -0.5840807 -1.5315953
000090 7e a2 35 3f 70 c7 85 bf 7b 6f 7d be 01 08 01 3f
       0.7095107 -1.0451488 -0.24749558 0.5040284
0000a0 a4 08 11 bf 07 ac dd 3d f4 5b c9 bd 98 9c e8 be
       -0.5665381 0.10823827 -0.09831992 -0.45431972
0000b0 c5 b2 c6 3e 5d 9d b8 3d db 04 6b bf 26 3e 87 3f
       0.38808265 0.0901439 -0.91804284 1.0565841
0000c0 e0 5b 8a be fa 24 87 be 78 52 f0 bd 9c de ee bf
       -0.2702322 -0.26395398 -0.1173448 -1.8661685
0000d0 26 ff 06 c0 17 ac e1 be 2d e7 2b bf 07 25 bc bc
       -2.109323 -0.44076607 -0.6714962 -0.022966875
0000e0 7c 9b dd 3e c6 a6 24 bb 47 3c d3 be 69 b2 ff be
       0.43282688 -0.0025123819 -0.41256925 -0.49940804
0000f0 8e 9c 04 bf a8 d2 77 bf 20 c3 c3 bf 3c 21 25 bf
       -0.51801383 -0.9680581 -1.5293922 -0.64503837
000100 04 f3 02 bf d2 f6 c6 be 39 65 32 3f 52 c3 72 bf
       -0.5115206 -0.38860184 0.69685704 -0.94829285
000110 e4 08 40 bf 56 48 e4 be 2f ea a5 bf 6a 00 ff 3d
       -0.75013566 -0.44586438 -1.2962092 0.12451251
000120 3f 5c 99 bf fd 3c 62 3e 53 90 35 bf fd 72 b4 bf
       -1.1981276 0.22093578 -0.70923346 -1.4097592
000130 f1 1a 88 3e ff 91 c7 be 08 08 35 3f 43 f5 87 bd
       0.26583055 -0.38978574 0.7071538 -0.06638577
000140 76 c3 8d bf 5c 60 fb be e0 45 f5 3e fe 01 93 bd
       -1.1075275 -0.49096954 0.47904873 -0.07178114
000150 ae 80 ce 3e 42 18 ff 3e 67 95 e2 b9 e2 cf 11 bf
       0.4033255 0.49823195 -0.00043217393 -0.5695783
000160 6d 71 e5 be 11 13 e0 3e e3 2b 70 bf f3 b2 b6 bf
       -0.448131 0.43764547 -0.93816966 -1.4273361
000170 ff 72 9a bf 78 ee 80 3c 7a 45 58 3e 60 27 b2 bf
       -1.2066344 0.01573871 0.21120253 -1.3918266
000180 4a 5d 4f 3f 86 7d bb bf 28 59 14 bf 54 b0 80 bf
       0.8100172 -1.4647682 -0.5794854 -1.0053811
000190 40 b5 b2 bf b2 7e b8 3e a6 cc f3 bd 4c 18 76 bf
       -1.3961563 0.3603416 -0.11904268 -0.96130824
0001a0 43 ce 62 bf 57 be f1 3c f2 ab a2 bf 29 90 56 3e
       -0.8859598 0.029509706 -1.2708724 0.2095343
0001b0 a8 30 09 bf f1 eb 34 3f ef 4e b9 bd cf 40 0b c0
       -0.5358987 0.7067252 -0.090482585 -2.1758306
0001c0 c8 f6 9f 3e b4 a8 d3 be ef 3e 37 3e d2 1a 1d bf
       0.31242967 -0.41339648 0.17895101 -0.6136905
0001d0 34 19 1a bf b3 3e 42 3f 39 99 3b bf d3 0d 99 3e
       -0.60194707 0.7587692 -0.73280674 0.2989336
0001e0 10 82 9b bf 3c b6 54 bd 3b 09 20 3f 64 34 0d be
       -1.2149067 -0.051931605 0.62514085 -0.13789517
0001f0 4e b5 c9 be c8 e0 da bf 2c 89 42 bf cd 88 d9 bc
       -0.39396137 -1.7099848 -0.7599056 -0.02655449
000200 e7 69 63 3e 2d 97 0f 3e 8a 09 72 3f cd 2f 53 bf
       0.22208367 0.14022513 0.94545805 -0.82494813
000210 03 45 57 bf 00 5f b7 be 58 19 25 3f 75 df ae 3e
       -0.8408968 -0.35814667 0.64491796 0.3415486
000220 e5 13 b9 bd e7 9c 3a 3f 12 69 a4 bd c7 8f 71 3f
       -0.09036998 0.72895664 -0.08027853 0.9436001
000230 32 11 a3 3e 57 85 a9 bf fd 6d 19 3f 8e 91 b7 be
       0.31849056 -1.3243817 0.59933454 -0.35853237
000240 5e 56 6f bf 61 75 47 bd 5e 3c 2c 3e a1 ab b0 3e
       -0.9349116 -0.048695926 0.16819903 0.34505942
000250 0e 37 09 bf 51 68 21 bf 62 27 15 bd b1 aa 4c 3f
       -0.5359963 -0.630498 -0.03641451 0.79947954
000260 25 78 82 bd f7 cd 2e 3f a4 80 94 3f 3d 4e 02 c0
       -0.06370572 0.6828303 1.1601758 -2.0360253
000270 c9 d8 bc bf 69 f7 b0 be 09 7f 9f bf 82 6f 5c c0
       -1.4753658 -0.3456376 -1.2460643 -3.444306
000280 f2 e9 f1 bf 4f 1e 61 be 28 ba 2b bf 5d 3f a1 3d
       -1.889952 -0.21984218 -0.67080927 0.07873414
000290 f7 00 e7 bf cf af c8 be 93 d5 be be 7e a1 55 bf
       -1.804717 -0.3919663 -0.3727232 -0.8344954
0002a0 b6 5b 4e bd 7f 37 03 c0 83 23 77 be 6a e6 46 3d
       -0.05038043 -2.0502622 -0.2413464 0.048559584
0002b0 99 ea 44 bf be 62 99 3c 83 0e bf 3e b1 63 60 3f
       -0.7692047 0.018723842 0.3731576 0.87652117
0002c0 2d 5f eb be 77 73 48 be 39 2c ca 3e 38 8f dd bc
       -0.4597105 -0.19575296 0.39486864 -0.027045831
0002d0 53 d1 d0 be 92 96 a8 be 02 21 6d bf 46 79 a0 bf
       -0.40784702 -0.32927376 -0.9262849 -1.253701
0002e0 ff 93 90 bf 9e 0f c8 bf e3 e9 2c 3f d0 d5 85 3f
       -1.1295165 -1.5629766 0.6754438 1.0455875
0002f0 0b b9 80 be be 2d c0 be c9 2a 9d bf 81 c7 1d bf
       -0.25141177 -0.375349 -1.2278682 -0.61632544
000300 93 97 1d 3f fa 46 75 bf b8 8e 9c 3f 6a d6 1c 3f
       0.6155941 -0.95811427 1.2231054 0.6126467
000310 8a fb e6 be 2e 0f 13 bf f9 e7 3c bf b5 e1 f0 bd
       -0.45113784 -0.5744504 -0.7379146 -0.117618
000320 d3 20 29 bf 8e e5 00 3f e1 09 15 3f 79 85 91 3e
       -0.6606571 0.5035027 0.582182 0.28422144
000330 16 a0 96 bf 27 bf 6e bf dd f9 5a 3f 7c b7 54 be
       -1.1767604 -0.93260425 0.8553751 -0.20773119
000340 73 c8 fd be 49 7c 4b bf e9 8d 2c 3e 61 9f d1 be
       -0.49566993 -0.7948652 0.1685101 -0.4094191
000350 82 b1 69 3f ec a2 93 bf 37 f3 82 3e 05 5e 85 be
       0.9128648 -1.1534095 0.25576183 -0.26048294
000360 7a 7a 04 3f 67 bd 5f bf c0 f4 9e be 76 f4 f3 3e
       0.51749384 -0.8739838 -0.31046104 0.47647446
000370 34 d8 4b 3f 5e 2f 72 3e d4 c2 72 bf 9e 69 52 be
       0.79626775 0.23650882 -0.94828534 -0.20548102
000380 61 70 05 c0 f4 83 a4 3d 78 0b c2 be c8 15 38 3f
       -2.084984 0.080329806 -0.37899375 0.71908236
000390 ce bc 79 bf be d8 34 3f a5 80 87 bf 4e 60 37 bf
       -0.9755372 0.7064322 -1.0586134 -0.71631324
0003a0 fe ea c0 bf 9b 22 a3 bf db 80 ee 3c 6c 02 ff bf
       -1.5071714 -1.2744936 0.029114177 -1.9922614
0003b0 a4 a2 21 c0 77 dc f9 3e 83 33 b7 3d b8 75 a9 be
       -2.5255518 0.48801014 0.08945372 -0.33097625
0003c0 ec 81 05 3f 17 10 df bf dc e9 de bf 03 c1 d4 be
       0.5215137 -1.7426785 -1.7415118 -0.41553506
0003d0 55 47 e6 bf af 73 df bd ec 7c 30 be a3 56 43 bf
       -1.7990519 -0.10910737 -0.17235154 -0.7630407
0003e0 48 19 ca 3e 91 9d 86 bf 59 96 29 bd 1e ef ce be
       0.39472413 -1.0516835 -0.04140315 -0.40416807
0003f0 47 e0 63 bf 9b b6 41 3e fe f2 08 bf 77 78 db be
       -0.89014095 0.18917315 -0.53495777 -0.42865345

network_body._body_endoder.seq_layers.2.bias f4 [64]
000000 0a 82 9b bf 05 3e cd bf a6 06 c9 be 4d c9 8b bf
       -1.214906 -1.6034552 -0.39262885 -1.0920807
000010 f2 60 15 be bc 53 8c bf e1 52 b8 bf 9d c3 fd bf
       -0.14587763 -1.0963054 -1.4400293 -1.9825321
000020 ff b8 47 bf 58 c1 47 bf 35 34 53 be 03 46 92 bf
       -0.78016657 -0.78029394 -0.20625384 -1.1427616
000030 c7 9f 8a bf 46 3a c7 bf c3 24 d3 3e be 35 7a bf
       -1.083001 -1.5564659 0.41238984 -0.97738254
000040 76 46 c7 bf f1 b0 9d be 6e e4 dc bf 31 75 b7 3e
       -1.5568378 -0.30799058 -1.7257211 0.35831597
000050 5b 87 9b bf 8c 56 af bf 90 c8 4f bf 17 48 2c 3e
       -1.2150682 -1.3698287 -0.8116541 0.16824375
000060 84 35 e9 be 92 3a 9f bf e9 62 91 bf 15 4a b4 be
       -0.45548642 -1.2439749 -1.135831 -0.3521277
000070 6e 72 8d be ee ca 81 bf 59 bf 73 bf fe dd 8f be
       -0.27626365 -1.0140054 -0.9521385 -0.28099054
000080 d8 8b d4 be 61 ba c9 bf 65 0a ef bf d4 3f 75 bf
       -0.41512942 -1.5760003 -1.8675047 -0.9580052
000090 91 8b 26 bf 22 5c 68 bf 98 22 c9 bf 94 f1 87 bf
       -0.6505671 -0.90765584 -1.5713682 -1.0620599
0000a0 f7 ec c7 be 60 02 cc bf 86 ff 20 bf 21 8a 29 be
       -0.39047977 -1.5938225 -0.628899 -0.16556598
0000b0 9b c0 b7 bf a9 1e f0 be 15 40 07 c0 68 30 4f bf
       -1.4355654 -0.46898392 -2.1132863 -0.8093324
0000c0 a8 49 07 c0 bf 50 aa be a5 c0 97 bf bf 37 ed be
       -2.1138706 -0.3326473 -1.1855665 -0.46331593
0000d0 db 64 60 bf fb 60 8f bf 9f f5 3b bf e2 72 9e bf
       -0.87653893 -1.1201471 -0.73421663 -1.237881
0000e0 0b 38 67 bf 42 15 7d bf e3 8b eb be c7 35 fb bf
       -0.9031989 -0.9886056 -0.46005163 -1.9625787
0000f0 62 72 94 bf 82 ac 37 bf c1 45 22 3e ee e8 51 bf
       -1.1597407 -0.717476 0.15846922 -0.8199605

action_model._discrete_distribution.branches.0.weight f4 [2, 64]
000000 ff 00 4e 3d c7 13 07 3f a1 14 9f 3d d4 5d 9e be
       0.05029392 0.5276455 0.077676065 -0.3093096
000010 e5 a5 d8 3d 22 ef 2e 3e 13 d7 85 be 1e c7 72 3d
       0.10578517 0.1708341 -0.2614065 0.059271924
000020 7c 34 2c 3c fb ea 93 3e ec e3 4e be 21 af a8 3e
       0.01051056 0.28890213 -0.20204133 0.32946113
000030 ef f0 a9 be 15 bf bb 3c 39 b7 63 3d f0 90 9c 3d
       -0.3319163 0.022918263 0.055594657 0.07644832
000040 05 1c a9 be 37 ef 3f be 16 89 26 3f 60 9f 07 be
       -0.3302919 -0.18743597 0.65052927 -0.1324439
000050 cf ac 03 bf 12 36 9d be 26 5d 18 be 3a 93 41 3d
       -0.5143556 -0.30705315 -0.14879283 0.047259547
000060 3a a2 b7 3b 65 7e 23 3e 6b 26 0a be e4 f6 c7 3e
       0.0056040557 0.15966184 -0.13491218 0.3905555
000070 df 13 79 be 55 e5 33 3e 83 3d 44 be 55 24 05 be
       -0.24323986 0.17567952 -0.1916409 -0.13002141
000080 8d 60 1b 3d a2 8b a2 3d 77 62 cd 3e 1a b6 99 3f
       0.037933875 0.07936789 0.40114185 1.2008698
000090 25 e0 37 bd 05 8c a6 3e a2 f4 5b ba 7d b0 50 be
       -0.044891495 0.325287 -0.000839064 -0.20379825
0000a0 8c 00 81 3d 5e f6 43 3d 70 20 18 be 77 4c 89 be
       0.062989324 0.047842376 -0.14856124 -0.2681615
0000b0 40 ac 5b 3f a1 4b d4 3d 5c 7e b3 3e 32 ba 46 3f
       0.8580971 0.103659876 0.35057342 0.7762786
0000c0 b5 b3 d4 be c0 46 b3 bd 7b dc f7 3e 49 c3 21 be
       -0.41543356 -0.08753729 0.484104 -0.15797152
0000d0 b1 90 11 be 64 68 3e bc 6c c8 dc 3d 0e 05 36 be
       -0.14215352 -0.011621568 0.10780415 -0.17775366
0000e0 cb 34 24 bc fd 97 1e bf 78 97 ec be 00 02 c3 bf
       -0.010022352 -0.61950666 -0.4620931 -1.5234985
0000f0 cd a5 16 be 28 4f fa bd 0f 9c bd bd 13 1b 12 be
       -0.14711685 -0.12222129 -0.092582814 -0.1426814
000100 9b 8b 81 bd dc 8a 05 bf bd c8 58 bd 51 6e a1 3e
       -0.06325456 -0.5216501 -0.052925814 0.31529477
000110 36 25 c9 bd cc 40 38 be a1 93 87 3e 52 6c 4d bd
       -0.098215505 -0.17993468 0.2647982 -0.05015213
000120 31 05 d0 ba d9 af 95 be f4 65 37 3e 4b 9d a9 be
       -0.0015870688 -0.29235724 0.17909986 -0.33127818
000130 b5 d7 ab 3e db e3 85 3b 20 dc ee bc 57 33 ac bd
       0.3356301 0.0040860004 -0.029157698 -0.0840823
000140 8e a9 ad 3e 73 41 52 3e 94 99 29 bf 95 c3 f9 3d
       0.33918422 0.2053278 -0.66249967 0.121955074
000150 db 54 02 3f 9f 89 98 3e fd 84 0a 3e ec 9f 65 bd
       0.5091073 0.29792497 0.13527294 -0.056060717
000160 78 94 2d bd e4 37 19 be 87 cf e5 3d 8f 1f cc be
       -0.04237792 -0.14962727 0.11221223 -0.39867827
000170 84 1d 85 3e 18 49 27 be 7d 98 1d 3e b6 c5 0a 3e
       0.2599908 -0.16336477 0.15390201 0.13551983
000180 aa a7 25 bd e9 3f 95 bd 11 27 bf be e5 79 9a bf
       -0.0404431 -0.072875805 -0.37334493 -1.2068449
000190 19 f4 8d 3c 69 53 ac be 87 0e c0 3c 85 8e 66 3e
       0.017328309 -0.33657387 0.023444427 0.22515304
0001a0 03 1c 49 bd a7 32 59 bd de 53 2a 3e e4 56 86 3e
       -0.04909898 -0.05302682 0.16633555 0.26238167
0001b0 2d c0 5c bf 5a ec d9 bd 06 0e aa be c1 4b 48 bf
       -0.86230737 -0.106407836 -0.33213824 -0.7824059
0001c0 87 f0 cc 3e 53 f9 af 3d b2 bb ea be c0 d9 00 3e
       0.40027258 0.08592477 -0.45846325 0.12583065
0001d0 ac ea 25 3e b0 da 5a bb b2 30 ea bd c0 7d 27 3e
       0.16202801 -0.0033394508 -0.11435069 0.16356564
0001e0 07 8a a7 3c 91 ea 20 3f 0a e4 e1 3e 58 b4 c5 3f
       0.020451559 0.6285792 0.44119292 1.5445662
0001f0 3f 8e 18 3e 4c e1 60 3d 3f 42 56 3d ca 56 19 3e
       0.14898013 0.05490236 0.05230927 0.14974514

action_model._discrete_distribution.branches.0.bias f4 [2]
000000 a2 cc a2 3f 98 cc a2 bf
       1.2718699 -1.2718687

action_model._discrete_distribution.branches.1.weight f4 [2, 64]
000000 6d 8c a3 be 5b c9 52 c0 76 ed 83 3e 9e 04 11 3d
       -0.31943074 -3.2935398 0.25767106 0.035404794
000010 ef 37 a9 bd 9c 33 f4 bd 8a f1 07 3e 7c a6 42 bf
       -0.082626216 -0.11923906 0.13275734 -0.76035285
000020 a1 99 d0 bc b6 bd 55 3f 34 f5 11 bd 44 69 bf bf
       -0.025463881 0.834926 -0.035634235 -1.4954
000030 7b e5 d7 3c 0e 3a 1f 3e 48 ae cd bc 90 f1 a6 be
       0.026354542 0.1554949 -0.025107518 -0.32606173
000040 90 18 b2 bf 9a bd ac 3d 57 07 5e bf b0 09 26 3d
       -1.3913746 0.08434601 -0.8672995 0.040536582
000050 1b 94 98 3e c8 23 ad bf 53 ad 25 3e c5 9c 02 3e
       0.29800496 -1.3526545 0.16179399 0.12755115
000060 f1 de 95 be c8 10 dd 3e 78 b0 1d be 63 70 0c bf
       -0.29271653 0.43176866 -0.15399349 -0.5485899
000070 c4 e2 15 3e 46 14 04 3e 58 4e 2a 3f 4d 15 2f bb
       0.14637285 0.12898359 0.66525793 -0.0026715577
000080 60 ef 1c 3d 14 f9 0a 3e f0 04 bc 3d a4 62 0d bf
       0.038314223 0.13571578 0.09180629 -0.5522864
000090 91 f2 1b 3e 19 a4 06 be f5 9f b5 3d db 9f 3b 3e
       0.1522925 -0.13148536 0.088684 0.18322699
0000a0 dc e7 4b bf 34 33 98 3d 85 cd 54 be f9 fd be 3d
       -0.79650664 0.07431641 -0.20781524 0.09325785
0000b0 32 26 e0 bf 58 3d 2f 3e 4d fd 02 c0 ca 61 c3 bf
       -1.7511656 0.17113245 -2.0467103 -1.5264218
0000c0 d6 f6 0b bf 70 f8 98 be 75 bc 59 be 67 c5 5c 3e
       -0.54673517 -0.29877043 -0.21263297 0.21559678
0000d0 32 d0 4f 3e 43 b8 30 3e c8 6d 22 bd d3 c8 03 bf
       0.20294264 0.1725779 -0.039655477 -0.5147831
0000e0 74 c6 d2 be 9c f0 7a 3e 0a 33 24 be 7e 7d 57 3d
       -0.41167033 0.24505848 -0.16035095 0.052609913
0000f0 10 c6 09 c0 45 cf 08 3e a6 2f c7 bd 9d 6b d1 3c
       -2.1527138 0.13360317 -0.09725885 0.02556401
000100 be 48 9e 3e af 69 53 40 68 cb 87 be 39 fa e4 bc
       0.30914873 3.3033254 -0.26522374 -0.027951347
000110 ce 65 9f 3d 9e 38 e7 3d 7d 32 02 be bc de 47 3f
       0.077830896 0.11290096 -0.12714572 0.7807424
000120 6b d9 35 3d 9d b1 57 bf c4 36 13 3d c1 08 c0 3f
       0.0443968 -0.8425539 0.0359409 1.5002671
000130 b9 af 65 bd a5 15 57 be 0f 65 85 3b c2 18 a9 3e
       -0.056075785 -0.2100435 0.004070885 0.330267
000140 99 f5 b5 3f bd d6 9d bd c7 73 65 3f a2 bd 9d bc
       1.4215575 -0.07706974 0.8962979 -0.019255463
000150 75 d7 9d be fa 4d ad 3f ac 46 33 be 9c ba fc bd
       -0.30828443 1.3539422 -0.17507428 -0.123402804
000160 d0 ee 98 3e 43 98 de be f0 37 28 3e b9 cd 0f 3f
       0.298697 -0.4347554 0.16427588 0.5617328
000170 d5 f2 17 be 03 93 ed bd b9 2f 28 bf c3 16 72 bc
       -0.14838727 -0.11600306 -0.6569782 -0.014775935
000180 91 cf d6 bc 2b 57 10 be c3 95 c5 bd 46 a9 09 3f
       -0.026222022 -0.14095752 -0.096477054 0.53773916
000190 41 6d f0 bd a1 29 f5 3d 01 80 ae bd b1 ee 56 be
       -0.117395885 0.11970831 -0.085205086 -0.20989491
0001a0 09 0e 43 3f 12 5d 73 bd d4 52 59 3e bf 68 32 bd
       0.7619329 -0.05941493 0.21223003 -0.043556925
0001b0 b5 53 e2 3f 64 c9 1a be b4 69 02 40 b2 12 c2 3f
       1.7681795 -0.15115887 2.0377016 1.5161955
0001c0 6b 93 0e 3f 25 f3 96 3e f4 df 63 3e 4a 90 45 be
       0.5569369 0.2948238 0.222534 -0.19293323
0001d0 9b b3 58 be 0a d5 29 be 68 b2 c0 3c a5 d4 01 3f
       -0.21162264 -0.16585174 0.02352257 0.50715095
0001e0 34 bd da 3e 0e c5 85 be fe b1 33 3e 31 bb 59 bd
       0.42722476 -0.26126903 0.17548367 -0.053157035
0001f0 41 10 0b 40 dc af 1c be b5 dd cf 3d 9a a0 87 bc
       2.172867 -0.1530146 0.10149709 -0.016556073

action_model._discrete_distribution.branches.1.bias f4 [2]
000000 9f f4 57 bf ae f4 57 3f
       -0.8435764 0.84357727

action_model._discrete_distribution.branches.2.weight f4 [2, 64]
000000 2e d6 b1 3e a7 fb f2 bb d7 7e 40 3d 05 ad fb 3d
       0.3473372 -0.007415253 0.046995964 0.1228886
000010 d6 77 53 3e 52 94 88 3c 16 12 95 bc d3 67 fc be
       0.20651183 0.016672287 -0.0181971 -0.49297962
000020 79 ba 52 3e e1 e7 30 be ea 25 67 3d 52 50 b0 be
       0.20578946 -0.17275955 0.056432642 -0.3443628
000030 2a 34 32 be 1f f3 94 bf df e8 76 3e 41 f8 1c be
       -0.17402712 -1.1636695 0.24112271 -0.15329076
000040 e9 7e 2e c0 f6 f9 ae 3e 38 77 ab 3f 1f 2c 15 3e
       -2.726496 0.3417508 1.3395758 0.14567612
000050 9d 6b b0 3f ec 2e e4 3d ca f6 8e 3e 2d a1 02 3e
       1.3782841 0.11141762 0.2792266 0.12756796
000060 b6 49 54 be d3 89 27 3d af 43 d4 be 02 96 d5 3d
       -0.20731243 0.040902924 -0.41457888 0.10429002
000070 92 5c b3 3d 1f 11 78 bc 97 24 40 3f b6 7c 5b 3d
       0.08757891 -0.015140801 0.7505583 0.05358573
000080 3f 12 35 3e 02 76 e1 bd a0 8a 87 39 1a 58 12 3f
       0.17682742 -0.11008836 0.0002585249 0.5716568
000090 98 1d 94 be c8 e3 4c 3e c5 d1 84 be 20 1b 8f be
       -0.28928828 0.20008767 -0.2594129 -0.27950382
0000a0 ca eb f3 be 37 e9 06 bf bf 2d da 3c da 25 e3 3d
       -0.4764083 -0.5269961 0.026633142 0.11091204
0000b0 b0 80 0d 3f 32 7e 22 3e 85 eb bf 3d db 37 cb be
       0.55274487 0.15868452 0.09371094 -0.39691052
0000c0 ba d9 c0 be 03 39 ad 3d e3 76 90 3e a3 31 d0 3d
       -0.37666112 0.0845814 0.28215703 0.101657175
0000d0 08 ca 9b bd 3d ef 39 be de 1c 43 3e f0 6e c4 be
       -0.07606894 -0.18157668 0.1905398 -0.3836589
0000e0 fb b6 77 3f 9b c0 bc 3e b3 59 82 3e 08 0b 37 3c
       0.9676358 0.36865696 0.2545906 0.011172064
0000f0 a0 36 21 c0 52 62 d2 be 6b d6 22 3e f6 54 2b 3e
       -2.518959 -0.41090637 0.15902106 0.16731629
000100 2c 76 a8 be db 19 5c 3c 1b f7 5b bd b3 35 fd bd
       -0.32902658 0.013433899 -0.053702455 -0.12363758
000110 71 70 53 be 8f 5d 5e bc 8b de 4c 3c 79 af 03 3f
       -0.20648362 -0.013572111 0.01250423 0.51439625
000120 65 53 82 be c4 28 39 3e cd fb 57 bd eb 40 b9 3e
       -0.2545425 0.18081957 -0.05273037 0.3618234
000130 a1 48 0c 3e 00 ed 97 3f 2c 43 85 be 31 4f 26 3e
       0.1369958 1.1869202 -0.2602781 0.16241147
000140 8f e4 2f 40 19 f4 b8 be 7c af ab bf 54 79 00 be
       2.748325 -0.36123732 -1.3412929 -0.12546283
000150 0e 54 b3 bf b4 0a bf bd a1 ff 98 be e4 a0 fb bd
       -1.4010026 -0.09328213 -0.2988253 -0.12286547
000160 45 95 62 3e b2 8a 52 bd 46 4a d0 3e 39 5c bb bd
       0.22127254 -0.0514018 0.40681666 -0.091484495
000170 8a 73 e3 bd ae c0 2b 3c 03 dd 3f bf 7a a7 6a bd
       -0.11106022 0.01048295 -0.7494661 -0.057288624
000180 11 45 3c be 06 41 08 3e c4 90 ed 3c 63 85 14 bf
       -0.18385722 0.13306054 0.028999694 -0.5801603
000190 69 ee 94 3e d3 93 48 be 40 31 87 3e 75 64 9b 3e
       0.29088143 -0.1958764 0.26404762 0.3035008
0001a0 90 1e 01 3f 4f 32 0b 3f 86 eb 39 bc 6c 3c e0 bd
       0.5043726 0.5437364 -0.011347657 -0.109490246
0001b0 43 8c 19 bf 5a 11 07 be 16 81 be bd 39 12 bb 3e
       -0.5997965 -0.13190213 -0.09301965 0.3653734
0001c0 fe 83 b9 3e 79 da b6 bd fc a9 8e be 4f 7c 99 bd
       0.36233515 -0.08928389 -0.27864063 -0.07494413
0001d0 2b 1a b4 3d 3a ed 3c 3e 50 30 50 be 76 e1 c4 3e
       0.08794054 0.1844987 -0.2033093 0.38453263
0001e0 0e 7c 70 bf bc 89 c8 be 20 ae 6f be 09 27 11 bc
       -0.9393929 -0.39167583 -0.23406267 -0.008859404
0001f0 df f9 21 40 be a5 dd 3e 47 87 11 be 20 5d 2e be
       2.530876 0.43290514 -0.1421176 -0.17027712

action_model._discrete_distribution.branches.2.bias f4 [2]
000000 03 8e b5 bf 0f 8e b5 3f
       -1.4183964 1.4183978

exp_avg f4 [64, 63]
000000 d5 da 59 39 3f 34 d6 37 40 97 5f b9 5b b8 69 b9
       0.00020776254 2.5535117e-05 -0.00021323282 -0.0002228929
000010 b8 ff c4 39 f9 04 77 37 e3 e1 c3 b9 85 f9 a6 b9
       0.00037574559 1.4723505e-05 -0.00037361597 -0.00031847894
000020 c7 87 6a 39 c5 1d b8 37 32 f5 6f b9 22 fe 7b b9
       0.0002236656 2.1948372e-05 -0.00022884159 -0.00024031897
000030 41 b4 04 39 06 a9 d7 37 62 8d 0b b9 fa bc 0d b9
       0.00012655651 2.5708705e-05 -0.00013308742 -0.00013517207
000040 a7 52 db 38 ee 54 93 37 29 dc e7 b8 3c 2e dd b8
       0.00010458129 1.7563314e-05 -0.000110559464 -0.00010546713
000050 00 49 58 39 5f fa d3 37 00 94 5b b9 9e 16 3d b9
       0.0002062656 2.5269748e-05 -0.00020940602 -0.0001803287
000060 80 d6 b7 38 b5 73 8d 37 70 be c6 b8 23 e0 c8 b8
       8.766074e-05 1.686239e-05 -9.4768475e-05 -9.578492e-05
000070 73 6f 1f b9 4e c2 e6 b7 ee 49 26 39 65 d0 23 39
       -0.0001520494 -2.7508617e-05 0.00015858535 0.00015622524
000080 a0 e4 88 b9 27 b7 93 39 07 b4 03 39 5d 64 20 38
       -0.0002611028 0.00028174484 0.00012560199 3.8240443e-05
000090 63 70 52 b9 73 d7 92 38 63 a3 1d 39 96 7e 89 38
       -0.00020069028 7.001953e-05 0.00015033553 6.5562475e-05
0000a0 ed 48 3a b9 f7 2b 3e 39 d4 78 0f 38 c7 bc a3 38
       -0.00017765509 0.0001813619 3.4206387e-05 7.807608e-05
0000b0 4b 53 9f b8 92 ce b6 b8 85 c1 d5 38 b7 f7 d2 b5
       -7.597225e-05 -8.716913e-05 0.00010192677 -1.5718314e-06
0000c0 a1 16 46 b9 aa 33 46 39 27 cb e4 36 dc 89 cf 38
       -0.00018891181 0.00018901998 6.8185795e-06 9.8962075e-05
0000d0 b0 af b2 36 d4 27 7a b8 bd 88 4d 39 48 95 ac 37
       5.325266e-06 -5.9641738e-05 0.00019601262 2.0573512e-05
0000e0 32 ac 81 b7 6c fd 7c 39 a7 f1 82 b7 bc 82 a0 38
       -1.5458183e-05 0.00024127 -1.5609736e-05 7.653746e-05
0000f0 02 19 b9 38 01 b6 6c 39 fd 3c 16 39 14 44 94 b8
       8.8261455e-05 0.00022574516 0.00014327835 -7.0698705e-05
000100 c2 e6 e7 36 19 0d 8f 38 2b 45 96 38 f7 9e 21 b9
       6.9112e-06 6.821211e-05 7.165441e-05 -0.00015413376
000110 2d 2d d0 36 8b ed 1d 39 f3 8c c6 38 de 64 08 b8
       6.204142e-06 0.00015061178 9.4676296e-05 -3.2518867e-05
000120 43 35 a0 36 fa 14 04 38 9f ba d6 37 20 e7 a3 b7
       4.774572e-06 3.149079e-05 2.559769e-05 -1.953874e-05
000130 41 ec d4 36 3c f1 91 37 31 ae 09 b7 8e b4 10 b9
       6.345596e-06 1.739768e-05 -8.206393e-06 -0.00013800172
000140 eb 47 4b 36 de 7b 0f 39 d4 89 e8 38 a5 08 85 38
       3.029122e-06 0.00013683687 0.000110882946 6.3435444e-05
000150 0b ed ce 36 53 94 83 b8 fd 2b 86 b8 69 7f 12 37
       6.166874e-06 -6.274194e-05 -6.3978114e-05 8.731943e-06
000160 10 21 38 36 69 3a 17 b7 89 04 4b b6 00 f4 70 39
       2.7437382e-06 -9.013901e-06 -3.0251997e-06 0.0002297908
000170 7d 7e 70 37 48 87 70 b9 e3 3e 63 b9 db 2c 25 39
       1.4334565e-05 -0.0002293858 -0.00021671834 0.00015752336
000180 43 0b dd b8 a4 93 e8 b8 7a 5c 73 b9 49 68 82 39
       -0.00010540199 -0.00011090122 -0.00023208736 0.0002487323
000190 e0 9e 55 37 8c 83 97 b9 ba 81 9f b9 61 e5 a7 39
       1.273278e-05 -0.00028898974 -0.00030423497 0.00032023623
0001a0 55 7e c6 b9 60 fa 83 37 72 e7 a6 b9 69 83 3b 39
       -0.00037859628 1.5733007e-05 -0.00031834428 0.00017882664
0001b0 df e9 3d 37 b4 8a 76 b9 29 df 82 b9 30 d4 4c 39
       1.131973e-05 -0.00023512059 -0.000249618 0.00019534002
0001c0 f2 24 4e b9 2c 96 3c 36 01 bc 77 b9 d4 eb c3 37
       -0.00019659454 2.8101595e-06 -0.00023625793 2.3355627e-05
0001d0 08 4c 17 37 c7 fe c6 b8 22 53 59 b9 52 0a 72 39
       9.018004e-06 -9.488832e-05 -0.00020725702 0.00023082763
0001e0 35 2c 65 b8 b5 b2 86 38 98 af 97 b9 14 9d 90 b9
       -5.4639026e-05 6.422905e-05 -0.00028931792 -0.00027582853
0001f0 15 b7 6c b7 93 c2 6a b9 5d 7d 9f 39 da 40 dd 37
       -1.4109323e-05 -0.00022388464 0.00030420246 2.6375452e-05
000200 f0 84 a0 b9 54 bf ab b9 53 04 66 39 9d 41 da 37
       -0.00030616624 -0.00032758212 0.0002193612 2.6018179e-05
000210 f4 c3 68 b9 90 b1 91 b9 09 0b a9 39 5d d9 bd 37
       -0.00022198242 -0.0002778885 0.00032242414 2.2631773e-05
000220 a3 3a aa b9 08 7c b5 b9 1d 1a b0 39 9d 1a f9 37
       -0.00032468615 -0.0003461542 0.00033588792 2.9695506e-05
000230 57 2d b0 b9 d9 60 b7 b9 b1 1a a0 39 f9 1f 84 37
       -0.00033603117 -0.00034976637 0.00030537465 1.5750515e-05
000240 91 db a0 b9 67 db a8 b9 a9 ca ba 39 cc cc f2 37
       -0.00030681168 -0.00032206925 0.00035627678 2.8944014e-05
000250 ae 6a b8 b9 84 b8 ba b9 5b 88 d2 39 1b 1e 74 37
       -0.00035174697 -0.0003561416 0.00040155914 1.4550543e-05
000260 5c b0 d2 b9 55 28 dc b9 f9 e6 3f ba 0d 1a 58 38
       -0.0004018572 -0.0004199172 -0.00073204894 5.1522675e-05
000270 a3 45 35 3a 4d e2 e1 39 a2 8e 02 b9 a0 8e 40 b8
       0.0006914979 0.00043083951 -0.00012450901 -4.5909197e-05
000280 74 8b 25 39 79 71 53 39 b8 2f 7f b8 b2 63 56 b8
       0.00015787577 0.000201648 -6.084118e-05 -5.1114424e-05
000290 0c da 9d 38 4a 0f b4 b9 e5 92 3f b8 27 83 de 36
       7.526958e-05 -0.00034343667 -4.5674755e-05 6.6313837e-06
0002a0 38 13 90 38 cb 5c 31 39 f3 88 59 b8 66 b5 40 38
       6.870035e-05 0.00016914603 -5.1864376e-05 4.5945308e-05
0002b0 55 5b 8c 37 02 42 82 b9 f3 3d b4 b8 c3 3b b2 38
       1.673183e-05 -0.00024844712 -8.594608e-05 8.498833e-05
0002c0 f8 d2 45 37 fb 59 22 39 28 68 39 b8 b6 ab fe 37
       1.1791235e-05 0.00015483044 -4.420444e-05 3.0359119e-05
0002d0 4d c4 ef 37 27 c9 87 b9 61 69 4b 38 e9 47 d4 39
       2.858243e-05 -0.00025899077 4.8497113e-05 0.00040489368
0002e0 a7 23 91 b9 21 74 91 38 f4 ae 01 39 89 d5 93 39
       -0.00027683118 6.9357695e-05 0.00012367574 0.0002819712
0002f0 cc e4 94 39 a9 52 39 39 55 3f 8a 38 c3 9e 53 b9
       0.00028399227 0.00017673768 6.592149e-05 -0.00020181671
000300 32 7a 5f b9 d2 4d da 36 ff f3 4e 37 51 5a 19 b7
       -0.00021312459 6.5059658e-06 1.2335367e-05 -9.140539e-06
000310 fa f1 a1 b8 da 59 7a 39 15 0f fb b7 7a f9 66 b9
       -7.72215e-05 0.0002387533 -2.9928555e-05 -0.00022027447
000320 d4 12 63 b9 51 63 37 39 c1 c3 ce b7 8b 86 20 b9
       -0.00021655421 0.00017489238 -2.4648269e-05 -0.0001530891
000330 5c f5 3a b9 0f 5a 62 39 64 5b 01 b8 1a 31 4c b9
       -0.00017829746 0.00021586589 -3.084111e-05 -0.00019473248
000340 5d 1b 4c b9 0b e7 50 39 74 90 d1 b7 27 f0 31 b9
       -0.0001946515 0.00019922496 -2.4982008e-05 -0.00016969499
000350 21 e8 46 b9 74 58 50 39 96 97 03 b8 39 11 35 b9
       -0.00018969226 0.00019869377 -3.137401e-05 -0.00017267921
000360 a0 36 3b b9 c5 5b 9e b9 5f 88 73 b8 61 1c a6 39
       -0.00017854059 -0.00030204482 -5.806272e-05 0.0003168313
000370 b8 c8 a0 39 89 8e 43 b8 d0 f7 85 b9 6d db 45 39
       0.00030667125 -4.662437e-05 -0.00025552372 0.00018869127
000380 4d 08 80 38 b8 19 be 38 81 82 6b 36 03 7b 67 b8
       6.105062e-05 9.0646965e-05 3.5093692e-06 -5.5189255e-05
000390 67 60 53 37 b2 cd 50 37 f0 04 b5 b7 57 77 36 37
       1.25990255e-05 1.2445658e-05 -2.157918e-05 1.0875831e-05
0003a0 f4 81 ef b6 58 30 ee 38 64 f3 c3 37 ae b7 d6 b8
       -7.1378836e-06 0.00011357729 2.3359149e-05 -0.00010238528
0003b0 73 ac 33 b8 f8 43 fc 38 38 d0 fe b8 47 28 ba 36
       -4.283753e-05 0.000120289566 -0.000121504476 5.547921e-06
0003c0 3b 21 b6 38 c7 ce d6 36 4f 69 36 36 d4 a6 2c b8
       8.684626e-05 6.401769e-06 2.718141e-06 -4.1163366e-05
0003d0 0a 09 b4 b8 57 6b 58 39 cf c5 bc 37 f7 58 28 38
       -8.5847525e-05 0.00020639352 2.2503458e-05 4.0137176e-05
0003e0 e8 19 3d b8 67 5c 4c 38 da 08 aa b8 59 bc 1b b9
       -4.508524e-05 4.8723447e-05 -8.1078804e-05 -0.00014852117
0003f0 57 7f f6 38 21 16 36 b8 3b 80 d4 b8 ff 7e ba b8
       0.00011753913 -4.341279e-05 -0.000101328325 -8.892826e-05

exp_avg_sq f4 [64, 63]
000000 6c ee 1e 36 00 fa f0 35 8a db 2e 36 20 f4 2d 36
       2.3682614e-06 1.7954153e-06 2.605581e-06 2.5921108e-06
000010 b2 d0 2e 36 28 d0 53 33 5d 83 2e 36 0d 7a 32 36
       2.6049497e-06 4.9316583e-08 2.6004484e-06 2.659511e-06
000020 c1 f3 1a 36 9e 8d c5 33 8f b9 1c 36 f3 fd 24 36
       2.3089672e-06 9.1992874e-08 2.335382e-06 2.4585722e-06
000030 10 16 64 36 b4 1f 5d 33 a2 94 5b 36 9a 13 56 36
       3.398749e-06 5.1484406e-08 3.2720059e-06 3.1899895e-06
000040 fa e1 07 36 aa 06 97 33 0c d0 08 36 2d 52 0d 36
       2.0248103e-06 7.0326976e-08 2.0386678e-06 2.105847e-06
000050 ba fb 8c 36 5a 02 aa 33 25 e2 82 36 ed 70 81 36
       4.20163e-06 7.9166696e-08 3.9006286e-06 3.857646e-06
000060 54 5b f7 35 54 d2 78 32 6e 6f f5 35 ff 3c 00 36
       1.8429514e-06 1.4483323e-08 1.8286353e-06 1.910899e-06
000070 c5 6c 29 37 f8 c2 c1 36 90 c6 13 37 50 64 8e 37
       1.009851e-05 5.7745456e-06 8.808114e-06 1.697443e-05
000080 c1 88 21 37 57 3f f5 36 54 d5 42 37 b5 c2 05 37
       9.628188e-06 7.3089427e-06 1.161297e-05 7.9727515e-06
000090 8e d3 7c 36 cc 58 08 37 6a 84 40 36 5e ce 25 36
       3.7674067e-06 8.126906e-06 2.8687305e-06 2.4707037e-06
0000a0 44 5a 8c 36 cd ba b4 36 f9 6c 08 35 0d 65 80 36
       4.1828334e-06 5.3861645e-06 5.0822524e-07 3.826461e-06
0000b0 09 b0 93 36 ce f2 9c 36 c5 12 91 36 d7 34 9c 36
       4.4014346e-06 4.6774285e-06 4.323522e-06 4.6553137e-06
0000c0 76 97 95 36 9d e4 96 36 98 a4 82 33 a4 1b a0 36
       4.4581784e-06 4.4969624e-06 6.083536e-08 4.7715894e-06
0000d0 d6 36 89 36 2f fc 27 35 39 40 c7 36 88 06 e1 36
       4.089302e-06 6.2579323e-07 5.9381387e-06 6.706283e-06
0000e0 4d 7e 8e 36 b7 c0 ca 36 e7 b6 2e 36 cb 3a 6d 36
       4.246633e-06 6.042504e-06 2.6034484e-06 3.5349974e-06
0000f0 a3 b0 93 36 29 29 ad 36 32 70 ee 36 92 56 75 35
       4.4015046e-06 5.1605934e-06 7.106014e-06 9.139559e-07
000100 ef 45 32 33 b7 04 74 35 19 b7 7e 35 24 a0 d5 35
       4.150746e-08 9.0903944e-07 9.4888816e-07 1.5916344e-06
000110 18 a5 42 32 fd d6 ce 35 ad 9f da 35 c2 f6 40 35
       1.1329824e-08 1.5410766e-06 1.6288737e-06 7.1884654e-07
000120 2c 87 de 31 29 15 41 35 37 c3 4e 35 30 0c 08 36
       6.4764176e-09 7.1928895e-07 7.7025055e-07 2.0272673e-06
000130 7a d8 6b 32 8f 4d 00 36 53 ce e3 35 b8 dd 50 35
       1.3728021e-08 1.9118631e-06 1.6972866e-06 7.780868e-07
000140 49 26 6a 31 ad 86 4e 35 50 e8 49 35 25 e8 3e 35
       3.4073244e-09 7.693696e-07 7.5216394e-07 7.111833e-07
000150 a9 4d 60 32 5c 3b 33 35 8c 6e 3b 35 f4 5c 63 35
       1.3056174e-08 6.6769076e-07 6.9823795e-07 8.4699354e-07
000160 ce 63 47 31 31 02 5f 35 e0 1d 4d 35 2d a0 08 36
       2.9015044e-09 8.307716e-07 7.6411925e-07 2.0358814e-06
000170 9f 6f 63 35 cf 5c fa 35 17 92 b9 36 80 09 e9 35
       8.472652e-07 1.8653462e-06 5.5304367e-06 1.7362618e-06
000180 0e 9f ee 36 24 39 7f 35 c7 6a ce 35 9d ea 69 36
       7.111469e-06 9.5078053e-07 1.5379272e-06 3.4856268e-06
000190 8a ec 85 33 c3 21 a3 36 c0 15 7d 36 d9 34 97 36
       6.236321e-08 4.861709e-06 3.7712598e-06 4.506303e-06
0001a0 9c 3b df 36 5a 71 82 34 dd f6 80 35 e5 a1 9f 36
       6.6528573e-06 2.429686e-07 9.60859e-07 4.7574163e-06
0001b0 04 2f 88 34 20 a1 f2 36 d1 08 bf 36 ee 38 b2 36
       2.5366182e-07 7.2309194e-06 5.69327e-06 5.311441e-06
0001c0 21 79 b4 36 95 e8 c1 31 0c 8e 98 35 e6 0f 84 36
       5.3785193e-06 5.643481e-09 1.1366224e-06 3.9357574e-06
0001d0 14 5a d6 32 90 51 cd 36 e7 4c c2 36 15 92 3e 36
       2.4953842e-08 6.118971e-06 5.790603e-06 2.8397237e-06
0001e0 86 60 e1 35 80 0f b4 35 7e 06 1e 36 ee 6e 1f 36
       1.6791898e-06 1.3415556e-06 2.3547614e-06 2.3757416e-06
0001f0 54 55 01 36 1a 98 2b 36 3a 84 a4 36 f7 a6 6e 33
       1.9272165e-06 2.556952e-06 4.902974e-06 5.5565547e-08
000200 69 f9 a1 36 17 3b c7 36 90 b8 b5 36 ab 34 53 33
       4.827209e-06 5.937541e-06 5.4157063e-06 4.9175167e-08
000210 62 89 b1 36 05 53 d4 36 aa 4a a3 36 37 48 0d 33
       5.2910045e-06 6.327757e-06 4.8664706e-06 3.28948e-08
000220 e2 ec a1 36 fc 0b ca 36 72 fe 01 37 6b 95 7f 33
       4.8257507e-06 6.0214643e-06 7.748242e-06 5.950771e-08
000230 ee 4e f6 36 54 6c 08 37 c2 13 dc 36 10 e4 0b 33
       7.34056e-06 8.131454e-06 6.558811e-06 3.257088e-08
000240 6a 91 d9 36 2d 27 f8 36 1c a6 3f 37 02 53 a4 33
       6.4840324e-06 7.3955366e-06 1.14231625e-05 7.651944e-08
000250 30 20 2f 37 51 1b 39 37 73 09 28 37 64 bc 3f 32
       1.0438307e-05 1.1033219e-05 1.001578e-05 1.1160498e-08
000260 f5 09 25 37 7d f1 2d 37 00 1a eb 36 ab 67 94 35
       9.837085e-06 1.0367829e-05 7.0065726e-06 1.1057031e-06
000270 08 45 de 36 71 35 99 37 96 ba b6 36 90 50 53 37
       6.624152e-06 1.8263907e-05 5.445744e-06 1.25953375e-05
000280 96 67 82 36 44 d1 a1 36 f9 ce c5 36 fa 31 5d 36
       3.886361e-06 4.8225356e-06 5.8951523e-06 3.2960656e-06
000290 8b 97 e0 36 6e be f0 36 31 70 c4 36 02 e4 02 37
       6.693362e-06 7.1747263e-06 5.854316e-06 7.801691e-06
0002a0 d3 b5 b6 34 66 5b 35 36 0e de c1 36 6f 8d 29 34
       3.4032436e-07 2.7024303e-06 5.777699e-06 1.5790805e-07
0002b0 6c 80 dc 36 9d cb ec 36 c4 21 de 36 e9 38 e0 36
       6.571461e-06 7.057052e-06 6.6200464e-06 6.6823454e-06
0002c0 77 91 2d 32 8d f4 38 36 9d 64 68 36 7e 43 78 34
       1.0103e-08 2.7560484e-06 3.4629259e-06 2.3121353e-07
0002d0 f4 e3 1b 36 92 cb 86 36 8c 4b cc 36 4a 1c f8 36
       2.3229486e-06 4.01721e-06 6.0884686e-06 7.3942692e-06
0002e0 c9 75 92 36 31 0b 87 36 40 e1 c1 36 1c 99 01 37
       4.364851e-06 4.0246164e-06 5.7780708e-06 7.724648e-06
0002f0 4e 09 11 37 7e f0 ce 35 4f 52 8f 34 34 df d0 35
       8.64484e-06 1.5418188e-06 2.6695713e-07 1.5562168e-06
000300 b7 f9 eb 35 12 c9 c9 35 eb 00 05 34 5d c6 c8 35
       1.7581541e-06 1.5034186e-06 1.2386924e-07 1.4958893e-06
000310 fa 53 d4 35 30 e1 ee 35 90 f8 f7 33 af a9 ed 35
       1.5819671e-06 1.779792e-06 1.1547047e-07 1.770726e-06
000320 47 28 ff 35 87 71 10 36 e1 4f 03 34 4d fa 0a 36
       1.9010703e-06 2.1523754e-06 1.2229386e-07 2.0709297e-06
000330 10 79 0c 36 ce 1f 18 36 95 57 3e 34 cc da 18 36
       2.0932093e-06 2.2668278e-06 1.7726991e-07 2.2777122e-06
000340 32 a3 15 36 69 79 81 36 f6 94 05 34 5f cf 6e 36
       2.2297722e-06 3.8586336e-06 1.2440782e-07 3.558547e-06
000350 5c 13 69 36 c4 a6 28 36 36 c0 ef 33 de 48 28 36
       3.4730974e-06 2.5131021e-06 1.1164268e-07 2.5076365e-06
000360 b8 40 35 36 52 1e 83 36 6f 8b b2 36 1f df 71 36
       2.7008773e-06 3.907634e-06 5.3210456e-06 3.6041672e-06
000370 c2 cf 2e 37 e5 69 8d 36 cf 93 6a 37 42 e1 5f 36
       1.0419581e-05 4.214455e-06 1.3981901e-05 3.3360707e-06
000380 e9 8b 48 36 dc e5 b7 36 9b 98 d3 36 64 41 dc 36
       2.988376e-06 5.480584e-06 6.3060556e-06 6.5641234e-06
000390 d0 91 b1 36 46 36 b5 36 2a f8 01 37 81 3f 29 35
       5.291986e-06 5.4005386e-06 7.746779e-06 6.3049816e-07
0003a0 66 e6 8f 35 7a d5 20 37 65 97 bf 36 d7 c3 52 37
       1.0721385e-06 9.586447e-06 5.709868e-06 1.2562573e-05
0003b0 90 cf 2f 37 9a b8 1a 37 25 d4 1c 37 88 32 fc 31
       1.047914e-05 9.222096e-06 9.347718e-06 7.33991e-09
0003c0 22 33 87 35 c7 93 1c 37 a2 17 e1 35 c0 6e 08 37
       1.0073165e-06 9.332732e-06 1.6770684e-06 8.132018e-06
0003d0 d1 5b 1b 37 d6 03 a8 36 ee ad 46 36 60 40 c4 35
       9.260098e-06 5.0072367e-06 2.960554e-06 1.4621874e-06
0003e0 d1 0f 5c 36 82 94 7c 36 ec 72 77 36 76 02 03 37
       3.279176e-06 3.763737e-06 3.6872761e-06 7.808781e-06
0003f0 93 a9 14 36 62 18 9c 35 37 fe 23 36 ac b2 19 36
       2.2152424e-06 1.1630002e-06 2.4436865e-06 2.2902777e-06
