Assets/_created_block_bigger_gradual_reward_increased_length_continuous_dynamics_Added_checkpoint_ontriggerenter_Renaming_sensor_beta_0.003_increased_rewards_corrected_blocker/competitor/competitor-14461738.pt (torch, 238430 bytes, 70 tensors)

discrete_act_size_vector f4 [1, 3]
00000000: 0000 0040 0000 0040 0000 0040
2.0 2.0 2.0

network_body.observation_encoder.processors.0.normalizer.running_mean f4 [28]
00000000: bc69 6f3e c4e6 ff3b 5225 423f 7024 4b3f
00000010: ab41 553e d59f f13b 49cb 483f 282e 503f
00000020: 3f07 6b3e 009b 993b f60a 443f 313c 4d3f
00000030: 774d 0e3e b858 fe3b 0071 5a3f 4117 5e3f
00000040: 6cc3 143e 9108 f73a 9b52 5a3f c8db 5d3f
00000050: 67ab ac3d 58b3 ef3b 8788 683f aeb4 6a3f
00000060: d209 bb3d d3eb c63a a43b 683f 8215 6a3f
0.23380178 0.007809492 0.75838196 0.79352474 0.20825832 0.00737379 0.7843519 0.8132043
0.22951983 0.004687667 0.76579225 0.8016997 0.13896738 0.007762041 0.85328674 0.8675423
0.14527673 0.0018847157 0.85282296 0.86663485 0.0843113 0.0073150806 0.90833324 0.91681945
0.091327325 0.0015176482 0.90716004 0.9143907

network_body.observation_encoder.processors.0.normalizer.running_variance f4 [28]
00000000: 731c 1e4a 34dd da47 6cbc 214a 8e84 f249
00000010: 5b8d 114a f7b9 ce47 1d4b 154a 3607 e549
00000020: ca17 1c4a fed5 8347 fd4c 1e4a e510 ea49
00000030: 6e3d d349 b488 d947 3ffc dc49 c254 b649
00000040: 2a2e db49 6241 d446 5f8e dd49 4ec3 b749
00000050: e149 8849 2517 cd47 0fec 9249 dcc4 7449
00000060: 7e80 9249 5c19 ab46 2bae 9449 37c8 7d49
2.5904928e+06 112058.41 2.649883e+06 1.9867058e+06 2.3847268e+06 105843.93 2.4460232e+06 1.8761988e+06
2.5574265e+06 67499.984 2.5935992e+06 1.9174686e+06 1.7304778e+06 111377.41 1.8103119e+06 1.4936562e+06
1.7955252e+06 27168.691 1.8149879e+06 1.5053858e+06 1.1164761e+06 105006.29 1.2035859e+06 1.00257375e+06
1.2001438e+06 21900.68 1.2179894e+06 1.03949144e+06

network_body.observation_encoder.processors.1.normalizer.running_mean f4 [28]
00000000: b7fd a13e ef7e 163d be2e 253f b28f 643f
00000010: ac78 303f 9b09 723d 64c7 803e c85b 0e3f
00000020: ef80 433f 3762 093d 56a9 373e f4c0 ff3e
00000030: ec5b 4f3f 3fda 093e 09ab 623d 1a5f d33e
00000040: 18b1 5a3f dbf7 c93c 77e7 cc3d 4b1b 9b3e
00000050: 44b7 573f 4778 1f3e 903a d23a 6573 b43e
00000060: 8c65 643f 4b79 903c f763 883d f4d5 863e
0.31638882 0.036742147 0.6452445 0.8928176 0.6893413 0.05909119 0.25152123 0.556088
0.7636861 0.03354093 0.1793569 0.499519 0.80999637 0.1346216 0.055338893 0.41283494
0.85426474 0.02465432 0.10005086 0.3029426 0.84264016 0.15573226 0.0016039182 0.3524429
0.8921745 0.017635962 0.06659692 0.26335108

network_body.observation_encoder.processors.1.normalizer.running_variance f4 [28]
00000000: 87e8 3e4a 0204 fa48 960c 4a4a 1a79 de48
00000010: 8605 3d4a ea47 4449 cd29 264a 37f4 bb49
00000020: a24b 1f4a c707 e548 8fe9 014a ef1f 8349
00000030: a9d5 074a a69b cd49 f78f 3849 3de6 ac49
00000040: e6c5 db49 ebec a948 dcf4 9e49 b002 8049
00000050: 6114 ea49 5f20 e849 cfb3 b446 29a5 7849
00000060: 81d9 a949 eed8 7448 d26f 5b49 8867 8149
3.1278418e+06 512032.06 3.3103735e+06 455624.8 3.0969295e+06 803966.6 2.7224192e+06 1.5397189e+06
2.6098965e+06 469054.22 2.1284838e+06 1.0741739e+06 2.2255142e+06 1.6843408e+06 755967.44 1.4163916e+06
1.8003808e+06 348007.34 1.3021715e+06 1.048662e+06 1.9175801e+06 1.9015799e+06 23129.904 1.01845056e+06
1.3914081e+06 250723.72 898813.1 1.060081e+06

network_body.observation_encoder.processors.2.normalizer.running_mean f4 [7]
00000000: f76c 6743 bd71 4c42 6b8d 4e42 5839 4b42
00000010: 34a1 4c42 4dd6 4d42 9a59 4c42
231.42564 51.111073 51.638103 50.806 51.157425 51.45928 51.0875

network_body.observation_encoder.processors.2.normalizer.running_variance f4 [7]
00000000: 310c 1651 0203 e650 85e4 e550 3f4a e650
00000010: 1ecd e550 0e89 e550 90a3 e550
4.02781e+10 3.0871654e+10 3.085567e+10 3.0909004e+10 3.08434e+10 3.0807716e+10 3.0821614e+10

network_body.processors.0.normalizer.running_mean f4 [28]
00000000: bc69 6f3e c4e6 ff3b 5225 423f 7024 4b3f
00000010: ab41 553e d59f f13b 49cb 483f 282e 503f
00000020: 3f07 6b3e 009b 993b f60a 443f 313c 4d3f
00000030: 774d 0e3e b858 fe3b 0071 5a3f 4117 5e3f
00000040: 6cc3 143e 9108 f73a 9b52 5a3f c8db 5d3f
00000050: 67ab ac3d 58b3 ef3b 8788 683f aeb4 6a3f
00000060: d209 bb3d d3eb c63a a43b 683f 8215 6a3f
0.23380178 0.007809492 0.75838196 0.79352474 0.20825832 0.00737379 0.7843519 0.8132043
0.22951983 0.004687667 0.76579225 0.8016997 0.13896738 0.007762041 0.85328674 0.8675423
0.14527673 0.0018847157 0.85282296 0.86663485 0.0843113 0.0073150806 0.90833324 0.91681945
0.091327325 0.0015176482 0.90716004 0.9143907

network_body.processors.0.normalizer.running_variance f4 [28]
00000000: 731c 1e4a 34dd da47 6cbc 214a 8e84 f249
00000010: 5b8d 114a f7b9 ce47 1d4b 154a 3607 e549
00000020: ca17 1c4a fed5 8347 fd4c 1e4a e510 ea49
00000030: 6e3d d349 b488 d947 3ffc dc49 c254 b649
00000040: 2a2e db49 6241 d446 5f8e dd49 4ec3 b749
00000050: e149 8849 2517 cd47 0fec 9249 dcc4 7449
00000060: 7e80 9249 5c19 ab46 2bae 9449 37c8 7d49
2.5904928e+06 112058.41 2.649883e+06 1.9867058e+06 2.3847268e+06 105843.93 2.4460232e+06 1.8761988e+06
2.5574265e+06 67499.984 2.5935992e+06 1.9174686e+06 1.7304778e+06 111377.41 1.8103119e+06 1.4936562e+06
1.7955252e+06 27168.691 1.8149879e+06 1.5053858e+06 1.1164761e+06 105006.29 1.2035859e+06 1.00257375e+06
1.2001438e+06 21900.68 1.2179894e+06 1.03949144e+06

network_body.processors.1.normalizer.running_mean f4 [28]
00000000: b7fd a13e ef7e 163d be2e 253f b28f 643f
00000010: ac78 303f 9b09 723d 64c7 803e c85b 0e3f
00000020: ef80 433f 3762 093d 56a9 373e f4c0 ff3e
00000030: ec5b 4f3f 3fda 093e 09ab 623d 1a5f d33e
00000040: 18b1 5a3f dbf7 c93c 77e7 cc3d 4b1b 9b3e
00000050: 44b7 573f 4778 1f3e 903a d23a 6573 b43e
00000060: 8c65 643f 4b79 903c f763 883d f4d5 863e
0.31638882 0.036742147 0.6452445 0.8928176 0.6893413 0.05909119 0.25152123 0.556088
0.7636861 0.03354093 0.1793569 0.499519 0.80999637 0.1346216 0.055338893 0.41283494
0.85426474 0.02465432 0.10005086 0.3029426 0.84264016 0.15573226 0.0016039182 0.3524429
0.8921745 0.017635962 0.06659692 0.26335108

network_body.processors.1.normalizer.running_variance f4 [28]
00000000: 87e8 3e4a 0204 fa48 960c 4a4a 1a79 de48
00000010: 8605 3d4a ea47 4449 cd29 264a 37f4 bb49
00000020: a24b 1f4a c707 e548 8fe9 014a ef1f 8349
00000030: a9d5 074a a69b cd49 f78f 3849 3de6 ac49
00000040: e6c5 db49 ebec a948 dcf4 9e49 b002 8049
00000050: 6114 ea49 5f20 e849 cfb3 b446 29a5 7849
00000060: 81d9 a949 eed8 7448 d26f 5b49 8867 8149
3.1278418e+06 512032.06 3.3103735e+06 455624.8 3.0969295e+06 803966.6 2.7224192e+06 1.5397189e+06
2.6098965e+06 469054.22 2.1284838e+06 1.0741739e+06 2.2255142e+06 1.6843408e+06 755967.44 1.4163916e+06
1.8003808e+06 348007.34 1.3021715e+06 1.048662e+06 1.9175801e+06 1.9015799e+06 23129.904 1.01845056e+06
1.3914081e+06 250723.72 898813.1 1.060081e+06

network_body.processors.2.normalizer.running_mean f4 [7]
00000000: f76c 6743 bd71 4c42 6b8d 4e42 5839 4b42
00000010: 34a1 4c42 4dd6 4d42 9a59 4c42
231.42564 51.111073 51.638103 50.806 51.157425 51.45928 51.0875

network_body.processors.2.normalizer.running_variance f4 [7]
00000000: 310c 1651 0203 e650 85e4 e550 3f4a e650
00000010: 1ecd e550 0e89 e550 90a3 e550
4.02781e+10 3.0871654e+10 3.085567e+10 3.0909004e+10 3.08434e+10 3.0807716e+10 3.0821614e+10

network_body._body_endoder.seq_layers.0.weight f4 [64, 63]
00000000: 59fc ebbd 5fd1 c43e 8a05 84bd c1e5 733e
00000010: 446f b23e 62f5 edbe eef9 b7bd 867f 2b3e
00000020: b49f cbbb e2c6 523f e12a 0abe a744 c23d
00000030: b40c 103f b7c0 b73e f6a9 d73c 689c c2bd
00000040: c27d b5bc 3655 883f 1b2c 30be 1945 ecbe
00000050: 8e34 213f 5d3c ddbd 484d f33d eca5 1abe
00000060: c9f5 99be 8526 a13e e66c 303f deac 1f3f
00000070: 38bf 9e3f 9f65 13bf 8238 4dbf a41d b5be
00000080: a567 183f 333f 3cbe 9366 16be 78a1 f83f
00000090: 2a4d b8bc 0b5a ca3f 6f80 95bf cf4b 95bf
000000a0: 2157 223d 54ee fa3d e5de adbe 6761 cc3d
000000b0: 445f 03bd 3321 66bd 93b1 75be edb5 cc3e
000000c0: e8c4 61ba f066 663e e80d 683f e16a 86bf
000000d0: bdef 1b3e 6299 88bf 3d53 653f ca32 953e
000000e0: 79af c63e 00ce d73d eebc 19be fe34 983f
000000f0: 1c45 6a3d 5cf4 4fbf 4ddd b73d 683a e03e
00000100: 5f2c 303f 4328 d7be ce71 44bf d58e 073f
00000110: 1f8c d13e a739 87be dfb1 14bf 2de4 47bf
00000120: 6fc1 b0be 0c68 833f 1546 293f 0321 033f
00000130: 43a1 6e3f 5f8f a8be 7c0e b8be 8252 963f
00000140: b3ff 883f bedb 86bf 061f 5fbf d216 00bf
00000150: 7f47 b23f 4f14 9d3e 39f4 063f 553a 44bf
00000160: ce4a 1b3f 543a 5c3f 5559 653f cb73 833f
00000170: a83a 21bf 832d edbe 7e9f 923d c7dd 853f
00000180: 4c67 19be 9764 cbbf 933c 98bf 5be3 363e
00000190: a5f2 9cbf 0fbc 323f f1a3 1fbf 2ef5 00bf
000001a0: 56ac 403f 214e 95be 0eb9 07bf 9c1a 643c
000001b0: c0d8 d73d e804 c53e 8a42 bf3e 9ac7 c3be
000001c0: 7862 2fbe 9546 9d3f 491d 753f dbc1 d7be
000001d0: 80e2 6dbf dd76 153f 5d47 383f c81b ee3f
000001e0: 6ac8 8bbf 8074 86bf c6d0 4b3e cb37 88be
000001f0: 7f0e 17bf 5979 abbd adec 72bd e2eb 8b3e
00000200: 314b c23e 4313 3d3e 8d82 d73e 3da2 003f
00000210: dade e03c f80a b43d ef4d 71be 57b3 543e
00000220: 8edf 793e 6903 b5be 4c9c e93e e25b 7ebf
00000230: 94b5 033f ba31 fc3e bc1c 3dbe 61e6 243f
00000240: e45e b03e 2d16 763e 558c 323f f4ba d53e
00000250: 88f3 8bbe df44 d2be 9d1d 4cbe a0d9 00be
00000260: f5e8 9b3d 1753 e0be 45d2 193f 952a 54be
00000270: b0a2 dcbd 5503 a9bf 26da 07be bb36 7d3e
00000280: 007e 9a3d a56f 39c0 450a 693f ead8 8a3e
00000290: 12e6 89be d85a e73f ece2 45bf 5362 8c3f
000002a0: 0cff 1dbf 6457 0fc0 17b3 363f ae12 fdbf
000002b0: 7804 0d3f 47ed b03e b061 443f 30d9 dcbe
000002c0: 0cf2 b13e 2ee1 a6bf eec8 d1be 2616 753f
000002d0: 4957 b1be 4f6a b13d 2b61 bc3e 4030 1dbf
000002e0: d81d 63be 19ec f1be 1b24 4c3e 8645 9ebe
000002f0: 7d12 77be bd6c 623f 435c 833f f382 c2bf
00000300: 1659 acbf c694 4abf 6663 8a3f 159c 19be
00000310: ba47 95be 268c 3a3f e1b4 1c3d 411f 71bf
00000320: e0b6 50bf 7935 1cbe 2928 3e3e d576 3e3e
00000330: 4c0a 723d a62a 52be 49ba 843e 11e6 07be
00000340: 5b84 b1bc c71b 9abe 1086 113f 54fc 66be
00000350: 1e83 aebe 2bfc 5ebf 2091 103f f58f 013f
00000360: ece0 063f 34cc 913f d2d2 b33e 536c 6fbf
00000370: f9c2 a8bf c14e 78be 75bb 2d3f dbdc c5be
00000380: 3c5a 03bf aca9 993e c395 e6bd 68d4 1c3f
00000390: ebc0 17c0 3376 313f 5b63 16bf 33e0 ad3f
000003a0: fe8f f9be 3c80 8fbf 2883 3c3f 69d1 e43f
000003b0: 1e93 9cbf 05d8 85be 35a2 a63e 265f 6fbf
000003c0: 2ce2 22bf 2d8b 0fbf 0124 8f3f 10f2 413e
000003d0: 0f3a 3bbf 25ee 01be 0581 09bf 7cad 2e3f
000003e0: 0e80 7abe fe7b f9be b344 8c3e 65bd f33f
000003f0: f35e e23e a09e 0940 1dde 01bf fbb1 f5be
-0.11522741 0.38440987 -0.06446369 0.23818113 0.34850514 -0.46476275 -0.08983217 0.16747865
-0.0062141065 0.8233472 -0.1349292 0.09485751 0.56269383 0.35889217 0.02632616 -0.095024884
-0.022154693 1.0651004 -0.17204325 -0.46146467 0.6297082 -0.10802529 0.118799746 -0.15102357
-0.30070332 0.314747 0.68916166 0.6237315 1.2402105 -0.57576936 -0.8016435 -0.35374177
0.5953315 -0.18383484 -0.14687566 1.9424276 -0.022497732 1.5808729 -1.167982 -1.166376
0.039633874 0.12252489 -0.33959118 0.099795155 -0.032073274 -0.056184005 -0.2399352 0.39982548
-0.000861241 0.22500205 0.9064622 -1.0501367 0.15228172 -1.0671809 0.89580137 0.2914031
0.3880575 0.10537338 -0.15013477 1.1891172 0.057194814 -0.8123224 0.08977757 0.4379456
0.68817705 -0.42022905 -0.7673615 0.5295232 0.40927216 -0.26411173 -0.5808391 -0.78082544
-0.34522578 1.0266128 0.6612256 0.51222247 0.93214816 -0.32921883 -0.3594855 1.1743929
1.0703033 -1.053581 -0.87156713 -0.5003482 1.3928069 0.30679557 0.52716404 -0.7665151
0.6066102 0.860265 0.89589435 1.0269712 -0.6298013 -0.46323785 0.07159327 1.0458306
-0.14980811 -1.5890073 -1.1893486 0.17860167 -1.2261549 0.69818205 -0.6235953 -0.50374115
0.75262964 -0.2916117 -0.53016746 0.01392236 0.10539389 0.38480306 0.37355453 -0.3823822
-0.17127407 1.2287165 0.9574781 -0.42140087 -0.92923737 0.58384496 0.7198389 1.8602228
-1.0920537 -1.0504303 0.1990386 -0.26605067 -0.59006494 -0.083727546 -0.059307743 0.27328402
0.37947991 0.18464379 0.4209179 0.50247556 0.027450014 0.087911546 -0.23564886 0.20771538
0.24401686 -0.35354164 0.45627058 -0.9935895 0.5144894 0.49256688 -0.18467993 0.6441403
0.34447396 0.24031897 0.6974538 0.41744196 -0.27334237 -0.4106817 -0.19933172 -0.12583017
0.076127924 -0.43813393 0.6008647 -0.20719369 -0.10773218 -1.3204142 -0.13266811 0.2472791
0.07543564 -2.8974392 0.91031295 0.27118617 -0.26933342 1.8074598 -0.7729938 1.0967506
-0.61717296 -2.239709 0.7136702 -1.9771326 0.55084944 0.34556028 0.7671156 -0.4313445
0.3475498 -1.3037469 -0.4097361 0.9573692 -0.34636906 0.08662855 0.36792883 -0.6140175
-0.22179353 -0.4725044 0.19935648 -0.30912417 -0.24128146 0.8844717 1.0262531 -1.5196213
-1.3464687 -0.7913326 1.0811584 -0.15000947 -0.29156286 0.728701 0.038258437 -0.94188315
-0.81529045 -0.15254773 0.18570007 0.18600018 0.05909185 -0.20524082 0.25923374 -0.13271357
-0.021669557 -0.30099317 0.5684519 -0.22557193 -0.3408441 -0.8710353 0.56471443 0.50610286
0.52686954 1.1390443 0.3512178 -0.93524665 -1.3184501 -0.24248792 0.6786416 -0.38645062
-0.5130956 0.30012262 -0.112590335 0.61261606 -2.3711498 0.6932098 -0.58745354 1.3584045
-0.4874267 -1.1211009 0.7363763 1.7876407 -1.2232397 -0.26141372 0.3254563 -0.9350456
-0.6362636 -0.5607174 1.1182863 0.18939996 -0.73135465 -0.12688501 -0.53712493 0.68233466
-0.24462911 -0.4872741 0.27396163 1.9042174 0.44213066 2.1503067 -0.5072954 -0.4798735

network_body._body_endoder.seq_layers.0.bias f4 [64]
00000000: 202a 37c0 99a9 fabf 01ba d6bf 9c01 5dbf
00000010: 60b4 d4be fd03 25c0 e9a2 03c0 193e 04c0
00000020: 166e 9cbf 5e1f 27c0 7171 ecbf 51e7 20c0
00000030: d354 37bf 4693 07c0 28f9 20c0 22af fbbf
00000040: 6304 a0bf 06c2 c6bf 97fb 0bc0 2b7b 78bf
00000050: 0c82 5fc0 84c3 03c0 f692 46c0 0520 eabf
00000060: 6ddf 40c0 e8be f9bf 5039 86bf 3f6f c8bf
00000070: c21f 8ebf e735 aebe 17d9 84bf 078d 8ebf
00000080: a7dc 49c0 7a70 62bf e2b1 09c0 4d2e fbbf
00000090: f9cd a9bf 9acb f2bf 8d1e 13c0 27ec e1bf
000000a0: fd37 aebf dbcd 4dbf 18a1 f6bf 799c 28c0
000000b0: 1ba2 87bf 0f52 9abf 827d ddbf adb5 d3bf
000000c0: 5d88 b7bf 44e1 15c0 279b 25c0 5097 15c0
000000d0: 79bf 8dbf 02fc 9dbf d00c 00bf 7d13 5ebf
000000e0: 7f7a 2bc0 8493 4fc0 0579 e2bf 8b85 e4bf
000000f0: b66c d5be 448c 13c0 ba68 c1bf 78ca 87bf
-2.861946 -1.9583007 -1.6775514 -0.8633058 -0.41543865 -2.5783684 -2.0568182 -2.0662901
-1.2221096 -2.6112895 -1.847212 -2.5141184 -0.71613806 -2.1183639 -2.5152073 -1.9662821
-1.2501339 -1.5527961 -2.1872308 -0.9706294 -3.4923124 -2.0588083 -3.1027198 -1.8291022
-3.0136368 -1.9511385 -1.048624 -1.565895 -1.1103442 -0.340255 -1.037875 -1.1136788
-3.1540926 -0.88452876 -2.151482 -1.9623505 -1.3265983 -1.8968384 -2.2987397 -1.7650193
-1.3610836 -0.80392236 -1.9267912 -2.6345503 -1.0596346 -1.2056292 -1.7303927 -1.6539818
-1.433849 -2.3418741 -2.5875947 -2.3373604 -1.1074058 -1.2342532 -0.5001955 -0.86748487
-2.6793516 -3.2433786 -1.7693182 -1.7853254 -0.41684502 -2.3054361 -1.5110085 -1.0608664

network_body._body_endoder.seq_layers.2.weight f4 [64, 64]
00000000: f91d b73e 06bf 18bf 9c5f 1c3d 5a83 49be
00000010: 064f 89bd 08f1 44bf 532c 433f 0963 1bbf
00000020: 7610 6fbf 0826 4bbf d591 8ebe dc3c d0bd
00000030: 72e8 2dbf 5da2 a9bf 6ad0 7a3e 3968 983e
00000040: 370a d8bf e3aa 1abf 8af0 f7bf 3afc 0cc0
00000050: 3513 133f 46a3 03bf eb83 a73f 86ba eb3e
00000060: 6709 793e 592c 823e 4463 afbe 9d53 36bb
00000070: ea5a d23e 8dd2 1d3d edfa 0c3e b233 a4bf
00000080: 8b63 a2bf fb6f 3bbd 3e9e f1be fdfe c6bf
00000090: b55e 4c3f 0bab b6bf 420b d8be 1922 0f3f
000000a0: 456d ecbe 3966 033e 5680 0e3c 2f86 48bf
000000b0: f131 e8bb 38da d93e f4bf 7bbf 07a1 393f
000000c0: 2b5e 033e fb92 d7ba 8942 9bbe e5ff 8bbf
000000d0: 5b61 14c0 c57e 46bf 89ab 9abe 0ba7 c9be
000000e0: 02c3 833f 3058 5ebe a3f0 dc3d 3d92 2dbf
000000f0: 9fff c9be 67a7 f4be c528 77bf 8435 13bf
00000100: 2544 0dbf c6d3 92be 2541 183f 1b98 b9bf
00000110: 2db4 41bf 44e9 fdbe e9b6 d9bf 565e 823e
00000120: 0bbc a2bf 9687 4d3d 1902 42bf 0a0a 59bf
00000130: 1cdb ec3e a87b 36bf 1b30 933f dc82 b03e
00000140: fb12 87bf 930e 84be 2527 193f e3b7 2a3e
00000150: dfaa 453e 7716 9f3e 4950 7abd 6e91 ba3d
00000160: ccf1 cc3d 154a 473e f4af cabf 7519 91bf
00000170: b994 82bf 0c44 98be 6256 353d 6e01 f9bf
00000180: 562f 873f 27a2 81bf a283 51bf 560a 91bf
00000190: 17cb a7bf 1fee 963e 5f7d 8e3e bf0f 89bf
000001a0: f858 4dbf c33b 98bc f835 86bf f3e4 93bd
000001b0: 46a6 76be a841 253f b773 b33e 7b3b 01c0
000001c0: 5451 9f3e 646d 04bf 1bb0 7dbd f7cb aebe
000001d0: fe7d 96be 1c67 053f 27c0 50bf f1a4 553d
000001e0: e2a4 9ebf 11c3 023f 0e24 0d3f ac1c 023c
000001f0: 6cf2 9abe 3738 dbbf 22df 0cbf 1d41 5cbe
00000200: f9b7 393e a60f 113e 8a31 803f a650 49be
00000210: cfc4 f5be 4cd5 bfbe f101 653f 80c4 b43e
00000220: 954c 263e 4128 183f 4546 b9be 89d1 7b3f
00000230: f893 063f 049c 5bbf 0f80 c23e 3ceb 8dbe
00000240: 0e94 76be 45a4 8fbd df23 59be b11a b43e
00000250: 9e90 35bf a015 a7bf 8bd7 3939 7bc7 463f
00000260: 0d1a 3bbf 8513 763f a0f3 6d3f 949b b6bf
00000270: 93e7 aebf 3c08 4bbf 3375 ccbf 041c 85c0
00000280: 6727 ecbf b1ad 613d c881 42bf c9aa 2ebe
00000290: 7f9b e2bf 423a 6c3e d77e 10be 7d20 9cbf
000002a0: 5c07 cabd f8c0 e9bf 251d 203d 8b0d abbd
000002b0: 50ab 12bf 0c32 dcbc 2c93 183f 8a9d 933e
000002c0: ba42 3abf 63ec 74be e070 a63e 9545 ddbd
000002d0: f63c b5bd 6fcd 803d d464 36bf b608 83bf
000002e0: 385b 9cbf a64e 11c0 1d73 6d3f b221 6f3f
000002f0: b21a f2be 4038 d53e d26f b6bf 98b2 86bf
00000300: 80cf 303f c5db 8fbf 9b68 663f 20cc 073f
00000310: 055d 9abe 35c2 16bf 7d5e 11bf f267 a7bd
00000320: b511 26bf 04a8 183f f9a6 2b3f 0fe3 e73e
00000330: bf3a a7bf ced7 1ebf 4709 ef3e 2a7a e23e
00000340: c2c0 3cbf d190 1bbf 4ae4 1e3f 559d 51be
00000350: 1e73 783f 6a0b 7fbf 1c48 203f 8e45 e5be
00000360: 8fc5 e33e 56f3 1dbf cea6 88be 3e28 293e
00000370: 6296 443f 4bf8 8c3e 7a36 4bbf b771 44bf
00000380: 4ba8 05c0 2d35 963d 10d4 02bf 2e8e 693f
00000390: 84ef cdbf 0a09 3f3f 7a32 21bf 3be2 45bf
000003a0: a908 0cc0 2eee 8dbf 796f 66be 187a f0bf
000003b0: 4675 2bc0 9626 1d3f 41bc 87bd b7ce 4cbe
000003c0: 3080 143f faf0 b0bf cf3b 70bf 50d1 89be
000003d0: 13d7 d0bf c0a5 62be 4316 983d 9b78 a3bf
000003e0: 2723 503f d76e 7bbf f593 393f 6d12 b3bd
000003f0: 1048 a0bf 8d1a c1bd 5740 23bf 0212 3dbf
0.35765055 -0.5966648 0.038177118 -0.19679013 -0.06704526 -0.76930285 0.7623951 -0.6069799
-0.9338449 -0.79354906 -0.27845636 -0.10167858 -0.6793281 -1.3252674 0.24493566 0.29767016
-1.6878117 -0.60417 -1.9370282 -2.2028947 0.5745118 -0.5142101 1.3087133 0.46040744
0.24319993 0.2542446 -0.3425542 -0.0027820833 0.41084987 0.038530875 0.13767596 -1.2828276
-1.2686628 -0.04576109 -0.47191042 -1.5546566 0.7983201 -1.4270948 -0.4219609 0.55911404
-0.46177116 0.12831964 0.00869759 -0.7832975 -0.0070860316 0.425493 -0.9833977 0.72511333
0.12828891 -0.0016447002 -0.303242 -1.0937468 -2.318442 -0.77537185 -0.30208996 -0.39385256
1.0293887 -0.21713328 0.10788085 -0.67801267 -0.39452836 -0.47783968 -0.96546584 -0.57503533
-0.55182105 -0.28677195 0.594744 -1.4499544 -0.7566555 -0.4959203 -1.7008945 0.25462598
-1.2713636 0.050178133 -0.7578445 -0.84780943 0.46260917 -0.71282434 1.1499056 0.34474838
-1.0552667 -0.2579237 0.59825355 0.1667171 0.19303463 0.31071827 -0.061111722 0.0910977
0.100070566 0.19461854 -1.5834947 -1.1335894 -1.0201637 -0.29739416 0.044271834 -1.9453561
1.0561321 -1.012761 -0.8184148 -1.1331279 -1.3108853 0.29478547 0.27830026 -1.070793
-0.8021388 -0.018583184 -1.048522 -0.07221403 -0.24086866 0.6455331 0.3504922 -2.0192554
0.31116736 -0.51729417 -0.061935525 -0.34139988 -0.29393 0.5211046 -0.815432 0.052159254
-1.2394068 0.510789 0.5513314 0.007941406 -0.30263078 -1.712653 -0.55027974 -0.21509214
0.18136586 0.14166126 1.0015118 -0.19659671 -0.48001716 -0.3746742 0.8945609 0.35306168
0.16240151 0.5943642 -0.36186424 0.983666 0.5256953 -0.85784936 0.37988326 -0.27718532
-0.24079916 -0.07013754 -0.2120509 0.35176614 -0.70923793 -1.3053474 0.00017723271 0.77648133
-0.73086625 0.96123534 0.9294987 -1.4266229 -1.3664421 -0.7930944 -1.5973266 -4.15967
-1.8449525 0.055097286 -0.7597928 -0.17057337 -1.7703704 0.23069099 -0.14110886 -1.2197415
-0.09864685 -1.8262014 0.039090294 -0.083521925 -0.5729265 -0.026879333 0.59599566 0.2883113
-0.72758067 -0.239183 0.32507992 -0.10804287 -0.08849518 0.06289183 -0.712476 -1.0237033
-1.2215338 -2.2704253 0.92753774 0.9341079 -0.47285992 0.41644478 -1.4252875 -1.0523252
0.6906662 -1.1238943 0.90003365 0.53045845 -0.30149093 -0.58890086 -0.567848 -0.08174123
-0.6487077 0.5963137 0.67051655 0.4529042 -1.3064803 -0.6204804 0.46686766 0.4423383
-0.73731625 -0.6076785 0.6206709 -0.20470174 0.97050655 -0.9962679 0.6261003 -0.4477963
0.44486663 -0.61699426 -0.26689762 0.16519257 0.76791966 0.27533183 -0.7938 -0.76736015
-2.0883968 0.07334361 -0.5110483 0.91232574 -1.6088719 0.7462317 -0.62967646 -0.77298325
-2.1880286 -1.1088312 -0.22503461 -1.878726 -2.6790328 0.61387 -0.066277035 -0.2000073
0.580081 -1.382354 -0.9384126 -0.26917505 -1.6315635 -0.22133541 0.07426121 -1.2771181
0.8130364 -0.98216003 0.7249139 -0.08743749 -1.2521992 -0.09428892 -0.6377005 -0.738556

network_body._body_endoder.seq_layers.2.bias f4 [64]
00000000: e5d2 babf 2879 eabf 0d2c efbe 2d57 86bf
00000010: e26b 71be 9a90 b3bf 06a9 dcbf ae16 0fc0
00000020: 6ba5 44bf ca20 68bf 8149 26be 8877 b5bf
00000030: a10e c0bf 684f c0bf 8675 013f 69c2 92bf
00000040: 5063 f6bf 16ff b7be 1b97 11c0 c702 b83e
00000050: 7d2d d3bf 740c a8bf e57b 2ebf 27d9 843e
00000060: 2a55 2fbf a13d 77bf 493a a2bf 7c06 f4be
00000070: feb8 b2be 7332 80bf a146 a5bf 0722 1cbf
00000080: 3d21 dfbd dadd aabf 273a 07c0 4ec7 ccbf
00000090: 7867 4cbf da48 44bf 119f d0bf 66bb a1bf
000000a0: 6425 d4be e0cc e2bf 9090 38bf 64d9 5ebe
000000b0: 617f cebf 0046 97be 3069 15c0 79e1 8bbf
000000c0: 8fbf 02c0 c37b b8be c45c 9fbf 3ddf 2dbf
000000d0: a97d 6cbf 2fd2 97bf 66e4 3dbf 7fdf b3bf
000000e0: bb5d 6cbf 5a6b 9ebf d2eb 0bbf 2ef2 0dc0
000000f0: cee2 a3bf 6546 74bf 092f cfbc a727 6bbf
-1.459561 -1.8318224 -0.46713296 -1.0495354 -0.2357631 -1.4028504 -1.7239082 -2.2357593
-0.7681491 -0.9067503 -0.16238977 -1.4177103 -1.5004464 -1.5024233 0.5056995 -1.1465579
-1.9249058 -0.35936803 -2.2748477 0.3593962 -1.6498257 -1.31288 -0.681578 0.25946924
-0.68489325 -0.96578413 -1.2674037 -0.47661197 -0.34906763 -1.0015396 -1.2912179 -0.6098942
-0.108950116 -1.3348954 -2.1129243 -1.5998323 -0.7984538 -0.7667366 -1.6298543 -1.2635314
-0.41434777 -1.7718773 -0.72095585 -0.21762615 -1.6132623 -0.29545593 -2.3345451 -1.0928184
-2.0429418 -0.36031923 -1.2450185 -0.6791876 -0.9237924 -1.1861018 -0.74176633 -1.405258
-0.9233052 -1.2376511 -0.5465671 -2.2179065 -1.280359 -0.95419914 -0.025290983 -0.9185738

action_model._discrete_distribution.branches.0.weight f4 [2, 64]
00000000: 364f 87bd d906 a33e dc24 c33d 2b12 97bd
00000010: f928 963d 3659 ba3e 72c3 8bbe 0779 bdbe
00000020: c66f d2bd 0037 023e ca54 75be acec 943e
00000030: 1e9b c3be c4cd 693c 1f3d 6d3d 5839 ad3c
00000040: 08ff 77bd a2dc 4abe 8410 ec3e 8b29 0fbe
00000050: 1416 9abf c904 a3be 1c39 f5bd f966 cb3d
00000060: 11e9 9cbd bdfc 9f3c cfff 36be 9749 5e3f
00000070: ec22 b8be a65b db3d 7af9 1c3d 883f c5be
00000080: df00 05bb 72f0 853d 7b1b 733e 00e3 ed3f
00000090: 9042 fe3b afa3 f03d b956 653d ab5b cf3d
000000a0: 303f 47bd ef36 c5be b400 87be c329 61be
000000b0: 88b1 5b3f b4a6 403e cfab 233f 1cb6 e83e
000000c0: 82f9 7abf e216 9ebd 95ce 0a3f cbc1 40be
000000d0: bbfb 9fbd afc7 3d3e 0459 453e 4af2 d9bd
000000e0: ef1d 29be 875a e7be 9e53 57bf 13cd fbbf
000000f0: 5ebc 26bf dd11 94be c7b0 abbd d67c 8abe
00000100: 4b88 593d 5ff5 9fbe 0375 90bd be53 a33d
00000110: 59a8 86bd 9501 bfbe d47f 8d3e 3d24 c23e
00000120: d9b5 e43d a3c0 05be 0cd7 5d3e e9da 95be
00000130: 2c82 c53e 7ba4 503c 8ff3 00bd 8bc2 ebbc
00000140: 9a36 8e3d eb2f 5d3e 4631 f2be 726c 043e
00000150: 326a 993f 4158 9e3e 4a89 d93d 976c ddbd
00000160: fa31 233d d696 1bbc 74c1 1f3e 775d 60bf
00000170: ccb6 c03e 8323 c2bd c6c6 9bbd 5810 c83e
00000180: 351c fbb9 b047 71bd a8a4 56be d7a6 eebf
00000190: 35ac 10bd 91e0 03be 7fbf 08bd 8c9f a3bd
000001a0: 9e12 803d 4a8f c23e 9e1a 903e 4f3e 5b3e
000001b0: 65c5 5cbf 1077 43be e0f3 1ebf 98d9 ebbe
000001c0: d717 773f 92c9 9a3d 043e 04bf 08d8 1f3e
000001d0: fbaf c83d b719 4dbe 0c0d 4cbe 30e4 bc3d
000001e0: c4cb 333e 93ff eb3e e3f9 513f 667f fe3f
000001f0: 7d36 273f cd36 633e e269 323d f31a 8e3e
-0.06606905 0.31841162 0.09528515 -0.07376512 0.07332034 0.36396188 -0.2729755 -0.370064
-0.10275225 0.12716293 -0.23958126 0.29086816 -0.38204283 0.01427025 0.057919618 0.021145508
-0.06054595 -0.19810727 0.4610635 -0.13980691 -1.2037988 -0.31839588 -0.119737834 0.0993175
-0.076616414 0.019529695 -0.1787102 0.8683104 -0.35964143 0.1071084 0.038323857 -0.38525033
-0.0020294709 0.06540002 0.23740952 1.85849 0.0077593997 0.1174997 0.05599091 0.10124906
-0.048644245 -0.38518474 -0.26367724 -0.21988587 0.85817766 0.18813592 0.63934034 0.45451438
-0.9803697 -0.07719208 0.5422147 -0.18823926 -0.07811686 0.18533204 0.19272238 -0.10641916
-0.16515325 -0.45186254 -0.84111965 -1.9671959 -0.65131176 -0.2891988 -0.08383327 -0.27048367
0.053108495 -0.3124189 -0.07053568 0.07974957 -0.065750785 -0.37305894 0.27636588 0.37918273
0.11167497 -0.13061766 0.21664065 -0.29268578 0.38575876 0.012734528 -0.031482276 -0.028779289
0.06944008 0.2160031 -0.47303218 0.12931994 1.1985533 0.30926707 0.10621889 -0.108117275
0.039842583 -0.009496411 0.1560114 -0.87642616 0.37639463 -0.094794296 -0.076062724 0.3907497
-0.00047895467 -0.058906257 -0.20961249 -1.8644665 -0.03532048 -0.12878634 -0.03338575 -0.079894155
0.06253551 0.37999946 0.28145307 0.21410488 -0.862387 -0.19088387 -0.62090874 -0.46064448
0.9652075 0.07557978 -0.5165713 0.15609753 0.097991906 -0.2002934 -0.19926852 0.09223211
0.17558199 0.46093425 0.8202192 1.9882629 0.6531752 0.22188874 0.04355801 0.27754936

action_model._discrete_distribution.branches.0.bias f4 [2]
00000000: fe9d bd3f f29d bdbf
1.481384 -1.4813826

action_model._discrete_distribution.branches.1.weight f4 [2, 64]
00000000: 54ed 82be ff90 3bc0 eeb9 273e b47b d53d
00000010: fc27 c8be 6cc9 b53c 26ac 063d 4d95 a0bf
00000020: a70b f6bb b601 823f 41bb 78bd b777 ddbf
00000030: 5087 883d 20e9 743d 2501 36bc e894 98be
00000040: 1421 c0bf 52d2 d03d 3895 8cbf 818f 613d
00000050: bbb4 8abe bb2f e1bf df67 713d 9742 1a3e
00000060: 7d7e 56bd 2534 2f3e c427 a93d 666e 6e3d
00000070: c78d a83d 6282 c13e ee37 15be 8a28 123d
00000080: c7d7 cf3c 0c58 ef3e c7aa c6bd 86e4 04bf
00000090: 0f16 233e a197 333e 4989 153d af80 81be
000000a0: 5556 9ebe 07b4 873e 9351 07be d811 b23d
000000b0: 3b2b 99bf 4596 233e 7cc5 03c0 e946 f3bf
000000c0: 631e bcbe e08e c0be 9e0c a0be 90af 9d3e
000000d0: 583b 623f 8c08 283e b87b d0bd d7b2 7cbe
000000e0: 934a 2dbf 69df 913e 1cb7 f5be 6506 203e
000000f0: cd88 31c0 025e 0c3e 9d5e c2bd bf5d b13d
00000100: 3453 7b3e 4531 3c40 7f75 2fbe cd37 c6bd
00000110: 96b3 c53e 73b4 e9bc 7060 dfbc 5931 a33f
00000120: 0b9c d83c affb 82bf 5bfd 793d 2117 de3f
00000130: 8065 c5bd 022a eabd 76a9 22bc 66bc 9a3e
00000140: 0cfe c33f abeb c1bd af4b 903f d364 0abd
00000150: b571 853e ef59 e13f 97e6 93bd f702 16be
00000160: f8fc 6e3d 0543 32be 0d18 94bd 5e98 38bd
00000170: 41ae acbd e7dc babe 39b2 1d3e 039f 59bd
00000180: b190 59bc 0407 f2be f719 bd3d 332b 013f
00000190: 1db5 febd c1a6 3fbe 884a 07bd 92b3 673e
000001a0: b2a2 8c3e c012 80be ded6 0b3e 5090 18bd
000001b0: b958 9b3f 0122 0fbe dd31 0340 eaf7 f13f
000001c0: 7157 c13e dd89 be3e 501e a53e f214 92be
000001d0: ff73 64bf 4525 21be 9671 af3d 6ae2 743e
000001e0: c945 313f 452c 9abe 6b76 fd3e 9195 20be
000001f0: 02d3 3240 123f 20be 100d cb3d d4ea 9ebd
-0.25571692 -2.9307249 0.1637952 0.10423985 -0.39093006 0.022190772 0.032879017 -1.2545563
-0.0075087133 1.0156772 -0.060725454 -1.7302159 0.06666434 0.059792638 -0.011108671 -0.29801106
-1.5010095 0.101963654 -1.0983038 0.055068497 -0.2709101 -1.7592691 0.05893695 0.15064465
-0.052366722 0.17109735 0.08259538 0.058210753 0.08230167 0.37794787 -0.14572117 0.035683192
0.025371445 0.46746862 -0.09700542 -0.519112 0.15926383 0.1753831 0.03650788 -0.2529349
-0.3092524 0.26504537 -0.13214712 0.0869481 -1.1966318 0.15975292 -2.0589285 -1.9006015
-0.36741933 -0.37609005 -0.31259626 0.30798006 0.883718 0.1640951 -0.101798475 -0.24677597
-0.67691916 0.2849076 -0.47991264 0.1562744 -2.7739747 0.13707736 -0.09490702 0.08660459
0.24543458 2.9405072 -0.17134665 -0.09678612 0.38613576 -0.028528428 -0.027267665 1.2749435
0.026441595 -1.0233058 0.061032634 1.7350808 -0.096385 -0.114337936 -0.009928098 0.30221862
1.5311904 -0.09468778 1.1273097 -0.03378756 0.26063314 1.760557 -0.07221716 -0.14649568
0.05834672 -0.17408378 -0.0723115 -0.045067184 -0.08431674 -0.3649666 0.15400018 -0.05313016
-0.013279126 -0.47270977 0.09233468 0.5045654 -0.12436888 -0.18715955 -0.033030063 0.22627094
0.27467877 -0.25014305 0.13656184 -0.037247002 1.2136451 -0.13977815 2.0499184 1.8903782
0.37762025 0.37214556 0.3224969 -0.28531605 -0.89239496 -0.15736873 0.08566587 0.23914495
0.6924711 -0.301119 0.49504408 -0.15682055 2.794129 -0.1564906 0.09914601 -0.07759634

action_model._discrete_distribution.branches.1.bias f4 [2]
00000000: 5b90 99bf 6690 993f
-1.1997179 1.1997192

action_model._discrete_distribution.branches.2.weight f4 [2, 64]
00000000: 3c0e 113f f082 053f 1b46 4bbe 7bd5 323d
00000010: f12a ef3d bbe0 6abd b7ec c8be 6eab 94be
00000020: eb63 8a3e 828f 26be b672 6b3d ddf6 0e3f
00000030: 0f0b 93bd 29b6 43be 5bb3 3a3e 31a5 0bbe
00000040: 875d 02c0 7be0 0e3f a06d ca3f 1627 bc3d
00000050: 133e d23f 5b1d 0e3f 9cce a73e 0142 2f3e
00000060: c75c 69be 9044 063f f7d7 adbe ceca 053e
00000070: a47e 2b3e d0d6 c1bd 83ec bc3f e362 e33c
00000080: e1ab 293e 27ac 22bd c44e 173f c9c8 073f
00000090: 4412 9a3c f34a 35be dde0 91be 85af cdbe
000000a0: d5c0 86be 2e03 5dbf 1c84 8d3c dc40 fb3d
000000b0: 9fc9 1d3f 6e72 293e 2f9a b8be b6cd 283d
000000c0: f88a 34bf 06bb 9f3d 584a af3e 52ba 4a3d
000000d0: 6512 3dbd 0659 57be 16df a53d 4f37 01be
000000e0: c1db 003f 29e6 8c3f c672 553e 6408 42bd
000000f0: 0745 4cc0 4c89 b6bd 143f ef3d 8d23 a93d
00000100: 3f5e 0cbf 75f8 03bf 2d68 443e d9e6 35bd
00000110: 311c efbd 9b94 773d 7e02 c63e dca2 9f3e
00000120: 025a a3be 99d0 2e3e b948 5cbd 9d7e 0abf
00000130: 7b68 0e3d 1d85 5b3e bf50 4ebe 30fc 143e
00000140: 37c3 0340 5ddd 13bf f0a5 cabf 4fc1 92bd
00000150: 8a26 d5bf d378 09bf 51d7 b1be 3e71 2abe
00000160: 45a8 773e 8ff4 08bf 9cde a93e 655c f1bd
00000170: 0d8a 43be d84c b83d a6c8 bcbf f6db 00bd
00000180: 88de 30be 2962 803d 5bd1 0fbf 28f6 09bf
00000190: 7c06 8dbc 1b9b 393e 6040 943e d8f8 d93e
000001a0: 5512 953e 4c4c 613f 9162 02bb 5057 f8bd
000001b0: f6d4 29bf 8205 0ebe c2f4 b83e a2fd 94bd
000001c0: 21e0 303f c35b a9bd 787d adbe ba9c babc
000001d0: 51b3 6d3d f356 5a3e 3106 c0bd a21c 023e
000001e0: 2a41 f3be 63d8 8fbf 936d 40be 4381 4b3d
000001f0: 4508 4d40 bf96 e33d 3fa0 ccbd d633 afbd
0.56662345 0.5215292 -0.19850962 0.043660622 0.11678112 -0.057343226 -0.392431 -0.2903704
0.27029356 -0.16265681 0.057482444 0.55845433 -0.07179844 -0.19112457 0.18232481 -0.13637234
-2.0369585 0.5581128 1.5814705 0.091871426 1.6425194 0.5551354 0.32774818 0.17115022
-0.22789298 0.5244837 -0.3395383 0.13065645 0.16747528 -0.094648 1.4759678 0.027757114
0.16569473 -0.03971496 0.5910456 0.5304075 0.018807538 -0.17704372 -0.2849187 -0.40172973
-0.26318994 -0.86332977 0.017274909 0.1226823 0.61635774 0.16547558 -0.36055133 0.041211806
-0.7052455 0.07799344 0.34236407 0.049494095 -0.04616012 -0.21030053 0.08099191 -0.12618755
0.5033532 1.1007739 0.20844564 -0.047371283 -3.191713 -0.08912906 0.11681953 0.08258734
-0.5483131 -0.5155099 0.19180365 -0.044409607 -0.11675299 0.060444456 0.38673776 0.3117894
-0.31904608 0.17071761 -0.05378029 -0.54099447 0.03476761 0.21437497 -0.2014799 0.14549327
2.05879 -0.5775965 -1.583189 -0.07165777 -1.6652386 -0.5369999 -0.34734586 -0.16644761
0.24185283 -0.53498167 0.3317765 -0.11785201 -0.19095631 0.08999032 -1.4748733 -0.03145977
-0.17272389 0.062687226 -0.56178826 -0.5389123 -0.017215006 0.18125574 0.28955364 0.42572665
0.2911555 0.88007045 -0.0019895176 -0.121260285 -0.6634058 -0.13869289 0.36124235 -0.07274939
0.69091994 -0.08269455 -0.33884788 -0.022779811 0.058032338 0.21322231 -0.09376181 0.12706235
-0.47510654 -1.1237911 -0.18791799 0.04968382 3.2036297 0.11112737 -0.09991502 -0.08554809

action_model._discrete_distribution.branches.2.bias f4 [2]
00000000: 50c4 c0bf 5ac4 c03f
-1.505991 1.5059922

exp_avg f4 [64, 63]
00000000: 3c4a 4cb9 8da5 5eb8 0e59 5939 0f61 5c39
00000010: 6386 0db9 e445 1cb8 5ce0 1339 e4e1 2639
00000020: ac99 67b9 7ef3 3ab8 4346 7239 67af 7939
00000030: df9b 16b9 103e 3db8 7f2c 2139 1b77 2c39
00000040: c080 75b9 58d0 9db7 d69d 7639 0b8e 8039
00000050: 9a63 02ba a3c7 1bb8 2879 003a e6ea f839
00000060: 3504 5db9 f589 8db7 87c1 5d39 23c9 5e39
00000070: f840 413a dbb3 eab9 89a1 00ba 2fc8 b1b8
00000080: 5afd 7b39 28a6 92b9 92a7 dab8 1195 b5b9
00000090: 9e82 f538 40ef eeb9 ec41 9a38 610a 70b8
000000a0: 8d55 7f39 840a 03b9 ee69 72b9 ba7f bfb9
000000b0: 17d9 5e39 09ba e4b9 e28f 5338 49a7 45b8
000000c0: 32ff 4a39 53c8 4fb9 ca1d e9b6 f3e1 cdb9
000000d0: f007 c139 856f 84b8 1d4f c1b9 0146 a3b8
000000e0: b711 9f39 3f2e 3a36 5a66 afb9 9a3a 2a3a
000000f0: a8e0 a7b8 75fd 5739 0731 d4b8 1fd6 dd38
00000100: 998d a4b7 ef14 cfb8 8e3b bab8 6f30 d738
00000110: e586 4bb7 cb2b cfb8 714a e7b8 8973 3a38
00000120: 4201 22b7 aa9c 32b8 c42d 2db8 8978 1039
00000130: e234 5eb7 d08d 09b9 ba2b 05b9 96f4 3db8
00000140: 7858 cdb6 bf19 4038 0d97 5338 c2e2 0e39
00000150: f2b2 4ab7 c8da 05b9 4da8 02b9 96d8 98b7
00000160: 362b b8b6 54e0 9d37 8274 a637 c2e5 1cb9
00000170: 4f1a 4539 b0d8 a438 5c63 4a39 dda7 ac36
00000180: aabb 2838 a04d e5b7 062f c537 fcdb 5ab8
00000190: 21e3 fab7 0c3a d438 55b2 3235 9a05 52b9
000001a0: d275 3a39 621d a438 43c4 3f38 1176 11b9
000001b0: 72eb 4639 65f0 5038 90ff eb38 630a 4ab9
000001c0: 9371 4a39 c93d 79b6 2d1b fc37 3627 4fb9
000001d0: 5dbc d0b7 8178 a039 af2a 4f39 e123 7cb8
000001e0: 8225 08b8 3426 4838 7703 b538 3de9 c738
000001f0: 30cb fa38 add6 ddb7 475e b639 7265 d237
00000200: 9af1 b6b9 c793 c8b9 d6b7 c639 18ee d037
00000210: baee c6b9 b0a3 c7b9 b252 b739 1025 ea37
00000220: bdb0 b9b9 baf8 cab9 f12e ad39 ee85 d637
00000230: d9a3 acb9 0bbd bdb9 e96f 0c3a beee 5237
00000240: b116 0cba b887 0fba 538b 9339 c436 d037
00000250: 23f8 91b9 9efa 99b9 84b2 e939 f72d 3d37
00000260: dcc4 e8b9 7137 edb9 cd4d a936 c7a2 7138
00000270: 62b4 dbb7 13ab c4b8 a3cd 1636 dd10 ae38
00000280: a95e 47b8 137d 9239 bdf4 a339 0d86 7e38
00000290: a993 cdb9 bb0a aeb9 1cd3 b8b8 1507 6438
000002a0: 44d2 9238 0cc4 b639 d79b 36b9 1277 3438
000002b0: 5339 2a39 1aee 26b9 dd71 1cb9 bc9e 1939
000002c0: 2e49 8037 2877 d839 2f20 f9b8 f5bb 1f38
000002d0: 9a63 c838 fe21 1db9 c9aa 87b8 16ea 2f39
000002e0: 9b50 3339 a8f3 dfb9 ec6f 2b3a 059c 43b9
000002f0: 47a9 c437 e046 2ab9 7e42 d2b7 eb3f 2e39
00000300: bcd7 5039 cbc5 f7b8 f4e5 bcb7 7974 fe38
00000310: bd1a 3139 d726 a2b9 5529 5038 2806 9239
00000320: c655 9539 ce8e 66b9 4f99 c3b7 6383 6739
00000330: ba9b 7839 9c26 f5b9 672d 3fb7 da91 f439
00000340: 5e0a ed39 7c53 54b9 9cb6 bcb7 f780 5339
00000350: 95bc 5d39 9d70 51b9 2e76 2bb7 0655 5139
00000360: fe28 5639 a0be 8a39 7d65 1239 c2c4 9fb9
00000370: 15a6 89b9 c994 cbb9 6585 7839 d89e 9539
00000380: 32b7 af39 4f47 99b8 cf7a b338 d5a8 e1b7
00000390: a18b 16b9 1b4d 86b9 34cd a4b7 92d5 f539
000003a0: 6aa8 5939 7247 2bb9 2aa9 bc38 ae14 1839
000003b0: 3766 0e39 9813 1ab9 cbf9 1b39 a3e2 30b7
000003c0: 2c9e a239 ee5b 0fb8 e2de 5838 2924 a1b8
000003d0: 31cb 6337 8c76 d937 18fa ffb7 2f8a 8c38
000003e0: 71b5 6bb9 5d48 9939 8f76 6cb9 4884 7c37
000003f0: 64e8 e1b9 40dd 33b8 8365 e439 d97e de39
-0.0001948261 -5.3083106e-05 0.00020727908 0.00021016992 -0.00013496871 -3.725839e-05 0.00014102593 0.00015915144
-0.00022087124 -4.4572625e-05 0.00023105093 0.00023811833 -0.00014363181 -4.511891e-05 0.00015370733 0.00016447568
-0.00023412984 -1.8812876e-05 0.00023519187 0.00024519893 -0.0004973948 -3.7140806e-05 0.0004900866 0.0004747726
-0.0002107777 -1.6872751e-05 0.00021148297 0.00021246499 0.0007372047 -0.0004476596 -0.0004906883 -8.477305e-05
0.00024031606 -0.00027971086 -0.000104262625 -0.00034634073 0.0001170684 -0.00045573153 7.355571e-05 -5.7230125e-05
0.00024350565 -0.00012497051 -0.0002311838 -0.00036525523 0.00021252442 -0.00043626156 5.044032e-05 -4.7124257e-05
0.00019359289 -0.00019815685 -6.947409e-06 -0.00039268992 0.00036817743 -6.3150226e-05 -0.00036870773 -7.785485e-05
0.00030340042 2.7743079e-06 -0.0003345486 0.00064937177 -8.005026e-05 0.00020598418 -0.0001011808 0.00010577984
-1.961626e-05 -9.874428e-05 -8.880264e-05 0.0001026102 -1.21311505e-05 -9.878686e-05 -0.00011028804 4.4453456e-05
-9.656245e-06 -4.2584412e-05 -4.1289037e-05 0.00013777813 -1.3244544e-05 -0.00013118167 -0.00012700158 -4.52889e-05
-6.119775e-06 4.5800345e-05 5.0446997e-05 0.00013626649 -1.2081802e-05 -0.00012765371 -0.00012460463 -1.8220668e-05
-5.4886577e-06 1.882032e-05 1.9842995e-05 -0.00014962911 0.00018797185 7.8604906e-05 0.00019301235 5.1455413e-06
4.0229097e-05 -2.7335074e-05 2.3506127e-05 -5.2180127e-05 -2.9908088e-05 0.0001011976 6.6569675e-07 -0.00020029247
0.00017782234 7.8256024e-05 4.572073e-05 -0.00013872261 0.00018970462 4.981495e-05 0.000112532754 -0.0001926809
0.00019306531 -3.7139855e-06 3.0053396e-05 -0.00019755666 -2.4883246e-05 0.0003060736 0.00019756959 -6.0114897e-05
-3.245986e-05 4.7719295e-05 8.631398e-05 9.5325035e-05 0.000119587756 -2.644522e-05 0.00034783987 2.508119e-05
-0.00034893752 -0.00038257075 0.0003790247 2.4906403e-05 -0.00037943368 -0.00038078194 0.00034966093 2.7912232e-05
-0.0003541763 -0.00038713758 0.00033032105 2.5573154e-05 -0.00032928473 -0.00036189737 0.0005357252 1.2572562e-05
-0.00053439575 -0.0005475241 0.0002814183 2.4821034e-05 -0.0002784143 -0.00029369158 0.00044574228 1.127598e-05
-0.0004439716 -0.0004524547 5.0456497e-06 5.7610476e-05 -2.6190832e-05 -9.377873e-05 2.2471438e-06 8.3001076e-05
-4.7533456e-05 0.00027940478 0.00031272127 6.0683164e-05 -0.00039210662 -0.0003319586 -8.813126e-05 5.436603e-05
7.0009875e-05 0.0003485981 -0.00017414927 4.3026237e-05 0.00016233818 -0.00015919693 -0.00014919737 0.0001465035
1.5292866e-05 0.0004128751 -0.0001187924 3.8083603e-05 9.5552954e-05 -0.0001498535 -6.469113e-05 0.00016776504
0.00017100798 -0.00042715413 0.000653981 -0.00018654771 2.3443847e-05 -0.00016238866 -2.5064914e-05 0.00016617744
0.00019916793 -0.000118147196 -2.2518427e-05 0.000121333585 0.00016889996 -0.00030927986 4.9629558e-05 0.00027851877
0.000284834 -0.00021987708 -2.3317201e-05 0.00022078822 0.00023709136 -0.00046758808 -1.1395058e-05 0.00046647975
0.00045211887 -0.00020248996 -2.249638e-05 0.00020170571 0.00021146455 -0.00019973745 -1.021991e-05 0.00019963467
0.00020423901 0.00026463438 0.00013961452 -0.0003047344 -0.00026254417 -0.0003883003 0.00023700816 0.00028537842
0.00033515092 -7.308891e-05 8.55826e-05 -2.6900709e-05 -0.0001435713 -0.0002561592 -1.9645879e-05 0.00046889164
0.00020757472 -0.00016334446 8.996048e-05 0.00014503553 0.00013580253 -0.00014693884 0.00014875007 -1.0543185e-05
0.00031016895 -3.4179473e-05 5.170599e-05 -7.6838136e-05 1.3577564e-05 2.5923619e-05 -3.0514828e-05 6.701459e-05
-0.00022478939 0.0002923635 -0.0002255088 1.505117e-05 -0.0004308849 -4.288298e-05 0.0004356318 0.00042437649

exp_avg_sq f4 [64, 63]
00000000: 9ec3 7235 13e4 ba33 5776 7735 dcb7 8435
00000010: 3ee7 9935 346c 9432 03ac 9835 c4cc 9c35
00000020: 8cac 5935 fb40 e033 62cf 6035 e4b7 6a35
00000030: 4cc8 1936 9b2e 8332 9698 1236 eda5 0336
00000040: 1470 3e35 3b64 bd32 f929 3f35 3100 4935
00000050: e2d4 6f36 7663 8932 bfee 5c36 ed2d 3136
00000060: 8057 4c35 b563 2232 7724 4b35 760e 5235
00000070: 28a2 6336 f3b2 8036 8f62 5436 5200 ad36
00000080: 6efa 2036 343c 7236 141e 2836 a2f9 1636
00000090: 4006 d035 f04a bd36 30ad 6535 279e 0636
000000a0: 41b6 0a36 be40 3b36 c056 9434 d75a d035
000000b0: bfc5 2636 c4f0 9436 136a f235 a272 1836
000000c0: 513a 8c36 d015 8c36 cfd7 4f34 3608 5e36
000000d0: 2a47 d636 88d4 5935 60e5 2b37 1437 cc36
000000e0: 99aa 4a36 9321 1836 7329 4836 4322 4136
000000f0: 2cc3 8436 ca2a 1036 72ed 2636 9b68 8c35
00000100: 423f 4533 1406 8b35 a1d2 8a35 c5f7 1a36
00000110: aa2b 4032 29d1 1536 55c1 ff35 9b31 3335
00000120: d081 f231 2d93 3435 be68 3635 b15b a036
00000130: 3eac 4932 8918 9736 77ec 7a36 d176 1a35
00000140: 3eac 4331 0626 1a35 1c1a 1135 a120 9936
00000150: b2fa 4032 ad71 8c36 65a0 8436 b83c cb34
00000160: 37c0 1c31 e488 ca34 dbf4 cb34 a7df 0936
00000170: 8ab3 4835 1236 fc35 8ec4 a636 b0d5 f735
00000180: 42c5 0a37 97df 7f35 86e6 a335 0aea 3c36
00000190: 11d8 3d34 eaf5 7e36 35b4 5936 c68a 8d36
000001a0: 95c4 c836 3dca 8635 c951 d535 dac5 ac36
000001b0: 24b7 4d35 94f1 fa36 1756 ca36 88fd 9a36
000001c0: 63fc 9b36 4d48 9a34 63d9 3536 13e8 d536
000001d0: 24f7 1b33 29a1 3037 6f8c df36 828c 3a36
000001e0: 46c2 bd35 1e4b 9136 f0d4 de35 63cf 5d36
000001f0: 32b8 2336 972b f535 e9a8 3d36 124f 5f33
00000200: 3775 3e36 17a5 5436 9783 9536 ab4a 3633
00000210: 7fa7 9236 601f 9536 4d57 3836 f37d 4833
00000220: a15d 3836 2ed6 4d36 a92d 1e37 4ef2 3e33
00000230: faf1 1537 4470 0f37 3187 3a36 082c 3b32
00000240: 2374 3936 3609 4c36 8ba7 9637 e493 3433
00000250: cc11 8a37 c1d6 5637 5fa0 7a36 127f 1432
00000260: c74d 7736 0b2d 8036 dbda d736 75a0 6036
00000270: 8e1b cf36 c481 7337 ae3b b836 8ec8 8e37
00000280: 174a 5436 99c3 ab36 e6ae e236 50ec b236
00000290: 7ab4 0237 9241 0337 f7b5 ed36 a797 2437
000002a0: 2523 c434 f5ad ad36 d9c1 1637 50d9 fd34
000002b0: 6ec4 5937 76d7 3f37 0e98 0537 9ac4 0637
000002c0: a7e8 6a33 1292 da36 605a 2237 194a 9a35
000002d0: efff 7a37 271c 4337 6cee 1137 c445 b536
000002e0: 2f26 3937 9fc6 d136 036e 1f37 5fa2 0237
000002f0: ece6 e936 9bff 7a35 477a 9334 1b26 8235
00000300: 2546 8035 7220 5d35 f90a 5932 22da 5d35
00000310: d171 6c35 5478 5535 f01d e433 9271 5735
00000320: 1ebf 5535 f42d 1e36 3bb5 5e32 3c4b 1636
00000330: 5a54 1036 66ee 3835 881d e431 afaa 3835
00000340: 342f 3635 e4db 8436 3a81 5232 8110 7436
00000350: 0bb0 6436 b112 2635 42bc 2d31 4ab6 2435
00000360: a93e 2935 a74b 3e36 bb39 d636 202b 3c36
00000370: ad0f f836 e37b 1836 6f03 0337 0c35 d535
00000380: 0527 e435 b092 2936 c0a1 5236 4aa5 3a36
00000390: 0d3f 3736 65ad 4c36 7fdf 7436 5a24 1436
000003a0: 0be4 c535 52d0 9836 a549 5436 cdad c036
000003b0: f9d0 a036 435b 8a36 30e5 8b36 a639 7331
000003c0: 8aea 0436 7d0c 9936 e158 fa35 3944 d736
000003d0: 97b6 a936 7803 3b36 4a2e 0536 a2ec 8a36
000003e0: 3df0 1536 9f59 4a36 292a 6a36 76db 3236
000003f0: ef68 6f36 44a8 2a34 9f68 7436 0728 6f36
9.0436686e-07 8.7027864e-08 9.218688e-07 9.888277e-07 1.1466689e-06 1.7278673e-08 1.1374945e-06 1.16825e-06
8.108989e-07 1.0442633e-07 8.3748284e-07 8.743939e-07 2.2915365e-06 1.52716e-08 2.1844512e-06 1.9617103e-06
7.094361e-07 2.2048075e-08 7.1214123e-07 7.4878614e-07 3.573769e-06 1.5994129e-08 3.2921523e-06 2.6401788e-06
7.612325e-07 9.452312e-09 7.5676456e-07 7.825214e-07 3.3920023e-06 3.8355297e-06 3.164783e-06 5.155839e-06
2.3987627e-06 3.6095853e-06 2.5051459e-06 2.2497047e-06 1.5499027e-06 5.641363e-06 8.556117e-07 2.0059613e-06
2.0669688e-06 2.7902856e-06 2.7630267e-07 1.5523646e-06 2.485103e-06 4.4387725e-06 1.8061277e-06 2.271649e-06
4.179114e-06 4.1748644e-06 1.9356888e-07 3.3085357e-06 6.3859816e-06 8.1148073e-07 1.02458e-05 6.0860857e-06
3.0199647e-06 2.2669308e-06 2.982645e-06 2.8779184e-06 3.9566276e-06 2.1482579e-06 2.487414e-06 1.0461257e-06
4.592517e-08 1.0358076e-06 1.0343102e-06 2.309201e-06 1.1185799e-08 2.2324477e-06 1.9055248e-06 6.675488e-07
7.057885e-09 6.7269394e-07 6.7952703e-07 4.779046e-06 1.1738903e-08 4.503007e-06 3.7390544e-06 5.754237e-07
2.8474143e-09 5.74248e-07 5.4054703e-07 4.563554e-06 1.1232872e-08 4.1855587e-06 3.952579e-06 3.7855875e-07
2.281025e-09 3.7725033e-07 3.7989852e-07 2.0544774e-06 7.476707e-07 1.87912e-06 4.9700675e-06 1.8465125e-06
8.271369e-06 9.532027e-07 1.2211538e-06 2.8150412e-06 1.7680601e-07 3.799209e-06 3.2440414e-06 4.218283e-06
5.9833496e-06 1.0042637e-06 1.5893539e-06 5.1490324e-06 7.6634956e-07 7.478704e-06 6.0300913e-06 4.6190726e-06
4.6487417e-06 2.873734e-07 2.7097637e-06 6.3749117e-06 3.6313523e-08 1.05279405e-05 6.6622665e-06 2.7797946e-06
1.4138138e-06 4.3300815e-06 1.6602262e-06 3.3052281e-06 2.4396109e-06 1.8266609e-06 2.8261513e-06 5.1993148e-08
2.8380434e-06 3.1686557e-06 4.455865e-06 4.2443087e-08 4.370638e-06 4.4441986e-06 2.7468952e-06 4.668068e-08
2.7472636e-06 3.067205e-06 9.428165e-06 4.4458197e-08 8.937432e-06 8.549603e-06 2.7794852e-06 1.0894844e-08
2.7634749e-06 3.040373e-06 1.7959412e-05 4.204402e-08 1.645917e-05 1.2805395e-05 3.7346251e-06 8.643626e-09
3.685114e-06 3.819941e-06 6.4329774e-06 3.3472e-06 6.1722885e-06 1.4514142e-05 5.490575e-06 1.702111e-05
3.1633588e-06 5.1189677e-06 6.7556857e-06 5.332324e-06 7.790624e-06 7.823475e-06 7.084334e-06 9.810471e-06
3.6533416e-07 5.176053e-06 8.98583e-06 4.7283038e-07 1.2979943e-05 1.1434653e-05 7.962821e-06 8.032797e-06
5.4693967e-08 6.513911e-06 9.6769945e-06 1.1495459e-06 1.496075e-05 1.16294605e-05 8.698185e-06 5.402342e-06
1.103575e-05 6.251808e-06 9.502753e-06 7.786409e-06 6.970824e-06 9.350421e-07 2.7469852e-07 9.696845e-07
9.557158e-07 8.237613e-07 1.2633557e-08 8.264634e-07 8.8082476e-07 7.9523784e-07 1.0622523e-07 8.025901e-07
7.9626795e-07 2.3570583e-06 1.2963308e-08 2.2395534e-06 2.1506771e-06 6.8892257e-07 6.6390307e-09 6.879372e-07
6.7868973e-07 3.959505e-06 1.22529915e-08 3.636844e-06 3.4077118e-06 6.186702e-07 2.5281826e-09 6.1360026e-07
6.304859e-07 2.8356242e-06 6.3844177e-06 2.8039285e-06 7.392801e-06 2.2721877e-06 7.809008e-06 1.5885175e-06
1.699868e-06 2.5268346e-06 3.138659e-06 2.781237e-06 2.7305825e-06 3.0499298e-06 3.6488925e-06 2.2074878e-06
1.4744013e-06 4.5542047e-06 3.1633328e-06 5.742279e-06 4.792699e-06 4.1233448e-06 4.1692037e-06 3.5393923e-09
1.9806052e-06 4.561209e-06 1.8652319e-06 6.4154415e-06 5.0578487e-06 2.786719e-06 1.9845488e-06 4.140268e-06
2.2342567e-06 3.0152512e-06 3.4893258e-06 2.665181e-06 3.5674855e-06 1.5893698e-07 3.641973e-06 3.5637074e-06

exp_avg f4 [64]
00000000: a8d0 e239 8890 1339 5894 97b9 0f62 8939
00000010: 2748 eb39 9975 1dba 18f4 a037 0f89 9fb9
00000020: 6324 f438 1906 b2b9 8747 c2b9 b921 5a39
00000030: 5d22 8d39 c929 49b9 9bdf 37b8 0a71 26ba
00000040: 7ade 6c39 c331 67ba 0107 0837 f8c2 81ba
00000050: e979 ceb8 e701 aa36 5807 da39 33c7 31b9
00000060: a6cd cdb8 1957 18ba 2276 2e3a fa9e 0ab8
00000070: fdb9 df38 5494 f4b9 2def 1ab9 f494 a7b9
00000080: df2c 4439 ce1b 5c38 44c1 a839 b379 9639
00000090: 32a6 beb8 92e2 6eba eb47 a9b9 5d03 063a
000000a0: 9894 9cb9 d2bf 403a 20f4 1cb8 6434 9bb9
000000b0: a918 44b9 33af b6b8 8518 12b9 2b41 8a39
000000c0: 6ba7 083a c5a0 ecb9 138e 2db8 92e2 c5b9
000000d0: 15bd 56ba 5c37 b339 61b9 b839 9471 2eb9
000000e0: 281f 4a37 1f87 abb9 f097 25b7 ebe5 aab9
000000f0: c4a3 af39 bb16 deb9 6c4f 8c39 178b d539
0.0004326154 0.00014072855 -0.0002891149 0.00026203736 0.0004487645 -0.0006006598 1.9187151e-05 -0.0003042896
0.00011641604 -0.0003395535 -0.00037055856 0.00020802663 0.00026919218 -0.0001918442 -4.383885e-05 -0.00063492416
0.00022589593 -0.0008819366 8.107862e-06 -0.0009900024 -9.845553e-05 5.0666163e-06 0.00041585672 -0.00016954243
-9.813467e-05 -0.00058113184 0.00066551764 -3.3049822e-05 0.00010668112 -0.0004664982 -0.00014775684 -0.000319637
0.00018708732 5.2477983e-05 0.0003218745 0.00028700902 -9.090862e-05 -0.0009112741 -0.00032287775 0.00051121955
-0.0002986535 0.0007352802 -3.7420657e-05 -0.00029602938 -0.00018701203 -8.71107e-05 -0.00013932779 0.00026369965
0.00052129355 -0.0004513321 -4.137873e-05 -0.00037743576 -0.00081916276 0.00034182786 0.00035233333 -0.00016636244
1.2047392e-05 -0.00032716335 -9.870142e-06 -0.0003259623 0.00033500616 -0.00042360075 0.00026762055 0.00040730156

exp_avg_sq f4 [64]
00000000: 2d6e f635 b033 c935 b59d be36 8923 de35
00000010: 84ad 1237 c104 0e37 3e78 db36 cfad 2236
00000020: f65d 5f36 5c92 c135 b135 bb36 2d67 8735
00000030: 21d6 cb36 54ac ce36 b2a0 4436 7b08 0237
00000040: 1ebc 6d36 93e1 8436 9581 7936 f859 0237
00000050: 6650 f036 7866 3e36 352e 7b35 90e5 2536
00000060: 840f a736 188d cc36 ff4c 9737 a896 cb36
00000070: 727d ed36 f12a 2837 a3de b836 f829 f137
00000080: dbcd b836 c7b8 4136 cd3a 7036 dde0 5435
00000090: cede 7536 f311 aa36 e13c 1636 be1f 6a36
000000a0: 5c0d a636 d3d9 df36 239b 9835 eb3f 0537
000000b0: 0e48 a736 336e f336 8dc7 8936 1361 a036
000000c0: 1e9a a036 45d2 7136 052c 7a35 1fb5 4936
000000d0: 94a3 ed36 fddf 6936 e361 5e36 79b7 ff36
000000e0: 0a9a d235 d2e9 b236 b6ce b836 46e8 d036
000000f0: 34de 2037 83ce 2837 4eeb 5e36 b64c 4e37
1.8360494e-06 1.499071e-06 5.6808008e-06 1.6550631e-06 8.742678e-06 8.464966e-06 6.5407066e-06 2.424105e-06
3.3284282e-06 1.4422217e-06 5.579285e-06 1.0088312e-06 6.0747993e-06 6.15934e-06 2.9299813e-06 7.750578e-06
3.542525e-06 3.960167e-06 3.7179318e-06 7.769551e-06 7.161917e-06 2.837185e-06 9.3572027e-07 2.472054e-06
4.978794e-06 6.0960992e-06 1.8036457e-05 6.06741e-06 7.077754e-06 1.0023578e-05 5.5095456e-06 2.8748982e-05
5.507592e-06 2.8866796e-06 3.5797013e-06 7.9303373e-07 3.6637534e-06 5.0684844e-06 2.2387178e-06 3.4887194e-06
4.9487408e-06 6.671276e-06 1.1370033e-06 7.9423e-06 4.985376e-06 7.254793e-06 4.106149e-06 4.7796725e-06
4.786313e-06 3.6034191e-06 9.3196314e-07 3.005676e-06 7.0821934e-06 3.4850084e-06 3.3137555e-06 7.6209512e-06
1.569105e-06 5.3320337e-06 5.5076916e-06 6.2259232e-06 9.588479e-06 1.0061663e-05 3.3217543e-06 1.22964175e-05
