Assets/_created_block_bigger_gradual_reward_increased_length_continuous_dynamics_Added_checkpoint_ontriggerenter_Renaming_sensor_beta_0.003_increased_rewards_corrected_blocker/competitor/competitor-12999945.onnx (onnx, 47196 bytes, 17 tensors)

discrete_act_size_vector f4 [1, 3]
000000 00 00 00 40 00 00 00 40 00 00 00 40
       2.0 2.0 2.0

network_body.observation_encoder.processors.0.normalizer.running_mean f4 [28]
000000 1b 99 6e 3e a1 16 05 3c 61 44 42 3f a9 40 4b 3f
       0.23300593 0.008123071 0.7588559 0.7939554
000010 85 b3 54 3e e8 50 00 3c 02 d1 48 3f 75 39 50 3f
       0.20771606 0.00783179 0.7844392 0.8133767
000020 49 0b 6a 3e e0 f0 9c 3b ee 42 44 3f 49 66 4d 3f
       0.22855867 0.0047894567 0.76664627 0.802342
000030 5b 61 0d 3e 7c dc 07 3c 5c 89 5a 3f ef 2f 5e 3f
       0.1380667 0.008292314 0.85365844 0.8679189
000040 24 ef 13 3e 98 db 04 3b dc 7e 5a 3f 59 02 5e 3f
       0.14446694 0.002027249 0.8534982 0.8672233
000050 f4 9c ac 3d ab 44 00 3c bc 68 68 3f a2 9d 6a 3f
       0.08428374 0.007828872 0.9078481 0.9164678
000060 85 e8 b9 3d 6a 8f d3 3a 2f 59 68 3f 18 32 6a 3f
       0.09077553 0.0016140763 0.90761083 0.91482687

network_body.observation_encoder.processors.1.normalizer.running_mean f4 [28]
000000 d4 44 a2 3e 41 9d 17 3d fa f7 24 3f 04 69 64 3f
       0.31693137 0.037015203 0.6444088 0.8922274
000010 a7 19 31 3f 2c 6d 70 3d b6 72 7f 3e 7e 21 0e 3f
       0.6917977 0.058697864 0.24946102 0.55519855
000020 ef da 43 3f d0 3d 0a 3d 87 88 36 3e 77 aa ff 3e
       0.7650594 0.033750355 0.17825519 0.49934742
000030 42 e2 4f 3f db 5b 08 3e bb 3f 60 3d e6 5c d3 3e
       0.8120462 0.1331629 0.054748278 0.41281813
000040 60 18 5b 3f 32 5e cc 3c b2 48 c9 3d 92 9c 9a 3e
       0.8558407 0.02494726 0.09828319 0.3019758
000050 c0 d6 57 3f e3 de 1e 3e c6 69 de 3a 68 59 b4 3e
       0.8431206 0.15514712 0.0016968779 0.35224462
000060 f6 a0 64 3f 28 45 92 3c 45 50 86 3d 5b 20 86 3e
       0.89308107 0.017855242 0.06558279 0.2619656

network_body.observation_encoder.processors.2.normalizer.running_mean f4 [7]
000000 17 9f 67 43 a7 15 4d 42 3d b5 4e 42 e5 fa 4b 42
       231.62144 51.271145 51.67699 50.995014
000010 58 ff 4c 42 1d 00 4e 42 df db 4b 42
       51.24936 51.50011 50.964718

network_body._body_endoder.seq_layers.0.weight f4 [64, 63]
000000 29 3f ca bd 57 c8 b1 3d 25 83 77 bb a7 5c 87 3e
       -0.09875328 0.0868079 -0.0037767377 0.26437876
000010 a8 70 fd 3e 66 c4 dc be 67 4a 6a be de d2 f2 3c
       0.49500012 -0.4311859 -0.22879945 0.029641565
000020 44 7e 3f bd 12 65 2e 3f 7c bf 6c bd 3e 4f 0e 3e
       -0.046751276 0.6812297 -0.0577998 0.13897416
000030 33 b3 3a 3f e2 a6 fe 3c 4e 7f a7 bd 6e 66 2d be
       0.72929686 0.031085435 -0.08178578 -0.16933605
000040 ce 2b c4 bd 71 1c 75 3f cd 22 ba bd fa d3 c0 be
       -0.095786676 0.95746523 -0.09088669 -0.37661725
000050 c9 62 08 3f 40 05 43 be 25 5c 53 3e 96 bc cb 3b
       0.53275734 -0.19044971 0.20640619 0.0062175496
000060 3e 38 ac be bf 2a e8 3e b5 f7 2d 3f 01 0c 29 3f
       -0.3363666 0.45345113 0.67956096 0.6603394
000070 cb 28 c1 3f 93 8f e8 be 17 ef 85 bf dc a2 d0 be
       1.5090574 -0.45422038 -1.046359 -0.40749252
000080 3b ae 1d 3f 08 1d 8c be 68 4e 95 bc 52 33 d8 3f
       0.6159398 -0.273659 -0.018225864 1.6890662
000090 5b 93 1b 3e a4 4b c7 3f 05 df 95 bf c0 df a1 bf
       0.1519293 1.5569959 -1.1708685 -1.2646408
0000a0 03 d0 63 bc af de 78 3e c8 a1 36 bf 0c f2 5f be
       -0.013904574 0.24303697 -0.7134061 -0.21869677
0000b0 f4 e0 e8 3d 77 4b 23 bc 68 b7 d1 be 51 f0 79 3e
       0.113710314 -0.009966723 -0.4096024 0.2440808
0000c0 dc 1a 9d bd cf d9 a6 3e 5b 9b 66 3f 8e ef 3c bf
       -0.07671139 0.3258805 0.90080804 -0.7380303
0000d0 3b b4 bf 3b e7 68 92 bf 89 b2 90 3f 41 ef af 3e
       0.0058503426 -1.1438264 1.1304485 0.34362224
0000e0 46 db e6 3e eb c4 a1 bd 3e 50 55 be c6 e3 15 3f
       0.45089167 -0.07898887 -0.20831391 0.5855068
0000f0 37 37 71 3e 8b b8 46 bf 8d 1b 32 3e 4a 8b d9 3e
       0.23556219 -0.7762534 0.17393322 0.42489082
000100 af 2a 2f 3f fc 99 d8 be 6d 95 39 bf eb 75 d7 3e
       0.68424505 -0.4230498 -0.7249363 0.42082152
000110 c4 00 f4 3e 37 8d 44 be 7d 82 f6 be c3 de 32 bf
       0.47656834 -0.19194494 -0.4814643 -0.6987116
000120 c2 d5 ad be f6 fa 71 3f 62 13 1a 3f 8b 54 df 3e
       -0.33952147 0.9452356 0.60185826 0.4361919
000130 a7 94 6f 3f 6d 6c 8c be 72 b9 88 be 0e ff aa 3f
       0.935862 -0.27426472 -0.26703984 1.3359087
000140 af b4 7a 3f 9f ce 98 bf 76 56 78 bf e6 e6 33 bf
       0.9793195 -1.1938056 -0.9700693 -0.702742
000150 75 a4 9e 3f a3 74 0d 3f a6 de 40 3f 6d a3 26 bf
       1.2393938 0.552561 0.75339735 -0.6509312
000160 c2 2e 21 3f dc a9 3d 3f 30 ec 41 3f 24 68 75 3f
       0.6296197 0.7408731 0.7575102 0.9586203
000170 45 21 0d bf 88 d5 de be b2 1d 47 3e 73 a1 71 3f
       -0.5512889 -0.43522286 0.19444922 0.94386977
000180 ed a5 9f be 92 47 aa bf 70 2a 99 bf 55 05 84 3e
       -0.3118128 -1.3303092 -1.1966076 0.25785318
000190 03 2a b4 bf 8e f6 3b 3f fe 15 0a bf 3b 46 e7 be
       -1.4075321 0.7342309 -0.5393981 -0.4517077
0001a0 a2 f6 49 3f 08 cc b2 be ea e5 17 bf ce 3a 4d 3e
       0.78891957 -0.34921288 -0.59335196 0.20041963
0001b0 94 96 12 be 39 f6 88 3e 55 34 9d 3e bb 2d a7 be
       -0.14315253 0.26750353 0.3070399 -0.32652077
0001c0 ad 8d 50 be af 3f 5a 3f 95 11 22 3f 92 9b a1 be
       -0.20366545 0.85253423 0.6330808 -0.31564003
0001d0 f6 e5 79 bf 19 5d fe 3e a2 6e 5b 3f b6 c4 e3 3f
       -0.9761652 0.49680403 0.8571569 1.7794406
0001e0 99 c9 82 bf df 09 7f bf 68 1b b3 3e ea 22 84 3d
       -1.0217773 -0.9962444 0.34981847 0.06451972
0001f0 2f a3 fd be e7 6d da be fd 63 9c bd fe da 98 3e
       -0.49538562 -0.42661974 -0.07636259 0.29854578
000200 f1 dc c6 3e 76 b4 65 3e c5 65 e0 3e 4e b2 0a 3f
       0.3884044 0.22432122 0.43827644 0.5417832
000210 46 5a 56 3a d8 4f c7 3d 32 7d a3 be e2 9e 67 3e
       0.0008176904 0.09732026 -0.31931454 0.22619203
000220 38 d0 aa 3e 14 73 85 be 06 32 bd 3e 63 5d 63 bf
       0.33361983 -0.2606436 0.36952227 -0.8881437
000230 42 17 16 3f c7 ee 17 3f f4 6c 0f be f3 45 3b 3f
       0.5862924 0.5934872 -0.14006406 0.7315361
000240 f9 c4 92 3e 3d 28 61 3e 16 de 39 3f 14 a6 da 3e
       0.28665903 0.21988006 0.726045 0.42704833
000250 ee 0d 9d be 68 ac bd be 31 f7 0c be 10 9c cd bd
       -0.3067469 -0.37045598 -0.13766171 -0.10039532
000260 82 b1 64 3c 63 2a e1 be 8d 0a a3 3e 0a 33 35 be
       0.013958337 -0.4397765 0.31843987 -0.17695251
000270 01 3c ce 3d cd f4 9d bf 93 80 b0 be d2 5d 93 3e
       0.100700386 -1.2340332 -0.34473094 0.28782517
000280 37 88 88 3e eb be 2d c0 0f 80 5f 3f 2d 46 f4 3e
       0.26666424 -2.7147777 0.87304777 0.4770979
000290 e5 ad ca be 69 eb ff 3f 60 39 2a bf 24 f8 7d 3f
       -0.39585796 1.9993716 -0.664938 0.9920676
0002a0 c7 df 26 bf c8 32 0b c0 d1 09 19 3f d0 93 f4 bf
       -0.6518521 -2.1749744 0.59780604 -1.9107609
0002b0 c0 eb 22 3f 03 fc 93 3e 25 af 58 3f f9 55 0b bf
       0.63640976 0.28903207 0.8464225 -0.5442806
0002c0 90 c9 f2 3e 44 73 9a bf a2 ca 00 bf 31 65 55 3f
       0.47419405 -1.2066426 -0.50309193 0.8335753
0002d0 af 4e bf bd 93 71 62 bd da 73 d2 3e 46 b8 b2 be
       -0.093411796 -0.055284094 0.41104013 -0.34906214
0002e0 bd aa ff bc 84 0e aa be fe 66 82 3e ff 50 c1 be
       -0.031209344 -0.332142 0.25469202 -0.37757108
0002f0 83 7d 14 bf ea 18 7e 3f 80 f1 93 3f ee 68 c9 bf
       -0.58004016 0.99256766 1.1558075 -1.5735147
000300 14 7f b0 bf b9 96 34 bf f3 49 94 3f bd ea 24 be
       -1.3788781 -0.70542485 1.1585068 -0.1610517
000310 40 85 a1 be e1 0b 4e 3f 43 dd d3 3d df d1 85 bf
       -0.31546974 0.80486876 0.10344937 -1.0454673
000320 64 46 5d bf c3 d3 81 bd 83 32 96 3e a6 b1 41 3e
       -0.8643553 -0.063392185 0.29335412 0.18915424
000330 43 b5 00 3d 20 44 ac be 8d a4 c6 3e f7 99 84 bb
       0.031422865 -0.33645725 0.38797417 -0.0040466744
000340 b4 41 96 3d 68 b8 bf be a1 04 41 3f 70 42 f8 bd
       0.073367506 -0.37445378 0.7539769 -0.12122047
000350 1f 2e 95 be 05 a7 6c bf 42 8f 4a 3f d7 74 0f 3f
       -0.2913675 -0.9244235 0.79124844 0.5603766
000360 30 50 0a 3f 8d 7b 62 3f c5 f3 6a 3e e3 92 20 bf
       0.54028606 0.88469774 0.22944553 -0.6272413
000370 e1 ec 86 bf 76 01 ee be fb 44 1c 3f 5d f6 59 3a
       -1.054104 -0.4648549 0.61042756 0.0008314604
000380 26 a1 18 3d 90 f5 30 3e 70 c9 e1 bd 42 ed 7c 3f
       0.037263058 0.17281175 -0.11024749 0.98799527
000390 11 70 05 c0 0b 9f 54 3f d1 09 4d bf 81 6a a9 3f
       -2.084965 0.8305518 -0.80093104 1.3235627
0003a0 86 15 8c be 14 13 83 bf 86 f9 21 3f 36 86 ed 3f
       -0.2736017 -1.0240197 0.6327137 1.8556583
0003b0 fb 7e 93 bf 7a db bd bd ca 31 06 3e 27 8f 22 bf
       -1.1523126 -0.092703775 0.1310493 -0.63499683
0003c0 11 df c8 be bd 19 93 be b0 fe 82 3f 44 16 f0 3d
       -0.39232686 -0.28730574 1.0233974 0.11722997
0003d0 37 df 5f bf 25 1b 3a 3c 13 fe 07 bf 09 c3 61 3f
       -0.87449974 0.011359011 -0.5312206 0.88188225
0003e0 fa b3 92 be b3 dc e0 be 88 c5 45 3f 9c cb d7 3f
       -0.28652936 -0.4391838 0.77254534 1.6859012
0003f0 54 0c 2b 3f 72 b8 fc 3f 7c ed 2d bf e9 91 2d bf
       0.66815686 1.9743788 -0.679405 -0.67800766

network_body._body_endoder.seq_layers.0.bias f4 [64]
000000 0d 1c 23 c0 04 d1 f9 bf c4 6b d4 bf 8b 94 8a bf
       -2.548587 -1.9516912 -1.6595387 -1.0826582
000010 a8 bb 99 be 87 17 19 c0 0c e5 ea bf 14 9b f3 bf
       -0.30025983 -2.392061 -1.835115 -1.9031701
000020 05 08 87 bf 34 f6 13 c0 0f de ee bf 4e 95 14 c0
       -1.0549322 -2.311902 -1.8661517 -2.3216128
000030 5c b0 36 bf 73 83 01 c0 00 d2 16 c0 b4 48 cf bf
       -0.71362853 -2.023648 -2.3565674 -1.6194062
000040 33 5e ac bf 35 23 c9 bf 4d e1 04 c0 85 cb 8e bf
       -1.3466247 -1.5713869 -2.0762513 -1.1155859
000050 d2 fb 58 c0 e6 cc 02 c0 91 0d 3b c0 c2 e7 cf bf
       -3.39037 -2.043756 -2.922703 -1.6242602
000060 bb 32 3f c0 51 83 f7 bf a9 0e 79 bf 17 31 da bf
       -2.9874713 -1.933695 -0.97287995 -1.7046231
000070 28 31 79 bf 3a 07 08 bf af bf 7a bf d5 30 8c bf
       -0.9734063 -0.53136027 -0.97948736 -1.0952402
000080 62 30 4a c0 5c b2 5f bf 3a 64 07 c0 69 7e d8 bf
       -3.159203 -0.8738153 -2.1154923 -1.6913577
000090 5f 6b 90 bf 43 4c eb bf 5f 5f 05 c0 de 9e dd bf
       -1.1282767 -1.8382648 -2.083946 -1.7314107
0000a0 50 05 bb bf a1 50 4a bf d3 b8 d2 bf a1 95 1f c0
       -1.4610996 -0.7902928 -1.6462654 -2.4935076
0000b0 5c 53 9b bf 31 38 9d bf af ab e5 bf 2d 65 c7 bf
       -1.2134814 -1.2282773 -1.7943019 -1.5577751
0000c0 a0 d8 af bf d4 c4 0e c0 3b 3e 21 c0 a1 44 08 c0
       -1.3737984 -2.2307634 -2.5194232 -2.1291888
0000d0 35 56 84 bf 46 62 84 bf dd 40 f9 be 4d 51 3b bf
       -1.0338808 -1.0342491 -0.486823 -0.7317093
0000e0 98 7a 24 c0 6e c9 42 c0 be 1f e1 bf 4e 3e c2 bf
       -2.5699825 -3.0435443 -1.7587812 -1.5175264
0000f0 7f e0 a2 be 3c 0c 0c c0 af 0a c6 bf be 65 81 bf
       -0.31811902 -2.1882467 -1.547201 -1.0109174

network_body._body_endoder.seq_layers.2.weight f4 [64, 64]
000000 96 04 2f 3e f2 36 22 bf 6d a8 98 bb 60 fa a5 bd
       0.17091593 -0.6336509 -0.00465875 -0.08104396
000010 f3 4f 8f 3e 5a 17 06 bf 85 a6 59 3f 81 09 09 bf
       0.27990684 -0.5237938 0.85019714 -0.53530127
000020 53 fa 47 bf de f1 25 bf 44 e3 a6 be e7 37 81 be
       -0.7811634 -0.64822185 -0.32595265 -0.25237963
000030 01 a9 56 bf b4 83 a2 bf b6 7b 1d 3e 95 dd fa 3e
       -0.8385163 -1.2696443 0.15379223 0.4899718
000040 10 d7 c0 bf c2 9a 38 bf 76 14 c9 bf 41 9e 08 c0
       -1.5065632 -0.7211114 -1.5709369 -2.134659
000050 f5 1a 0d 3f 88 72 38 bf 8f 05 95 3f d9 7c 0d 3f
       0.5511926 -0.7204976 1.1642321 0.5526863
000060 e9 65 c2 3d 29 0c 8f 3e a3 73 35 be e9 18 b6 be
       0.09492094 0.27938965 -0.17719893 -0.3556588
000070 41 4b 07 3e 55 fa 64 be 02 29 9d 3e b2 ff 97 bf
       0.13212301 -0.22361119 0.3069535 -1.1874907
000080 66 ec c2 bf 84 05 c1 3e df a0 99 bf b6 0c a8 bf
       -1.5228393 0.3769952 -1.2002219 -1.3128879
000090 77 15 4e 3f 61 76 b9 bf e6 cc 76 be af 59 38 3f
       0.805015 -1.4489251 -0.241016 0.72011846
0000a0 e3 6c 42 bf 0d 2d d1 3d dd b4 89 3d 2c 5a 95 be
       -0.759474 0.10213671 0.0672395 -0.29170358
0000b0 97 7a 2f 3e bc 68 b7 3e ff a9 49 bf f2 fb 63 3f
       0.17136608 0.35822093 -0.7877502 0.89056313
0000c0 90 fb 11 3e dd 3e 84 be 62 c5 bc be 8f 09 c9 bf
       0.1425612 -0.2582921 -0.3686934 -1.5706042
0000d0 d2 06 0b c0 2c 4c 67 bf 4b fb a8 be b1 5e 81 3e
       -2.1722913 -0.90350604 -0.3300422 0.25267556
0000e0 87 75 54 3f 2a fd db bd 5b 32 a7 be 52 8b 08 bf
       0.8299183 -0.107416466 -0.32655606 -0.53337586
0000f0 f0 6e 04 bf d5 20 90 bf 6e 10 b1 bf 2c ac 2d bf
       -0.5173178 -1.126002 -1.3833139 -0.6784084
000100 8c d7 00 bf 81 a7 74 be 88 f3 39 3f f7 6c 92 bf
       -0.503289 -0.23892023 0.72637224 -1.1439503
000110 e7 05 5f bf 1b 1d b5 be 04 e3 a4 bf f4 f4 13 3e
       -0.8711838 -0.35373768 -1.288178 0.14448911
000120 6d 8e 87 bf 3f ed 56 3d bd d3 62 bf 6a 6d 6f bf
       -1.059034 0.05247235 -0.88604337 -0.9352633
000130 a7 7b 05 3f 40 c4 22 bf 38 7e 81 3f 56 d7 ec 3c
       0.52141804 -0.63580704 1.0116644 0.028911274
000140 b0 2b 43 bf 6a d5 31 be 41 bd 1c 3f 96 63 fe 3c
       -0.76238537 -0.17366567 0.6122628 0.031053346
000150 7f 1f a1 3e 2f 31 95 3e 0a 55 3a 3e 3d 0d 88 be
       0.31469342 0.29139087 0.18196502 -0.265726
000160 9f b9 a1 bd a7 84 bd 3e 4a ef c2 bf 5c 19 78 bf
       -0.078967325 0.37015268 -1.5229275 -0.96913695
000170 4d da 8d bf 7f 15 22 be fd 63 a3 bd b3 f7 c5 bf
       -1.1082245 -0.15828513 -0.079780556 -1.5466217
000180 a0 f6 47 3f f8 05 98 bf ea 2b 29 bf a8 b6 b9 bf
       0.78110695 -1.1876822 -0.6608263 -1.4508867
000190 11 d6 9c bf 87 4f c7 3e 4b 81 31 3d c3 ac 5d bf
       -1.2252828 0.38927862 0.043336194 -0.8659174
0001a0 77 e2 9c bf 00 9c 32 be 7d 8b c0 bf fb e2 b0 be
       -1.2256612 -0.17442322 -1.5042568 -0.34548172
0001b0 ee 18 44 bf 89 76 46 3f ea 21 16 3e 16 37 f2 bf
       -0.7660054 0.7752462 0.14661375 -1.8923061
0001c0 3e e1 e8 3e 38 f5 e1 be b6 90 ce 3d 98 9e dd be
       0.45484346 -0.441324 0.10086195 -0.4328506
0001d0 b5 25 d6 be 9d 92 3a 3f 87 59 62 bf bf 99 84 3d
       -0.41825643 0.72879964 -0.8841786 0.06474637
0001e0 0e 3a 8e bf 92 a8 7f 3e 07 fb 3c 3f 8a 26 0c be
       -1.1111467 0.24966648 0.7382054 -0.13686576
0001f0 45 a3 cf be 08 6e c5 bf 48 6f 0a bf 6d 04 35 bc
       -0.40554252 -1.5424204 -0.5407605 -0.0110484185
000200 5f 1b 64 3e 4c 57 9f 3e 2b 3a 79 3f 1c 25 70 be
       0.22276066 0.3112129 0.9735438 -0.23451656
000210 28 62 3a bf a5 0f c7 be f8 6b 38 3f e6 fd 51 3e
       -0.72806025 -0.38879123 0.7203975 0.20507011
000220 f4 5c d4 bd 1a 89 5f 3f bc 0a 8e bd 46 27 88 3f
       -0.10369292 0.87318575 -0.06935641 1.0636985
000230 9a d0 ed 3e 90 d5 a2 bf 0a e7 b6 3e 87 43 a0 be
       0.46448213 -1.2721424 0.35723144 -0.3130152
000240 db e5 4f bf e5 36 20 be 38 2b 58 3d e9 d3 9b 3e
       -0.81210107 -0.1564594 0.05277559 0.30435112
000250 89 21 ce be f3 e8 73 bf 62 2f 0b 3e a7 e8 5f 3f
       -0.4025996 -0.9527733 0.13592294 0.87464374
000260 aa 8e ab be 1d a4 4d 3f 30 3d 97 3f ab 5f 02 c0
       -0.33507282 0.8032854 1.1815548 -2.037089
000270 c0 f9 b4 bf 26 52 1c bf 12 a5 94 bf c6 73 69 c0
       -1.4138718 -0.6106285 -1.1612875 -3.6476912
000280 b6 90 d5 bf cc 4b 18 be 84 f9 61 bf 6d 7a 20 bd
       -1.6684787 -0.14872664 -0.88271356 -0.039179254
000290 45 b1 bf bf d5 6f 1c be 8a 10 73 be 2c b7 83 bf
       -1.4975973 -0.15277036 -0.23736778 -1.0290275
0002a0 82 cf 60 be 5c df fd bf 92 bc e8 bd eb 5d 3f bd
       -0.21954158 -1.9833789 -0.11364092 -0.046720427
0002b0 72 9d 28 bf 4a 2e f0 bb c9 f1 19 3f 32 6e 38 3f
       -0.6586524 -0.007329737 0.6013456 0.72043145
0002c0 0e 0a e4 be ee 1e 12 be fc 41 97 3e ac 9e 14 be
       -0.4453892 -0.14269611 0.2954253 -0.14513654
0002d0 85 c5 c2 be 6d 90 be be 47 63 4c bf 46 fa a4 bf
       -0.3804132 -0.37219563 -0.79838985 -1.2888877
0002e0 98 22 9c bf 53 c1 be bf b0 1e 5d 3f d1 8c 4c 3f
       -1.2198057 -1.4902748 0.8637495 0.7990237
0002f0 b9 21 a2 be fa 13 20 3d 55 8b a4 bf 0b 29 4d bf
       -0.31666353 0.03908155 -1.2855021 -0.8014075
000300 d2 96 6d 3f 4c aa 8e bf 2f 21 8c 3f 52 3a 06 3f
       0.9280826 -1.114572 1.0947627 0.5243274
000310 dd b5 66 be 4d cc 19 bf 88 84 34 bf 34 69 8f be
       -0.22530313 -0.60077363 -0.70514727 -0.2800995
000320 ce 1c fc be 29 20 0c 3f cc 87 08 3f 0a fb 07 3f
       -0.49240726 0.5473657 0.5333221 0.5311743
000330 ef e6 86 bf 18 a6 87 bf 30 99 06 3f cc 46 6a 3e
       -1.0539225 -1.0597563 0.52577496 0.2287857
000340 6c 79 c2 be 88 3c 41 bf 2d 5b 33 3e b1 bc bf be
       -0.37983263 -0.7548299 0.1751525 -0.37448648
000350 9e 5c 58 3f 99 5f 93 bf 20 be aa 3e 47 27 18 3d
       0.8451632 -1.1513549 0.3334818 0.037146833
000360 73 90 1d 3f 60 ac 42 bf 70 7a a3 be 21 ea b1 3e
       0.61548537 -0.76044273 -0.3192935 0.3474894
000370 f4 9c 4a 3f f7 a6 e1 3e ef 67 62 bf ea fa 32 bf
       0.7914574 0.44072697 -0.8843984 -0.69914114
000380 6e 7c 0b c0 53 7c 0c 3e 98 b6 2d bf 2b d9 86 3f
       -2.1794696 0.13719301 -0.6785674 1.0535024
000390 71 93 a4 bf 9b d8 54 3f f0 70 4b bf af 8c 4b bf
       -1.2857496 0.83143014 -0.79469204 -0.7951154
0003a0 fb fb db bf 40 bb 9d bf c3 26 9c be ad 0a f8 bf
       -1.7186273 -1.2322769 -0.30498323 -1.9378258
0003b0 9a 32 28 c0 5a 0f 24 3f 20 11 07 3e 21 ff cc be
       -2.6280885 0.64085925 0.13190126 -0.40038398
0003c0 10 e4 27 3f 6a 30 dc bf 83 52 cb bf b4 73 b4 be
       0.6558237 -1.7202275 -1.5884556 -0.35244524
0003d0 ac 57 10 c0 02 89 a7 bd 74 ef 5b be c0 9c 89 bf
       -2.255351 -0.08180429 -0.21478063 -1.0750961
0003e0 68 42 ed 3e e5 69 74 bf ba e1 76 be 47 9a 9b be
       0.46339726 -0.9547408 -0.24109545 -0.30391142
0003f0 38 76 7e bf 77 58 7c 3e de 52 18 bf 61 34 21 bf
       -0.9939914 0.24643122 -0.59501445 -0.6297055

network_body._body_endoder.seq_layers.2.bias f4 [64]
000000 84 f7 96 bf 4d 36 e3 bf 4b 00 e4 be 5b 4e 75 bf
       -1.1794286 -1.7750946 -0.44531474 -0.95822686
000010 67 5d 35 be 98 8b af bf 22 15 cb bf 5f 0d 09 c0
       -0.17711411 -1.3714476 -1.5865824 -2.141441
000020 a5 13 54 bf 75 ab 80 bf ab 7d 3c be 88 55 9c bf
       -0.82842475 -1.0052325 -0.18407314 -1.2213602
000030 4a 3e 9a bf d4 d6 c8 bf bd 66 05 3f 9b 40 84 bf
       -1.2050259 -1.569056 0.5210989 -1.0332216
000040 55 9d e2 bf 32 b4 aa be 32 8b 04 c0 ad 75 ae 3e
       -1.7704264 -0.33340603 -2.0709958 0.34074154
000050 21 47 be bf df ea ac bf a1 1b 54 bf 45 8b 74 3e
       -1.4865457 -1.3509177 -0.8285466 0.23881252
000060 0f 09 e2 be 75 78 8f bf 4f a8 9c bf e8 5d 94 be
       -0.44147536 -1.1208636 -1.2238864 -0.28977895
000070 75 82 4e be 02 fd 7f bf ff 44 93 bf 3e 9e 97 be
       -0.20166953 -0.99995434 -1.1505431 -0.29612917
000080 0a 9f a0 be 4a 45 ae bf 2b 30 f6 bf e4 ff 8a bf
       -0.31371337 -1.3614895 -1.923345 -1.0859342
000090 e0 2f 32 bf 5b 3a 70 bf e9 55 d9 bf a1 0b 9f bf
       -0.696043 -0.93839043 -1.6979343 -1.2425424
0000a0 a8 6b 9a be 83 65 e3 bf 56 36 20 bf 9a df c7 bd
       -0.3016026 -1.7765354 -0.6258291 -0.097594455
0000b0 ec 80 a6 bf fa 95 c7 be c1 2b 09 c0 99 02 48 bf
       -1.3008094 -0.3898161 -2.1432955 -0.78128964
0000c0 b7 5e 0a c0 57 69 ac be 73 61 a3 bf a9 98 01 bf
       -2.162031 -0.33674118 -1.2764114 -0.50623566
0000d0 43 16 62 bf af 05 93 bf 70 99 35 bf b5 9d a7 bf
       -0.8831522 -1.148611 -0.7093725 -1.3095003
0000e0 45 4c 68 bf bc 57 8b bf d3 75 f4 be c3 a9 13 c0
       -0.9074138 -1.088615 -0.47746143 -2.3072364
0000f0 c3 2b 9d bf 23 c6 57 bf 11 df 8c 3e 24 ef 2a bf
       -1.227898 -0.8428671 0.27513936 -0.6677115

action_model._discrete_distribution.branches.0.weight f4 [2, 64]
000000 2d 7a f7 bd 3a 8e 55 3f 7e e8 cb 3c cd 38 92 be
       -0.1208385 0.83420146 0.024891134 -0.2855896
000010 9f 1e a4 bb dc 0f 91 3e 6a 04 6a be 52 35 4f 3e
       -0.005008533 0.28332412 -0.22853246 0.20235184
000020 2d 72 0e be eb 46 09 3c c3 55 84 be 34 ae 2e 3e
       -0.13910742 0.008378725 -0.2584668 0.1705864
000030 01 77 4f be b9 b0 23 bd f2 4f 08 3d f6 7a 87 bd
       -0.2026024 -0.039963458 0.033279367 -0.0661525
000040 27 42 2f bd 97 ce fd bd 18 10 57 3f b6 da 07 be
       -0.042787697 -0.123929195 0.8400893 -0.13267025
000050 9f b4 5c bf 2d 51 11 bf c6 ad b2 bd 89 9f 43 3d
       -0.86213106 -0.5676449 -0.08724551 0.047759566
000060 1f f7 81 3d 77 bf 75 be 26 a3 a6 bc ad 36 4c 3f
       0.06345963 -0.2399882 -0.020341467 0.7977093
000070 6a f5 11 be 91 7b 48 3e c8 de b1 be a7 b2 41 be
       -0.14253774 0.19578387 -0.3474028 -0.18915807
000080 59 89 18 3d e6 c2 83 3e 41 d0 70 3e a0 ef bd 3f
       0.03724036 0.25734633 0.23516943 1.4838753
000090 da 34 12 3e 18 3d 2b 3d 8b 5c 14 3e bc fb 06 bf
       0.14277974 0.04180631 0.14488427 -0.52727866
0000a0 eb f9 aa bc e8 b8 72 bc f7 1d ec 3c e1 4e 72 be
       -0.020871123 -0.014814593 0.028822882 -0.23662902
0000b0 47 c1 73 3f ab 08 56 3e 61 87 58 3f 77 0a 34 3f
       0.9521679 0.20901744 0.8458157 0.7032847
0000c0 d3 f2 8a be a4 31 bd bd 27 ad 35 3f a6 c0 58 bd
       -0.27138385 -0.09237984 0.70967335 -0.0529181
0000d0 3d e5 1d be 24 5e 91 3d 05 65 a4 3d 33 cf da bd
       -0.15419479 0.07098034 0.080270804 -0.10684051
0000e0 91 14 58 3e e4 d6 17 bf d7 30 23 bf f7 54 c7 bf
       0.21101595 -0.5931227 -0.637464 -1.5572804
0000f0 a3 8e a7 be 49 17 2f be 3a d4 a2 bd cd e5 4b be
       -0.3272601 -0.17098726 -0.07950635 -0.19911881
000100 f0 ee dc 3d 6c 05 54 bf 19 89 13 b9 45 49 95 3e
       0.10787761 -0.82820773 -0.00014070085 0.29157463
000110 03 14 4e 3c 47 b8 95 be 73 7d 6d 3e 8d de 45 be
       0.012578013 -0.29242155 0.23192386 -0.19323178
000120 55 95 17 3e a6 df 41 bc fa 2d 71 3e 6b 8a 30 be
       0.1480306 -0.011833107 0.23552695 -0.17240302
000130 cc 44 53 3e a9 26 89 3d 7a 31 e0 bb 48 b1 6f 3d
       0.20631713 0.06696827 -0.0068418356 0.058518678
000140 0c b0 53 3d d6 39 11 3e 84 20 5a bf 3b 3a fa 3d
       0.051681563 0.14182219 -0.85205865 0.12218138
000150 cc 5c 5b 3f e1 fa 0e 3f da fd 96 3d 54 ab 67 bd
       0.8568847 0.5585156 0.07372637 -0.056559876
000160 f9 46 cd bd f1 02 80 3e db 7f 1a bb b5 4a 4e bf
       -0.100233026 0.25002244 -0.0023574743 -0.80582744
000170 d5 1c 23 3e 60 df 3b be 70 8c 9e 3e f8 53 47 3e
       0.15928967 -0.1834693 0.3096652 0.19465625
000180 16 d0 22 bd d6 6f 80 be 77 59 54 be 7b b3 be bf
       -0.039749227 -0.25085324 -0.20737253 -1.4898523
000190 33 6e 2e be 39 78 59 bd 94 6d fa bd 29 73 0c 3f
       -0.17034225 -0.05309317 -0.122279316 0.5486322
0001a0 9e 62 0e 3d a1 c7 1d 3c f7 02 35 bc b1 63 6c 3e
       0.034762017 0.009630115 -0.01104807 0.23084904
0001b0 23 d5 74 bf e0 d8 58 be 39 cf 53 bf 05 9c 35 bf
       -0.9563772 -0.21176481 -0.8273807 -0.7094119
0001c0 c3 2f 83 3e 72 e4 b9 3d b8 1c 2f bf 1c 34 aa 3c
       0.25622377 0.090767756 -0.68403196 0.0207768
0001d0 86 3f 32 3e 3d 02 b0 bd f5 cc b1 bd 92 c0 bd 3d
       0.17407045 -0.08594177 -0.086816706 0.092652455
0001e0 55 66 4d be 7c 29 1a 3f 0e d7 1d 3f 49 07 ca 3f
       -0.20058568 0.6021955 0.6165627 1.5783473
0001f0 d0 82 a8 3e 0f 50 d4 3d ef b1 20 3d b7 21 53 3e
       0.32912302 0.103668325 0.03923219 0.2061833

action_model._discrete_distribution.branches.0.bias f4 [2]
000000 4c 34 af 3f 3d 34 af bf
       1.3687835 -1.3687817

action_model._discrete_distribution.branches.1.weight f4 [2, 64]
000000 b2 b9 3c be 5e a2 4f c0 15 27 37 3e 26 18 ca bb
       -0.18430212 -3.244285 0.17886002 -0.0061674295
000010 0c 85 bb bd 69 76 f7 3c 53 2e af 3d 78 d5 8b bf
       -0.09156236 0.03020783 0.085537575 -1.092452
000020 83 c6 ae bc 3f 72 37 3f c0 b2 58 ba 87 46 e9 bf
       -0.021334892 0.716587 -0.0008266382 -1.8224648
000030 84 d5 f8 3c 3b 24 7a 3e 07 45 38 bd a4 b8 0a bf
       0.03037525 0.24427883 -0.044987705 -0.5418799
000040 1c 84 c4 bf 47 f5 1e 3d 88 ae 81 bf 66 d5 4d 3d
       -1.5352817 0.038808133 -1.0131388 0.05025234
000050 f8 20 d9 3e ca d7 ca bf ae 3d 66 bc e3 34 0f 3e
       0.42407966 -1.5847104 -0.0140527915 0.13985018
000060 c6 12 50 be 62 be f8 3a e8 2a 94 be 4a 39 e4 be
       -0.20319661 0.0018977637 -0.28938985 -0.44574958
000070 90 75 42 3e 7d 6b c2 3e 3b 5b 5e 3e 5b 26 22 3b
       0.18990159 0.37972632 0.21714489 0.00247421
000080 ba 95 66 3d 72 c9 b5 3e ea 51 88 bd b4 ea f6 be
       0.056295134 0.35505253 -0.06656249 -0.4822594
000090 0d 72 c2 3d 8a 4b db 3e 8c 1b 27 3e 66 4d 5a be
       0.0949441 0.4283107 0.16319102 -0.21318588
0000a0 18 fd 3d bf a1 13 23 3e f3 f1 54 be 90 f6 7b 3d
       -0.74214315 0.15925457 -0.20795421 0.061514437
0000b0 ee ea cd bf 8d 8e 68 3e 75 8c bd bf 29 1e 00 c0
       -1.608732 0.22710629 -1.4808489 -2.0018408
0000c0 c1 79 b2 be 94 72 a9 be 51 30 7e be d9 37 65 3e
       -0.34858516 -0.3309523 -0.24823119 0.22384585
0000d0 f3 68 01 3f 0a 5d 62 3e b9 b4 96 bd 2a 1e 85 be
       0.50550765 0.22105804 -0.07358689 -0.25999576
0000e0 dc df cc be b1 15 41 3e d8 ba 4b be 0f d6 26 3f
       -0.4001454 0.18855931 -0.19895494 0.6517038
0000f0 08 b8 16 c0 73 f2 76 bb 3f 30 29 bd f9 3b 13 3d
       -2.3549824 -0.0037681132 -0.041305777 0.035945866
000100 08 32 32 3e ae 42 50 40 d2 e2 3e be 0e 2b 5f 3c
       0.17401898 3.2540698 -0.18641213 0.013621105
000110 df b2 b1 3d f4 b0 15 bd 2b b0 a3 bd 89 71 8e 3f
       0.08676695 -0.03654571 -0.07992586 1.1128398
000120 a4 ef 24 3d 23 66 39 bf 95 90 94 3a 09 e6 e9 3f
       0.0402676 -0.72421473 0.0011334593 1.8273326
000130 f3 27 76 bd b2 ff 98 be 6f 35 c4 3c 40 cc 0b 3f
       -0.060096692 -0.2988258 0.02395126 0.54608536
000140 1d 61 c8 3f f9 27 01 bd e3 64 85 3f ef 54 ed bc
       1.5654637 -0.03153226 1.0421413 -0.028971164
000150 1a 64 de be 00 02 cb 3f be 8e 4a 3a 44 f5 0a be
       -0.43435746 1.5859985 0.0007726959 -0.13570124
000160 49 32 56 3e c4 0a a0 bb bf 6e 99 3e 0c f4 ea 3e
       0.2091762 -0.004884096 0.29967305 0.45889318
000170 cb 85 44 be 22 c6 bb be 13 e1 55 be 10 33 a3 bc
       -0.19191663 -0.366746 -0.2088664 -0.01992181
000180 06 0e 35 bd 7b 78 b8 be 33 82 7d 3d c5 77 ef 3e
       -0.044202827 -0.3602942 0.061891746 0.46771064
000190 14 f5 75 bd 1f 53 e1 be b9 8b 23 be 5c fe 3e 3e
       -0.060048178 -0.4400873 -0.15971269 0.18651718
0001a0 40 23 35 3f 23 d1 13 be 6c 77 59 3e 35 8f 41 bc
       0.7075691 -0.14435248 0.21236962 -0.011813928
0001b0 68 18 d0 3f b5 1a 54 be 47 65 bc 3f 45 ed fe 3f
       1.6257448 -0.20713313 1.4718407 1.9916159
0001c0 f0 b2 b7 3e 63 6d a7 3e e2 29 84 3e c1 02 4e be
       0.35878706 0.32700643 0.25813204 -0.20118238
0001d0 b4 a1 03 bf ef 79 5b be c6 54 6b 3d b2 35 81 3e
       -0.51418614 -0.21433233 0.057453893 0.2523628
0001e0 3b d6 d4 3e 0a af 51 be 63 39 5b 3e e6 f9 26 bf
       0.41569695 -0.20476928 0.2140861 -0.65225065
0001f0 3c 02 18 40 c2 28 80 bc 34 8c 3a 3d ef ac dc bc
       2.3751364 -0.015644435 0.045543864 -0.02693793

action_model._discrete_distribution.branches.1.bias f4 [2]
000000 ff 90 80 bf 05 91 80 3f
       -1.0044249 1.0044256

action_model._discrete_distribution.branches.2.weight f4 [2, 64]
000000 0b fe e8 3e d9 92 bb 3e 27 0e 59 bd 63 f9 8b 3b
       0.4550632 0.36635473 -0.052992012 0.0042716726
000010 33 36 f8 3d 4f 62 83 bc 5a 27 6b bd ac 7f 3a be
       0.12119713 -0.016038088 -0.057410575 -0.18212765
000020 35 b5 9a 3e f0 3e ff bc 9b 86 27 3d 7e ed 21 3a
       0.30216375 -0.03115794 0.040899854 0.00061770517
000030 66 99 a7 bd 8f d4 34 bf 0c 80 29 3e 22 3a 0f be
       -0.08183555 -0.7063684 0.16552752 -0.1398702
000040 6a 13 23 c0 dd 64 5b 3f 4a bd a9 3f 28 fe ee 3d
       -2.54806 0.8570078 1.3260891 0.1166957
000050 8b 23 aa 3f 98 49 1d 3d 7a 4f c7 3e 53 97 0d 3e
       1.3292097 0.038400263 0.38927823 0.13827257
000060 99 2a 95 3d 35 44 f4 3e 5f ac c8 be 20 15 3d be
       0.072835155 0.47708288 -0.3919401 -0.1846509
000070 07 13 2e 3e 5c 21 7e bd d6 b4 4c 3f b9 cf 11 3d
       0.16999446 -0.062043533 0.79963434 0.03559849
000080 2e e1 16 3e e0 db 47 3c f1 60 ce 3d ad 2a 09 3f
       0.14734337 0.012198418 0.10077084 0.53580743
000090 91 39 95 bd b1 ab 11 3e ba 8f 93 be 31 bf 8f be
       -0.072863705 0.14225651 -0.28820592 -0.28075555
0000a0 fe ba d3 be ad 3a 06 bf 5f 8a eb 3d 41 df 77 3d
       -0.413536 -0.5243328 0.115010016 0.060515646
0000b0 e2 b5 6a 3f f3 df c2 3d 74 20 da 3e 31 9a 8f be
       0.9168378 0.09515371 0.42602885 -0.28047326
0000c0 a0 a6 b7 be da 73 e9 3d 9a fd cf 3d 73 a5 89 bc
       -0.35869312 0.1139905 0.101557925 -0.016802525
0000d0 80 10 da bd 0b 03 4c be 58 50 a8 3d 8e 25 73 be
       -0.106476784 -0.19923036 0.08218449 -0.23744795
0000e0 04 c9 7c 3f e1 b9 8f 3e da a8 2d 3e c9 e7 0c 3e
       0.98744226 0.28071502 0.16958943 0.13760294
0000f0 d6 cb 38 c0 78 fd 4e be 66 87 c8 3d aa 49 b9 3d
       -2.8874412 -0.20213878 0.0979145 0.090472534
000100 16 9e df be 01 7e b8 be ea 95 3d 3d 00 87 a4 bb
       -0.43675297 -0.36033633 0.046285547 -0.005020976
000110 53 27 f8 bd 7d c8 9c 3c 03 d6 53 3d 5c 6e 50 3e
       -0.121168755 0.019138569 0.05171777 0.20354599
000120 16 ab b3 be 72 a3 20 3d 84 5c 18 bd 9f f9 89 3c
       -0.35091466 0.039218374 -0.037197605 0.016842661
000130 23 85 37 3d 45 c8 3a 3f 70 1d 3d be fc 90 18 3e
       0.044804703 0.7296184 -0.18468261 0.14899057
000140 0e 79 24 40 dc 61 60 bf 99 f5 a9 bf 8f 98 c5 bd
       2.5698886 -0.8764932 -1.3278075 -0.09648239
000150 05 0c ad bf 4e 02 a6 bc 54 58 d1 be ac c6 08 be
       -1.3519293 -0.02026477 -0.40887702 -0.13357037
000160 5c 27 71 bd 2d a4 f9 be f1 b2 c4 3e d6 31 4a 3e
       -0.058875427 -0.4875807 0.3841777 0.19745573
000170 32 1e 46 be 9f 0d 6b 3d 40 6d 4c bf 5f fa 20 bd
       -0.19347456 0.057386037 -0.798542 -0.039301272
000180 d4 13 1e be 2a 84 30 3c b6 75 92 bd fc 57 0b bf
       -0.15437251 0.010773698 -0.07151358 -0.5443113
000190 82 7c 98 3d 95 5b 0d be 33 ef 95 3e 9a 08 9c 3e
       0.07445623 -0.13804467 0.29284057 0.30475312
0001a0 4e 0c e2 3e b4 83 0a 3f 1c 3c cc bd 7c 0c 72 bd
       0.44150013 0.54107213 -0.099724025 -0.059093937
0001b0 56 c1 76 bf 41 06 8c bd d5 c5 d9 be fc e8 7e 3e
       -0.9638876 -0.0683713 -0.42533746 0.24893564
0001c0 ef 50 b0 3e 25 15 f3 bd 05 ca c8 bd ae 3d 32 3d
       0.34436747 -0.118692674 -0.09804157 0.043515854
0001d0 08 61 f2 3d 18 01 4f 3e 24 77 c2 bd df 0a 74 3e
       0.118349135 0.20215261 -0.094953805 0.23832272
0001e0 0a 8e 75 bf f8 82 9b be 74 a3 18 be 88 89 0a be
       -0.9591986 -0.3037336 -0.14906102 -0.13529027
0001f0 16 8f 39 40 3e 84 65 3e e0 e8 a5 bd c9 59 bf bd
       2.8993583 0.22413728 -0.08101058 -0.09343297

action_model._discrete_distribution.branches.2.bias f4 [2]
000000 5c 07 96 bf 64 07 96 3f
       -1.1720996 1.1721005

onnx::Div_104 f4 [28]
000000 c3 70 d8 3e 3c d4 b7 3d b7 04 db 3e d5 a0 bd 3e
       0.4227353 0.08976027 0.42777035 0.37036768
000010 bb b3 cf 3e 52 84 b4 3d 99 88 d2 3e bf 50 b8 3e
       0.4056681 0.088143006 0.4111984 0.35999104
000020 6f fd d6 3e f8 6d 8d 3d e0 8c d8 3e c3 3e ba 3e
       0.4199023 0.069057405 0.4229498 0.36376008
000030 af a0 b0 3e 13 b7 b9 3d b9 f6 b4 3e 6f 58 a4 3e
       0.34497592 0.09068122 0.35344484 0.3209872
000040 da fc b3 3e e5 20 38 3d fc 0a b5 3e f0 e5 a4 3e
       0.35153848 0.044953246 0.35359943 0.32206678
000050 c2 3d 8e 3e 50 7b b4 3d 84 0f 94 3e ef 03 87 3e
       0.27781492 0.088125825 0.28918087 0.2637019
000060 70 18 93 3e b3 62 24 3d 9e 42 94 3e 1c f0 88 3e
       0.28729582 0.04013319 0.28957075 0.2674569

onnx::Div_107 f4 [28]
000000 08 39 ee 3e 58 59 41 3e 4a 17 f5 3e 2e eb 36 3e
       0.46527886 0.18881738 0.4786933 0.17863151
000010 58 6a ec 3e 1b b1 70 3e d7 89 dd 3e 36 39 a6 3e
       0.46174884 0.2350506 0.43269226 0.32465523
000020 f8 10 d9 3e c1 f4 38 3e 8f f2 c3 3e 06 6d 8b 3e
       0.4239576 0.18062116 0.38270995 0.27231616
000030 60 06 c8 3e 07 f0 ad 3e 9c f2 68 3e a8 ee 9f 3e
       0.39067364 0.3397219 0.22748798 0.31236768
000040 96 d5 b3 3e 1f c0 1f 3e 48 6d 98 3e be 2b 89 3e
       0.3512389 0.15600632 0.29770875 0.26791185
000050 95 37 ba 3e 6b 5c b9 3e ca 7d 28 3d a0 ad 87 3e
       0.3637053 0.36203322 0.041135587 0.26499653
000060 db 38 9e 3e df a3 07 3e bd 75 7d 3e 14 99 89 3e
       0.30902752 0.13246106 0.24751945 0.26874602

onnx::Div_110 f4 [7]
000000 50 1a 53 42 83 d1 38 42 03 b2 38 42 64 d7 38 42
       52.775696 46.2046 46.17384 46.210342
000010 39 99 38 42 c3 8d 38 42 aa b0 38 42
       46.14963 46.13844 46.172523
