Assets/_created_block_bigger_gradual_reward_increased_length_continuous_dynamics_Added_checkpoint_ontriggerenter_Renaming_sensor_beta_0.003_increased_rewards_corrected_blocker/competitor/competitor-10499974.pt (torch, 238430 bytes, 70 tensors)

discrete_act_size_vector f4 [1, 3]
00000000: 0000 0040 0000 0040 0000 0040
2.0 2.0 2.0

network_body.observation_encoder.processors.0.normalizer.running_mean f4 [28]
00000000: 5095 6d3e d57e 0f3c 315c 423f 2d43 4b3f
00000010: b305 543e b947 103c 14be 483f 6723 503f
00000020: 5862 693e b7bf 9f3b ad67 443f 9b61 4d3f
00000030: b3d5 0b3e 82d9 1a3c 799f 5a3f 663f 5e3f
00000040: 72a1 153e ee10 113b 3b07 5a3f 8f94 5d3f
00000050: 0b51 ae3d 9a94 123c f6e9 673f f230 6a3f
00000060: ef9d bc3d 24fe ec3a abf7 673f 4ad9 693f
0.2320149 0.008758266 0.7592192 0.7939938 0.20705299 0.0088061625 0.78415036 0.8130402
0.22791421 0.004875149 0.76720697 0.8022706 0.13655739 0.009451272 0.85399586 0.8681549
0.14612368 0.0022135335 0.8516728 0.8655481 0.085115515 0.008946562 0.9059137 0.91480935
0.09209811 0.0018081111 0.90612286 0.9134718

network_body.observation_encoder.processors.0.normalizer.running_variance f4 [28]
00000000: 1e5f e449 360e b247 024d ea49 391e b049
00000010: 4070 d249 66fc b247 fef2 d849 3377 a649
00000020: 418b e149 0909 4747 5ee7 e449 c41d aa49
00000030: 6621 9749 a209 c047 6ad1 9f49 c90a 8449
00000040: 80e9 9f49 9005 b546 fcec a149 8f5a 8649
00000050: d6a0 4749 31d1 b547 1370 5a49 1846 3549
00000060: 905a 5649 9606 9446 e31d 5a49 63f0 3949
1.8708198e+06 91164.42 1.9193922e+06 1.4427591e+06 1.723912e+06 91640.8 1.7772478e+06 1.3636864e+06
1.8476561e+06 50953.035 1.8751798e+06 1.3935925e+06 1.2380608e+06 98323.266 1.3092292e+06 1.0816891e+06
1.31e+06 23170.781 1.3264955e+06 1.1006259e+06 817677.4 93090.38 894721.2 742497.5
877993.0 18947.293 893406.2 761606.2

network_body.observation_encoder.processors.1.normalizer.running_mean f4 [28]
00000000: b799 a33e 0315 1a3d cd2c 243f ae0e 643f
00000010: 7e3b 323f 7b6f 6f3d 222a 7b3e 61d1 0d3f
00000020: ad49 443f 09b6 0b3d 6d02 353e 7920 003f
00000030: 5e4b 513f 7824 053e 5b87 563d 84a2 d23e
00000040: 2bda 5b3f 1134 d13c 72a4 c23d 11f4 993e
00000050: 102a 583f 7d67 1d3e 04a3 f33a 9bd0 b33e
00000060: a616 653f 4ec7 943c bb9c 823d 551d 853e
0.31953213 0.037617695 0.6413086 0.890849 0.6962203 0.058455925 0.24527791 0.5539761
0.7667492 0.03410915 0.17676707 0.5004955 0.81755626 0.13002193 0.05237518 0.41139615
0.8587977 0.025537523 0.09504022 0.3006902 0.8443918 0.15371509 0.0018588011 0.3512009
0.89487684 0.018161442 0.0637755 0.2599894

network_body.observation_encoder.processors.1.normalizer.running_variance f4 [28]
00000000: 6858 0b4a c596 b948 956b 134a bec6 a748
00000010: 088b 074a fd14 0d49 aa45 ed49 6573 8449
00000020: fb3a e549 a5ec a848 1d84 ba49 98eb 3c49
00000030: ae2c bf49 65f3 9049 b474 fe48 a2db 7649
00000040: f968 9b49 ae2a 7f48 2f76 5c49 54e6 3349
00000050: 0b71 a849 a0b7 a649 d110 9846 4777 3249
00000060: bd26 7149 6ce2 3648 b801 1949 2a0d 3449
2.283034e+06 380086.16 2.4153332e+06 343605.94 2.220738e+06 577871.8 1.9437332e+06 1.0850366e+06
1.8778554e+06 345957.16 1.5279396e+06 773817.5 1.5661018e+06 1.1874366e+06 521125.62 1.0111301e+06
1.2731191e+06 261290.72 903010.94 736869.25 1.3798734e+06 1.365748e+06 19464.408 730996.44
987755.8 187273.69 626715.5 737490.6

network_body.observation_encoder.processors.2.normalizer.running_mean f4 [7]
00000000: 481b 6843 4f58 4c42 3cd2 4a42 b467 4942
00000010: 5d51 4b42 6943 4c42 c5f1 4842
232.10657 51.08624 50.705307 50.351273 50.829456 51.06583 50.236103

network_body.observation_encoder.processors.2.normalizer.running_variance f4 [7]
00000000: 400a da50 fe1a a750 1cd1 a650 662d a750
00000010: 0791 a650 1167 a650 07c8 a650
2.9264839e+10 2.2428512e+10 2.2389776e+10 2.2438162e+10 2.2356179e+10 2.233418e+10 2.2385015e+10

network_body.processors.0.normalizer.running_mean f4 [28]
00000000: 5095 6d3e d57e 0f3c 315c 423f 2d43 4b3f
00000010: b305 543e b947 103c 14be 483f 6723 503f
00000020: 5862 693e b7bf 9f3b ad67 443f 9b61 4d3f
00000030: b3d5 0b3e 82d9 1a3c 799f 5a3f 663f 5e3f
00000040: 72a1 153e ee10 113b 3b07 5a3f 8f94 5d3f
00000050: 0b51 ae3d 9a94 123c f6e9 673f f230 6a3f
00000060: ef9d bc3d 24fe ec3a abf7 673f 4ad9 693f
0.2320149 0.008758266 0.7592192 0.7939938 0.20705299 0.0088061625 0.78415036 0.8130402
0.22791421 0.004875149 0.76720697 0.8022706 0.13655739 0.009451272 0.85399586 0.8681549
0.14612368 0.0022135335 0.8516728 0.8655481 0.085115515 0.008946562 0.9059137 0.91480935
0.09209811 0.0018081111 0.90612286 0.9134718

network_body.processors.0.normalizer.running_variance f4 [28]
00000000: 1e5f e449 360e b247 024d ea49 391e b049
00000010: 4070 d249 66fc b247 fef2 d849 3377 a649
00000020: 418b e149 0909 4747 5ee7 e449 c41d aa49
00000030: 6621 9749 a209 c047 6ad1 9f49 c90a 8449
00000040: 80e9 9f49 9005 b546 fcec a149 8f5a 8649
00000050: d6a0 4749 31d1 b547 1370 5a49 1846 3549
00000060: 905a 5649 9606 9446 e31d 5a49 63f0 3949
1.8708198e+06 91164.42 1.9193922e+06 1.4427591e+06 1.723912e+06 91640.8 1.7772478e+06 1.3636864e+06
1.8476561e+06 50953.035 1.8751798e+06 1.3935925e+06 1.2380608e+06 98323.266 1.3092292e+06 1.0816891e+06
1.31e+06 23170.781 1.3264955e+06 1.1006259e+06 817677.4 93090.38 894721.2 742497.5
877993.0 18947.293 893406.2 761606.2

network_body.processors.1.normalizer.running_mean f4 [28]
00000000: b799 a33e 0315 1a3d cd2c 243f ae0e 643f
00000010: 7e3b 323f 7b6f 6f3d 222a 7b3e 61d1 0d3f
00000020: ad49 443f 09b6 0b3d 6d02 353e 7920 003f
00000030: 5e4b 513f 7824 053e 5b87 563d 84a2 d23e
00000040: 2bda 5b3f 1134 d13c 72a4 c23d 11f4 993e
00000050: 102a 583f 7d67 1d3e 04a3 f33a 9bd0 b33e
00000060: a616 653f 4ec7 943c bb9c 823d 551d 853e
0.31953213 0.037617695 0.6413086 0.890849 0.6962203 0.058455925 0.24527791 0.5539761
0.7667492 0.03410915 0.17676707 0.5004955 0.81755626 0.13002193 0.05237518 0.41139615
0.8587977 0.025537523 0.09504022 0.3006902 0.8443918 0.15371509 0.0018588011 0.3512009
0.89487684 0.018161442 0.0637755 0.2599894

network_body.processors.1.normalizer.running_variance f4 [28]
00000000: 6858 0b4a c596 b948 956b 134a bec6 a748
00000010: 088b 074a fd14 0d49 aa45 ed49 6573 8449
00000020: fb3a e549 a5ec a848 1d84 ba49 98eb 3c49
00000030: ae2c bf49 65f3 9049 b474 fe48 a2db 7649
00000040: f968 9b49 ae2a 7f48 2f76 5c49 54e6 3349
00000050: 0b71 a849 a0b7 a649 d110 9846 4777 3249
00000060: bd26 7149 6ce2 3648 b801 1949 2a0d 3449
2.283034e+06 380086.16 2.4153332e+06 343605.94 2.220738e+06 577871.8 1.9437332e+06 1.0850366e+06
1.8778554e+06 345957.16 1.5279396e+06 773817.5 1.5661018e+06 1.1874366e+06 521125.62 1.0111301e+06
1.2731191e+06 261290.72 903010.94 736869.25 1.3798734e+06 1.365748e+06 19464.408 730996.44
987755.8 187273.69 626715.5 737490.6

network_body.processors.2.normalizer.running_mean f4 [7]
00000000: 481b 6843 4f58 4c42 3cd2 4a42 b467 4942
00000010: 5d51 4b42 6943 4c42 c5f1 4842
232.10657 51.08624 50.705307 50.351273 50.829456 51.06583 50.236103

network_body.processors.2.normalizer.running_variance f4 [7]
00000000: 400a da50 fe1a a750 1cd1 a650 662d a750
00000010: 0791 a650 1167 a650 07c8 a650
2.9264839e+10 2.2428512e+10 2.2389776e+10 2.2438162e+10 2.2356179e+10 2.233418e+10 2.2385015e+10

network_body._body_endoder.seq_layers.0.weight f4 [64, 63]
00000000: dc66 013e 1dd0 94be f06a 05be 29d6 d63d
00000010: 15f2 1f3f b8eb 7bbf 5d24 b3be 2a2a 1bbe
00000020: 1c22 2d3e e479 bd3e 9215 5abe b501 babd
00000030: 1e82 523f 65e2 c7be 7175 2cbe d827 82be
00000040: d66b 373d 74e9 413f bcd3 5cbe 6d05 f0be
00000050: fc0e af3e 89f5 e5be 7c83 cb3e 2388 2b3e
00000060: 51ce e0be 5669 303e 2c02 403f 1769 383f
00000070: a8b3 d03f 2670 8ebe 02ad 91bf 803a 39bf
00000080: 2ee8 c83e 75b9 c1bd 85aa 533e 93ca a33f
00000090: ac29 783e 1b8f c13f 1874 94bf 7583 b2bf
000000a0: 80bd 75be 7d66 7b3e 6c8b 04be ce54 c63d
000000b0: 37ab 3b3e ab14 63be f07e 2abe e5d0 553e
000000c0: 0b33 0ebe 36b8 c03e d980 923e 517d e4be
000000d0: cdf2 10be 87a7 8cbf 7690 9e3f 988b cb3e
000000e0: 68d5 f03e 38cc 51bc c418 39bf 783a ec3e
000000f0: 33cb b53c eabf 47bf 363f e13e 504a a33e
00000100: 2db4 093f 1ed5 a8be d054 f2be e415 103f
00000110: 5fc9 1c3e 8a4e aabe 5415 14bf d02c 14bf
00000120: 12e5 21bf 2842 543f 4908 fe3e 563d 0b3f
00000130: 0ad3 0c3f 7575 c5be 730a c0be f5fe ae3f
00000140: c875 be3e b238 99bf d10d 87bf 0b0f cbbe
00000150: 1f22 503f 1ee6 853e f706 eb3e af33 97be
00000160: a6c8 ec3d 8c0b d43e 2ac5 db3e c6d7 653f
00000170: 47c8 35bf 1bdd aabe cc99 9c3c f4c7 7f3f
00000180: 0f1e 0bbf cb35 8cbf ac3c 8ebf b6eb d0bb
00000190: 95df d6bf 3a87 7c3f 74f5 a3be 0185 7bbe
000001a0: b716 1f3f d234 4ebf f462 edbe 1295 6a3d
000001b0: 8731 42be 9054 a63e 6c0e a33e 7f83 a0be
000001c0: 8722 2cbe dd48 333f dbe8 763f b2ec 1abf
000001d0: 54d4 a6bf 918b 213f 5d99 3d3f 5d24 ec3f
000001e0: 4dbf b2bf 52ea 81bf 6cf1 9b3e 0670 c8be
000001f0: d060 883e 5396 dabe 833f 993d 27cd a4bc
00000200: 4c28 703e 560a aa3d 8a55 8b3e ab52 b23e
00000210: 2e9c 143e 7c54 503e 5db0 75be 9251 493c
00000220: 70c1 8e3e a78c 98be 75d7 cf3e be67 97bf
00000230: 1d30 0e3f 1e46 0b3f 58b1 f7bd c2f9 923c
00000240: fd9a a13e b0bf 823e 2964 663f 786a 9e3d
00000250: 879b edbe 1d72 03bf 3217 c1bd 4236 f8be
00000260: d423 c5bc 293d d5be 76e2 233f 2f8b 07bf
00000270: 4558 0cbe f435 a2bf a4d3 d9be c6f9 953e
00000280: 17de a73e 1c07 1dc0 6eb7 143f 7b69 543f
00000290: 08b3 07bf 946e e43f 2a7d b7be d0a3 1c3f
000002a0: ab28 fbbe 7737 0fc0 080b 483f b428 d2bf
000002b0: 9938 c93e d404 ab3d 55f8 3e3f 615a 03bf
000002c0: 590b cc3e 336c b3bf 518c 16be 50b3 783f
000002d0: 75a8 e0be 5f21 bcbe a1d0 203f 01ac c43d
000002e0: 122c c63d b524 4c3d 964a 3c3e 22d4 60bf
000002f0: d2d0 9cbe b127 703f 226d 533f d826 bbbf
00000300: 826b a3bf a75a 0bbf 72c4 913f 2aa0 c5be
00000310: f923 0dbf 3541 093f d475 013f 3c93 5bbf
00000320: a098 34bf 1fe8 4fbe 5ac3 e23e b4ee 623e
00000330: cf8b 303c dec8 43be b08d 003f ec35 fabd
00000340: 4a7f 90bc 71f4 c5be 6489 643f 2fde 4cbe
00000350: ff53 b1be aa65 37bf a17d 393f 0a45 803e
00000360: 7e28 853e 2108 313f 9cdf ff3e 889c 40bf
00000370: c11f 94bf 8598 84be 585d e63e 58e5 04be
00000380: 94d8 34bd b92c c23e 85c1 20be 1839 7d3f
00000390: a3b5 0ec0 16ad 843f 291a 6abf 191b 783f
000003a0: c4a9 46be 675c 4abf 6283 563f 9a48 b33f
000003b0: da4e afbf 7e7d 90be b53d a83e 0892 8cbf
000003c0: e0c7 e8be 9cb8 a1be 69bf 5c3f 2b74 053f
000003d0: 4458 94bf ebce babc 651f d6be 3f3b 863f
000003e0: 42aa 61be 777d 5ebf ca30 5a3e c559 aa3f
000003f0: ecd2 3f3f ce0b e33f b7ea 26bf 55cd 33bf
0.12636894 -0.29065028 -0.13029075 0.104900666 0.6247876 -0.98406553 -0.3498868 -0.15152803
0.16907543 0.37007058 -0.21297291 -0.09082357 0.82229793 -0.39039913 -0.16841675 -0.25421023
0.044780575 0.75746846 -0.21565145 -0.4687914 0.3419112 -0.4491389 0.39748752 0.16751151
-0.43907407 0.17227682 0.75003314 0.72035354 1.6304827 -0.27819937 -1.1380923 -0.7235489
0.3923964 -0.09459201 0.20670517 1.2796196 0.24234647 1.5121797 -1.1597929 -1.3946368
-0.2399807 0.24550815 -0.1294381 0.09684144 0.18327032 -0.22175853 -0.16649985 0.20880468
-0.13886659 0.37640542 0.28613928 -0.4462686 -0.14155121 -1.0988625 1.2387836 0.3975494
0.47037816 -0.012805037 -0.72303414 0.46138358 0.02219162 -0.7802721 0.4399354 0.31892633
0.5379055 -0.32975096 -0.47330332 0.562834 0.15311192 -0.33263046 -0.57845044 -0.5788088
-0.6324016 0.82913446 0.49615696 0.54390466 0.5500952 -0.38566175 -0.37507972 1.3671557
0.37199235 -1.1970427 -1.0551091 -0.39659914 0.81302065 0.26152128 0.4590375 -0.2953162
0.11561708 0.4141506 0.42923862 0.8978237 -0.71008724 -0.33371815 0.019116305 0.9991448
-0.5434274 -1.0953916 -1.1112266 -0.006375755 -1.6786982 0.9864384 -0.32023203 -0.24562456
0.62144035 -0.8054935 -0.46364558 0.05727107 -0.18964206 0.3248639 0.3184694 -0.31350324
-0.16810046 0.70033056 0.9644906 -0.6051742 -1.3033547 0.63103586 0.7406214 1.8448597
-1.396463 -1.0149634 0.30457628 -0.39147967 0.26636362 -0.42692813 0.07482817 -0.020117356
0.23452872 0.08302753 0.272137 0.34828696 0.14512703 0.20344728 -0.23993059 0.012287514
0.27881956 -0.2979481 0.40594068 -1.1828535 0.55542165 0.54403865 -0.120943725 0.01794136
0.3156356 0.2553687 0.8999658 0.07735151 -0.4640772 -0.51346 -0.09428252 -0.48478895
-0.024064936 -0.41648224 0.64017427 -0.5294675 -0.13705547 -1.2672715 -0.4254428 0.29292125
0.3278663 -2.453559 0.5809239 0.8297345 -0.53007555 1.7846246 -0.3583768 0.6118746
-0.49054465 -2.2377603 0.7814183 -1.6418672 0.39300993 0.0835053 0.74597675 -0.5130978
0.39852408 -1.4017395 -0.14701964 0.9714861 -0.43878523 -0.3674421 0.6281834 0.0960312
0.096763745 0.049839694 0.18387827 -0.8782369 -0.30628067 0.93810564 0.825884 -1.4621229
-1.2767184 -0.544352 1.1388075 -0.38598758 -0.55133015 0.53615123 0.50570416 -0.85771537
-0.7054539 -0.20303391 0.44289666 0.2216137 0.0107755205 -0.19119594 0.502162 -0.12217316
-0.017638821 -0.38663056 0.8927214 -0.20006631 -0.34634396 -0.716395 0.7245732 0.25052673
0.26007456 0.6915303 0.49975288 -0.7523885 -1.157219 -0.25897613 0.4499309 -0.12978113
-0.044151857 0.37924746 -0.15698822 0.98915243 -2.2298362 1.0365322 -0.9144617 0.9691635
-0.19400698 -0.79047245 0.83794224 1.4006531 -1.3695939 -0.28220743 0.3285958 -1.0982065
-0.45464993 -0.31586158 0.8622957 0.52130383 -1.1589437 -0.022803744 -0.41820827 1.048683
-0.22037604 -0.86910194 0.21307674 1.3308645 0.74931216 1.7737978 -0.65201896 -0.70235187

network_body._body_endoder.seq_layers.0.bias f4 [64]
00000000: e032 07c0 2d9e d3bf 3969 aebf e62b 60bf
00000010: 7ab6 e6be c916 0dc0 2c5d c1bf 66ab 02c0
00000020: 5e15 86bf a38a 05c0 9906 eebf 084f 12c0
00000030: 7e88 52bf 08c6 e6bf e08b 00c0 a04c bdbf
00000040: 52e7 83bf 593c b9bf c84e d7bf 3d27 62bf
00000050: ee29 49c0 7c1e dfbf debb 14c0 76dc b7bf
00000060: 3d86 3fc0 bbfd fdbf 0dc4 5cbf 680a cebf
00000070: de1c 56bf e5ae cabe 2882 44bf 7b5f 90bf
00000080: 14bd 31c0 55e2 67be 0a03 f3bf 3ffb b9bf
00000090: 0a29 88bf ee67 d6bf 9987 07c0 c16d 9fbf
000000a0: 4493 9fbf e087 35bf 41f1 73bf 111f 16c0
000000b0: 2149 6dbf 283d a2bf e6ac fabf c254 a5bf
000000c0: a3b7 a0bf fea7 06c0 1054 02c0 ac05 ecbf
000000d0: 349c 9fbf 842e 59bf 8665 f1be 68b0 43bf
000000e0: d95e 18c0 c0bf 36c0 ff9d b1bf 0d08 c9bf
000000f0: 47b6 d1be 9afd 07c0 2b8e afbf 808c 62bf
-2.1124802 -1.6532646 -1.3625861 -0.87566984 -0.45061094 -2.2045157 -1.5106559 -2.0417113
-1.0475271 -2.0865867 -1.8595763 -2.2860737 -0.8223952 -1.8029184 -2.0085373 -1.4789009
-1.0304968 -1.4471542 -1.6820917 -0.8834112 -3.1431842 -1.7431178 -2.3239665 -1.4364154
-2.9925683 -1.9843057 -0.8623665 -1.6096926 -0.836378 -0.3958656 -0.767611 -1.1279138
-2.7771654 -0.22644933 -1.8985302 -1.4529799 -1.0637524 -1.6750467 -2.1176512 -1.2455369
-1.2466817 -0.70910454 -0.9529 -2.3456461 -0.9268971 -1.2674913 -1.9584014 -1.2916491
-1.2556041 -2.1040034 -2.0363808 -1.8439231 -1.2469544 -0.848366 -0.4714777 -0.7644105
-2.380789 -2.8554535 -1.3876342 -1.5705582 -0.4095938 -2.1248536 -1.3715261 -0.88495636

network_body._body_endoder.seq_layers.2.weight f4 [64, 64]
00000000: 15b0 9f3b cf63 76be 124d 54bf dce2 933d
00000010: b773 bc3e fd34 383e 7c03 3c3f 4fbe 67bf
00000020: 7315 69bf f84f 06bf 38d9 babd a255 0abd
00000030: 5aa8 b5be cd46 4ebf 6548 7dbc 5c62 433f
00000040: b394 49bf 81db 21bf 84cb 8abf 5970 02c0
00000050: 8ca0 0ebe 340d 4ebf 0bbe 5e3f c942 5d3f
00000060: af2c e93e 3e99 963e e05d 53bf 92dd ebbd
00000070: 81fb e83d 7cf4 e8be 47a8 fa3e 3cd5 d2bf
00000080: ef4d cdbf 7911 c33e a430 e9be bb2a abbf
00000090: d055 003f 84ac 1fbf c1e9 a8be b5fe 35bc
000000a0: af6a 39be 50b8 c93c b80f 153a db47 05bf
000000b0: 93f3 1e3e ace3 96bd 5383 4abf 0820 603f
000000c0: ca0c 553b 05dd bebe e917 d9bd bbe5 e4bf
000000d0: 253e e5bf af0d 2fbe dcdb 4abf b7db d63d
000000e0: deb8 113d 5f09 9cbe def2 febe b888 41bf
000000f0: 7e02 5abf 2720 2ebf c31a afbf 53e0 31bf
00000100: 7be5 ecbe db98 0bbf 5525 273f bad8 85bf
00000110: f648 84be b1dd b1be 7808 98bf 1d55 a0bb
00000120: 4c0b 4dbf 3986 803e 1709 76bf 1165 9dbf
00000130: e01f 1d3e ac64 13bf 99d8 c33e 1218 0f3e
00000140: ae20 96bf e028 43bf 928c 813e 68cc 993e
00000150: 5b3a 4e3f 2767 143f 7dd4 e8bd 08ec 6dbe
00000160: 92df c5be 0568 0b3f fa49 f1be 0fc8 03c0
00000170: d3c4 8abf 302c b4be 4f03 973e 4a65 cfbf
00000180: 1e74 5f3f 3372 a2bf 155c 32bf 63c8 84bf
00000190: fdd7 a5bf c8ca 893e 4c3c cbbe afc9 82bf
000001a0: e66f 22bf 3aeb 7f3e 6597 63bf 7229 ce3d
000001b0: 5749 70be 5d75 3f3f d622 503e 1554 f1bf
000001c0: c533 443e f902 61be 5df0 123f 96d7 6dbf
000001d0: 2430 fcbe b411 a73e 5f63 97bf 4151 853e
000001e0: a7f1 92bf 6f3c 2a3f 8e15 8a3f 45c4 34be
000001f0: 2740 b4be c1af ccbf 9759 45bf 3c72 4fbf
00000200: 011b b03e 030e 1e3d ce84 513f c49d 1ebf
00000210: c14f 74bf e585 c7be edfa a73e 39b3 e5bc
00000220: 49a0 c6bb 79c7 aa3e 05af 27bf 0e88 0a3f
00000230: 5073 233f 64fa 97bf 2f08 ff3e a25b 40be
00000240: a4ea 76bf 6526 60bd 1281 1c3c d84f 3d3a
00000250: 370e 79be af00 9ebe ef50 1f3d b4fb 263f
00000260: 6e87 e43e 18d6 083f 33c8 5f3f 14c6 d2bf
00000270: ca3e 7cbf 3c60 b5be 8056 afbf f5a7 57c0
00000280: 1a2f 02c0 61a4 a0be ed0e 41bf 2907 3d3e
00000290: 8b6a 09c0 c86d e2be f5c6 3abd c3fa 46bf
000002a0: ee9b dbbb 48d7 f7bf 7f0a 903d c8bb 32bf
000002b0: 1b84 15bf ffcb 103e 8d6a e53e 4609 333f
000002c0: 2317 6dbf 3214 a2be e4c6 593f ad9c 7abe
000002d0: d876 17bf ebfa 083e 7a09 95bf 0ae9 9abf
000002e0: 9dad 0ebf e8b1 82bf 2ef6 d83e f930 a13f
000002f0: 8643 57bf 6c67 18bf bf6f bebf 20dd 37bf
00000300: c8be 503f 82c0 18bf 1af7 873f a0e7 253f
00000310: 8f22 7cbe 24a0 5cbf 0270 d1be c2ed 1bbf
00000320: 8a6e 02bf 5cbe 0e3f 1357 443f 080a dabd
00000330: 3af6 90bf a528 afbf 9e24 373f 7804 0ebf
00000340: 0f55 4ebe 3e0b 94bf 31c1 f5bc 69af 20bf
00000350: 84fa a83e 690c 6bbf c090 8ebe b321 23be
00000360: 6109 d23e f082 8abf 4c61 13be 5d58 2b3e
00000370: afe6 3a3f cc07 af3e 2b4f 4cbf 2984 61be
00000380: a35b 0ac0 576d 84bd a83b bfbe 3b93 573f
00000390: 129b 85bf 9d57 273f 0d06 8bbf 9b23 69bf
000003a0: 5651 8cbf 184a cabf 3db4 633d 1c2d ddbf
000003b0: caa0 09c0 6e13 ed3e 7cbb 463e fc03 54bf
000003c0: 681d 003f e8a3 a0bf c980 dfbf ddda a7be
000003d0: 839c 67bf 8ac2 92be b025 8e3d 1470 27bf
000003e0: 4113 d33e 90ea 36bf 4e66 1bbf cdaf 00bf
000003f0: 7e97 23bf 7e23 27be b18d bdbe f8d0 58be
0.0048732855 -0.24061511 -0.829301 0.07221004 0.36807033 0.17988963 0.73442817 -0.9052476
-0.91048354 -0.5246577 -0.091234624 -0.033773072 -0.35480005 -0.80576783 -0.015459155 0.7632196
-0.7874252 -0.6322556 -1.0843358 -2.0381072 -0.13928431 -0.80488896 0.8700873 0.8643003
0.45541903 0.2941379 -0.82565117 -0.115168706 0.113760956 -0.45499027 0.4895651 -1.6471324
-1.6039408 0.38099268 -0.45544922 -1.3372415 0.5013094 -0.6237261 -0.3299084 -0.01110809
-0.18107103 0.02462402 0.0005686241 -0.5206277 0.15522604 -0.07367644 -0.79106635 0.87548876
0.0032508844 -0.37278 -0.106002636 -1.7882608 -1.790959 -0.17095064 -0.7924173 0.10491126
0.035576694 -0.304759 -0.49794668 -0.7559924 -0.8516005 -0.6801781 -1.3680042 -0.69482917
-0.4626883 -0.54530114 0.6529134 -1.0456765 -0.25836915 -0.3473945 -1.1877584 -0.004892959
-0.8009536 0.25102404 -0.9610762 -1.2296468 0.1534419 -0.5757549 0.38251188 0.13974026
-1.1728723 -0.76234245 0.2530256 0.30038762 0.80557793 0.579699 -0.11368654 -0.2323457
-0.38647133 0.54455596 -0.47126752 -2.0590856 -1.0841316 -0.35189962 0.29494712 -1.6202786
0.87286556 -1.2691101 -0.69671756 -1.0373653 -1.2956539 0.26912522 -0.3969444 -1.0217799
-0.63451993 0.24992076 -0.88902885 0.10066499 -0.23465477 0.7478846 0.20325789 -1.8853785
0.19160374 -0.2197379 0.57398015 -0.92907083 -0.49255478 0.32630694 -1.1827201 0.26038554
-1.1479996 0.66498464 1.0787828 -0.17652996 -0.35205194 -1.5991136 -0.7708983 -0.8103368
0.34395602 0.03858758 0.8184327 -0.6195948 -0.95434195 -0.3896934 0.3280863 -0.028039562
-0.006061588 0.3335531 -0.65501434 0.5411385 0.6384783 -1.1873288 0.4981093 -0.18784955
-0.96451783 -0.054724116 0.009552257 0.00072216755 -0.24321829 -0.30859897 0.038895544 0.6522782
0.44634575 0.5345168 0.87414855 -1.6466699 -0.9853331 -0.35424984 -1.3698273 -3.3696263
-2.0341249 -0.3137541 -0.754134 0.18459763 -2.1471279 -0.4422438 -0.045599896 -0.7772638
-0.006701938 -1.9362574 0.07033252 -0.6981778 -0.584047 0.14140318 0.44807854 0.69936025
-0.9261343 -0.31656033 0.8506911 -0.2447383 -0.59165716 0.13376968 -1.1643517 -1.2102368
-0.5573366 -1.0210543 0.4237532 1.259307 -0.8408741 -0.5953281 -1.4877852 -0.71821785
0.8154111 -0.59668744 1.0622284 0.64806557 -0.24622558 -0.86181855 -0.40905768 -0.60909665
-0.5094992 0.55759215 0.76695365 -0.106464446 -1.1325142 -1.3684279 0.7154025 -0.5547557
-0.20149635 -1.1565931 -0.029999347 -0.62767655 0.33003628 -0.9181581 -0.2784481 -0.15930824
0.4102278 -1.0821209 -0.14392585 0.16732927 0.73008245 0.34185636 -0.798083 -0.22023071
-2.161843 -0.064661674 -0.37350202 0.8420903 -1.0437949 0.6536806 -1.0861222 -0.91069955
-1.0962322 -1.5803862 0.05559181 -1.7279391 -2.1504388 0.46303886 0.19407457 -0.8281858
0.5004487 -1.255002 -1.7461177 -0.32784167 -0.9047319 -0.28664047 0.06940782 -0.6540539
0.41225627 -0.71451664 -0.6070298 -0.5026825 -0.63903034 -0.16322133 -0.37022164 -0.21173465

network_body._body_endoder.seq_layers.2.bias f4 [64]
00000000: b808 a4bf 0661 ccbf 2232 e6be e367 5bbf
00000010: 92f1 4bbe 085a 86bf 169a 9abf 7a56 f2bf
00000020: c119 38bf 50c1 34bf 54ae d8bd f9d1 6dbf
00000030: 8212 68bf e3d2 c3bf fab7 db3e e6fb 6cbf
00000040: a551 bcbf dc90 15be 1c59 c7bf 7eb9 443e
00000050: 085c 8cbf c8ec 93bf 8751 75bf 2310 433e
00000060: ccc0 eebe 759c 95bf 092d 98bf 71a1 5fbe
00000070: 5904 38be 4c94 56bf a685 59bf e040 acbe
00000080: d8f3 a8be efc6 c4bf 2604 e3bf 0333 8cbf
00000090: d74c e5be e456 47bf 415d babf 3466 52bf
000000a0: d63c 78be a33d b2bf 5beb e9be f217 dcbd
000000b0: 79d5 adbf c7ea 1bbf 917e 0ac0 b859 6abf
000000c0: aacb f8bf ecba 06be 8538 80bf 57c7 9fbe
000000d0: 682c 32bf 5627 52bf 2cd0 3abf 9981 acbf
000000e0: 1826 6dbf 5591 63bf 6121 06bf 6542 f5bf
000000f0: 20bc 9cbf 6211 32bf e99a 953e 1bf4 55bf
-1.2815161 -1.5967109 -0.44960123 -0.85705394 -0.1991637 -1.0496225 -1.2078273 -1.893264
-0.719143 -0.7060747 -0.105801255 -0.9289852 -0.9065324 -1.5298733 0.429138 -0.92571867
-1.4712416 -0.1460604 -1.5574069 0.19211385 -1.0965586 -1.1556635 -0.95827526 0.19049124
-0.46631467 -1.1688372 -1.1888744 -0.21838929 -0.17970408 -0.83820033 -0.84969556 -0.33643246
-0.32998538 -1.537321 -1.7735641 -1.0953068 -0.44785187 -0.7786696 -1.4559709 -0.821872
-0.24241957 -1.392506 -0.45687374 -0.10746755 -1.3580772 -0.60905117 -2.163975 -0.9154315
-1.9437153 -0.13157243 -1.0017248 -0.31206772 -0.6959901 -0.8209127 -0.72973895 -1.347705
-0.9263625 -0.88893634 -0.5239468 -1.9160887 -1.2244911 -0.69557774 0.2921975 -0.835756

action_model._discrete_distribution.branches.0.weight f4 [2, 64]
00000000: a74c 913d fce6 0b3f fbce 7e3c a0ce 8ebe
00000010: a3f3 4f3d 1210 183e bdf5 01be 34ce b23e
00000020: 79f2 02be f854 85be 8f28 61be 9614 c73e
00000030: 5c18 d5bd cf45 8d3e b227 e43c 038a 333d
00000040: 5741 42bf 03bf 41be 71e7 b53d e357 4abe
00000050: b9c5 53bf 5880 2ebe a38c 2cbe 444f f33d
00000060: 9845 3dbe a5c5 303d bd1f 28bd 9893 153e
00000070: b602 b5bd 22fb 423e 28d9 89be 9f1c 60be
00000080: 5bda fb3b d3ff 1cbe 7c7d 883e ea4d 513f
00000090: a102 e43c 46f5 4d3e 07f7 db3d e952 85bd
000000a0: 54ca 11be 38eb 303d 646d a9bd 3f3a b9be
000000b0: 2526 f53e 375e 123e 9167 ed3d 98b7 493f
000000c0: 80bc 3abf 9cdf cfbd 07c7 8f3e e9cb 15be
000000d0: 75f2 98be 1249 363c 9d9d e33d 1c7f 41be
000000e0: 58fc 08bd 0094 edbd 8ce1 adbc 7f4e 9bbf
000000f0: be4c 413e d178 ffbd 44d9 62bd ad8f 45be
00000100: fbd7 abbd 105e 0abf 8eb1 163c fdde 913e
00000110: 3df3 30bd e861 21be aa6e 053e d422 aebe
00000120: bf15 0c3e 3090 833e c8aa 493e df02 c8be
00000130: 37b3 dc3d 27e5 7ebe 654a b9ba 10cf 52bd
00000140: 0688 443f 5311 543e b16a cebd 529a 3f3e
00000150: cf6d 523f 4f27 253e 1fb4 1e3e 27ab 02be
00000160: 5b9d 173e 31ab 07bd 844a 963c 9ee5 1dbe
00000170: 5250 d73d d65e 36be 860c 6d3e a5bd 653e
00000180: 9909 27bc 85a5 233e 5e84 74be 84d5 52bf
00000190: f7e5 62bd af83 59be aeab adbd 990f b13d
000001a0: b703 203e e528 46bd e1d3 cd3d af44 b63e
000001b0: 024e f7be bf2e 15be 64a6 c7bd de48 4bbf
000001c0: c7da 363f 0d92 cc3d 22a6 82be 7bc4 e93d
000001d0: 361f a33e 30b4 d5bc eb05 f1bd aaf7 323e
000001e0: 40b4 333d 1014 003e 7d95 aa39 d600 9e3f
000001f0: 3e64 3fbe 8434 6b3d a093 773c 04cb 4c3e
0.070946984 0.5464933 0.015552278 -0.27892017 0.05076946 0.1484988 -0.12691398 0.34922945
-0.12787808 -0.2604139 -0.21988128 0.38882893 -0.10405037 0.27592322 0.02785096 0.04383279
-0.7588095 -0.18920521 0.088820346 -0.19760089 -0.82723576 -0.17041147 -0.16850524 0.11880353
-0.18483579 0.04315724 -0.041045893 0.14607084 -0.08838408 0.19041112 -0.2692349 -0.21885918
0.007685942 -0.15331964 0.26658237 0.8175951 0.027833285 0.20113096 0.10740476 -0.065099545
-0.14237338 0.043193072 -0.08272818 -0.3617725 0.47880664 0.14293753 0.11592019 0.78795767
-0.7294388 -0.10150072 0.28081533 -0.14628567 -0.2987248 0.01112582 0.11114047 -0.18896145
-0.03344378 -0.116004944 -0.021225713 -1.213333 0.18876931 -0.12474216 -0.055382982 -0.19293089
-0.083908044 -0.5404978 0.009197606 0.2849044 -0.04320072 -0.15760005 0.13030496 -0.34010947
0.1368017 0.25695944 0.19694054 -0.3906469 0.1077637 -0.24892102 -0.0014136551 -0.051467
0.76770055 0.20709734 -0.100789435 0.18711212 0.82198805 0.16128276 0.15498398 -0.12760602
0.1480612 -0.033122245 0.018346079 -0.15419623 0.10513367 -0.17809615 0.23149309 0.22435625
-0.010195159 0.1598111 -0.23878619 -0.8235705 -0.055395093 -0.2124164 -0.08480011 0.08645553
0.15626417 -0.048378844 0.10050178 0.35599276 -0.48301703 -0.14568613 -0.09748533 -0.7940806
0.7142758 0.099887945 -0.25517374 0.11414429 0.3185975 -0.026086897 -0.11768707 0.17477289
0.04387307 0.12507653 0.00032536304 1.2344005 -0.18690583 0.05742313 0.01511088 0.1999932

action_model._discrete_distribution.branches.0.bias f4 [2]
00000000: 4673 943f 3f73 94bf
1.1597679 -1.159767

action_model._discrete_distribution.branches.1.weight f4 [2, 64]
00000000: 020a 1dbe 5980 1cc0 8fdc 873e f3fa ea3d
00000010: 9900 a63b bf5f 89be 5c9d 0bbd 3ef6 a1bf
00000020: aada a3bc f3ec 433f 1989 91bd b442 87bf
00000030: 4ae0 c93d 10a9 4f3e 19e7 99bd 33bc d9be
00000040: a774 6fbf 3f24 033e c32c 26bf e675 463d
00000050: 12f1 543d 4344 8bbf 5209 05bd ae52 083e
00000060: 588b 10be 7770 553e 80ee cebe e40f 71be
00000070: 9388 b73d e7f1 683e fa0a 283f 2054 a2bd
00000080: 6bc9 d13d 1911 98be 482d bc3d 9998 a9be
00000090: 4345 343e 2d03 9a3c 0b55 9fbe 5432 ae3e
000000a0: 4436 57bf c814 633c 4bce 33be d735 923b
000000b0: 183b ccbf 281c 143e 1580 bdbf 36eb 70bf
000000c0: fa64 0fbf 252c 05be 55b3 6bbe 42cc 393e
000000d0: 15cf e93d 544c 933e 0986 b23c 388e e8bb
000000e0: e74a 86be 06af 843e e07e 94be da59 b13d
000000f0: e7cd a8bf ef12 9c3e 42e5 543b e689 363d
00000100: 7a82 123e b620 1d40 88ba 8bbe 73b7 dbbd
00000110: 0c92 21bc 2221 863e 2a99 223d 5192 a43f
00000120: 3a79 1f3d cce0 45bf e729 923d 32e2 873f
00000130: e55f 03be 2cc2 83be 6ba3 5d3d 49e3 db3e
00000140: be2e 773f ce61 f7bd fb98 2d3f 1597 debc
00000150: ad0c 7fbd 676e 8b3f 8146 9d3c f212 04be
00000160: 30ab 163e 837f 58be 0d32 d43e 5a85 7e3e
00000170: a0a8 bbbd 32a7 5bbe 8cec 25bf 5831 7d3d
00000180: 9505 b9bd 3d62 953e dcbd c5bd cc25 a23e
00000190: 8789 10be 837c fabc 061d a13e cad9 bbbe
000001a0: 775c 4e3f 3096 883a 7f53 383e 9d4c 393d
000001b0: a168 ce3f 5c50 ffbd ca58 bc3f e64c 6e3f
000001c0: 7501 123f b721 013e a2d6 753e 7997 22be
000001d0: 0a96 fbbd aeda 8fbe 5657 1bbd 56a6 0cba
000001e0: c641 8e3e b7fb 8cbe 213e 9c3e 6978 b2bd
000001f0: 4062 ab3f 3203 a6be 13bb 813a 3fa4 11bd
-0.15335849 -2.4453337 0.2653546 0.11473646 0.005065989 -0.2683086 -0.034085616 -1.2653272
-0.020001728 0.7653343 -0.071062274 -1.0567231 0.09857233 0.20279336 -0.075147815 -0.42526397
-0.9353737 0.12806796 -0.6491205 0.04845228 0.051987715 -1.0880207 -0.03247959 0.1331279
-0.14115655 0.20843683 -0.40416336 -0.23541218 0.08961596 0.22748528 0.6564175 -0.07926202
0.102434956 -0.29700544 0.09188324 -0.33124235 0.17604546 0.018800342 -0.3111957 0.34022772
-0.8406718 0.013859935 -0.17559163 0.0044619846 -1.5955534 0.14463866 -1.4804713 -0.94108903
-0.56013453 -0.13005121 -0.23017628 0.18144324 0.11416451 0.2876917 0.021792429 -0.007097032
-0.2622902 0.25914782 -0.29003048 0.08659716 -1.3187836 0.30483195 0.003248528 0.044565104
0.14307585 2.4551215 -0.2729075 -0.107283495 -0.00986148 0.26197153 0.03969685 1.2857152
0.03893397 -0.7729614 0.071368985 1.0615904 -0.1282955 -0.2573408 0.054110926 0.42946842
0.965557 -0.12079202 0.67811555 -0.02717165 -0.062267948 1.0893067 0.019198658 -0.12897852
0.1471374 -0.21142392 0.41444436 0.24855557 -0.09163022 -0.21450499 -0.64814067 0.061814636
-0.09034268 0.29176512 -0.096553534 0.31669462 -0.14114963 -0.03057695 0.31467456 -0.36689597
0.8060984 0.0010420736 0.18000601 0.04523908 1.612568 -0.12466499 1.4714596 0.9308609
0.57033473 0.12610517 0.24007657 -0.15878095 -0.12284477 -0.28096527 -0.037925087 -0.0005365362
0.27784556 -0.27535793 0.3051615 -0.08714373 1.3389359 -0.32424313 0.0009897671 -0.035557028

action_model._discrete_distribution.branches.1.bias f4 [2]
00000000: d68e 1dbf e58e 1d3f
-0.61546075 0.61546165

action_model._discrete_distribution.branches.2.weight f4 [2, 64]
00000000: 61b6 953e 53b7 1ebe 1e69 8abd 09ae 4e3d
00000010: 3f31 8f3e f88b 9fbe b7d6 6abd 4eca 52be
00000020: ec02 913e 1674 88be ef4a 363c 59c1 3bbd
00000030: eea7 89be 3b97 87bf 332b 343e b4c9 863d
00000040: 064d 3cc0 81da c43e fa6b 2e3f 4472 203e
00000050: 597a 503f ddd0 ab3e 5ecd 4a3e 64d3 3a3e
00000060: 0645 c4bd 9d1e 9c3e cf07 62be 4c51 13be
00000070: 4256 f03d dc19 9b3e 599c 893e 2b67 863c
00000080: 3e99 e03d 3e67 0fbe bfa0 ccbd 538e 153f
00000090: 1b2a 40be 2228 363e 4569 b6bd d8ad 86be
000000a0: 6d95 01bf 862d debe 6e29 6b3d ed9e aa3d
000000b0: cb1f 793e 01ea f03d 13c2 17bf 3f95 c13d
000000c0: 9e5d cabe 550f e63d 0e5c 8e3c cf64 743e
000000d0: 566e 91be f272 e5bc ee4e dc3d 615c b7be
000000e0: 40cf c93e 3a23 9e3e a752 003f e741 a1be
000000f0: cdb4 25c0 d8ec bfbe c48a c83d 1289 fa3d
00000100: 9656 8cbe 28e1 243e b559 793d a3bf 51bd
00000110: 9c2d 8fbe 3e22 a13e d184 533d 57b8 683e
00000120: faf8 a9be 7794 8c3e c347 f3bb 37a4 813d
00000130: 8a63 6d3e 2f91 8a3f d3c8 47be 5137 68bd
00000140: a7b2 3d40 0bd5 cebe 6bdc 2ebf 87bf 0bbe
00000150: 4c4b 56bf f487 a2be 4edf 5ebe c402 36be
00000160: 60dc e03d f17e a1be 1f15 5a3e 076e 203e
00000170: f436 10be 5c7c 9dbe 170d 89be efbc a4bc
00000180: 16ff eebd 57ed 263e 6c46 043e bebb 17bf
00000190: 90cb 413e 15d8 31be 10e7 bf3d ddf6 923e
000001a0: 12be 083f d5bf e63e 208d 2cbd 79b5 a7bd
000001b0: 61a7 94be a50f babd 57ef 173f 1f16 01be
000001c0: d607 c33e dbb0 efbd 5f1a 63bc aa0a 59be
000001d0: 6a82 973e 2f63 fd3c df75 f6bd e4ce b73e
000001e0: fe58 bbbe 36ec a9be af22 f6be 1871 a23e
000001f0: 0c78 2640 1e30 cb3e 15ed a5bd 9e4c 00be
0.29240707 -0.1549962 -0.06758331 0.05045894 0.2796726 -0.31161475 -0.057333674 -0.20584986
0.28322542 -0.26651067 0.011126264 -0.045838688 -0.26885933 -1.0593027 0.17594604 0.065814406
-2.9422011 0.38447955 0.6813351 0.15668589 0.8143669 0.33557788 0.19804904 0.18244702
-0.09583478 0.30492106 -0.22073291 -0.14386481 0.11735202 0.30293167 0.26877096 0.016406616
0.10966729 -0.14004228 -0.099915974 0.58420295 -0.18766062 0.17788747 -0.08906797 -0.26304507
-0.5061863 -0.43394107 0.057412557 0.08331094 0.24328534 0.11763383 -0.5928051 0.094522946
-0.3952455 0.11233393 0.01737788 0.2386658 -0.28404492 -0.028008912 0.10757242 -0.35812667
0.39415932 0.3088625 0.5012612 -0.31495592 -2.5891602 -0.37485385 0.097920924 0.12233175
-0.2740981 0.16101515 0.060876567 -0.05120815 -0.27964485 0.31471437 0.051640335 0.2272657
-0.33197767 0.2745702 -0.007424326 0.063301496 0.23182502 1.0825557 -0.19510202 -0.05669338
2.964029 -0.40396914 -0.6830508 -0.1364728 -0.83708644 -0.3174435 -0.21764871 -0.17774493
0.10979533 -0.3154216 0.2129712 0.15666972 -0.14083463 -0.3075894 -0.267678 -0.020109622
-0.116697475 0.16301475 0.12917489 -0.59270847 0.18925309 -0.17367585 0.093702435 0.28703967
0.53415024 0.4506823 -0.042126775 -0.0818891 -0.2903395 -0.09085015 0.5934958 -0.12606095
0.38091916 -0.117036544 -0.013861268 -0.21195474 0.29591686 0.030931083 -0.12034201 0.35900033
-0.36591333 -0.33188027 -0.48073336 0.3172691 2.601077 0.39685148 -0.081018604 -0.12529227

action_model._discrete_distribution.branches.2.bias f4 [2]
00000000: 06c7 91bf 12c7 913f
-1.1388862 1.1388876

exp_avg f4 [64, 63]
00000000: 3d22 48b9 fc66 2e37 2f66 4339 b2f0 6339
00000010: e626 93b9 ece9 2b37 d4d4 8f39 245b 9e39
00000020: e55b 40b9 1279 b536 4bec 3e39 8dca 6239
00000030: 89a6 ccb9 114d 4237 fd58 c539 9f5e ca39
00000040: 12fc 3bb9 2fad bb36 3d0a 3a39 b702 4d39
00000050: 510c a3b9 4404 3d37 fef5 9939 1349 a539
00000060: 46f6 85b9 ec83 a936 f36b 8439 7fbe 8939
00000070: 4444 e938 3859 9fb7 3d93 84b8 901c 0b36
00000080: c9df e438 4447 24b9 1e0e 03b8 68cf 00b9
00000090: ae40 31b8 7db4 0539 dd06 19b7 1fab 4238
000000a0: adb0 d737 eda8 4db8 48c5 f637 4994 a0b8
000000b0: bf15 4338 ad3b 70b8 40be d1b6 b40e dab7
000000c0: aae6 74b7 4ab5 6b37 97f4 ab36 d54d 85b8
000000d0: 70f6 0239 8049 0638 6226 42b9 cd52 6ab8
000000e0: f5c7 8238 4372 d8b7 8e12 f738 d5d4 53b9
000000f0: 409e 8cb8 fdba 5339 6fc6 17b9 98d8 f438
00000100: adf5 1737 d7c8 f5b8 1492 a0b8 7598 1f39
00000110: 3a32 0237 aca2 1eb9 8cb9 e6b8 3f67 d038
00000120: 5a97 e636 de3e d1b8 62bd 7cb8 f938 1438
00000130: 64ad 0937 38ee 17b8 c779 feb5 3df7 15b9
00000140: 9d43 9b36 4664 1439 04c9 2b39 8391 8bb9
00000150: 4c51 0537 3654 8439 e72d 8e39 096e 6bb9
00000160: 493d 8c36 08c3 6839 a42d 7839 caee f136
00000170: f151 e037 3dcf 5cb7 f1cc dc36 6e50 4339
00000180: 0f27 b6b8 f71e 1fb9 91de c1b8 f3f8 aab8
00000190: c2aa 8237 179b 28b8 cb44 7638 2424 3ab9
000001a0: 27ed 5539 4ada 83b4 967a 83b9 e129 5f38
000001b0: 375f cb37 edd8 79b8 e426 25b7 aba1 8eb7
000001c0: cd0a 8b37 1342 8e36 494e b9b9 f8d4 04b9
000001d0: a3c4 5f37 e286 0239 79db 0239 fb23 5db8
000001e0: 0549 2d38 f31b 8839 952d f839 352b 6039
000001f0: 7c48 5738 a3a3 14b9 1023 5139 cf17 47b7
00000200: 22c2 4bb9 7ebc 6db9 ac49 4139 b485 46b7
00000210: 4291 3bb9 8310 5cb9 451a 4e39 509f 8e36
00000220: a875 51b9 58ae 75b9 015b 7739 f6d5 4db7
00000230: df07 6db9 890c 83b9 88d3 7139 b39b c7b6
00000240: 267f 6fb9 3121 84b9 f0a6 ac39 4337 48b7
00000250: b109 a3b9 56d0 abb9 c3de 9b39 d94a b4b6
00000260: ab1d 9ab9 ff41 a3b9 c0b2 1938 c09e acb8
00000270: 5953 22b6 28e0 8837 ce4c 9438 6672 39b8
00000280: c5dc 57b8 47b0 c5b8 02b9 5739 403e 3fb9
00000290: fbbe 03b9 506a 4db9 7fcf 3d39 7466 45b9
000002a0: 295a f8b7 17f9 1db8 9e30 8339 31a0 41b9
000002b0: 25df 31b9 3d98 8bb9 1b04 e438 6bcd e3b8
000002c0: 40e3 b6b6 f287 aeb8 3ef4 3039 6412 65b9
000002d0: be82 ebb7 d0e7 86b9 ca56 c338 81b1 3fb9
000002e0: d83e 6e38 5868 74b9 7a65 a6b9 6672 e0b9
000002f0: faa9 8e39 74fc ebb9 8942 cc37 dd8f e639
00000300: be2e 0d3a 6dc3 07ba 1990 d537 a351 043a
00000310: 18c7 1c3a dd06 f1b9 3aa5 d4b7 f0a9 f839
00000320: 7033 163a 19ac 3dba 9e89 eb37 f071 363a
00000330: 00e0 453a 94da 36ba 2335 6537 e13d 353a
00000340: 3f55 443a 156a adba b715 e537 e1a1 a43a
00000350: 6f95 a33a 90d2 6bba 0307 4f37 c850 693a
00000360: 787e 713a 70d9 5939 ee2a 38b9 240d 0db9
00000370: 453f 6338 5356 bd38 7c67 c8b8 0f5b 3ab8
00000380: be36 4cb9 e393 ae38 59cd edb9 2220 6e39
00000390: c3a3 f0b7 9d04 c038 db8b 54b9 0d57 1a39
000003a0: 002d 46b9 d6ca 4539 1738 04ba 5c7f b938
000003b0: 49bf c4b8 1381 9a39 7c19 9cb9 ef01 5237
000003c0: c476 a1b9 405a 4e39 cc83 b0b9 617a 1eb8
000003d0: 5786 f1b8 5ea1 ba39 a139 9339 7350 10b9
000003e0: ab62 deb8 c9b0 ad38 cc6e 8138 1467 f2b7
000003f0: 56ed a538 5ad1 14b7 1940 9fb8 714f b9b8
-0.00019086241 1.0395186e-05 0.00018634716 0.00021738073 -0.00028067006 1.0246858e-05 0.00027433655 0.00030204013
-0.0001834478 5.408315e-06 0.00018207838 0.00021628496 -0.0003903399 1.15812445e-05 0.0003764107 0.0003859894
-0.00017927613 5.5931955e-06 0.00017742156 0.00019551335 -0.0003109896 1.1266271e-05 0.00029365713 0.00031525697
-0.00025551225 5.05195e-06 0.0002525743 0.00026272607 0.00011123021 -1.8995823e-05 -6.321676e-05 2.072924e-06
0.000109135704 -0.00015666807 -3.124598e-05 -0.00012284296 -4.2260326e-05 0.00012751106 -9.121109e-06 4.6412573e-05
2.5712268e-05 -4.9033133e-05 2.9417351e-05 -7.657015e-05 4.6511876e-05 -5.7276036e-05 -6.2508334e-06 -2.5994472e-05
-1.4597239e-05 1.4049301e-05 5.124671e-06 -6.3564315e-05 0.00012489571 3.201654e-05 -0.0001851558 -5.586706e-05
6.236128e-05 -2.5802414e-05 0.00011781334 -0.00020201814 -6.7051966e-05 0.00020192187 -0.00014474404 0.000116751704
9.057502e-06 -0.0001171992 -7.656604e-05 0.00015220216 7.760298e-06 -0.00015128654 -0.000110018154 9.937444e-05
6.872154e-06 -9.9776065e-05 -6.025786e-05 3.533901e-05 8.206207e-06 -3.6223064e-05 -1.8959917e-06 -0.00014301851
4.627231e-06 0.00014151735 0.00016382715 -0.0002662056 7.946346e-06 0.00025239744 0.0002711855 -0.00022452338
4.1794597e-06 0.00022197899 0.00023668126 7.2101584e-06 2.6741038e-05 -1.3161273e-05 6.5803692e-06 0.00018626612
-8.6857115e-05 -0.00015174957 -9.2444134e-05 -8.152602e-05 1.5576723e-05 -4.019876e-05 5.871504e-05 -0.00017751806
0.00020401609 -2.4559478e-07 -0.000250776 5.3206346e-05 2.4243824e-05 -5.9568254e-05 -9.843821e-06 -1.7003002e-05
1.657512e-05 4.239622e-06 -0.00035344277 -0.00012667838 1.3337619e-05 0.00012448014 0.00012479526 -5.2724015e-05
4.131442e-05 0.00025960765 0.00047336207 0.000213784 5.13275e-05 -0.0001417534 0.00019944855 -1.1866868e-05
-0.00019431909 -0.000226723 0.00018433359 -1.183285e-05 -0.00017887822 -0.00020986986 0.00019655477 4.250476e-06
-0.00019975624 -0.00023429969 0.00023589657 -1.2268769e-05 -0.00022605014 -0.00024995607 0.00023062353 -5.948788e-06
-0.00022840183 -0.00025201731 0.00032930775 -1.1933796e-05 -0.00031097003 -0.00032770884 0.00029729874 -5.3731314e-06
-0.00029395273 -0.00031138954 3.6644517e-05 -8.2311686e-05 -2.4188396e-06 1.6316844e-05 7.071496e-05 -4.421398e-05
-5.1465602e-05 -9.426526e-05 0.00020572919 -0.0001823837 -0.0001256428 -0.00019589928 0.00018101743 -0.00018825551
-2.9605888e-05 -3.76637e-05 0.0002502249 -0.0001846559 -0.00016963163 -0.00026625572 0.00010872652 -0.000108624656
-5.450478e-06 -8.322288e-05 0.00016875655 -0.00021845993 -2.8075065e-05 -0.00025731185 9.31449e-05 -0.00018281305
5.680215e-05 -0.00023308524 -0.00031737593 -0.00042809843 0.00027210993 -0.00045010785 2.4349678e-05 0.00043976205
0.0005385688 -0.0005178962 2.545868e-05 0.0005047565 0.0005980595 -0.00045972216 -2.5349309e-05 0.0004742886
0.00057297107 -0.00072354224 2.8078266e-05 0.0006959727 0.0007548332 -0.00069753197 1.36618355e-05 0.0006913823
0.00074895093 -0.0013230467 2.7309039e-05 0.0012560451 0.0012480448 -0.0008995915 1.2339794e-05 0.0008900282
0.0009212266 0.00020775734 -0.000175636 -0.00013451703 5.417994e-05 9.0283014e-05 -9.5560186e-05 -4.443066e-05
-0.00019475349 8.3245126e-05 -0.00045357159 0.00022709419 -2.8686487e-05 9.156133e-05 -0.00020269996 0.00014719013
-0.00018899515 0.00018862946 -0.00050437584 8.84521e-05 -9.381638e-05 0.00029469337 -0.00029773626 1.2517426e-05
-0.000307968 0.00019679312 -0.00033667532 -3.778411e-05 -0.00011516798 0.00035596912 0.00028080962 -0.0001376288
-0.00010604163 8.282212e-05 6.171837e-05 -2.8896648e-05 7.9120204e-05 -8.870231e-06 -7.59365e-05 -8.8362845e-05

exp_avg_sq f4 [64, 63]
00000000: 3e56 1036 228c b932 5869 0c36 7884 1e36
00000010: 5674 3036 f4fa 1234 899d 2a36 ecc5 3736
00000020: 8f7c 0836 f2ae 8532 da84 0636 e622 1d36
00000030: 04a9 8e36 bef9 c132 6500 8536 db94 7b36
00000040: 42d0 2536 9bec 3a32 b788 2336 d9ce 3036
00000050: 3ec1 b736 375c ce32 03c0 a536 f36f a136
00000060: f646 5436 a9a2 9031 3d43 5036 3f51 5a36
00000070: 0656 5036 ee71 2237 2cbc 5b36 1590 7636
00000080: dd53 2936 20ce 1737 cf3e e135 424b f635
00000090: 8ff6 4b36 46f1 7137 ee4a b935 6557 ff35
000000a0: 7be2 7c36 f75c a836 829f ad35 fc8a c535
000000b0: e451 9a36 39ea 3637 ce84 4036 2162 8636
000000c0: 39f5 7936 a427 7d36 50f3 bc31 656b ec35
000000d0: f5e6 bf36 d50e 4c36 5bee 0037 012a b436
000000e0: a318 6236 0ca1 1236 0558 3d36 82ab 8236
000000f0: 9a0e 0b36 c0f3 d135 9998 6d36 7f58 1036
00000100: 4cdd 6632 ca9a 0b36 cb33 2436 bbb5 2f36
00000110: 2418 6632 e49e 2836 69f8 4136 bce3 0136
00000120: 47c8 fc31 b43a ff35 d9c7 1f36 744b 7c36
00000130: 4d57 0333 05b8 6b36 1b95 7536 73ea 3136
00000140: d7a3 a632 0592 2f36 49af 4736 e6dc 9e36
00000150: 54ee ff32 4e9b 8f36 5a1d 9b36 50f6 8636
00000160: 9a0f 3b31 bf4d 8436 9b88 8d36 b0aa de35
00000170: 6692 2834 e11e d335 4f9c d535 1d5c ef35
00000180: 5cf3 6936 5a29 d335 0d3d da35 527f 3d36
00000190: ae75 9833 a96c 7136 60b4 5036 e59e 4f36
000001a0: 3630 9136 37af e034 2007 db35 9f12 6736
000001b0: 6bd3 df33 f005 ab36 5990 9036 fc4a 7436
000001c0: c199 7736 ee79 5331 1aa1 0436 41b9 7c36
000001d0: eb86 ee32 2779 c736 7774 9c36 69da 0736
000001e0: 4812 d235 dffc d535 f678 1036 d6d3 b035
000001f0: 72a8 8135 3c77 0f36 8bc7 3636 0685 e832
00000200: 12e6 3136 ac41 6236 328f 5836 f6e0 0233
00000210: 80f6 5036 df83 7e36 0e43 3536 7abf 0a34
00000220: 9e25 3336 d373 6536 0051 9d36 160b e032
00000230: 3611 9336 fbc9 a536 8868 8236 ba28 eb34
00000240: caf8 8336 87e8 9636 777b 0337 8bf6 f634
00000250: 5b08 f336 862c f536 05ca cf36 0ed4 a231
00000260: 84ac cb36 9cba d536 46af 7436 e816 4236
00000270: 167c 6236 7707 b236 3395 de35 457c 9636
00000280: def6 7735 0907 0f36 7f01 5736 ea9f c336
00000290: e81b 5736 6c43 5436 f605 0736 abd4 2f36
000002a0: ad29 1c34 a225 ce35 fa61 5e36 3a5e 1e36
000002b0: 0b78 8436 42b8 7936 b2f3 f235 b2eb f435
000002c0: 92d5 b431 fc42 d935 a72a 2436 60f3 0b36
000002d0: 6363 3436 d59a 4736 b70c 6036 cf0c 3f36
000002e0: 7ad6 5136 efb0 3536 fc2c 1d36 139b 4f36
000002f0: b4d9 4a36 bfd1 4236 b2c4 9133 8b12 3e36
00000300: cb1f 6b36 e78c 5436 af89 8533 2ac9 4d36
00000310: df5b 7a36 4467 3d36 d187 4335 10fa 4336
00000320: 3e14 7636 f54b 9436 5c9a 0f33 aee6 8a36
00000330: 5537 9f36 dc49 8536 9b83 8634 7659 8536
00000340: 56ba 9936 aa1e 6637 83bb 8234 7b50 5037
00000350: 37fa 3537 b43e d236 6dd9 ff31 2207 ce36
00000360: a321 dc36 719a 6636 d8fe 5137 429b 7536
00000370: b6f9 3737 4e2b 8836 cb84 9637 8961 0a36
00000380: 2b9a f435 cc46 ab36 3033 df37 7cb9 ea35
00000390: 4d1d 1936 b166 d436 3f17 1637 6ba3 6635
000003a0: 863c d335 65dd 1337 b943 ec37 5c8b 3436
000003b0: c02c af36 cc1e b136 167e b336 a71b bc31
000003c0: 46d9 2936 ec33 3e37 5522 8e37 9f8d 1737
000003d0: f4cb 0d37 6cbb a236 6a1a 2f36 3b20 9336
000003e0: a024 f436 5e78 f335 3902 a735 d493 d536
000003f0: 64ce 0f36 f372 8034 2804 1436 0f35 0e36
2.1507872e-06 2.160056e-08 2.0922944e-06 2.3620942e-06 2.629376e-06 1.3688606e-07 2.5423672e-06 2.738433e-06
2.0338082e-06 1.5562794e-08 2.0044886e-06 2.3415137e-06 4.251606e-06 2.2581727e-08 3.963755e-06 3.748856e-06
2.4708138e-06 1.0880423e-08 2.4368471e-06 2.6346445e-06 5.4763213e-06 2.402349e-08 4.9397363e-06 4.8112065e-06
3.1631766e-06 4.209444e-09 3.1033553e-06 3.2531823e-06 3.1044488e-06 9.682479e-06 3.2743073e-06 3.6740723e-06
2.5231777e-06 9.048294e-06 1.6782086e-06 1.8350331e-06 3.0392873e-06 1.4420895e-05 1.3805382e-06 1.9024416e-06
3.7682755e-06 5.0176127e-06 1.2935927e-06 1.4718094e-06 4.599091e-06 1.090258e-05 2.8687532e-06 4.004935e-06
3.724663e-06 3.7723012e-06 5.4991816e-09 1.7614626e-06 5.7191305e-06 3.0407002e-06 7.684891e-06 5.369308e-06
3.3690965e-06 2.1849437e-06 2.8214429e-06 3.894268e-06 2.0721113e-06 1.5642654e-06 3.5404576e-06 2.1509184e-06
1.3438079e-08 2.0802713e-06 2.4468052e-06 2.6182813e-06 1.3393251e-08 2.5126437e-06 2.8903835e-06 1.9355057e-06
7.356934e-09 1.9016065e-06 2.3809173e-06 3.7594846e-06 3.0580214e-08 3.5124842e-06 3.6594636e-06 2.6511523e-06
1.939945e-08 2.6162027e-06 2.975534e-06 4.734483e-06 2.9794286e-08 4.279812e-06 4.622777e-06 4.0221857e-06
2.722095e-09 3.9429574e-06 4.2180304e-06 1.6589966e-06 1.5699479e-07 1.5729712e-06 1.5915228e-06 1.7833696e-06
3.486136e-06 1.573276e-06 1.6260034e-06 2.8237305e-06 7.0994574e-08 3.5975047e-06 3.1099407e-06 3.0937892e-06
4.3269492e-06 4.1850737e-07 1.6318845e-06 3.4432521e-06 1.04227034e-07 5.0968883e-06 4.3083387e-06 3.640248e-06
3.6895365e-06 3.077385e-09 1.9763306e-06 3.7658758e-06 2.77682e-08 5.944766e-06 4.6627206e-06 2.02437e-06
1.565154e-06 1.5943332e-06 2.152808e-06 1.3174674e-06 9.660273e-07 2.1378064e-06 2.7236263e-06 2.7068847e-08
2.6508974e-06 3.371485e-06 3.2269859e-06 3.0472584e-08 3.1137897e-06 3.7925709e-06 2.7010133e-06 1.292191e-07
2.6694975e-06 3.4191078e-06 4.6883943e-06 2.6082073e-08 4.382945e-06 4.940897e-06 3.886471e-06 4.3801793e-07
3.933067e-06 4.497418e-06 7.836955e-06 4.6000454e-07 7.242937e-06 7.306752e-06 6.192599e-06 4.7389284e-09
6.069955e-06 6.369619e-06 3.6460856e-06 2.8921586e-06 3.3748852e-06 5.3056824e-06 1.6583712e-06 4.4848152e-06
9.237391e-07 2.1312756e-06 3.2038367e-06 5.8300693e-06 3.205374e-06 3.1629706e-06 2.0120037e-06 2.6200821e-06
1.4543794e-07 1.5359149e-06 3.3137608e-06 2.3598682e-06 3.9478814e-06 3.7211144e-06 1.810133e-06 1.8248013e-06
5.2629696e-09 1.6187255e-06 2.4462731e-06 2.0854277e-06 2.687994e-06 2.9743435e-06 3.3386002e-06 2.8468673e-06
3.1268269e-06 2.707409e-06 2.3421007e-06 3.0935669e-06 3.0227066e-06 2.903034e-06 6.787867e-08 2.8323e-06
3.5036235e-06 3.1672478e-06 6.2183396e-08 3.0664473e-06 3.730638e-06 2.8223303e-06 7.28408e-07 2.920282e-06
3.666864e-06 4.4195863e-06 3.343517e-08 4.139575e-06 4.7450108e-06 3.9723072e-06 2.50552e-07 3.9741235e-06
4.5814477e-06 1.3716208e-05 2.435082e-07 1.2416504e-05 1.0846698e-05 6.2657873e-06 7.446195e-09 6.140109e-06
6.5604268e-06 3.4362567e-06 1.2516706e-05 3.6598217e-06 1.096579e-05 4.058157e-06 1.794323e-05 2.0620375e-06
1.8224285e-06 5.104439e-06 2.6607508e-05 1.7488342e-06 2.2815832e-06 6.330047e-06 8.946109e-06 8.591948e-07
1.573834e-06 8.81343e-06 2.8164928e-05 2.6903208e-06 5.220616e-06 5.2785963e-06 5.349294e-06 5.474664e-09
2.5309432e-06 1.13369715e-05 1.6943706e-05 9.033275e-06 8.451741e-06 4.849795e-06 2.6092407e-06 4.3846935e-06
7.2760304e-06 1.8139942e-06 1.2443116e-06 6.365104e-06 2.1428796e-06 2.3925494e-07 2.2056138e-06 2.1190533e-06

exp_avg f4 [64]
00000000: 8ce2 f8b8 cfe6 cdb8 a25a 0439 fdfa 97b9
00000010: 5896 af38 7fe6 ccb8 a0c9 bf39 1240 54ba
00000020: 45e1 a638 4527 b137 bcf0 db38 3e70 2c37
00000030: 0c73 91b8 a296 9e38 22c3 f338 17a6 9fb9
00000040: dc6d 7fb8 ec50 1439 b22e 10b9 6272 a939
00000050: 5659 54b8 901b e435 36f8 a639 a77a 5939
00000060: 3d84 08b9 c095 2639 e2cd 06ba 5ddc 16b9
00000070: c809 d439 ce01 ffb9 59e4 1e39 d037 07ba
00000080: 9b83 b639 77f7 28b9 eb37 0a39 6cfb 65b9
00000090: 2995 e3b8 0133 a338 a4cc f839 bbd0 66b9
000000a0: 6c54 bd39 dc6e c3b8 9e74 a3b9 88fc 34b9
000000b0: 214d c439 6da8 ae38 b11e 23b8 7af7 e037
000000c0: bfbc 6ab9 6686 cc38 d43a 08b9 cbd8 8db8
000000d0: 53f3 b137 3462 2f38 b7cb 00b8 85bb 5f39
000000e0: d6e4 0838 6b8d af39 0973 4339 42b4 3639
000000f0: 10e8 ee38 f17c 8d37 bf49 94b7 cb3d d3b9
-0.00011867759 -9.818153e-05 0.00012622264 -0.00028987965 8.372654e-05 -9.770411e-05 0.0003658058 -0.00080967054
7.9574565e-05 2.111833e-05 0.00010487574 1.0278132e-05 -6.935568e-05 7.562085e-05 0.00011623489 -0.0003045059
-6.0899052e-05 0.00014144526 -0.00013750306 0.00032319414 -5.062794e-05 1.6995346e-06 0.0003184692 0.00020740424
-0.00013019233 0.0001588678 -0.0005142373 -0.00014387206 0.0004044308 -0.00048638735 0.0001515312 -0.0005158158
0.000348118 -0.00016113916 0.00013181537 -0.00021932804 -0.00010851987 7.781946e-05 0.00047454715 -0.00022012267
0.00036111788 -9.318974e-05 -0.0003117667 -0.00017260213 0.000374415 8.328338e-05 -3.8890812e-05 2.6818121e-05
-0.00022386292 9.752512e-05 -0.00012991886 -6.763785e-05 2.1213351e-05 4.181471e-05 -3.0707302e-05 0.00021336794
3.2638047e-05 0.00033483966 0.00018639503 0.00017424024 0.000113919494 1.686669e-05 -1.7677316e-05 -0.00040291096

exp_avg_sq f4 [64]
00000000: 1d45 0c36 9c7a c935 df67 2f36 697d 2d36
00000010: f935 b336 b6e5 ee35 bc43 b436 8261 1336
00000020: 14f9 7236 99db da35 2754 4536 90e0 6e35
00000030: edc3 db36 25fd 9a35 6ab0 6736 0d6e 9b36
00000040: 51c1 9c36 91b9 1e36 793c ef35 3804 0737
00000050: dcfe 1f36 9862 0836 3dc9 5536 90c2 2f36
00000060: 3961 ae36 a263 8b36 4ec1 d536 b666 4636
00000070: ad22 9136 dafc 9936 f89f f635 0d4e b437
00000080: 46d4 fc35 1750 1836 f82e 2d36 ce09 2e35
00000090: 751e a336 b651 7335 d6d4 e635 5228 5836
000000a0: 4bea 4e36 55dd 5f36 6ef8 9535 0760 6e36
000000b0: 3ff3 a836 1238 8336 7c2a a036 15eb 1836
000000c0: b928 9c36 fecf 7536 15d5 cb35 c671 b235
000000d0: 3f6a 8736 4a2a 8d36 b87d c135 f007 c536
000000e0: c036 7b35 ccac 0c36 dd2e cc35 3a7a b536
000000f0: edda 3a36 bb87 a735 5e4b df35 a69e 8037
2.0901855e-06 1.5011351e-06 2.6137493e-06 2.5852007e-06 5.340899e-06 1.7799237e-06 5.3723033e-06 2.1961464e-06
3.6205793e-06 1.6306177e-06 2.940427e-06 8.898869e-07 6.5495174e-06 1.1547569e-06 3.4524369e-06 4.6321716e-06
4.6716673e-06 2.3651849e-06 1.7824487e-06 8.047609e-06 2.3841194e-06 2.0322968e-06 3.185661e-06 2.6190282e-06
5.1969223e-06 4.1541216e-06 6.3703983e-06 2.9564085e-06 4.3253735e-06 4.589191e-06 1.8374985e-06 2.1494017e-05
1.8837243e-06 2.2696383e-06 2.5806348e-06 6.483432e-07 4.861324e-06 9.064346e-07 1.7198279e-06 3.2209978e-06
3.0832769e-06 3.3358422e-06 1.1173668e-06 3.552066e-06 5.0351077e-06 3.9106317e-06 4.7733174e-06 2.27866e-06
4.653903e-06 3.6628912e-06 1.5186694e-06 1.3295146e-06 4.035682e-06 4.2070506e-06 1.441621e-06 5.8719816e-06
9.358446e-07 2.0962207e-06 1.5212823e-06 5.4084494e-06 2.7843591e-06 1.2481972e-06 1.663673e-06 1.5332665e-05
