Assets/_created_block_bigger_gradual_reward_increased_length_continuous_dynamics_Added_checkpoint_ontriggerenter_Renaming_sensor_beta_0.003_increased_rewards_corrected_blocker/competitor/competitor-10999946.pt (torch, 238430 bytes, 70 tensors)

discrete_act_size_vector f4 [1, 3]
2.0 2.0 2.0
00000000: 0000 0040 0000 0040 0000 0040

network_body.observation_encoder.processors.0.normalizer.running_mean f4 [28]
0.23253633 0.00860432 0.75885135 0.79372704 0.20736708 0.008584569 0.78405863 0.81294405
0.2284236 0.004801114 0.7667718 0.80201477 0.13706079 0.009187769 0.85375977 0.8679328
0.1459617 0.0021536432 0.8518934 0.86573577 0.08509265 0.0086959805 0.9061868 0.915006
0.09197673 0.0017673798 0.90628344 0.9136102
00000000: 011e 6e3e 22f9 0c3c 1544 423f b231 4b3f
00000010: 0958 543e 4ba6 0c3c 11b8 483f 1a1d 503f
00000020: e0e7 693e aa52 9d3b 284b 443f d750 4d3f
00000030: aa59 0c3e 4c88 163c 0090 5a3f d830 5e3f
00000040: fc76 153e 2324 0d3b b015 5a3f dca0 5d3f
00000050: 0e45 ae3d 9679 0e3c dcfb 673f d53d 6a3f
00000060: 4c5e bc3d 6da7 e73a 3102 683f 5ce2 693f

network_body.observation_encoder.processors.0.normalizer.running_variance f4 [28]
1.962974e+06 93837.14 2.0128998e+06 1.5122931e+06 1.8080245e+06 93604.695 1.8624499e+06 1.4291502e+06
1.938676e+06 52575.56 1.9670238e+06 1.4604206e+06 1.3010412e+06 100149.87 1.3733929e+06 1.1346275e+06
1.3710902e+06 23616.908 1.3879448e+06 1.1517846e+06 856393.8 94809.945 934877.5 776507.5
918710.8 19401.729 934494.75 796779.06
00000000: f09e ef49 9246 b747 1eb7 f549 299b b849
00000010: c4b4 dc49 59d2 b647 8f59 e349 f274 ae49
00000020: a0a7 ec49 8f5f 4d47 7e1d f049 2546 b249
00000030: 8ad1 9e49 ef9a c347 87a6 a749 1c81 8a49
00000040: 925e a749 d181 b846 466d a949 4599 8c49
00000050: 9d14 5149 f92c b947 d83d 6449 b893 3d49
00000060: 6d4b 6049 7593 9746 ec25 6449 b186 4249

network_body.observation_encoder.processors.1.normalizer.running_mean f4 [28]
0.31938776 0.03744498 0.64160025 0.89096344 0.6954738 0.05837757 0.24610098 0.55373186
0.7661216 0.03400294 0.17736134 0.50081974 0.8164469 0.13059628 0.052910022 0.41151908
0.85806316 0.025372643 0.09581989 0.30114573 0.8441841 0.15399021 0.0018007712 0.35128453
0.8944951 0.018056318 0.06418411 0.26054102
00000000: cb86 a33e e85f 193d ea3f 243f 2e16 643f
00000010: 920a 323f 521d 6f3d e501 7c3e 5fc1 0d3f
00000020: 8c20 443f ab46 0b3d 369e 353e b935 003f
00000030: aa02 513f 08bb 053e 2eb8 583d a1b2 d23e
00000040: 07aa 5b3f 4ada cf3c 383d c43d c62f 9a3e
00000050: 731c 583f 9caf 1d3e db07 ec3a 91db b33e
00000060: a2fd 643f d8ea 933c f572 833d a265 853e

network_body.observation_encoder.processors.1.normalizer.running_variance f4 [28]
2.3911435e+06 396448.22 2.5294405e+06 358497.44 2.3296895e+06 604631.1 2.0408741e+06 1.1429814e+06
1.9709511e+06 361362.62 1.6048968e+06 811620.9 1.6483644e+06 1.2485264e+06 551214.25 1.0633329e+06
1.339592e+06 272040.2 953005.0 775464.44 1.447262e+06 1.4327964e+06 19754.348 767681.6
1.0380935e+06 195087.97 660419.94 777038.06
00000000: 9ef1 114a 0794 c148 8262 1a4a 2e0c af48
00000010: 6631 0e4a 729d 1349 5121 f949 2b86 8b49
00000020: 3998 f049 5472 b048 06e9 c349 4e26 4649
00000030: 6337 c949 7368 9849 e492 0649 27cd 8149
00000040: 4086 a349 06d5 8448 d0aa 6849 8752 3d49
00000050: f0aa b049 e3e6 ae49 b254 9a46 1a6c 3b49
00000060: d870 7d49 fe83 3e48 3f3c 2149 e1b4 3d49

network_body.observation_encoder.processors.2.normalizer.running_mean f4 [7]
232.0115 51.112682 50.985275 50.523617 50.96949 51.118362 50.28477
00000000: f202 6843 6373 4c42 ecf0 4b42 2f18 4a42
00000010: c2e0 4b42 3479 4c42 9b23 4942

network_body.observation_encoder.processors.2.normalizer.running_variance f4 [7]
3.0645428e+10 2.348924e+10 2.3450348e+10 2.349102e+10 2.3415826e+10 2.3392485e+10 2.3453278e+10
00000000: 8453 e450 2b02 af50 fdb7 ae50 9105 af50
00000010: 2576 ae50 a049 ae50 94bd ae50

network_body.processors.0.normalizer.running_mean f4 [28]
0.23253633 0.00860432 0.75885135 0.79372704 0.20736708 0.008584569 0.78405863 0.81294405
0.2284236 0.004801114 0.7667718 0.80201477 0.13706079 0.009187769 0.85375977 0.8679328
0.1459617 0.0021536432 0.8518934 0.86573577 0.08509265 0.0086959805 0.9061868 0.915006
0.09197673 0.0017673798 0.90628344 0.9136102
00000000: 011e 6e3e 22f9 0c3c 1544 423f b231 4b3f
00000010: 0958 543e 4ba6 0c3c 11b8 483f 1a1d 503f
00000020: e0e7 693e aa52 9d3b 284b 443f d750 4d3f
00000030: aa59 0c3e 4c88 163c 0090 5a3f d830 5e3f
00000040: fc76 153e 2324 0d3b b015 5a3f dca0 5d3f
00000050: 0e45 ae3d 9679 0e3c dcfb 673f d53d 6a3f
00000060: 4c5e bc3d 6da7 e73a 3102 683f 5ce2 693f

network_body.processors.0.normalizer.running_variance f4 [28]
1.962974e+06 93837.14 2.0128998e+06 1.5122931e+06 1.8080245e+06 93604.695 1.8624499e+06 1.4291502e+06
1.938676e+06 52575.56 1.9670238e+06 1.4604206e+06 1.3010412e+06 100149.87 1.3733929e+06 1.1346275e+06
1.3710902e+06 23616.908 1.3879448e+06 1.1517846e+06 856393.8 94809.945 934877.5 776507.5
918710.8 19401.729 934494.75 796779.06
00000000: f09e ef49 9246 b747 1eb7 f549 299b b849
00000010: c4b4 dc49 59d2 b647 8f59 e349 f274 ae49
00000020: a0a7 ec49 8f5f 4d47 7e1d f049 2546 b249
00000030: 8ad1 9e49 ef9a c347 87a6 a749 1c81 8a49
00000040: 925e a749 d181 b846 466d a949 4599 8c49
00000050: 9d14 5149 f92c b947 d83d 6449 b893 3d49
00000060: 6d4b 6049 7593 9746 ec25 6449 b186 4249

network_body.processors.1.normalizer.running_mean f4 [28]
0.31938776 0.03744498 0.64160025 0.89096344 0.6954738 0.05837757 0.24610098 0.55373186
0.7661216 0.03400294 0.17736134 0.50081974 0.8164469 0.13059628 0.052910022 0.41151908
0.85806316 0.025372643 0.09581989 0.30114573 0.8441841 0.15399021 0.0018007712 0.35128453
0.8944951 0.018056318 0.06418411 0.26054102
00000000: cb86 a33e e85f 193d ea3f 243f 2e16 643f
00000010: 920a 323f 521d 6f3d e501 7c3e 5fc1 0d3f
00000020: 8c20 443f ab46 0b3d 369e 353e b935 003f
00000030: aa02 513f 08bb 053e 2eb8 583d a1b2 d23e
00000040: 07aa 5b3f 4ada cf3c 383d c43d c62f 9a3e
00000050: 731c 583f 9caf 1d3e db07 ec3a 91db b33e
00000060: a2fd 643f d8ea 933c f572 833d a265 853e

network_body.processors.1.normalizer.running_variance f4 [28]
2.3911435e+06 396448.22 2.5294405e+06 358497.44 2.3296895e+06 604631.1 2.0408741e+06 1.1429814e+06
1.9709511e+06 361362.62 1.6048968e+06 811620.9 1.6483644e+06 1.2485264e+06 551214.25 1.0633329e+06
1.339592e+06 272040.2 953005.0 775464.44 1.447262e+06 1.4327964e+06 19754.348 767681.6
1.0380935e+06 195087.97 660419.94 777038.06
00000000: 9ef1 114a 0794 c148 8262 1a4a 2e0c af48
00000010: 6631 0e4a 729d 1349 5121 f949 2b86 8b49
00000020: 3998 f049 5472 b048 06e9 c349 4e26 4649
00000030: 6337 c949 7368 9849 e492 0649 27cd 8149
00000040: 4086 a349 06d5 8448 d0aa 6849 8752 3d49
00000050: f0aa b049 e3e6 ae49 b254 9a46 1a6c 3b49
00000060: d870 7d49 fe83 3e48 3f3c 2149 e1b4 3d49

network_body.processors.2.normalizer.running_mean f4 [7]
232.0115 51.112682 50.985275 50.523617 50.96949 51.118362 50.28477
00000000: f202 6843 6373 4c42 ecf0 4b42 2f18 4a42
00000010: c2e0 4b42 3479 4c42 9b23 4942

network_body.processors.2.normalizer.running_variance f4 [7]
3.0645428e+10 2.348924e+10 2.3450348e+10 2.349102e+10 2.3415826e+10 2.3392485e+10 2.3453278e+10
00000000: 8453 e450 2b02 af50 fdb7 ae50 9105 af50
00000010: 2576 ae50 a049 ae50 94bd ae50

network_body._body_endoder.seq_layers.0.weight f4 [64, 63]
0.11107456 -0.12564348 -0.1459704 0.09501101 0.56658155 -0.7957461 -0.32813063 -0.108009376
0.20728825 0.44308117 -0.26306593 -0.13619041 0.75307155 -0.34415576 -0.108101934 -0.17470843
0.010611981 0.7222039 -0.17534152 -0.42801365 0.441858 -0.44782022 0.30119568 0.072988264
-0.41461736 0.14313532 0.73634154 0.693487 1.6671166 -0.45757985 -1.1121978 -0.6362476
0.5503383 -0.15566844 0.009688514 1.2673842 0.23427144 1.5219944 -1.1531394 -1.2848396
-0.21842079 0.2590968 -0.22389852 -0.08115494 0.082051635 -0.17644387 -0.13048188 0.31115997
-0.110699125 0.3799962 0.29959512 -0.57489777 -0.1648725 -0.88373375 1.2288147 0.44507617
0.49743658 -0.08682999 -0.72193986 0.46703437 0.25799355 -0.7084766 0.39148635 0.33333552
0.61294496 -0.34495974 -0.53200114 0.4819844 0.18295848 -0.2450595 -0.50568914 -0.59085494
-0.55400306 0.84025306 0.5089724 0.4415698 0.6245707 -0.27799013 -0.27341753 1.3764671
0.4472823 -1.2070086 -1.0566107 -0.4883423 0.939502 0.35321742 0.5542525 -0.31899336
0.1934763 0.43744132 0.45803568 0.8294151 -0.85656637 -0.21769337 0.065473266 0.97975445
-0.4939216 -1.1741278 -1.1511308 0.018498994 -1.5478495 0.92330813 -0.4001461 -0.41580665
0.70534664 -0.5893042 -0.42145032 0.08860673 -0.42575917 0.35098153 0.29441896 -0.40818432
-0.11120136 0.982968 0.9869979 -0.5265604 -1.2265824 0.5771016 0.7014564 1.9142752
-1.2341825 -0.9602739 0.42200714 -0.5240308 0.25371173 -0.455615 -0.026363758 0.06307799
0.33262557 0.1766081 0.28393403 0.43695652 0.14111999 0.21024638 -0.30993107 -0.14650345
0.3552978 -0.22807498 0.45421514 -1.1085609 0.5064186 0.51072705 -0.14379622 0.2299756
0.32479095 0.27693784 0.89776826 0.17313792 -0.46449974 -0.49256086 -0.20999166 -0.33496892
0.0867734 -0.3116145 0.7064312 -0.5575644 -0.18662992 -1.4648479 -0.3808087 0.34428456
0.20533615 -2.5694869 0.7242372 0.5499238 -0.43802568 1.903537 -0.5245411 0.7930798
-0.5351338 -1.9855354 0.8782455 -1.742468 0.24456722 0.0059714704 0.77834564 -0.5451469
0.5464361 -1.2640917 -0.19902197 0.81805015 -0.45183435 -0.35339588 0.5851119 0.2988808
0.14417093 -0.11284707 0.24952061 -0.84685874 -0.4987336 0.90419126 1.0286417 -1.4591578
-1.2872587 -0.61492753 1.1699073 -0.33098793 -0.49656016 0.63301176 0.4389281 -0.94557405
-0.78397644 -0.20630316 0.4026216 0.23967601 0.020094557 -0.13732529 0.25463232 -0.16299444
-0.066782214 -0.3396178 0.7542371 -0.22285847 -0.38798764 -0.7349833 0.6976097 0.2592335
0.25277334 0.6361008 0.6035005 -0.76791173 -1.1479402 -0.32715222 0.44946662 -0.10171326
-0.034456715 0.34401584 0.07382861 0.83189243 -2.188225 0.9822268 -0.8920849 0.99213994
-0.1746339 -0.83672285 0.77508533 1.5351518 -1.3268492 -0.22762991 0.26575428 -1.2111955
-0.579401 -0.255556 0.9775802 0.3741496 -1.1125307 -0.013282426 -0.34315917 1.16501
-0.33218777 -0.7544459 0.031798366 1.5024328 0.7401371 1.8648119 -0.6830888 -0.7165657
00000000: 0f7b e33d afa8 00be 4479 15be 2295 c23d
00000010: 7d0b 113f 04b6 4bbf bd00 a8be 0534 ddbd
00000020: 5f43 543e 89db e23e 94b0 86be 8075 0bbe
00000030: 4cc9 403f 2f35 b0be 8c64 ddbd c4e6 32be
00000040: e0dd 2d3c 5be2 383f ba8c 33be 9b24 dbbe
00000050: 363b e23e b148 e5be 5236 9a3e df7a 953d
00000060: ba48 d4be 1192 123e e180 3c3f 5d88 313f
00000070: 1464 d53f e847 eabe 7f5c 8ebf 1fe1 22bf
00000080: f9e2 0c3f 8c67 1fbe 93bc 1e3c a539 a23f
00000090: dae4 6f3e b6d0 c23f 129a 93bf a075 a4bf
000000a0: b3a9 5fbe 56a8 843e a745 65be 9034 a6bd
000000b0: b00a a83d b4ad 34be 0b9d 05be 5c50 9f3e
000000c0: 39b6 e2bd dd8e c23e 8864 993e 802c 13bf
000000d0: 56d4 28be 603c 62bf cd49 9d3f 06e1 e33e
000000e0: 02b0 fe3e ecd3 b1bd 0dd1 38bf 211f ef3e
000000f0: bb17 843e b95e 35bf e670 c83e f4aa aa3e
00000100: f6e9 1c3f 909e b0be 3a31 08bf a9c6 f63e
00000110: 7859 3b3e e1f0 7abe d874 01bf 4542 17bf
00000120: 25d3 0dbf d31a 573f 044c 023f 7015 e23e
00000130: dee3 1f3f b954 8ebe 62fd 8bbe 1330 b03f
00000140: 3002 e53e 427f 9abf 053f 87bf 0008 fabe
00000150: 3483 703f ead8 b43e 7ee3 0d3f 1953 a3be
00000160: a71e 463e 4ff8 df3e a783 ea3e 8c54 543f
00000170: ef47 5bbf 03eb 5ebe d916 863d 30d1 7a3f
00000180: 4be3 fcbe d249 96bf 4158 93bf 348b 973c
00000190: ef1f c6bf ec5d 6c3f f3df ccbe 9ce4 d4be
000001a0: 9991 343f a4dc 16bf 56c8 d7be 7277 b53d
000001b0: 1bfd d9be dab3 b33e 15be 963e 89fd d0be
000001c0: 8abd e3bd caa3 7b3f e5ab 7c3f aacc 06bf
000001d0: a700 9dbf eebc 133f a692 333f f806 f53f
000001e0: b1f9 9dbf 83d4 75bf 5211 d83e e226 06bf
000001f0: 81e6 813e 5f46 e9be cff8 d7bc 092f 813d
00000200: e64d aa3e c1d8 343e cd5f 913e c4b8 df3e
00000210: c281 103e d44a 573e 49af 9ebe 0005 16be
00000220: 98e9 b53e 7d8c 69be e38e e83e 53e5 8dbf
00000230: a6a4 013f 02bf 023f 513f 13be b97e 6b3e
00000240: 004b a63e ccca 8d3e 24d4 653f 114b 313e
00000250: e9d2 edbe f030 fcbe 0e08 57be 0c81 abbe
00000260: 41b6 b13d f08b 9fbe add8 343f 8abc 0ebf
00000270: ea1b 3fbe 2380 bbbf 5cf9 c2be 1146 b03e
00000280: a443 523e 7972 24c0 9c67 393f cec7 0c3f
00000290: e744 e0be 1aa7 f33f 5348 06bf 4707 4b3f
000002a0: 87fe 08bf 0626 febf b2d4 603f 3109 dfbf
000002b0: d46f 7a3e 53ac c33b a941 473f bf8e 0bbf
000002c0: 3ce3 0b3f c2cd a1bf 6acc 4bbe bc6b 513f
000002d0: d556 e7be 4ef0 b4be e5c9 153f e706 993e
000002e0: 8ba1 133e 5d1c e7bd 5582 7f3e bccb 58bf
000002f0: 035a ffbe 1479 673f 88aa 833f afc5 babf
00000300: e5c4 a4bf e46b 1dbf 86bf 953f 4077 a9be
00000310: 223d febe 0f0d 223f 2fbb e03e 2411 72bf
00000320: aeb2 48bf 2341 53be 6b24 ce3e a16d 753e
00000330: 579d a43c 009f 0cbe 2b5f 823e 04e8 26be
00000340: 1dc5 88bd 62e2 adbe af15 413f 0335 64be
00000350: 51a6 c6be de27 3cbf 8d96 323f 41ba 843e
00000360: 826b 813e 81d7 223f 027f 1a3f dd95 44bf
00000370: b4ef 92bf 7f80 a7be 7d20 e63e 0b4f d0bd
00000380: 7c22 0dbd d822 b03e 7433 973d e7f6 543f
00000390: e10b 0cc0 3773 7b3f ad5f 64bf e2fc 7d3f
000003a0: 3bd3 32be 7833 56bf fe6b 463f db7f c43f
000003b0: 32d6 a9bf d117 69be f210 883e 7408 9bbf
000003c0: a053 14bf 3cd8 82be b242 7a3f 8990 bf3e
000003d0: 6867 8ebf 889e 59bc 8fb2 afbe 0c1f 953f
000003e0: 8414 aabe 5e23 41bf 013f 023d b84f c03f
000003f0: a079 3d3f 28b2 ee3f e8de 2ebf da70 37bf

network_body._body_endoder.seq_layers.0.bias f4 [64]
-2.1917622 -1.7319686 -1.463047 -0.8409858 -0.5039598 -2.1711562 -1.5535682 -2.0164452
-1.2015398 -2.1867838 -1.6971416 -2.1796381 -0.85142547 -1.7200332 -2.1681256 -1.4491627
-1.0442698 -1.4712598 -1.7629697 -0.8821634 -3.328616 -1.8175379 -2.3098023 -1.4728632
-3.0490923 -1.9379164 -0.8466046 -1.6305314 -0.69976753 -0.5031498 -0.80946046 -1.0336629
-2.9728184 -0.2877005 -1.9682254 -1.4715561 -1.208222 -1.7250351 -2.086857 -1.401399
-1.1673553 -0.5817152 -1.0261654 -2.4037473 -0.9496477 -1.2250897 -1.8109618 -1.3148808
-1.3485559 -2.1691747 -2.1355066 -1.8646379 -1.2088327 -0.8500863 -0.39326397 -0.7187207
-2.552841 -2.9576128 -1.3953228 -1.4444261 -0.34247595 -2.2067342 -1.3575523 -0.92559946
00000000: d545 0cc0 26b1 ddbf 2045 bbbf d84a 57bf
00000010: 8203 01bf 39f4 0ac0 53db c6bf 700d 01c0
00000020: 0ecc 99bf 44f4 0bc0 f03b d9bf 317f 0bc0
00000030: 05f7 59bf 0c2a dcbf 92c2 0ac0 2a7e b9bf
00000040: a2aa 85bf 3e52 bcbf fea8 e1bf 76d5 61bf
00000050: 0b08 55c0 15a5 e8bf cdd3 13c0 c886 bcbf
00000060: 5424 43c0 a50d f8bf 14bb 58bf 41b5 d0bf
00000070: f723 33bf 6dce 00bf cd38 4fbf 114f 84bf
00000080: a842 3ec0 7b4d 93be cfee fbbf f35b bcbf
00000090: 05a7 9abf f3cd dcbf 118f 05c0 0b61 b3bf
000000a0: e66b 95bf 4aeb 14bf 6359 83bf ffd6 19c0
000000b0: 1d1c 73bf bdcf 9cbf 99cd e7bf 044e a8bf
000000c0: 7b9d acbf c2d3 0ac0 24ac 08c0 74ac eebf
000000d0: 08bb 9abf 419f 59bf e559 c9be 14fe 37bf
000000e0: bf61 23c0 8749 3dc0 f099 b2bf f4e2 b8bf
000000f0: 0259 afbe 223b 0dc0 46c4 adbf 16f4 6cbf

network_body._body_endoder.seq_layers.2.weight f4 [64, 64]
-0.086658455 -0.2885832 -0.5876431 -0.14854132 0.43884593 -0.007119809 0.7206916 -0.94226485
-0.8418462 -0.51523525 -0.57426983 -0.10671243 -0.3497488 -1.2886924 -0.10033872 0.6841115
-0.75370055 -0.8163706 -1.6226375 -2.2873688 -0.09392004 -0.6517491 0.8797925 1.0194378
0.1630985 0.07895289 -0.8124429 -0.18528305 -0.022318814 -0.24132635 0.2698375 -1.7455333
-1.482293 0.317345 -0.59313965 -1.1969717 0.68252116 -0.8689193 -0.27195874 0.19057246
-0.30858818 -0.121867776 -0.17846781 -0.39576668 0.27513468 -0.034384843 -0.71987224 0.74310154
-0.26563144 -0.34535637 -0.23977955 -2.109988 -2.07515 -0.35936636 -0.8059958 0.05703304
0.0019825946 -0.24056895 -0.505135 -0.6650691 -0.70542735 -0.77520996 -1.4458545 -0.7289033
-0.36915252 -0.5619463 0.75059503 -0.92641455 -0.5593242 -0.18323967 -1.301729 0.0027122844
-1.1435704 0.29113483 -0.95686865 -1.2981511 0.1681103 -0.42550597 0.6484264 0.02995205
-1.2111607 -0.6823428 0.3486596 0.14841516 0.78602964 0.42388764 0.10648523 -0.1789283
-0.6650461 0.5987612 -0.6443167 -1.6510853 -1.1264361 -0.2590412 0.4207414 -1.89335
0.7070562 -1.618244 -0.45493838 -1.1019199 -1.0355288 0.3866883 -0.46320608 -1.0491083
-0.61351615 0.38089442 -0.95655197 0.18332815 -0.22848411 0.74459696 0.15917368 -1.919725
0.30438742 -0.11630472 0.33603066 -0.76240337 -0.67599463 0.40052077 -0.71792394 0.32405576
-1.2469655 0.4509327 0.80667365 -0.28251174 -0.45883957 -1.7474002 -0.9008308 -0.5192639
0.26670548 0.05863527 0.84388334 -0.5545395 -0.9392625 -0.3145652 0.36313912 0.16174272
-0.08578436 0.5005726 -0.7113866 0.7702769 0.52549446 -1.0450855 0.55092967 -0.30548754
-1.0941402 0.058237378 -0.17254575 0.17914702 -0.5932001 -0.46236312 0.16929632 0.5115913
0.34687424 0.47924227 0.9058376 -1.8523088 -1.2106972 -0.45881668 -1.2792186 -3.668645
-1.9739664 -0.057005096 -0.7190092 0.17248677 -2.037103 -0.08475687 -0.0016653317 -0.8427597
-0.12907717 -1.8567153 0.08687 -0.4588017 -0.6711183 0.30100232 0.2634402 0.75743634
-0.8780201 -0.29398674 0.7656059 -0.2020338 -0.62402856 0.17861351 -1.2237235 -1.3023783
-0.7507646 -1.2971829 0.46902987 1.2278417 -0.81076956 -0.6798471 -1.3845366 -0.75067914
0.7229786 -0.6449662 1.342193 0.6802897 -0.18334772 -0.8966035 -0.49105108 -0.40146983
-0.48260266 0.4923383 0.68941075 -0.095092446 -1.1715943 -1.1200429 0.877017 -0.23044512
-0.23991862 -0.93988776 -0.082189016 -0.37357304 0.39352375 -1.0236301 -0.33235478 -0.39429966
0.39310777 -0.8506474 -0.16968776 0.41851914 0.78396875 0.27592176 -0.9764948 -0.19411711
-2.1455781 0.17484029 -0.40696627 0.71018183 -0.9623985 0.6257402 -1.0708991 -0.80938756
-1.2912817 -1.2302823 0.0076078298 -1.7926085 -2.4549077 0.3771635 0.15944618 -0.6138213
0.3410483 -1.3746794 -1.7828761 -0.2420979 -1.1698308 -0.27427852 -0.07237108 -0.61295825
0.43888763 -0.9172829 -0.6364296 -0.13619418 -0.8576428 -0.0297784 -0.4511275 -0.20876369
00000000: fd79 b1bd 2dc1 93be c76f 16bf 371b 18be
00000010: 6ab0 e03e 494d e9bb 3f7f 383f 4538 71bf
00000020: 3c83 57bf 75e6 03bf 5903 13bf 0c8c dabd
00000030: 4612 b3be dff3 a4bf 637e cdbd ee21 2f3f
00000040: 85f2 40bf aafd 50bf 96b2 cfbf 4064 12c0
00000050: 2659 c0bd 07d9 26bf 153a 613f f07c 823f
00000060: 4b03 273e 0eb2 a13d 42fc 4fbf d7ba 3dbe
00000070: f2d5 b6bc 411e 77be 2428 8a3e a36d dfbf
00000080: c7bb bdbf 0b7b a23e 00d8 17bf 5e36 99bf
00000090: b5b9 2e3f 7f71 5ebf 2d3e 8bbe 6d25 433e
000000a0: 45ff 9dbe d095 f9bd 44c0 36be eea1 cabe
000000b0: 74de 8c3e 1fd7 0cbd 8c49 38bf e73b 3e3f
000000c0: d800 88be 8dd2 b0be c588 75be 0b0a 07c0
000000d0: 42cf 04c0 defe b7be be55 4ebf 7a9b 693d
000000e0: 6bee 013b b557 76be 8750 01bf f841 2abf
000000f0: e396 34bf 2974 46bf c311 b9bf 6899 3abf
00000100: 8f01 bdbe b6db 0fbf ff26 403f 8129 6dbf
00000110: df2f 0fbf 2ea3 3bbe 0e9f a6bf 95c0 313b
00000120: 8460 92bf a00f 953e 58f5 74bf d129 a6bf
00000130: 1b25 2c3e ebdb d9be 46ff 253f 005e f53c
00000140: 5007 9bbf 05ae 2ebf 8383 b23e 25fa 173e
00000150: 3d39 493f cd07 d93e ee14 da3d fb38 37be
00000160: 7640 2abf 6a48 193f f0f1 24bf c356 d3bf
00000170: 0f2f 90bf 0ca1 84be 6b6b d73e 4b59 f2bf
00000180: a301 353f 9f22 cfbf afed e8be b60b 8dbf
00000190: 358c 84bf 02fc c53e 5929 edbe 2e49 86bf
000001a0: 650f 1dbf 9804 c33e 97e0 74bf 60ba 3b3e
000001b0: bdf7 69be e89d 3e3f 6dfe 223e 8cb9 f5bf
000001c0: abd8 9b3e 2b31 eebd 360c ac3e de2c 43bf
000001d0: fc0d 2dbf 0f11 cd3e ddc9 37bf a3ea a53e
000001e0: 919c 9fbf a7e0 e63e 2a82 4e3f 61a5 90be
000001f0: 05ed eabe cfaa dfbf d99c 66bf 7bee 04bf
00000200: 9f8d 883e 892b 703d bd08 583f 4df6 0dbf
00000210: 8273 70bf b10e a1be 5fed b93e e29f 253e
00000220: b6af afbd 8725 003f 6f1d 36bf de30 453f
00000230: ce86 063f 5dc5 85bf ba09 0d3f dd68 9cbe
00000240: c90c 8cbf 518a 6e3d d5af 30be 5172 373e
00000250: f6db 17bf dcba ecbe 045c 2d3e a6f7 023f
00000260: 8099 b13e 3e5f f53e f9e4 673f 7418 edbf
00000270: 20f8 9abf 05ea eabe 6fbd a3bf 14cb 6ac0
00000280: eeaa fcbf 2d7e 69bd fd10 38bf 5fa0 303e
00000290: e55f 02c0 0395 adbd 4247 daba 1abf 57bf
000002a0: ce2c 04be d9a8 edbf e6e8 b13d 0ee8 eabe
000002b0: 69ce 2bbf fa1c 9a3e a2e1 863e 59e7 413f
000002c0: edc5 60bf 6e85 96be c0fe 433f f3e1 4ebe
000002d0: 56c0 1fbf 76e6 363e f9a2 9cbf 55b4 a6bf
000002e0: 1c32 40bf 170a a6bf af24 f03e eb29 9d3f
000002f0: 988e 4fbf 760a 2ebf 7f38 b1bf 822c 40bf
00000300: 2015 393f 811c 25bf fbcc ab3f 7727 2e3f
00000310: 81bf 3bbe cf87 65bf 0c6b fbbe 748d cdbe
00000320: b217 f7be c413 fc3e 397d 303f d4bf c2bd
00000330: cdf6 95bf 915d 8fbf 3084 603f cef9 6bbe
00000340: 3aad 75be 7c9c 70bf b752 a8bd f744 bfbe
00000350: f27b c93e 5006 83bf 682a aabe a5e1 c9be
00000360: 6c45 c93e 07c4 59bf a1c2 2dbe 2448 d63e
00000370: 2db2 483f 9e45 8d3e 90fb 79bf a3c6 46be
00000380: 2751 09c0 5509 333e e25d d0be 7ace 353f
00000390: c05f 76bf 8230 203f 3913 89bf 0634 4fbf
000003a0: b848 a5bf e479 9dbf 1a4b f93b 3274 e5bf
000003b0: 351d 1dc0 931b c13e dc45 233e 6523 1dbf
000003c0: e29d ae3e 7ff5 afbf 4935 e4bf 83e8 77be
000003d0: 04bd 95bf 3c6e 8cbe 4a37 94bd d5ea 1cbf
000003e0: e1b5 e03e 0dd3 6abf 0ded 22bf 7d76 0bbe
000003f0: 7b8e 5bbf d5f1 f3bc 2ffa e6be 26c6 55be

network_body._body_endoder.seq_layers.2.bias f4 [64]
-1.4022743 -1.6239783 -0.44008198 -0.83386546 -0.13467282 -1.0814257 -1.2091362 -1.9577059
-0.7505237 -0.75299436 -0.14284785 -0.97018564 -0.997679 -1.4725176 0.44730225 -0.8940794
-1.5218494 -0.24754678 -1.6846908 0.22100787 -1.2382545 -1.2246021 -0.8628708 0.17915884
-0.45135117 -1.3391176 -1.2043269 -0.2992895 -0.23057306 -0.89476365 -0.9433818 -0.3945044
-0.2502994 -1.5844914 -1.7583677 -1.1330713 -0.5150686 -0.823163 -1.5059004 -0.9265045
-0.2363413 -1.4550573 -0.49219546 -0.11355064 -1.2876729 -0.4984397 -2.1435447 -0.87713885
-1.982155 -0.22192045 -1.0247607 -0.398077 -0.6685715 -1.0115042 -0.7705605 -1.30393
-0.94611543 -0.9350719 -0.529839 -1.9771463 -1.2097038 -0.8215196 0.32824033 -0.8563039
00000000: b97d b3bf 85de cfbf 6d52 e1be 3578 55bf
00000010: ace7 09be 286c 8abf fac4 9abf 1b96 fabf
00000020: 5222 40bf 3dc4 40bf b546 12be 165e 78bf
00000030: e467 7fbf 757b bcbf cd04 e53e 63e2 64bf
00000040: f6cb c2bf e77c 7dbe f3a3 d7bf e34f 623e
00000050: 207f 9ebf c3bf 9cbf 1ae5 5cbf 6a75 373e
00000060: 8017 e7be 3568 abbf 6227 9abf 793c 99be
00000070: 581b 6cbe 3b0f 65bf 7881 71bf 7bfc c9be
00000080: 3e27 80be 9dd0 cabf 3112 e1bf 7b08 91bf
00000090: 89db 03bf cfba 52bf 58c1 c0bf 662f 6dbf
000000a0: 7403 72be 513f babf 0b01 fcbe 3d8d e8bd
000000b0: 77d2 a4bf 7d33 ffbe d62f 09c0 2c8c 60bf
000000c0: 41b7 fdbf 1d3f 63be 5c2b 83bf c0d0 cbbe
000000d0: 8027 2bbf f878 81bf 7443 45bf 2ee7 a6bf
000000e0: 9f34 72bf df60 6fbf 87a3 07bf 2113 fdbf
000000f0: 93d7 9abf 1c4f 52bf 1e0f a83e bb36 5bbf

action_model._discrete_distribution.branches.0.weight f4 [2, 64]
0.06916219 0.8011474 0.05576563 -0.24262664 0.08626537 0.15291032 -0.21068178 0.17262174
-0.035924073 -0.003935148 -0.2255833 0.53482383 -0.117367625 0.41139743 0.06455409 0.16212152
-0.6806966 -0.26518288 0.22791468 -0.1968888 -0.7855409 -0.15653177 -0.26104608 0.10644467
-0.052985594 0.03631221 -0.3184571 0.30523837 -0.11009499 0.15401602 -0.5029546 -0.22234398
-0.0062044724 -0.173711 0.58845234 1.3280114 -0.15816182 0.19493642 0.16171922 -0.031763203
-0.11731736 0.030310953 -0.11786882 -0.3232352 0.4915093 0.116571754 0.1966764 0.88864696
-0.6480529 -0.10506442 0.32025817 -0.10807056 -0.3731243 0.04484387 0.11539213 -0.09354782
-0.10679499 -0.32288748 -0.101206556 -1.1497272 0.077043876 -0.043394055 -0.07331025 -0.17601044
-0.082122974 -0.7951518 -0.031015433 0.24861121 -0.078696325 -0.16201119 0.21407229 -0.1635019
0.044847805 0.00048081495 0.20264252 -0.53664166 0.12108119 -0.38439372 -0.03811694 -0.16975535
0.6895874 0.2830746 -0.23988405 0.18639986 0.7802932 0.14740333 0.24752478 -0.11524671
0.01621094 -0.026277186 0.29575813 -0.31336114 0.1268456 -0.14170137 0.46521288 0.2278419
0.0036952652 0.18020305 -0.56065905 -1.3339877 0.13060032 -0.20622283 -0.13911408 0.05311949
0.13120818 -0.035496704 0.13564305 0.3174555 -0.49571985 -0.11932031 -0.17824186 -0.89477307
0.6328903 0.10345178 -0.29461703 0.075929046 0.39299792 -0.059805267 -0.12193914 0.079359494
0.117224514 0.3319594 0.080305964 1.1707958 -0.07518043 -0.023925101 0.033038247 0.18307355
00000000: e8a4 8d3d ff17 4d3f 806a 643d 1e73 78be
00000010: e6ab b03d 8694 1c3e f7bc 57be c1c3 303e
00000020: 1f25 13bd 6af2 80bb 4fff 66be 37ea 083f
00000030: 705e f0bd afa2 d23e ef34 843d 2f03 263e
00000040: 2242 2ebf 0dc6 87be 7762 693e 389d 49be
00000050: 3519 49bf dd49 20be d5a7 85be aaff d93d
00000060: 6c07 59bd 1dbc 143d cf0c a3be 3448 9c3e
00000070: 7b79 e1bd 60b6 1d3e a2c1 00bf 24ae 63be
00000080: e34e cbbb 4ce1 31be d0a4 163f 47fc a93f
00000090: 2cf5 21be 6a9d 473e b999 253e 221a 02bd
000000a0: 1644 f0bd ad4e f83c 3565 f1bd 167f a5be
000000b0: 1ba7 fb3e 2cbd ee3d 8a65 493e 5e7e 633f
000000c0: cbe6 25bf 042c d7bd e1f8 a33e 1954 ddbd
000000d0: 260a bfbe 35ae 373d b652 ec3d 0096 bfbd
000000e0: 55b7 dabd 8251 a5be 6245 cfbd 432a 93bf
000000f0: 2ec9 9d3d f7bd 31bd af23 96bd 153c 34be
00000100: 1730 a8bd 128f 4bbf 1414 febc f093 7e3e
00000110: 8a2b a1bd 43e6 25be c435 5b3e 0b6d 27be
00000120: 55b2 373d e415 fc39 8581 4f3e 5961 09bf
00000130: 6af9 f73d 41cf c4be 8220 1cbd 59d4 2dbe
00000140: cd88 303f 27ef 903e 2aa4 75be 9bdf 3e3e
00000150: 4cc1 473f e6f0 163e 2377 7d3e 7806 ecbd
00000160: cecc 843c 4143 d7bc 9c6d 973e df70 a0be
00000170: d0e3 013e 2a1a 11be 6230 ee3e 634f 693e
00000180: 432c 723b 2687 383e 5a87 0fbf 1cc0 aabf
00000190: 17bc 053e 142c 53be ec73 0ebe d393 593d
000001a0: 705b 063e fe64 11bd 03e6 0a3e 8789 a23e
000001b0: fece fdbe 355e f4bd 0985 36be d90f 65bf
000001c0: 1905 223f 87de d33d 0bd8 96be b080 9b3d
000001d0: 0637 c93e 5ef6 74bd 3abb f9bd 3b87 a23d
000001e0: 6813 f03d 95f6 a93e 7477 a43d a3dc 953f
000001f0: 33f8 99bd 93fe c3bc 1d53 073d a277 3b3e

action_model._discrete_distribution.branches.0.bias f4 [2]
1.1334486 -1.1334479
00000000: d814 913f d214 91bf

action_model._discrete_distribution.branches.1.weight f4 [2, 64]
-0.2683501 -2.5537674 0.23436153 0.17044245 0.010178902 -0.004582279 0.028934088 -1.3976194
-0.1539044 0.7036226 -0.05501521 -0.9408992 0.043008283 -0.003861525 -0.053190786 -0.32564846
-1.1254113 0.10041142 -0.5761152 0.07281219 0.12444733 -1.1896709 0.00922247 0.12856424
-0.22428451 0.11887679 -0.38052958 -0.22485839 0.12875633 0.24475984 0.6256067 -0.08947466
0.06355393 -0.081663325 0.15433596 -0.5656612 0.2400026 0.057820037 -0.237419 0.29929805
-1.0857116 -0.20356071 -0.2501347 0.053199127 -1.9820261 0.1599263 -1.6640023 -1.247185
-0.72184205 -0.118328415 -0.15291652 0.17552567 0.20161036 0.160218 -0.019652508 -0.2244439
-0.36327112 0.3569631 -0.08760502 -0.19202851 -1.63629 0.15423931 -0.048017275 0.026368922
0.2580678 2.5635538 -0.24191415 -0.1629891 -0.014974349 -0.0017554578 -0.023322705 1.4180077
0.17283635 -0.71125007 0.055321928 0.94576705 -0.07273064 -0.050686575 0.032154094 0.32985306
1.1555942 -0.093135625 0.6051109 -0.051531974 -0.13472767 1.1909574 -0.022503348 -0.124415435
0.23026553 -0.12186371 0.39081067 0.23800176 -0.13077047 -0.2317795 -0.61732954 0.07202683
-0.051461786 0.076422326 -0.15900645 0.55111444 -0.20510595 -0.069596425 0.24089779 -0.32596666
1.0511323 0.2184627 0.25454915 -0.003497816 1.999041 -0.13995232 1.6549907 1.2369568
0.7320428 0.1143821 0.16281784 -0.15286262 -0.21029055 -0.15349208 0.0035195274 0.21681115
0.37882653 -0.37317282 0.10273713 0.19148175 1.6564419 -0.17365007 0.05225532 -0.01736096
00000000: 2f65 89be ed70 23c0 78fc 6f3e 7788 2e3e
00000010: 69c5 263c f126 96bb 2e07 ed3c 31e5 b2bf
00000020: 1d99 1dbe 9c20 343f a157 61bd c5de 70bf
00000030: 7429 303d a411 7dbb 95de 59bd 65bb a6be
00000040: 7a0d 90bf 81a4 cd3d 497c 13bf 8f1e 953d
00000050: 3ede fe3d 2347 98bf d819 173c 58a6 033e
00000060: d7aa 65be ad75 f33d c6d4 c2be 4741 66be
00000070: b3d8 033e 53a2 7a3e c327 203f 7e3e b7bd
00000080: 9028 823d 1a3f a7bd 3f0a 1e3e 2ccf 10bf
00000090: 3ec3 753e b4d4 6c3d f71d 73be 983d 993e
000000a0: 99f8 8abf 3872 50be a811 80be 54e7 593d
000000b0: 08b3 fdbf b8c3 233e 07fe d4bf c2a3 9fbf
000000c0: a4ca 38bf 2b56 f2bd 2696 1cbe 00bd 333e
000000d0: f272 4e3e 3010 243e 4cfe a0bc 9fd4 65be
000000e0: acfe b9be dec3 b63e 436a b3bd 1fa3 44be
000000f0: f371 d1bf e9f0 1d3e c3ad 44bd a303 d83c
00000100: 7621 843e 4411 2440 58b8 77be 9de6 26be
00000110: f956 75bc 6417 e6ba 420f bfbc 4781 b53f
00000120: 03fc 303e 7c14 36bf 3f99 623d ca1d 723f
00000130: cdf3 94bd ba9c 4fbd 03b4 033d 80e2 a83e
00000140: 83ea 933f e4bd bebd 8ce8 1a3f 3113 53bd
00000150: 0df6 09be 4b71 983f f158 b8bc 85cd febd
00000160: baca 6b3e ae93 f9bd 5618 c83e bcb6 733e
00000170: b2e8 05be 9b57 6dbe 4f09 1ebf cd82 933d
00000180: 98c9 52bd 4f83 9c3d 96d2 22be d615 0d3f
00000190: 4b07 52be 9288 8ebd e9ad 763e 1ae5 a6be
000001a0: 818b 863f b0b4 5f3e 4454 823e 9d3b 65bb
000001b0: 93e0 ff3f a94f 0fbe bcd6 d33f 9a54 9e3f
000001c0: 2867 3b3f 2a41 ea3d b8b9 263e 0588 1cbe
000001d0: 6856 57be 072d 1dbe dfa7 663b be03 5e3e
000001e0: 8df5 c13e 8210 bfbe d867 d23d cb13 443e
000001f0: 4a06 d43f 53d1 31be ad09 563d 9238 8ebc

action_model._discrete_distribution.branches.1.bias f4 [2]
-0.73153067 0.7315319
00000000: 9845 3bbf ad45 3b3f

action_model._discrete_distribution.branches.2.weight f4 [2, 64]
0.27500188 0.16780306 -0.059380446 -0.008509288 0.22633125 -0.10203412 -0.08813158 -0.31468368
0.24434759 -0.32211125 0.051733524 -0.2579777 -0.22713688 -1.0801269 0.24679884 -0.106020465
-2.9298837 0.3633295 0.5701517 0.15164775 1.0598308 0.44283053 0.13993129 0.114815
-0.067682914 0.1999276 -0.36362514 0.25682428 0.07346625 0.110146895 0.27163532 0.09603505
0.10914644 -0.1250553 0.05644692 0.72943807 -0.38026422 0.28318956 -0.25292173 -0.28844807
-0.3840628 -0.39473838 0.061224777 0.077700496 0.27359372 0.17017786 -0.56865 -0.44553894
-0.30005127 0.17824014 0.2719089 0.41850665 -0.13034694 -0.10144007 0.12695217 -0.37505385
0.44170362 0.10625383 0.27685562 -0.25533366 -2.5614524 -0.38628295 0.09544623 0.11913857
-0.25669295 -0.16178392 0.052673925 0.0077601695 -0.2263031 0.105133794 0.082438305 0.3360995
-0.29309848 0.3301713 -0.048031393 0.27543953 0.19010267 1.103376 -0.26595294 0.115141496
2.9517117 -0.38281783 -0.5718674 -0.13143468 -1.0825512 -0.4246964 -0.15953092 -0.1101126
0.08164362 -0.21042709 0.3558628 -0.24401909 -0.09694855 -0.114804685 -0.27054197 -0.099738196
-0.116176 0.14802763 -0.02718759 -0.73794276 0.381857 -0.27897844 0.2575565 0.3124443
0.41202503 0.41147962 -0.045938727 -0.076278724 -0.3206466 -0.14339371 0.5693415 0.41400078
0.28572428 -0.18294261 -0.26839182 -0.39179417 0.14221871 0.10436247 -0.13972156 0.37592757
-0.4134579 -0.12927178 -0.2563268 0.2576467 2.5733697 0.4082805 -0.07854408 -0.12209936
00000000: 0ccd 8c3e 91d4 2b3e e938 73bd 8a6a 0bbc
00000010: 61c3 673e 44f7 d0bd 547e b4bd 381e a1be
00000020: 4136 7a3e c4eb a4be 88e6 533d a715 84be
00000030: 9296 68be 9941 8abf d6b8 7c3e 4221 d9bd
00000040: 3783 3bc0 5306 ba3e 76f5 113f 8c49 1b3e
00000050: 89a8 873f afba e23e 264a 0f3e 2024 eb3d
00000060: 579d 8abd d2b9 4c3e 132d babe 797e 833e
00000070: 7975 963d b294 e13d c913 8b3e 06ae c43d
00000080: 2b88 df3d 7f0e 00be e334 673d 74bc 3a3f
00000090: feb1 c2be 39fe 903e f57e 81be 77af 93be
000000a0: e1a3 c4be 261b cabe d5c6 7a3d 7021 9f3d
000000b0: 7a14 8c3e 1b43 2e3e 0c93 11bf ae1d e4be
000000c0: 52a0 99be 9584 363e a537 8b3e 8146 d63e
000000d0: ab79 05be d0bf cfbd c0ff 013e 0f07 c0be
000000e0: fa26 e23e 9c9b d93d 05c0 8d3e 18bb 82be
000000f0: d6ee 23c0 e1c6 c5be 5079 c33d ecfe f33d
00000100: 426d 83be afaa 25be 9dc0 573d 0549 fe3b
00000110: 00bc 67be 6350 d73d 6ad5 a83d 3c15 ac3e
00000120: 0111 96be 360c a93e 91bc 44bd 6906 8d3e
00000130: 46aa 423e 6d3b 8d3f fc2a 88be 4ecf eb3d
00000140: d8e8 3c40 b300 c4be e765 12bf d096 06be
00000150: 0a91 8abf ce71 d9be 135c 23be b782 e1bd
00000160: c534 a73d 337a 57be a633 b63e 24e0 79be
00000170: f68c c6bd b81e ebbd 7a84 8abe 8a43 ccbd
00000180: afed edbd 8e94 173e 82b8 debc d1e9 3cbf
00000190: c382 c33e 43d6 8ebe 72de 833e b3f8 9f3e
000001a0: f2f4 d23e 75ad d23e 3f2a 3cbd 0538 9cbd
000001b0: cb2b a4be cdd5 12be 5dc0 113f e9f7 d33e
000001c0: 744a 923e 4f55 3bbe a76a 89be 3f99 c8be
000001d0: c8a1 113e febb d53d 2b13 0fbe 9479 c03e
000001e0: c1b0 d3be d25f 04be 443d 83be 45ea 833e
000001f0: 17b2 2440 240a d13e b8db a0bd 3b0f fabd

action_model._discrete_distribution.branches.2.bias f4 [2]
-1.1623312 1.1623327
00000000: 45c7 94bf 51c7 943f

exp_avg f4 [64, 63]
-2.1427688e-05 -2.2224864e-05 2.4566925e-05 5.4212846e-06 -9.68662e-05 -1.9620562e-05 9.772468e-05 8.6765955e-05
-1.8767418e-05 1.0436492e-05 7.446733e-06 -7.2247826e-06 -8.963673e-05 -2.0585594e-05 9.04182e-05 6.667332e-05
-9.298529e-05 -1.1077603e-05 9.262374e-05 5.699853e-05 0.00018869397 -2.8142711e-05 -0.00017160185 -0.0001804525
6.637527e-05 -1.2466287e-05 -6.413786e-05 -7.307118e-05 5.898166e-05 0.00057453813 -0.00030849452 -9.685755e-05
0.00013504444 -0.00019576009 -3.7692946e-05 5.0842194e-05 -0.0002590803 0.0005144331 0.00013134841 0.00013646396
-0.00034505856 0.00053800136 -0.00021295578 3.9999835e-05 -5.9983293e-05 -0.00012200996 0.0002002452 8.794875e-05
-0.00045244498 0.0004562443 -1.27670455e-05 0.0001812707 -0.0005736663 0.0005267791 0.00032406978 0.00039791025
-0.0005708048 -0.00031183806 -2.1324695e-05 0.00028625331 4.912585e-06 0.00020645569 0.00070997345 -5.5648983e-05
-3.6542406e-06 5.574423e-05 8.764538e-05 3.5800513e-05 -3.641689e-06 -3.4459907e-05 -9.9632925e-06 -0.00010215256
-2.72387e-06 0.00010185929 0.00014323274 -5.4278284e-05 -3.7686216e-06 5.3842734e-05 8.3977655e-05 -0.0002470202
-1.8235737e-06 0.00024575178 0.00026530013 -0.00013705985 -3.6746103e-06 0.00013235083 0.00014397186 -0.00016160181
-1.6512099e-06 0.00016046433 0.00017127032 -0.00015213843 2.7604994e-05 0.00013614434 0.00012782094 -6.738382e-05
0.00030081073 -9.1743226e-05 8.9945475e-05 -0.00014394686 -7.584634e-06 0.00017693921 0.00015609637 -0.00016115894
0.00020402072 -2.8361916e-05 0.00014417116 -0.00014328056 2.854801e-05 0.00014666807 0.00014018547 -0.00012441522
0.00012524061 -1.6674455e-06 0.0001157239 6.298514e-05 -5.321847e-06 -8.152605e-05 5.4124026e-05 -6.296847e-05
5.505559e-05 -0.00021883617 -0.00017958965 0.00022924034 0.00016566076 5.333223e-05 0.00025373494 7.2180237e-06
-0.00025212776 -0.00026377232 0.00026055315 7.2112903e-06 -0.0002583311 -0.0002649097 0.00015463795 8.326122e-06
-0.0001557738 -0.00018417617 0.00040756766 7.46145e-06 -0.0003986924 -0.00037781577 0.00024666043 3.6008867e-06
-0.0002456247 -0.0002507528 0.00035763526 7.2583043e-06 -0.0003446037 -0.00035241197 0.0001795872 3.2616674e-06
-0.00017852565 -0.0001973591 -0.0003542434 0.00068773737 6.8301066e-05 -0.00012986772 -0.00012810391 0.00019073376
3.303803e-05 0.00024651445 -0.00028359133 0.0006622672 -2.2875674e-05 0.00020362771 -0.00046814184 0.000525685
1.836127e-05 0.00017200004 -8.940243e-05 5.679085e-06 9.9567165e-05 0.0003092478 -0.0003987011 0.0004003183
3.2935495e-06 0.0001939386 -0.0004670676 0.0006302459 7.924319e-05 0.0005013505 -0.00025549927 -0.000177995
-8.8196924e-05 -0.00029305567 7.3524e-05 0.00036496503 -0.00012590249 0.00011583869 1.4285649e-05 -0.00011808252
-0.00011815846 6.491305e-05 1.1236953e-05 -6.633254e-05 -7.130436e-05 5.6227742e-05 1.7080225e-06 -5.3952273e-05
-4.4805696e-05 2.8906072e-05 1.1647894e-05 -3.1118503e-05 -3.539983e-05 2.0396197e-05 -3.3722627e-06 -1.5869502e-05
-1.2414614e-05 8.867094e-05 1.1469028e-05 -8.8385976e-05 -9.70178e-05 -6.237839e-05 5.3990716e-06 6.1048224e-05
6.214289e-05 -0.00045384117 0.0008679352 9.4379815e-05 -0.00025302905 -0.00041945808 0.0004257109 0.00021641755
0.00028965648 -0.00057746464 0.00097648613 0.00019924283 0.0004325293 -0.000774765 0.00080372905 0.00013013039
0.000294611 -0.0006457203 0.00069070567 0.000287683 0.0005676462 -0.0007778099 0.0007810883 5.387567e-06
0.00029391938 -0.00059206056 0.0005995598 0.0003135113 0.00061340985 -0.00029608113 2.9615408e-05 -8.589676e-05
-0.00031689223 0.00041204094 0.00049734715 -0.000116389085 7.427384e-05 2.7880507e-05 -8.0013124e-05 -8.556211e-05
00000000: 9cbf b3b7 886f bab7 1215 ce37 7be8 b536
00000010: a524 cbb8 d696 a4b7 8af1 cc38 1ef6 b538
00000020: b96e 9db7 6418 2f37 f3de f936 696c f2b6
00000030: 5afb bbb8 3aaf acb7 e79e bd38 f7d2 8b38
00000040: 1901 c3b8 f1d9 39b7 fe3e c238 b511 6f38
00000050: 27dc 4539 0314 ecb7 05f0 33b9 d937 3db9
00000060: f432 8b38 4c26 51b7 c081 86b8 cb3d 99b8
00000070: 1363 7738 9a9c 163a 6fbd a1b9 0020 cbb8
00000080: b79a 0d39 f344 4db9 7e18 1eb8 643f 5538
00000090: 2bd5 87b9 05db 063a 92ba 0939 c417 0f39
000000a0: fae8 b4b9 a908 0d3a e24c 5fb9 7fc5 2738
000000b0: 9296 7bb8 99df ffb8 e9f8 5139 2071 b838
000000c0: 2336 edb9 1334 ef39 0b32 56b7 7c13 3e39
000000d0: 1862 16ba 8c17 0a3a e9e7 a939 9c9e d039
000000e0: 10a2 15ba 327e a3b9 6fe2 b2b7 4514 9639
000000f0: c9d6 a436 077c 5839 831d 3a3a a468 69b8
00000100: 603b 75b6 e9ce 6938 41ce b738 8228 1638
00000110: be63 74b6 0b89 10b8 0428 27b7 bd3a d6b8
00000120: bbcb 36b6 4a9d d538 bf30 1639 dda8 63b8
00000130: 6de8 7cb6 32d5 6138 291d b038 7d82 81b9
00000140: 84c1 f4b5 3fd8 8039 fb17 8b39 b9b7 0fb9
00000150: 5399 76b6 a8c7 0a39 27f7 1639 a873 29b9
00000160: 249f ddb5 5142 2839 0797 3339 5987 1fb9
00000170: 4691 e737 f8c1 0e39 ac07 0639 6a50 8db8
00000180: 22b6 9d39 4566 c0b8 1ca1 bc38 71f0 16b9
00000190: 837f feb6 c288 3939 cdad 2339 c6fc 28b9
000001a0: 65ee 5539 c0ea edb7 a72c 1739 953d 16b9
000001b0: 627a ef37 e9ca 1939 c0fe 1239 7575 02b9
000001c0: 0553 0339 fecc dfb5 ccb0 f238 e416 8438
000001d0: 5192 b2b6 f7f8 aab8 3b03 6338 f10d 84b8
000001e0: 7deb 6638 6377 65b9 3b50 3cb9 3c60 7039
000001f0: 39b5 2d39 0cb1 5f38 ba07 8539 5a32 f236
00000200: 0430 84b9 ec4a 8ab9 da9a 8839 83f8 f136
00000210: 9d70 87b9 94e3 8ab9 4f26 2239 6cb0 0b37
00000220: 3657 23b9 6a1f 41b9 ceae d539 5e5d fa36
00000230: 9707 d1b9 9315 c6b9 3452 8139 c3a6 7136
00000240: 30c7 80b9 7977 83b9 fe80 bb39 5c8c f336
00000250: edab b4b9 efc3 b8b9 924f 3c39 05e3 5a36
00000260: 9d32 3bb9 2ef2 4eb9 bfb9 b9b9 4649 343a
00000270: db3c 8f38 1a2d 08b9 a253 06b9 b4ff 4739
00000280: 5192 0a38 9c3e 8139 fcae 94b9 009c 2d3a
00000290: 23e5 bfb7 e684 5539 ef70 f5b9 20ce 093a
000002a0: 8706 9a37 e95a 3439 907d bbb8 f88e be36
000002b0: b7ce d038 8922 a239 c108 d1b9 d0e1 d139
000002c0: c006 5d36 ff5b 4b39 c1e0 f4b9 1637 253a
000002d0: 5d2f a638 106d 033a 88f4 85b9 2ba4 3ab9
000002e0: 5df6 b8b8 44a5 99b9 e630 9a38 c758 bf39
000002f0: b104 04b9 6cee f238 65ac 6f37 12a3 f7b8
00000300: d7cb f7b8 ee21 8838 5886 3c37 031c 8bb8
00000310: 3d89 95b8 14d6 6b38 353f e535 d04a 62b8
00000320: c0ed 3bb8 517b f237 536b 4337 3d85 02b8
00000330: 477a 14b8 8018 ab37 084f 62b6 7f1f 85b7
00000340: 5c48 50b7 d9f4 b938 1a6b 4037 dc5b b9b8
00000350: 0976 cbb8 25d1 82b8 ac29 b536 0407 8038
00000360: b652 8238 88f1 edb9 2586 633a c7ed c538
00000370: fca8 84b9 b6ea dbb9 f331 df39 25ee 6239
00000380: 09dd 9739 ff60 17ba e0fa 7f3a d7eb 5039
00000390: 1ac5 e239 9919 4bba 58b1 523a 9c73 0839
000003a0: 0576 9a39 8e45 29ba 7910 353a 29d4 9639
000003b0: 17ce 143a f0e5 4bba f3c1 4c3a d9c6 b436
000003c0: 3119 9a39 8334 1bba c72b 1d3a c65e a439
000003d0: 3dcd 203a 563b 9bb9 9b6e f837 7923 b4b8
000003e0: 8e24 a6b9 3307 d839 6760 023a ea15 f4b8
000003f0: 77c3 9b38 efe0 e937 b8cc a7b8 cf6f b3b8

exp_avg_sq f4 [64, 63]
8.340255e-06 3.5719307e-07 8.630749e-06 8.64625e-06 7.774192e-06 3.1465294e-07 8.009446e-06 7.98865e-06
8.057769e-06 2.1658452e-07 8.227099e-06 8.228671e-06 6.082076e-06 3.268465e-07 6.2109157e-06 6.0741186e-06
5.616571e-06 5.882706e-08 5.6547046e-06 5.704792e-06 0.00015202569 2.0826867e-07 0.00013679647 8.883914e-05
4.156958e-06 5.043117e-08 4.1716344e-06 4.26209e-06 4.9148057e-05 7.348965e-06 4.1602718e-05 0.00023428912
4.9449252e-05 0.00033709002 8.586504e-06 1.1100305e-05 5.985134e-05 0.0004330201 6.9417783e-06 2.4318177e-05
9.36336e-05 0.00013917492 1.4719753e-06 9.887502e-06 0.00012664573 0.00035201234 6.537867e-05 8.649792e-05
9.890158e-05 0.00010030512 4.9583328e-08 2.1679904e-05 0.00015297918 1.8364686e-06 0.0002613888 0.00016110041
6.592093e-05 8.119686e-05 5.775256e-06 2.3151671e-05 8.8465815e-05 3.7632115e-05 3.939252e-05 1.8992588e-06
2.954687e-08 1.8644407e-06 1.8487799e-06 2.3733674e-06 3.0268158e-08 2.3037508e-06 2.3887978e-06 1.1700613e-06
1.1174274e-08 1.1720299e-06 1.2789299e-06 4.423357e-06 3.1654686e-08 4.143901e-06 2.869698e-06 1.1390193e-06
5.0202593e-09 1.1318258e-06 1.2119117e-06 1.4893557e-06 2.043325e-08 1.3824772e-06 1.4661753e-06 1.2913947e-06
4.118201e-09 1.2737755e-06 1.3192473e-06 3.478744e-06 1.5177864e-07 3.1017385e-06 1.8486784e-05 4.514495e-06
2.2040556e-05 2.0025634e-06 2.107376e-06 4.3777786e-06 8.1796834e-08 5.89294e-06 6.4402348e-06 8.5546e-06
1.2706432e-05 2.2937118e-07 1.3931322e-06 1.1448151e-05 9.613387e-08 1.7865326e-05 1.3455419e-05 9.629286e-06
9.764861e-06 5.750412e-09 2.0712553e-06 1.3665656e-05 4.2587683e-08 2.3207544e-05 1.4378342e-05 5.547114e-06
1.7600092e-06 3.062864e-06 2.919289e-06 5.3264503e-06 3.4486666e-06 3.510212e-06 5.5233563e-06 9.275683e-08
5.5697196e-06 6.247824e-06 5.735504e-06 9.222971e-08 5.729674e-06 6.350232e-06 5.443208e-06 1.484936e-07
5.4743464e-06 6.1902733e-06 6.437805e-06 9.872712e-08 6.2269655e-06 6.730551e-06 5.6318777e-06 2.4575977e-08
5.5986734e-06 6.1871647e-06 3.6598205e-05 9.343725e-08 3.3024113e-05 2.4168023e-05 7.350011e-06 2.0173935e-08
7.245448e-06 7.5973794e-06 2.1328311e-05 1.3720531e-06 1.8147794e-05 0.00011803484 1.7900149e-05 0.00011753121
3.5929343e-06 3.4373027e-06 1.4396443e-05 7.8069235e-05 3.506431e-06 1.436121e-05 3.4866305e-05 5.1594285e-05
6.004594e-07 3.1815187e-06 4.653937e-05 6.801357e-05 4.397635e-05 4.1927153e-05 4.1770352e-05 4.2357664e-05
1.9915246e-08 6.7364676e-06 5.8628022e-05 5.021874e-07 0.00010049084 5.983705e-05 2.476853e-05 1.963943e-05
3.313762e-06 1.06548505e-05 3.5914883e-05 1.2125347e-05 1.62155e-05 3.625542e-06 3.1613334e-07 3.6681017e-06
4.113386e-06 3.4854047e-06 2.1773664e-07 3.5119256e-06 3.978105e-06 3.590417e-06 1.5474723e-07 3.6163149e-06
4.1018993e-06 3.92373e-06 1.2948887e-07 3.815942e-06 4.194301e-06 3.7618884e-06 1.8286046e-07 3.7784807e-06
4.1689395e-06 1.1569169e-05 1.4309174e-07 1.0558778e-05 8.850585e-06 4.827784e-06 2.3774867e-07 4.87351e-06
5.0995604e-06 1.3392353e-05 9.403372e-06 1.1876324e-05 7.952069e-05 1.232156e-05 7.618106e-05 3.1384839e-06
2.0909526e-06 4.400337e-06 1.6867734e-05 2.1159774e-06 1.0564133e-05 2.1562777e-05 3.1791315e-05 8.2671824e-07
1.579193e-06 2.9185587e-05 2.3074423e-05 3.6461744e-05 3.006823e-05 2.630989e-05 2.6681562e-05 1.3119042e-08
3.627761e-06 3.9799317e-05 5.5828855e-06 6.469244e-05 3.6642232e-05 1.4997206e-05 7.1005056e-06 2.1318115e-06
7.677086e-06 2.1277383e-05 8.596528e-06 1.0239882e-05 2.047392e-06 2.5568983e-07 2.0562873e-06 2.1205815e-06
00000000: 1fed 0b37 3ec4 bf34 c9cc 1037 5c0f 1137
00000010: e76d 0237 92ed a834 4f60 0637 fe06 0637
00000020: db2f 0737 4d8e 6834 1f07 0a37 df0d 0a37
00000030: a314 cc36 7179 af34 5c67 d036 48d0 cb36
00000040: fa75 bc36 09a9 7c33 8bbd bd36 ca6b bf36
00000050: 1669 1f39 75a0 5f34 0671 0f39 264f ba38
00000060: ff7b 8b36 a899 5833 11fa 8b36 1303 8f36
00000070: 5324 4e38 2197 f636 947e 2e38 82ab 7539
00000080: bb67 4f38 75bb b039 c10e 1037 723b 3a37
00000090: e308 7b38 f906 e339 6ced e836 e3fe cb37
000000a0: 285d c438 7cef 1139 b090 c535 7fe2 2537
000000b0: 34cc 0439 4c8e b839 e81b 8938 3866 b538
000000c0: 6269 cf38 e75a d238 72f5 5433 3ddd b537
000000d0: 0969 2039 957c f635 030b 8939 10ed 2839
000000e0: 083f 8a38 3b48 aa38 12c9 c136 d635 c237
000000f0: b986 b938 2dd7 1d38 6539 2538 09ea fe35
00000100: 41ce fd32 b23d fa35 9823 f835 2446 1f36
00000110: 3100 0233 239a 1a36 3c4f 2036 000b 9d35
00000120: faf8 3f32 a44e 9d35 b2a7 ab35 596c 9436
00000130: b2f4 0733 d70b 8b36 0995 4036 68e0 9835
00000140: ab7e ac31 3de9 9735 f8a8 a235 dfe5 c735
00000150: 3185 af32 8e8d b935 66c9 c435 fc53 ad35
00000160: 1480 8d31 98f6 aa35 fe10 b135 5e74 6936
00000170: 98f8 2234 7627 5036 1114 9b37 377b 9736
00000180: bce3 b837 c763 0636 726c 0d36 d5e4 9236
00000190: 49a8 af33 f8bb c536 3219 d836 ba85 0f37
000001a0: b62d 5537 1249 7634 a8fb ba35 6f11 4037
000001b0: 2772 ce33 7fdd 9537 96be 6137 788d 2137
000001c0: c2d3 2337 2995 c531 e5ff 0a36 8c45 6537
000001d0: a7e9 3633 d2ad c237 823a 7137 5921 ba36
000001e0: 7539 ec35 9a8b 4d36 01e9 4336 dcb9 b236
000001f0: a46f 6736 fc90 6b36 4555 b936 9b31 c733
00000200: 87e3 ba36 66a4 d136 9b73 c036 d20f c633
00000210: 8641 c036 1414 d536 cda4 b636 9c71 1f34
00000220: 47b0 b736 0bb6 cf36 5304 d836 cf03 d433
00000230: 3af1 d036 fed6 e136 76f9 bc36 251b d332
00000240: 3ddc bb36 579b cf36 0681 1938 aca7 c833
00000250: 5f83 0a38 6fbc ca37 1da0 f636 f44a ad32
00000260: ed1d f336 feec fe36 33ea b237 6327 b835
00000270: 173c 9837 7989 f738 4728 9637 177b f638
00000280: 241e 7136 69ac 6636 4088 7137 1ab9 a338
00000290: 0750 6b36 edf0 7037 693d 1238 f166 5838
000002a0: 412f 2135 1382 5536 4533 4338 82a2 8e38
000002b0: 3f73 3838 f0da 2f38 9332 2f38 32a9 3138
000002c0: 1712 ab32 d109 e236 5ce7 7538 0ece 0635
000002d0: 9cbe d238 8bf9 7a38 03c6 cf37 5bbf a437
000002e0: ff61 5e36 3cc2 3237 50a3 1638 f86d 4b37
000002f0: 8506 8837 564e 7336 09b9 a934 8229 7636
00000300: b705 8a36 cce6 6936 feca 6934 6cae 6b36
00000310: a97b 8536 e5f2 7036 9828 2634 d1af 7236
00000320: 0ca3 8936 96a8 8336 a109 0b34 b10a 8036
00000330: c5bc 8c36 c074 7c36 4d58 4434 ce91 7d36
00000340: ebe2 8b36 3419 4237 c2a4 1934 9b25 3137
00000350: f97c 1437 59fe a136 db47 7f34 2287 a336
00000360: e41c ab36 b8af 6037 2dc3 1d37 6c40 4737
00000370: 58c4 a638 b2b8 4e37 65c3 9f38 be9e 5236
00000380: 4b52 0c36 9ba6 9336 2f7f 8d37 3700 0e36
00000390: 9b3c 3137 b6e1 b437 aa57 0538 a5eb 5d35
000003a0: a9f4 d335 92d3 f437 f28f c137 80ee 1838
000003b0: 083b fc37 0fb4 dc37 38d2 df37 2862 6132
000003c0: 7674 7336 31ee 2638 9f54 bb36 7dab 8738
000003d0: 4cb0 1938 829c 7b37 e140 ee36 3e10 0f36
000003e0: d5cc 0037 d57c b237 ce39 1037 f5cb 2b37
000003f0: ed65 0936 be45 8934 bffe 0936 504f 0e36

exp_avg f4 [64]
0.00030028663 3.921905e-05 -7.746578e-05 -0.00012671803 -0.00027094348 0.0002741893 -0.0007045485 -0.00071529695
-0.00024249568 -0.000118631804 -0.00020317482 -0.00013191692 0.00025376194 -8.7269924e-05 -0.00021929917 0.00034923808
0.0011893502 -0.0008542407 5.7905592e-05 0.00064564525 0.00012936814 -0.00081702205 -3.3954657e-05 -4.8879187e-06
0.00012707195 -0.00026617554 -1.1716755e-05 -0.00024759964 -0.00040406498 -0.0005399568 6.714558e-05 -0.0009330217
-0.000477492 0.00015921493 0.00022570962 0.00028616717 0.0006912239 -0.00011564139 5.9412596e-05 -0.0001428839
0.00078471104 -0.00068427774 0.00026223483 -0.00016899373 -0.00015013911 0.00013247636 0.0010220134 -0.0008160159
-0.0006532605 -0.00068781915 -5.9914913e-05 0.00016180372 0.00017923962 3.3934026e-05 -0.00041137 -0.00032091961
-0.00069431285 -3.1151594e-05 -0.0006556272 0.0002498932 -0.00033621796 -0.00029302793 0.00030346515 0.0010682608
00000000: ca6f 9d39 227f 2438 2075 a2b8 9ddf 04b9
00000010: 6b0d 8eb9 11c1 8f39 73b1 38ba c482 3bba
00000020: 7046 7eb9 f7c9 f8b8 530b 55b9 2e53 0ab9
00000030: 5a0b 8539 af04 b7b8 acf3 65b9 f119 b739
00000040: f8e3 9b3a 1fef 5fba a8df 7238 8540 293a
00000050: ffa6 0739 6c2d 56ba 896a 0eb8 e702 a4b6
00000060: 9e3e 0539 7a8d 8bb9 1493 44b7 43d0 81b9
00000070: afd8 d3b9 e38b 0dba 82d0 8c38 0796 74ba
00000080: e457 fab9 eff2 2639 77ac 6c39 b508 9639
00000090: 4033 353a 8084 f2b8 ca31 7938 1bd3 15b9
000000a0: 11b5 4d3a 1a61 33ba 907c 8939 e933 31b9
000000b0: a96e 1db9 5ae9 0a39 14f5 853a e6e9 55ba
000000c0: 923f 2bba c34e 34ba 264d 7bb8 dba9 2939
000000d0: 45f2 3b39 6254 0e38 26ad d7b9 1a41 a8b9
000000e0: 8c02 36ba c5a8 02b8 66de 2bba 1904 8339
000000f0: 6946 b0b9 8ba1 99b9 671a 9f39 e204 8c3a

exp_avg_sq f4 [64]
2.3652652e-05 2.3163725e-06 1.0639997e-05 6.7480482e-06 3.1556222e-06 1.2179227e-06 3.7250234e-06 1.7896192e-06
8.404711e-06 3.5317776e-06 5.428519e-06 2.0700163e-06 1.6871156e-05 4.582034e-06 1.8885489e-06 1.1130297e-05
8.837748e-06 7.799323e-06 2.2530564e-06 9.723762e-06 1.098175e-06 1.6451566e-05 3.230177e-06 2.0669222e-06
3.4144828e-06 2.7092137e-06 5.9779236e-06 2.7787569e-06 6.8123504e-06 1.42309555e-05 2.3306825e-06 2.4182882e-05
2.1339285e-06 5.607015e-06 1.9285014e-06 9.154572e-07 6.0514917e-06 1.867304e-06 3.2177115e-06 3.887648e-06
2.0141933e-06 5.1493407e-06 7.17526e-06 2.7732383e-06 4.5507372e-06 3.318524e-05 1.205746e-05 4.6740056e-06
8.708115e-06 1.1330067e-06 1.9425397e-06 6.8787162e-06 9.976532e-06 1.3228739e-05 1.8746658e-06 5.966302e-06
2.4758413e-06 2.384639e-06 2.040281e-06 8.39418e-06 3.9896263e-06 1.6208373e-06 2.0978507e-06 1.3973208e-05
00000000: af69 c637 fa72 1b36 7082 3237 4b6d e236
00000010: 2dc5 5336 8177 a335 6afb 7936 d932 f035
00000020: f501 0d37 7a03 6d36 a026 b636 9cea 0a36
00000030: 8886 8d37 5fbf 9936 0c7a fd35 43bc 3a37
00000040: d745 1437 d6d9 0237 3733 1736 3d23 2337
00000050: 0165 9335 7801 8a37 05c6 5836 74b5 0a36
00000060: 5e24 6536 f0cf 3536 f995 c836 ae7a 3a36
00000070: a595 e436 7dc1 6e37 d268 1c36 58dc ca37
00000080: 9d34 0f36 e423 bc36 676b 0136 bdbd 7535
00000090: eb0d cb36 14a0 fa35 ddef 5736 a472 8236
000000a0: 942b 0736 80c8 ac36 04c3 f036 df1b 3a36
000000b0: 89b2 9836 6130 0b38 654a 4a37 67d5 9c36
000000c0: 1219 1237 d011 9835 945c 0236 b9cf e636
000000d0: e160 2737 00f1 5d37 079d fb35 2532 c836
000000e0: a126 2636 c907 2036 c3eb 0836 bbd4 0c37
000000f0: a1de 8536 8c8b d935 cdc8 0c36 796e 6a37
