Assets/_created_block_bigger_gradual_reward_increased_length_continuous_dynamics_Added_checkpoint_ontriggerenter_Renaming_sensor_beta_0.003_increased_rewards_corrected_blocker/competitor/competitor-11499905.pt (torch, 238430 bytes, 70 tensors)

discrete_act_size_vector f4 [1, 3]
2.0 2.0 2.0
00000000: 0000 0040 0000 0040 0000 0040

network_body.observation_encoder.processors.0.normalizer.running_mean f4 [28]
0.23280725 0.008485485 0.7586916 0.79363143 0.2076064 0.008386757 0.7840093 0.8129113
0.2286317 0.004761066 0.7666032 0.8019727 0.13748902 0.008957895 0.85358155 0.86776465
0.14567025 0.0020965394 0.85222757 0.8660343 0.085018635 0.008472979 0.9064722 0.9152367
0.09179724 0.001722019 0.90649486 0.91380715
00000000: 0665 6e3e b406 0b3c 9d39 423f 6e2b 4b3f
00000010: c696 543e 9c68 093c d5b4 483f f41a 503f
00000020: 6e1e 6a3e b702 9c3b 1b40 443f 154e 4d3f
00000030: ecc9 0c3e 23c4 123c 5284 5a3f d325 5e3f
00000040: 952a 153e 1866 093b 962b 5a3f 6db4 5d3f
00000050: 401e ae3d 40d2 0a3c 900e 683f f44c 6a3f
00000060: 3100 bc3d 5fb5 e13a 0c10 683f 44ef 693f

network_body.observation_encoder.processors.0.normalizer.running_variance f4 [28]
2.0538751e+06 96755.12 2.1053182e+06 1.5810939e+06 1.8917619e+06 95620.6 1.9473414e+06 1.4941486e+06
2.0280796e+06 54511.94 2.057457e+06 1.5262872e+06 1.3637196e+06 102097.89 1.4373548e+06 1.187195e+06
1.4310074e+06 24035.209 1.4482112e+06 1.202032e+06 894615.5 96595.31 974607.25 810063.5
958778.6 19762.518 974859.2 831363.06
00000000: 99b7 fa49 8ff9 bc47 997f 004a 2f01 c149
00000010: 8fed e649 4dc2 ba47 6bb6 ed49 2564 b649
00000020: 7d91 f749 f1ef 5447 8827 fb49 7a50 ba49
00000030: 3d78 a649 f268 c747 5675 af49 d8eb 9049
00000040: fbae ae49 6bc6 bb46 9ac8 b049 80bb 9249
00000050: 7869 5a49 a8a9 bc47 f4f0 6d49 f8c4 4549
00000060: aa13 6a49 0965 9a46 b300 6e49 31f8 4a49

network_body.observation_encoder.processors.1.normalizer.running_mean f4 [28]
0.3188527 0.03734297 0.64219797 0.8911928 0.6945191 0.05843104 0.24700405 0.55387604
0.7657294 0.033919543 0.17775473 0.5006136 0.8151337 0.13132948 0.053490203 0.41182768
0.85755587 0.025228737 0.096416414 0.3013916 0.8438365 0.15438114 0.0017478757 0.35146746
0.8942282 0.017964184 0.06447925 0.26094767
00000000: a940 a33e f1f4 183d 1667 243f 3625 643f
00000010: 01cc 313f 6355 6f3d a1ee 7c3e d2ca 0d3f
00000020: d806 443f 38ef 0a3d 5605 363e 3628 003f
00000030: 9aac 503f 3c7b 063e 8b18 5b3d 14db d23e
00000040: c888 5b3f 7fac ce3c f875 c53d 0050 9a3e
00000050: ab05 583f 1716 1e3e fa18 e53a 8bf3 b33e
00000060: 24ec 643f a029 933c b20d 843d ef9a 853e

network_body.observation_encoder.processors.1.normalizer.running_variance f4 [28]
2.4975922e+06 413407.5 2.642459e+06 373036.66 2.4398565e+06 632657.8 2.13883e+06 1.1999446e+06
2.0629122e+06 376917.5 1.6807074e+06 850051.44 1.7328799e+06 1.3116126e+06 582234.44 1.1151275e+06
1.4047314e+06 282866.44 1.0018789e+06 814382.56 1.5157289e+06 1.5009234e+06 20045.334 803959.3
1.087624e+06 202945.92 693336.9 817054.6
00000000: e170 184a f0db c948 6c48 214a 9525 b648
00000010: c2ea 144a 1d75 1a49 388b 024a 457a 9249
00000020: 02d2 fb49 b00a b848 1b2a cd49 3788 4f49
00000030: 7f88 d349 e51b a049 a725 0e49 bc1f 8849
00000040: db79 ab49 4e1e 8a48 6e99 7449 e9d2 4649
00000050: 8706 b949 db37 b749 ab9a 9c46 7547 4449
00000060: 40c4 8449 7b30 4648 8e45 2949 ea79 4749

network_body.observation_encoder.processors.2.normalizer.running_mean f4 [7]
231.8945 51.238182 51.14951 50.685738 51.149673 51.27397 50.537395
00000000: fee4 6743 e6f3 4c42 1999 4c42 32be 4a42
00000010: 4499 4c42 8c18 4d42 4b26 4a42

network_body.observation_encoder.processors.2.normalizer.running_variance f4 [7]
3.2041783e+10 2.4560017e+10 2.4532886e+10 2.4565354e+10 2.4478388e+10 2.4463886e+10 2.4527102e+10
00000000: daba ee50 84fc b650 c4c8 b650 b206 b750
00000010: d260 b650 2945 b650 bcbd b650

network_body.processors.0.normalizer.running_mean f4 [28]
0.23280725 0.008485485 0.7586916 0.79363143 0.2076064 0.008386757 0.7840093 0.8129113
0.2286317 0.004761066 0.7666032 0.8019727 0.13748902 0.008957895 0.85358155 0.86776465
0.14567025 0.0020965394 0.85222757 0.8660343 0.085018635 0.008472979 0.9064722 0.9152367
0.09179724 0.001722019 0.90649486 0.91380715
00000000: 0665 6e3e b406 0b3c 9d39 423f 6e2b 4b3f
00000010: c696 543e 9c68 093c d5b4 483f f41a 503f
00000020: 6e1e 6a3e b702 9c3b 1b40 443f 154e 4d3f
00000030: ecc9 0c3e 23c4 123c 5284 5a3f d325 5e3f
00000040: 952a 153e 1866 093b 962b 5a3f 6db4 5d3f
00000050: 401e ae3d 40d2 0a3c 900e 683f f44c 6a3f
00000060: 3100 bc3d 5fb5 e13a 0c10 683f 44ef 693f

network_body.processors.0.normalizer.running_variance f4 [28]
2.0538751e+06 96755.12 2.1053182e+06 1.5810939e+06 1.8917619e+06 95620.6 1.9473414e+06 1.4941486e+06
2.0280796e+06 54511.94 2.057457e+06 1.5262872e+06 1.3637196e+06 102097.89 1.4373548e+06 1.187195e+06
1.4310074e+06 24035.209 1.4482112e+06 1.202032e+06 894615.5 96595.31 974607.25 810063.5
958778.6 19762.518 974859.2 831363.06
00000000: 99b7 fa49 8ff9 bc47 997f 004a 2f01 c149
00000010: 8fed e649 4dc2 ba47 6bb6 ed49 2564 b649
00000020: 7d91 f749 f1ef 5447 8827 fb49 7a50 ba49
00000030: 3d78 a649 f268 c747 5675 af49 d8eb 9049
00000040: fbae ae49 6bc6 bb46 9ac8 b049 80bb 9249
00000050: 7869 5a49 a8a9 bc47 f4f0 6d49 f8c4 4549
00000060: aa13 6a49 0965 9a46 b300 6e49 31f8 4a49

network_body.processors.1.normalizer.running_mean f4 [28]
0.3188527 0.03734297 0.64219797 0.8911928 0.6945191 0.05843104 0.24700405 0.55387604
0.7657294 0.033919543 0.17775473 0.5006136 0.8151337 0.13132948 0.053490203 0.41182768
0.85755587 0.025228737 0.096416414 0.3013916 0.8438365 0.15438114 0.0017478757 0.35146746
0.8942282 0.017964184 0.06447925 0.26094767
00000000: a940 a33e f1f4 183d 1667 243f 3625 643f
00000010: 01cc 313f 6355 6f3d a1ee 7c3e d2ca 0d3f
00000020: d806 443f 38ef 0a3d 5605 363e 3628 003f
00000030: 9aac 503f 3c7b 063e 8b18 5b3d 14db d23e
00000040: c888 5b3f 7fac ce3c f875 c53d 0050 9a3e
00000050: ab05 583f 1716 1e3e fa18 e53a 8bf3 b33e
00000060: 24ec 643f a029 933c b20d 843d ef9a 853e

network_body.processors.1.normalizer.running_variance f4 [28]
2.4975922e+06 413407.5 2.642459e+06 373036.66 2.4398565e+06 632657.8 2.13883e+06 1.1999446e+06
2.0629122e+06 376917.5 1.6807074e+06 850051.44 1.7328799e+06 1.3116126e+06 582234.44 1.1151275e+06
1.4047314e+06 282866.44 1.0018789e+06 814382.56 1.5157289e+06 1.5009234e+06 20045.334 803959.3
1.087624e+06 202945.92 693336.9 817054.6
00000000: e170 184a f0db c948 6c48 214a 9525 b648
00000010: c2ea 144a 1d75 1a49 388b 024a 457a 9249
00000020: 02d2 fb49 b00a b848 1b2a cd49 3788 4f49
00000030: 7f88 d349 e51b a049 a725 0e49 bc1f 8849
00000040: db79 ab49 4e1e 8a48 6e99 7449 e9d2 4649
00000050: 8706 b949 db37 b749 ab9a 9c46 7547 4449
00000060: 40c4 8449 7b30 4648 8e45 2949 ea79 4749

network_body.processors.2.normalizer.running_mean f4 [7]
231.8945 51.238182 51.14951 50.685738 51.149673 51.27397 50.537395
00000000: fee4 6743 e6f3 4c42 1999 4c42 32be 4a42
00000010: 4499 4c42 8c18 4d42 4b26 4a42

network_body.processors.2.normalizer.running_variance f4 [7]
3.2041783e+10 2.4560017e+10 2.4532886e+10 2.4565354e+10 2.4478388e+10 2.4463886e+10 2.4527102e+10
00000000: daba ee50 84fc b650 c4c8 b650 b206 b750
00000010: d260 b650 2945 b650 bcbd b650

network_body._body_endoder.seq_layers.0.weight f4 [64, 63]
0.018800935 -0.28572017 -0.020963427 0.21333954 0.5960837 -0.7682776 -0.31611088 -0.07909661
0.14283517 0.44362056 -0.1947394 -0.049053892 0.76464707 -0.34769046 -0.12188375 -0.19112849
-0.029073054 0.68309706 -0.12606478 -0.39190182 0.5472232 -0.4710561 0.19724187 -0.022130597
-0.45904332 0.30575764 0.765617 0.73624486 1.5706728 -0.2929102 -1.136112 -0.5329959
0.5131361 -0.21173987 0.055950515 1.463392 0.2316201 1.5612727 -1.2843828 -1.1783925
-0.18776791 0.32803294 -0.47630972 -0.11697506 0.11408762 -0.12675424 -0.19091266 0.36419842
-0.18861538 0.43743953 0.31011283 -0.77982384 -0.026979592 -1.0181656 1.1458904 0.54104984
0.38381198 -0.026486803 -0.7167007 0.5479036 0.22043942 -0.6316383 0.44845766 0.29213363
0.88239366 -0.3125479 -0.51536876 0.62649477 0.3750786 -0.38267106 -0.62616616 -0.6202161
-0.2749425 0.8646191 0.5532288 0.51106876 0.7890498 -0.33855113 -0.31567365 1.297857
0.7955517 -1.1379285 -0.9525611 -0.57067066 1.1174663 0.44077554 0.64060515 -0.5170623
0.4512706 0.6334565 0.6626058 0.8958343 -0.73190707 -0.28894126 0.1568289 0.895045
-0.29922232 -1.2454593 -0.984152 0.2357293 -1.356105 0.74569714 -0.47896513 -0.37485915
0.6427338 -0.3885902 -0.28138375 0.11287209 -0.34204182 0.3181418 0.24712957 -0.39809093
-0.10790206 1.0211327 1.0417191 -0.5881236 -0.9116654 0.58409566 0.7107116 1.9247178
-1.2170638 -0.9911688 0.5482028 -0.51340634 -0.049653936 -0.46569708 0.016115695 0.00980988
0.31684303 0.16352023 0.42826658 0.37225035 0.0125585385 0.10332095 -0.24448179 0.039583515
0.27279395 -0.3079628 0.4167856 -1.09964 0.54273283 0.5521648 -0.08418909 0.51332355
0.25207508 0.20713589 0.87446135 0.22417644 -0.44682297 -0.4632459 -0.18267915 -0.25321436
0.05836532 -0.35923025 0.5847966 -0.29855603 -0.12697214 -1.4225914 -0.41729927 0.42461026
0.2107755 -2.7263567 0.7418377 0.44881055 -0.28841734 1.7898248 -0.6117285 0.9326814
-0.62446684 -2.0421376 0.841193 -1.8849891 0.36461636 -0.0016940517 0.7399075 -0.4568447
0.43944606 -1.2529844 -0.06322133 0.88854116 -0.52709234 -0.19050151 0.4788461 0.20293489
0.112047195 -0.11540484 0.14767556 -0.78022325 -0.61892503 0.9213555 1.0069919 -1.4692265
-1.2972604 -0.619928 1.281192 -0.3499982 -0.5141534 0.6376649 0.11477459 -0.87984675
-0.75912076 -0.15078574 0.42979383 0.17535633 -0.026945861 -0.17008086 0.33241037 -0.14929561
-0.05154587 -0.37285492 0.9095896 -0.20295236 -0.36808375 -0.80444103 0.9474237 0.33315638
0.31265798 0.70856017 0.5935892 -0.7861781 -1.1255538 -0.34195668 0.49291077 -0.13181874
-0.093329154 0.29049033 0.099368066 0.8645524 -2.14216 0.9767204 -0.9290625 1.1051023
-0.399296 -0.81873816 0.7537662 1.5416777 -1.2551774 -0.28679577 0.27399826 -0.8049469
-0.5386982 -0.28139335 1.0816548 0.3563262 -1.012659 -0.11256852 -0.19603018 1.2507612
-0.18971047 -0.7781024 0.3548545 1.5452282 0.86015695 1.6861477 -0.7833147 -0.8204126
00000000: 6b04 9a3c ea49 92be 7ebb abbc ae75 5a3e
00000010: f198 183f d7ad 44bf 49d9 a1be 67fd a1bd
00000020: 6243 123e 3c22 e33e c469 47be bcec 48bd
00000030: e9bf 433f 7c04 b2be 309e f9bd 30b7 43be
00000040: 9d2a eebc 73df 2e3f 2017 01be 5ba7 c8be
00000050: d216 0c3f 442e f1be c6f9 493e 3a4b b5bc
00000060: ba07 ebbe 448c 9c3e 7aff 433f 8b7a 3c3f
00000070: ce0b c93f 53f8 95be 1e6c 91bf 6b72 08bf
00000080: e35c 033f 56d2 58be 5e2c 653d 6e50 bb3f
00000090: d22d 6d3e c9d7 c73f a866 a4bf 91d5 96bf
000000a0: 3b46 40be eff3 a73e dede f3be 9f90 efbd
000000b0: c5a6 e93d ddcb 01be 9c7e 43be 3778 ba3e
000000c0: 6424 41be 13f8 df3e 1cc7 9e3e 89a2 47bf
000000d0: 4e04 ddbc 4053 82bf 89ac 923f 3e82 0a3f
000000e0: 0183 c43e dafa d8bc b279 37bf 6943 0c3f
000000f0: dfba 613e 0cb3 21bf 3e9c e53e 8a92 953e
00000100: 8de4 613f 4706 a0be 35ef 03bf f661 203f
00000110: 4d0a c03e 76ed c3be 6d4c 20bf 7bc6 1ebf
00000120: 43c5 8cbe ad57 5d3f 67a0 0d3f 67d5 023f
00000130: 2bff 493f 9356 adbe fa9f a1be 2e20 a63f
00000140: 47a9 4b3f a4a7 91bf 0bdb 73bf 7917 12bf
00000150: 2309 8f3f 55ad e13e b3fe 233f 325e 04bf
00000160: f10c e73e 352a 223f 89a0 293f 6655 653f
00000170: 435e 3bbf 1cf0 93be c197 203e ab21 653f
00000180: ab33 99be 366b 9fbf 63f1 7bbf 0663 713e
00000190: d994 adbf 02e6 3e3f eb3a f5be 8aed bfbe
000001a0: 348a 243f 4bf5 c6be 8811 90be 7b29 e73d
000001b0: 1b20 afbe 7be3 a23e 890f 7d3e 93d2 cbbe
000001c0: c1fb dcbd 7ab4 823f 0d57 853f 458f 16bf
000001d0: e762 69bf 4b87 153f 32f1 353f 275d f63f
000001e0: bfc8 9bbf 3dbd 7dbf 0557 0c3f 996e 03bf
000001f0: ed61 4bbd d96f eebe 1005 843c 9eb9 203c
00000200: 4039 a23e d971 273e c245 db3e 9997 be3e
00000210: 54c2 4d3c ef99 d33d 6f59 7abe 5322 223d
00000220: a6ab 8b3e 4dad 9dbe ec64 d53e 01c1 8cbf
00000230: 8af0 0a3f ac5a 0d3f 546b acbd 2c69 033f
00000240: fc0f 813e 6e1b 543e b3dc 5f3f 828e 653e
00000250: fbc5 e4be 912e edbe 3e10 3bbe 50a5 81be
00000260: 7910 6f3d 07ed b7be 3bb5 153f 56dc 98be
00000270: fc04 02be 7a17 b6bf 40a8 d5be 8466 d93e
00000280: 88d5 573e a17c 2ec0 13e9 3d3f 7fca e53e
00000290: 70ab 93be fb18 e53f 3d9a 1cbf 35c4 6e3f
000002a0: 0fdd 1fbf 62b2 02c0 6d58 573f 5347 f1bf
000002b0: ffae ba3e f10a deba 946a 3d3f 8ce7 e9be
000002c0: 13ff e03e cb61 a0bf 2f7a 81bd 6f77 633f
000002d0: 86ef 06bf d412 43be 512b f53e 2ace 4f3e
000002e0: 0079 e53d 5f59 ecbd 4338 173e b6bc 47bf
000002f0: df71 1ebf f4dd 6b3f 1ce5 803f 9d0f bcbf
00000300: a10c a6bf 9ab3 1ebf 19fe a33f f732 b3be
00000310: 8f9f 03bf 023e 233f f10e eb3d a33d 61bf
00000320: bd55 42bf 9467 1abe f00d dc3e 9c90 333e
00000330: 91bd dcbc ad29 2ebe b131 aa3e f3e0 18be
00000340: c321 53bd d7e6 bebe ddda 683f bed2 4fbe
00000350: 7975 bcbe d9ef 4dbf 5c8a 723f 7993 aa3e
00000360: b514 a03e 3364 353f 76f5 173f f842 49bf
00000370: 2612 90bf f214 afbe cd5e fc3e 7efb 06be
00000380: 5b23 bfbd 26bb 943e 7c81 cb3d 4e53 5d3f
00000390: 2619 09c0 590a 7a3f 0ad7 6dbf fe73 8d3f
000003a0: 8670 ccbe d398 51bf d2f6 403f b255 c53f
000003b0: a7a9 a0bf e5d6 92be 8049 8c3e 0011 4ebf
000003c0: 20e8 09bf ca12 90be aa73 8a3f 6370 b63e
000003d0: cf9e 81bf 538a e6bd 23bc 48be f118 a03f
000003e0: 7643 42be b831 47bf 7daf b53e 0aca c53f
000003f0: 3f33 5c3f b0d3 d73f 5087 48bf 8f06 52bf

network_body._body_endoder.seq_layers.0.bias f4 [64]
-2.2083976 -1.990512 -1.4588486 -0.9355997 -0.39544806 -2.2659202 -1.5088341 -1.9365171
-1.2225999 -2.285519 -1.704042 -2.1034956 -0.7467764 -1.7617917 -2.2547162 -1.4854425
-1.0797937 -1.5687898 -1.7751476 -0.8556579 -3.2803848 -1.8341507 -2.5031474 -1.5705358
-3.0355973 -1.8893504 -0.88026243 -1.621732 -0.8088146 -0.5566923 -0.881689 -1.114155
-3.1100702 -0.23626079 -1.9938847 -1.4395844 -1.1774709 -1.7263408 -2.0020368 -1.4023603
-1.2776705 -0.5166522 -1.1976373 -2.3507023 -0.98420393 -1.165566 -1.8373973 -1.316369
-1.4237382 -2.1768296 -2.3148322 -1.7685951 -1.1659455 -0.9094406 -0.4923933 -0.7311831
-2.4812129 -2.9434543 -1.4249755 -1.3710271 -0.29316804 -2.22389 -1.3658701 -0.96945834
00000000: 6356 0dc0 19c9 febf 8dbb babf 7683 6fbf
00000010: 2b78 cabe d604 11c0 7a21 c1bf cbdf f7bf
00000020: 277e 9cbf f145 12c0 0c1e dabf ac9f 06c0
00000030: bd2c 3fbf 6482 e1bf 454d 10c0 fb22 bebf
00000040: ae36 8abf 1bce c8bf 0938 e3bf 650c 5bbf
00000050: d3f1 51c0 73c5 eabf 9133 20c0 5107 c9bf
00000060: 3a47 42c0 3cd6 f1bf e158 61bf ea94 cfbf
00000070: 790e 4fbf 6383 0ebf 5fb6 61bf a29c 8ebf
00000080: 640b 47c0 59ee 71be 9d37 ffbf 4d44 b8bf
00000090: 5eb7 96bf bcf8 dcbf 5f21 00c0 8b80 b3bf
000000a0: b58a a3bf 5243 04bf 2e4c 99bf e871 16c0
000000b0: caf4 7bbf 4431 95bf d62f ebbf c87e a8bf
000000c0: 0e3d b6bf 2d51 0bc0 3626 14c0 5361 e2bf
000000d0: b43d 95bf 19d1 68bf fa1a fcbe d12e 3bbf
000000e0: 31cc 1ec0 8e61 3cc0 9965 b6bf d17d afbf
000000f0: 1f1a 96be 3754 0ec0 d5d4 aebf 6c2e 78bf

network_body._body_endoder.seq_layers.2.weight f4 [64, 64]
-0.04899185 -0.57606983 -0.37051708 -0.084100775 0.3703587 -0.08126564 0.7296496 -0.96233344
-0.63776517 -0.4212017 -0.26040348 -0.3329733 -0.5214398 -0.9317036 0.07043068 0.7399536
-0.7841551 -0.7387031 -1.7586606 -2.1521878 0.06433603 -0.7943853 0.9847138 0.79305357
0.22735353 0.12417494 -0.68919635 -0.21319777 -0.011619184 -0.22175051 0.19318502 -1.3665048
-1.2700377 0.5124379 -0.5912323 -1.4885834 0.6744335 -0.8856464 -0.3861163 0.2562922
-0.46759564 -0.09213125 -0.016437903 -0.3969821 0.2991245 0.018659255 -0.9208185 0.9633325
-0.37551096 -0.32402414 -0.2797159 -1.9331553 -2.273495 -0.43095887 -0.7452563 -0.11160087
0.17271815 -0.14931469 -0.5611819 -0.61051834 -0.55243576 -0.8608882 -1.3746663 -0.7456893
-0.44071612 -0.52300787 0.7564095 -0.8968011 -0.8259058 -0.15338181 -1.3150909 -0.04200908
-1.3092995 0.4054096 -0.7774883 -1.4815317 0.26401606 -0.49685726 0.616274 -0.012480242
-1.1785213 -0.39808524 0.41326576 0.070328884 0.5607244 0.2923732 0.07103619 -0.2899372
-0.7281976 0.691131 -0.88458014 -1.6952666 -1.259264 -0.18253118 0.30495557 -1.5827378
0.84126705 -1.517316 -0.72265667 -1.0247418 -1.099478 0.11751137 -0.37361684 -0.97618806
-0.56675035 0.1209294 -0.9628717 0.19238852 -0.4239963 0.7553742 -0.01925079 -2.0776236
0.2539354 -0.032191966 0.17466123 -0.70709455 -0.5769239 0.43441573 -0.8911981 0.24819928
-1.231299 0.2949807 0.6799483 -0.32363552 -0.3726813 -1.7151059 -0.7333995 -0.2781194
0.30268675 0.059172146 0.76335794 -0.5926211 -0.8095055 -0.06680906 0.6100912 0.24587014
0.17455406 0.71556824 -0.20001769 0.8070747 0.3491017 -1.2262633 0.61463994 -0.37001052
-1.0313826 -0.15787132 0.071860775 0.36674556 -0.66803014 -0.45830637 0.110849395 0.6710659
0.13362972 0.5439611 1.0476063 -1.9939668 -1.3413603 -0.37202263 -1.2381966 -3.7377813
-1.9650979 -0.15992472 -0.5196525 0.06153451 -1.938777 -0.19779146 -0.1376304 -0.8081952
-0.034105156 -2.292546 -0.16391465 -0.3192748 -0.6041946 0.18117888 0.28328612 0.6643698
-0.61527836 -0.21289586 0.6935571 -0.21000998 -0.48588935 -0.043526202 -1.032625 -1.238232
-0.8153653 -1.3038791 0.68180543 1.2119006 -0.45780957 -0.43965307 -1.3416163 -0.532236
0.7198489 -0.68418944 1.3690939 0.7449165 -0.44433653 -0.8079472 -0.6576106 -0.40227807
-0.47702423 0.45114115 0.646502 0.21491516 -1.094623 -1.1625394 0.8055175 -0.34358576
-0.2681966 -0.7443 0.27299336 -0.31043366 0.78187764 -1.0111115 -0.09038706 -0.38590077
0.36039817 -0.7567813 -0.35989052 0.4117428 0.8009103 0.26163438 -0.9999684 -0.1775597
-2.2297897 0.19469385 -0.20229763 0.67641824 -0.83774734 0.6971538 -0.9823664 -0.72631145
-1.2907364 -1.3886491 0.070285775 -1.8713071 -2.7019835 0.53106403 0.036278937 -0.2631163
0.40415782 -1.6510025 -1.8474151 -0.29401648 -1.6742213 -0.17500004 -0.20472254 -0.6718514
0.40759563 -0.87928 -0.404109 -0.1673359 -0.79052335 0.16127841 -0.6061769 -0.28754923
00000000: aeab 48bd 5079 13bf 6ab4 bdbe 073d acbd
00000010: a89f bd3e 9a6e a6bd 51ca 3a3f 7c5b 76bf
00000020: 9444 23bf c0a7 d7be 9b53 85be 7a7b aabe
00000030: 147d 05bf 2184 6ebf f63d 903d 996d 3d3f
00000040: 63be 48bf a51b 3dbf ca1b e1bf 72bd 09c0
00000050: 9cc2 833d d65c 4bbf 3416 7c3f 8f05 4b3f
00000060: 5dcf 683e 6e4f fe3d 2c6f 30bf 8450 5abe
00000070: 645e 3ebc 9112 63be 4bd2 453e a1e9 aebf
00000080: 9890 a2bf 212f 033f 005b 17bf e789 bebf
00000090: ada7 2c3f b9b9 62bf 09b1 c5be bb38 833e
000000a0: b268 efbe 4faf bcbd c8a8 86bc 3d41 cbbe
000000b0: d926 993e 4bdb 983c c3ba 6bbf f59c 763f
000000c0: f942 c0be 7ee6 a5be ec36 8fbe a271 f7bf
000000d0: f180 11c0 a4a6 dcbe 1ec9 3ebf ff8e e4bd
000000e0: 07dd 303e f3e5 18be 9ea9 0fbf ee4a 1cbf
000000f0: 6e6c 0dbf 2b63 5cbf 11f5 afbf 7ee5 3ebf
00000100: 8ba5 e1be d8e3 05bf 0ea4 413f c294 65bf
00000110: 906e 53bf 1f10 1dbe e654 a8bf b711 2cbd
00000120: 2097 a7bf d991 cf3e 7909 47bf d5a2 bdbf
00000130: 1d2d 873e 1364 febe 22c4 1d3f ee79 4cbc
00000140: c9d9 96bf d4d1 cbbe 9297 d33e 9708 903d
00000150: a28b 0f3f f1b1 953e 6c7b 913d a672 94be
00000160: 286b 3abf f6ed 303f d873 62bf 7ffe d8bf
00000170: 902f a1bf 74e9 3abe 2323 9c3e 2797 cabf
00000180: 475d 573f 6937 c2bf 0700 39bf bd2a 83bf
00000190: b2bb 8cbf cda9 f03d b54a bfbe 76e7 79bf
000001a0: 8d16 11bf d5a9 f73d c27e 76bf 7f01 453e
000001b0: 0b16 d9be 3460 413f d5b3 9dbc c9f7 04c0
000001c0: d203 823e b9db 03bd 65da 323e 2604 35bf
000001d0: 49b1 13bf bd6b de3e 8f25 64bf f427 7e3e
000001e0: 359b 9dbf b607 973e 1711 2e3f 8eb3 a5be
000001f0: 15d0 bebe 9788 dbbf 12c0 3bbf aa65 8ebe
00000200: c2f9 9a3e 7e5e 723d 6d6b 433f 04b6 17bf
00000210: c13b 4fbf 30d3 88bd f02e 1c3f 62c5 7b3e
00000220: 4dbe 323e 7b2f 373f 70d1 4cbe 739c 4e3f
00000230: 75bd b23e 32f6 9cbf 0b59 1d3f 0572 bdbe
00000240: 5804 84bf 05a9 21be be2b 933d 13c6 bb3e
00000250: 0604 2bbf 22a7 eabe 0205 e33d faca 2b3f
00000260: 3bd6 083e 0941 0b3f f717 863f 4e3a ffbf
00000270: b2b1 abbf c079 bebe 3a7d 9ebf cf37 6fc0
00000280: 5488 fbbf 4ec3 23be f207 05bf 9c0b 7c3d
00000290: d829 f8bf d889 4abe fcee 0cbe e1e5 4ebf
000002a0: d9b1 0bbd 13b9 12c0 3ed9 27be fd77 a3be
000002b0: 7fac 1abf f586 393e e10a 913e 2414 2a3f
000002c0: e282 1dbf 5f01 5abe f58c 313f db0c 57be
000002d0: 7dc6 f8be 8848 32bd 0e2d 84bf 637e 9ebf
000002e0: c8bb 50bf 83e5 a6bf cd8a 2e3f 8f1f 9b3f
000002f0: 0466 eabe 351a e1be 15ba abbf 9e40 08bf
00000300: 0448 383f 0a27 2fbf 783e af3f d9b2 3e3f
00000310: 1480 e3be a1d5 4ebf 2b59 28bf 64f7 cdbe
00000320: 853c f4be f9fb e63e 2881 253f b812 5c3e
00000330: 9b1c 8cbf 17ce 94bf 6536 4e3f 79ea afbe
00000340: 1151 89be 728a 3ebf c9c5 8b3e 29f1 9ebe
00000350: 2229 483f 1a6c 81bf da1c b9bd c994 c5be
00000360: 1c86 b83e 6bbc 41bf 9243 b8be f4cf d23e
00000370: 7508 4d3f f1f4 853e eefd 7fbf 36d2 35be
00000380: e0b4 0ec0 d35d 473e 1c27 4fbe bf29 2d3f
00000390: 9c76 56bf ac78 323f 5d7c 7bbf 8cef 39bf
000003a0: da36 a5bf 41bf b1bf fdf1 8f3d fe86 efbf
000003b0: 4ced 2cc0 d0f3 073f 3999 143d 2eb7 86be
000003c0: c6ed ce3e 0d54 d3bf 1978 ecbf 5489 96be
000003d0: e24c d6bf 3633 33be c9a2 51be 74fe 2bbf
000003e0: 60b0 d03e 7e18 61bf 60e7 cebe 1a5a 2bbe
000003f0: bd5f 4abf 2b26 253e 692e 1bbf a739 93be

network_body._body_endoder.seq_layers.2.bias f4 [64]
-1.2779386 -1.636076 -0.4738967 -1.0074768 -0.09005666 -1.2111036 -1.3050727 -1.9816031
-0.806075 -0.81487817 -0.19700763 -1.1223943 -1.00706 -1.542782 0.46075672 -0.94866645
-1.5614856 -0.33844683 -1.6839489 0.29922354 -1.1993337 -1.3034313 -0.8917753 0.18011297
-0.45448503 -1.3040534 -1.2092276 -0.26079682 -0.23878732 -0.96795607 -0.9944575 -0.44327837
-0.31138107 -1.4918745 -1.79993 -1.0053831 -0.6426046 -0.9121449 -1.5109301 -1.007048
-0.20115414 -1.5451673 -0.5392593 -0.094738506 -1.4174058 -0.52951753 -2.1358778 -0.8716131
-1.9857761 -0.24930356 -1.148209 -0.41832122 -0.71644115 -1.1401968 -0.63320655 -1.2860968
-0.91862667 -1.0074819 -0.5243058 -1.9175196 -1.12265 -0.81158435 0.33270413 -0.7917823
00000000: 7e93 a3bf f06a d1bf 97a2 f2be 00f5 80bf
00000010: a06f b8bd 7105 9bbf 9f0c a7bf 2ca5 fdbf
00000020: ee5a 4ebf db9b 50bf 5ebc 49be 9eaa 8fbf
00000030: 58e7 80bf e179 c5bf 4ee8 eb3e cedb 72bf
00000040: c3de c7bf e748 adbe a38b d7bf d433 993e
00000050: c483 99bf d6d6 a6bf 634b 64bf 896f 383e
00000060: 43b2 e8be 39eb a6bf f8c7 9abf 2987 85be
00000070: aa84 74be f8cb 77bf c494 7ebf 62f5 e2be
00000080: 576d 9fbe bef5 bebf 1b64 e6bf 65b0 80bf
00000090: bc81 24bf 5482 69bf 2866 c1bf f3e6 80bf
000000a0: 5afb 4dbe 0bc8 c5bf e60c 0abf 4306 c2bd
000000b0: 8e6d b5bf 768e 07bf 39b2 08c0 0922 5fbf
000000c0: e92d febf 6f49 7fbe 83f8 92bf 332e d6be
000000d0: b068 37bf f8f1 91bf d319 22bf d29e a4bf
000000e0: 1e2b 6bbf 2bf5 80bf e838 06bf 4871 f5bf
000000f0: ffb2 8fbf fec3 4fbf 3258 aa3e 3fb2 4abf

action_model._discrete_distribution.branches.0.weight f4 [2, 64]
0.19885445 0.72808594 0.09009327 -0.3144277 0.11554651 0.21305767 -0.32889715 0.0600377
-0.040998477 0.29953963 -0.26220238 0.510634 -0.18652679 0.14610542 0.0721483 0.038476445
-0.45299402 -0.24004735 0.18160881 -0.15761419 -0.7498716 -0.1058512 -0.15730068 0.082895644
0.024200637 -0.016230002 -0.25520477 0.33430392 -0.10869956 0.14135176 -0.17794673 -0.18606947
0.08300193 -0.09957339 0.3536277 1.2502303 -0.07705569 0.34078446 0.037230715 -0.16547316
-0.17407732 -0.17010784 0.0033112897 -0.2638583 0.5178716 0.07856931 0.21034017 0.8082896
-0.513854 -0.051868662 0.2903315 -0.13817438 -0.37659013 0.072602466 0.085753135 -0.079351194
-0.033024088 -0.4659815 -0.32188207 -1.5103375 -0.07135523 -0.19996613 -0.084992625 -0.22082518
-0.21181549 -0.72209024 -0.06534301 0.32041237 -0.10797757 -0.22215828 0.33228853 -0.05091806
0.04992202 -0.30299476 0.23926172 -0.51245207 0.1902406 -0.11910064 -0.045711167 -0.04611027
0.46188587 0.25793862 -0.19357932 0.14712521 0.744624 0.09672242 0.14378045 -0.09169701
-0.060974948 0.026265172 0.23250525 -0.3424268 0.1254507 -0.1290369 0.14020725 0.19156735
-0.085511215 0.10606555 -0.32583088 -1.2562066 0.049493175 -0.3520711 -0.014625686 0.18682836
0.18796767 0.16492222 0.014462523 0.25807822 -0.52208227 -0.081317425 -0.19190557 -0.8144153
0.49869168 0.0502561 -0.2646889 0.10603331 0.3964642 -0.087564 -0.09229984 0.065162785
0.043453753 0.47505373 0.300982 1.5314059 0.07321872 0.13264763 0.04472001 0.22788888
00000000: 80a0 4b3e d763 3a3f d282 b83d abfc a0be
00000010: a6a3 ec3d ca2b 5a3e 3565 a8be 17ea 753d
00000020: 05ee 27bd 425d 993e 643f 86be e9b8 023f
00000030: e100 3fbe a99c 153e 7dc2 933d 7a99 1d3d
00000040: d5ee e7be f9ce 75be a9f7 393e 9d65 21be
00000050: 96f7 3fbf 84c8 d8bd 6e13 21be 31c5 a93d
00000060: 6a40 c63c c8f4 84bc 33aa 82be e229 ab3e
00000070: e09d debd 84be 103e ab37 36be ff88 3ebe
00000080: eafc a93d 22ed cbbd b10e b53e 8c07 a03f
00000090: 60cf 9dbd 4d7b ae3e 3c7f 183d cc71 29be
000000a0: 5341 32be c030 2ebe 3902 593b 6f18 87be
000000b0: 3c93 043f f2e8 a03d 6a63 573e 11ec 4e3f
000000c0: f08b 03bf 3c74 54bd 55a6 943e 967d 0dbe
000000d0: 6cd0 c0be 9ab0 943d 579f af3d e182 a2bd
000000e0: 4444 07bd 2195 eebe bacd a4be bd52 c1bf
000000f0: b122 92bd ecc3 4cbe 9d10 aebd ff1f 62be
00000100: 29e6 58be e8da 38bf 8ed2 85bd 170d a43e
00000110: 5823 ddbd 767d 63be b921 aa3e 758f 50bd
00000120: 087b 4c3d 2122 9bbe 0601 753e 0f30 03bf
00000130: 6fce 423e 09eb f3bd a23b 3bbd 1fde 3cbd
00000140: 4e7c ec3e 8810 843e a839 46be fea7 163e
00000150: ae9f 3e3f 6716 c63d 2f3b 133e a4cb bbbd
00000160: dec0 79bd 0f2a d73c db15 6e3e 9152 afbe
00000170: 2676 003e 4022 04be 7d92 0f3e 3b2a 443e
00000180: 8120 afbd e538 d93d 4ed3 a6be 61cb a0bf
00000190: 5bb9 4a3d aa42 b4be 93a0 6fbc ef4f 3f3e
000001a0: 997a 403e 5fe1 283e 38f4 6c3c d422 843e
000001b0: 2fa7 05bf c089 a6bd e582 44be 857d 50bf
000001c0: 8454 ff3e 57d9 4d3d 4e85 87be fe27 d93d
000001d0: 5bfd ca3e c154 b3bd b307 bdbd 1174 853d
000001e0: 90fc 313d 3e3a f33e 501a 9a3e 1c05 c43f
000001f0: b2f3 953d c8d4 073e 542c 373d b45b 693e

action_model._discrete_distribution.branches.0.bias f4 [2]
1.0731069 -1.0731063
00000000: 915b 893f 8c5b 89bf

action_model._discrete_distribution.branches.1.weight f4 [2, 64]
-0.29083514 -2.7951932 0.18934783 0.0777037 -0.051620882 -0.16480376 0.055465594 -0.9711666
-0.14570169 0.713259 -0.026768034 -1.2692307 0.018535724 0.019139096 -0.036173735 -0.38748494
-1.1035743 0.24529904 -0.9704493 0.06437963 0.15054348 -1.3598992 0.038398486 0.10592702
-0.19197954 0.25784868 -0.22773069 -0.25725535 0.19559403 0.23754337 0.75397336 -0.058336366
0.07356911 0.13881354 0.24804324 -0.5645307 0.26561627 0.015627353 -0.07221789 0.14126216
-1.0501388 -0.057977106 -0.28629985 0.057660352 -1.4995211 0.120709755 -1.723189 -1.311067
-0.5916351 -0.117514394 -0.24687082 0.1453172 0.17191769 0.086737655 -0.06197971 -0.19543585
-0.33335948 0.23279907 -0.040337 0.08308596 -1.7630271 0.35885328 -0.1711502 -0.0038373615
0.28055286 2.8049798 -0.1969007 -0.070250355 0.046825454 0.15846561 -0.049853906 0.99155575
0.16463423 -0.720887 0.027074708 1.2740977 -0.048257343 -0.07368693 0.015137328 0.3916893
1.1337574 -0.23802328 0.9994463 -0.04309898 -0.16082364 1.3611867 -0.051679276 -0.10177832
0.19796018 -0.26083556 0.238012 0.2703987 -0.19760829 -0.22456238 -0.7456955 0.040888913
-0.06147692 -0.14405465 -0.25271404 0.54998356 -0.23071952 -0.027404293 0.07569676 -0.16793053
1.0155604 0.072878435 0.2907145 -0.007958965 1.5165352 -0.10073626 1.7141775 1.3008404
0.60183716 0.113568045 0.2567719 -0.12265423 -0.18059783 -0.0800116 0.04584677 0.18780388
0.34891474 -0.24900872 0.05546924 -0.08363286 1.7831793 -0.3782646 0.17538851 0.012845233
00000000: 58e8 94be 72e4 32c0 66e4 413e 1e23 9f3d
00000010: 6b70 53bd 51c2 28be e42f 633d 609e 78bf
00000020: d332 15be 2498 363f a348 dbbc 2776 a2bf
00000030: 3bd8 973c 98c9 9c3c e92a 14bd 6d64 c6be
00000040: ec41 8dbf ac2f 7b3e 5e6f 78bf 78d9 833d
00000050: 1228 1a3e 2d11 aebf bb47 1d3d 44f0 d83d
00000060: 4996 44be be04 843e 3c32 69be f9b6 83be
00000070: cd49 483e 923e 733e 6604 413f 1df2 6ebd
00000080: 67ab 963d 2325 0e3e 0cff 7d3e 1585 10bf
00000090: dbfe 873e ef04 803c f9e6 93bd 07a7 103e
000000a0: f36a 86bf 6779 6dbd e595 92be 432d 6c3d
000000b0: 4ff0 bfbf ad36 f73d 7591 dcbf 0bd1 a7bf
000000c0: 6675 17bf 63ab f0bd b4cb 7cbe 08ce 143e
000000d0: 310b 303e 83a3 b13d 70de 7dbd 5620 48be
000000e0: 18ae aabe e162 6e3e 6938 25bd f928 aa3d
000000f0: dfaa e1bf 9ebb b73e ff41 2fbe 3e7c 7bbb
00000100: a0a4 8f3e ca84 3340 56a0 49be 6bdf 8fbd
00000110: 0ccc 3f3d cf44 223e 9c33 4cbd 99d6 7d3f
00000120: e095 283e 0d8c 38bf c7cb dd3c a215 a33f
00000130: 7ea9 45bd 2ce9 96bd 8e02 783c 808b c83e
00000140: f61e 913f 60bc 73be b6db 7f3f 8e88 30bd
00000150: f4ae 24be 5e3b ae3f a6ad 53bd 2771 d0bd
00000160: 13b6 4a3e 3d8c 85be 6bb9 733e b371 8a3e
00000170: d459 4abe aef3 65be e6e5 3ebf 227b 273d
00000180: 39cf 7bbd 1083 13be bc63 81be b9cb 0c3f
00000190: bd41 6cbe f87e e0bc e706 9b3d fbf5 2bbe
000001a0: e2fd 813f 4a41 953d 88d8 943e 5266 02bc
000001b0: d31d c23f d04e cebd 2b6a db3f f081 a63f
000001c0: 0012 1a3f 5d96 e83d 9b77 833e 2432 fbbd
000001d0: a3ee 38be 1fdd a3bd d3c9 3b3d a94f 403e
000001e0: f4a4 b23e 24fc 7ebe b733 633d b447 abbd
000001f0: 383f e43f e6ab c1be 0c99 333e d074 523c

action_model._discrete_distribution.branches.1.bias f4 [2]
-0.6261145 0.6261156
00000000: 0a49 20bf 1d49 203f

action_model._discrete_distribution.branches.2.weight f4 [2, 64]
0.2774724 0.014144333 0.048737966 0.17416194 0.24311674 -0.09610248 -0.049492847 -0.528304
0.23473457 -0.21862541 0.08751229 -0.29946843 -0.25356022 -1.002266 0.2234877 -0.1193895
-3.005858 0.17745456 0.94580334 0.16599837 1.1948887 0.2688885 0.13777654 0.144487
-0.2055592 0.14222598 -0.41530028 0.29519153 0.16577269 -0.021159094 0.3720761 0.2238734
0.11952506 -0.20135503 0.113378905 0.6646253 -0.36515483 0.23854496 -0.19707204 -0.19153994
-0.48964047 -0.5060681 0.013798993 0.15429486 0.4215538 0.22471297 -0.42503086 -0.3028891
-0.34975076 0.13387133 0.102552466 0.08428467 -0.017414317 -0.27363145 0.1644157 -0.42519757
0.4946159 0.23971991 0.19309808 -0.33630598 -2.5674753 -0.42104602 0.16563247 0.15707941
-0.25916326 -0.008125695 -0.055444498 -0.17491123 -0.24308854 0.099202596 0.043799818 0.5497206
-0.28348744 0.22668569 -0.08381002 0.31692874 0.21652836 1.0255167 -0.24264292 0.12851016
3.0276868 -0.19694373 -0.9475197 -0.1457851 -1.2176071 -0.2507537 -0.15737584 -0.13978441
0.21951976 -0.15272516 0.40753785 -0.28238684 -0.18925442 0.016501332 -0.37098336 -0.22757646
-0.1265544 0.22432761 -0.08412081 -0.6731292 0.36674777 -0.23433346 0.20170589 0.21553658
0.5176028 0.52280784 0.0014865969 -0.15287314 -0.46860665 -0.19792968 0.42572215 0.27135086
0.33542448 -0.1385739 -0.09903543 -0.057571486 0.029285803 0.276554 -0.17718537 0.4260719
-0.46637207 -0.2627385 -0.17257057 0.33861887 2.5793927 0.44304353 -0.14873005 -0.16003998
00000000: dd10 8e3e a2bd 673c 76a1 473d 8257 323e
00000010: 98f3 783e 61d1 c4bd 03b9 4abd ee3e 07bf
00000020: 425e 703e 57df 5fbe a539 b33d ed53 99be
00000030: a5d2 81be 414a 80bf f6d9 643e 7b82 f4bd
00000040: fa5f 40c0 a6b6 353e 2b20 723f 7afb 293e
00000050: 1df2 983f c1ab 893e 4b15 0d3e 66f4 133e
00000060: 1c7e 52be b0a3 113e 3da2 d4be 5823 973e
00000070: 51c0 293e d655 adbc c280 be3e 123f 653e
00000080: 8ec9 f43d 0330 4ebe 3333 e83d e224 2a3f
00000090: 93f5 babe 2145 743e 41cd 49be 0c23 44be
000000a0: 28b2 fabe ae8d 01bf 2c15 623c 79ff 1d3e
000000b0: e6d5 d73e 281b 663e a59d d9be 4814 9bbe
000000c0: 8812 b3be 9115 093e 0707 d23d 719d ac3d
000000d0: 78a8 8ebc 6c19 8cbe 975c 283e 7fb3 d9be
000000e0: 4c3e fd3e 2379 753e 81bb 453e 4c30 acbe
000000f0: 8451 24c0 5893 d7be 8f9b 293e 6dd9 203e
00000100: 0cb1 84be a321 05bc c519 63bd ee1b 33be
00000110: 34ec 78be bb2a cb3d 7067 333d 7dba 0c3f
00000120: 4425 91be 4b20 683e 96a4 abbd 7c44 a23e
00000130: 9cb9 5d3e 2244 833f 6377 78be 2b98 033e
00000140: 9fc5 4140 9eab 49be a790 72bf b048 15be
00000150: 8dda 9bbf ca62 80be 2227 21be a523 0fbe
00000160: cac9 603e fc63 1cbe cda8 d03e 0295 90be
00000170: e9cb 41be cd2d 873c 88f1 bdbe ce09 69be
00000180: 7a97 01be 23b6 653e 8847 acbd 3252 2cbf
00000190: 5dc6 bb3e 1cf5 6fbe fd8b 4e3e 9fb5 5c3e
000001a0: 9e81 043f bcd6 053f ead9 c23a c78a 1cbe
000001b0: 36ed efbe 14ae 4abe 41f8 d93e 80ee 8a3e
000001c0: c2bc ab3e 51e6 0dbe 16d3 cabd 14d0 6bbd
000001d0: c8e8 ef3c 7c98 8d3e 1570 35be 1926 da3e
000001e0: 52c8 eebe a985 86be 57b6 30be 745f ad3e
000001f0: c514 2540 9ad6 e23e b14c 18be 85e1 23be

action_model._discrete_distribution.branches.2.bias f4 [2]
-1.4707144 1.4707159
00000000: 5f40 bcbf 6b40 bc3f

exp_avg f4 [64, 63]
7.07264e-05 -5.899285e-05 -4.6341836e-05 -7.24113e-05 -1.6396429e-07 -1.450527e-05 3.3770825e-06 -2.7846363e-05
5.1564344e-05 -1.4222287e-05 -4.7869362e-05 -7.4696836e-05 0.0004298185 -1.4991452e-05 -0.00041466684 -0.0004298195
0.00013379088 -2.1269288e-06 -0.00013490948 -0.00015772162 0.0006004627 -1.4578584e-05 -0.00057066 -0.00059226813
0.00028793217 -6.552025e-06 -0.0002846186 -0.00029245755 0.00010467686 0.00045199227 -0.00030259558 7.263051e-05
0.00012376823 0.00028086404 -0.00028489137 -0.00030320368 1.1863825e-05 6.9554e-05 -3.3356042e-05 -0.00018452416
5.2203713e-06 0.00022417035 -0.00036016759 -0.00030659625 -8.270876e-05 6.4498534e-05 5.9840862e-05 5.318409e-05
4.1361858e-05 0.00017931269 -0.0003884859 -0.00021265875 -0.00018017089 7.632145e-06 0.00021565401 0.00016453562
-0.00012608952 7.390582e-05 0.00027476015 -0.00028547115 0.0005702729 -9.1786205e-05 -0.00026663192 0.00017019264
-5.3433587e-06 -0.00016695127 -0.00017837793 0.00024630467 -5.313481e-06 -0.00024158327 -0.00023354037 9.253754e-05
-3.9982474e-06 -9.1221526e-05 -0.000100798876 0.00012506534 -5.4924108e-06 -0.00012035624 -0.00013043085 0.0001529587
-1.0319834e-06 -0.00015260748 -0.00015110838 0.00010379724 -5.341149e-06 -9.77532e-05 -9.947924e-05 0.00011121835
-2.4004232e-06 -0.00010995693 -0.0001077277 6.7677815e-05 2.8447655e-05 -0.000111651316 -0.0001238697 -7.8729245e-05
0.00019918969 -2.4149258e-05 3.344639e-05 0.00010394375 3.5234625e-06 -0.00012415249 -0.00014826754 -8.871708e-05
-5.491295e-05 0.00024195235 3.7841066e-05 9.029973e-05 -1.449244e-05 -0.00010482186 -6.0203423e-05 4.384572e-05
-8.465008e-05 7.323302e-05 1.1692579e-06 -7.8452445e-05 -7.730298e-06 0.00010855519 4.3257805e-05 1.1144713e-06
1.5693055e-05 -0.00011585064 1.4169921e-05 0.00020299638 -0.00022654085 -7.917845e-06 0.00068182684 -2.4917628e-05
-0.0006680829 -0.0007735235 0.0006856702 -2.476227e-05 -0.00067031686 -0.0007767106 0.000709391 3.52076e-05
-0.00072637585 -0.0008237183 0.00083992456 -2.5596455e-05 -0.00081129966 -0.0008846801 0.000829077 -3.1631724e-05
-0.00081176846 -0.000870106 0.0011123922 -2.4891524e-05 -0.0010578504 -0.0010988985 0.0010290416 -1.118656e-05
-0.001018928 -0.0010380447 0.00043597422 -0.0004466866 -0.00024416586 -0.00023446395 0.00029967484 -0.00025485462
-0.00018143315 -0.0002063107 0.00020993664 0.0003221953 -0.000378639 -0.00017451611 0.00041875086 -0.00043599657
-6.43362e-05 -0.00039327974 0.0005682684 -4.5956534e-05 -0.0006304967 -0.00059099175 -0.00012805405 0.000105627456
-1.13256865e-05 -0.00053606584 0.00035025887 3.031433e-05 -0.00043730784 -0.000421269 0.0008869879 0.0004435598
0.00017890666 -2.7503234e-05 -4.6983852e-05 -0.0008216734 -6.7825196e-05 -0.00012201467 -6.2855333e-06 0.0001212665
0.00013321426 -0.00013167602 -8.684756e-06 0.0001317062 0.00013759478 -0.00012276556 4.404891e-05 9.936078e-05
0.00011362034 -0.00013438378 -8.980427e-06 0.00013328035 0.00013554933 -0.00013019571 -6.5603513e-06 0.00013122364
0.00013506025 -7.717251e-05 -8.733176e-06 7.6698074e-05 5.6398687e-05 -0.00014413503 -3.92387e-06 0.00014349428
0.00014440766 0.0003737546 4.2829804e-05 -0.00038388607 -0.00028120217 0.00018866871 6.6165914e-05 -0.00023748817
-0.00015235157 0.00011729833 -2.6459935e-05 -5.967503e-05 -0.000226615 -8.294932e-05 1.9619786e-06 0.00014534438
-0.00011860881 1.3246998e-05 -3.3615815e-05 -2.2169239e-05 -8.046812e-05 3.4191235e-05 -0.00010961851 0.00013739527
-0.00013328473 -4.2333344e-05 2.517113e-05 5.389208e-05 1.8316316e-05 -0.0001279916 -0.00014790567 -0.00022395619
0.00014182656 0.00015434343 0.00031937534 8.266011e-05 -0.001316298 -3.193896e-05 0.0013161544 0.0014586949
00000000: f252 9438 176f 77b8 2b5f 42b8 85db 97b8
00000010: 290e 30b4 a95b 73b7 d6a1 6236 9c97 e9b7
00000020: cb46 5838 429c 6eb7 56c7 48b8 8fa6 9cb8
00000030: 4359 e139 cc83 7bb7 a467 d9b9 6659 e1b9
00000040: 374a 0c39 5cbc 0eb6 7d76 0db9 1362 25b9
00000050: 5f68 1d3a 8b96 74b7 5898 15ba 7142 1bba
00000060: 9af5 9639 77d9 dbb6 dd38 95b9 fd54 99b9
00000070: f685 db38 60f9 ec39 b1a5 9eb9 3551 9838
00000080: c8c7 0139 ef40 9339 795d 95b9 4ff7 9eb9
00000090: be0a 4737 85dd 9138 c7e7 0bb8 d47c 41b9
000000a0: a62a af36 450f 6b39 e0d4 bcb9 a7be a0b9
000000b0: ed73 adb8 6343 8738 a3fd 7a38 fb11 5f38
000000c0: f57b 2d38 e205 3c39 b2ad cbb9 26fd 5eb9
000000d0: 41ec 3cb9 d00b 0037 2f21 6239 3287 2c39
000000e0: e636 04b9 e3fd 9a38 af0d 9039 4aab 95b9
000000f0: 5e7e 153a 587d c0b8 bbca 8bb9 bd75 3239
00000100: 1a4b b3b6 a40f 2fb9 f60a 3bb9 7422 8139
00000110: 744a b2b6 8451 7db9 84e2 74b9 b710 c238
00000120: af28 86b6 2f4e bfb8 fc63 d3b8 f923 0339
00000130: 734b b8b6 c467 fcb8 44c4 08b9 8a63 2039
00000140: ae82 8ab5 4205 20b9 d972 1eb9 b8ad d938
00000150: 1f38 b3b6 da00 cdb8 839f d0b8 e63d e938
00000160: f516 21b6 ad98 e6b8 deeb e1b8 40ee 8d38
00000170: e0a2 ee37 5826 eab8 05e3 01b9 711b a5b8
00000180: 93dd 5039 2394 cab7 ca48 0c38 60fc d938
00000190: a074 6c36 ee2e 02b9 4478 1bb9 9f0d bab8
000001a0: 5552 66b8 97b4 7d39 89b7 1e38 4c5f bd38
000001b0: 8e24 73b7 cfd3 dbb8 ef82 7cb8 fce6 3738
000001c0: 2a86 b1b8 ae94 9938 65ef 9c35 d686 a4b8
000001d0: 61b1 01b7 20a8 e338 b76f 3538 f194 9535
000001e0: 94a4 8337 d7f4 f2b8 59bb 6d37 6ddb 5439
000001f0: 998b 6db9 e3d6 04b7 a0bc 323a 3306 d1b7
00000200: 4922 2fba 49c6 4aba 8cbe 333a 92b8 cfb7
00000210: 34b8 2fba 2b9c 4bba 6df6 393a dfab 1338
00000220: 426a 3eba cdee 57ba 622e 5c3a f8b7 d6b7
00000230: 66ad 54ba e0e9 67ba 6a56 593a 4eac 04b8
00000240: dccc 54ba d317 64ba b0cd 913a 24ce d0b7
00000250: 92a7 8aba ea08 90ba e8e0 863a e9ad 3bb7
00000260: 8d8d 85ba 000f 88ba 7893 e439 4331 eab9
00000270: 6303 80b9 70da 75b9 ad1d 9d39 029e 85b9
00000280: 173f 3eb9 1b55 58b9 7022 5c39 52ec a839
00000290: 1184 c6b9 50fe 36b9 ca8b db39 7896 e4b9
000002a0: 3cec 86b8 1d31 ceb9 d9f7 143a 74c1 40b8
000002b0: eb47 25ba c9ec 1aba 3f46 06b9 4f84 dd38
000002c0: 7403 3eb7 c586 0cba f3a2 b739 874b fe37
000002d0: 7746 e5b9 c5dd dcb9 c084 683a 978d e839
000002e0: e498 3b39 bfb6 e6b7 8710 45b8 9265 57ba
000002f0: 603d 8eb8 21e2 ffb8 52e8 d2b6 7550 fe38
00000300: 6eaf 0b39 8312 0ab9 beb4 11b7 9d1a 0a39
00000310: 5147 1039 a1ba 00b9 28c1 3838 ea5f d038
00000320: 7547 ee38 5fe9 0cb9 a4aa 16b7 2cc1 0b39
00000330: 3f22 0e39 2585 08b9 fd20 dcb6 1499 0939
00000340: f69e 0d39 add7 a1b8 b584 12b7 f7d8 a038
00000350: a18d 6c38 f422 17b9 c9a9 83b6 f476 1639
00000360: 236c 1739 7ef4 c339 27a4 3338 5144 c9b9
00000370: 516e 93b9 5fd5 4539 8ec2 8a38 3f06 79b9
00000380: 90c0 1fb9 10fe f538 47f6 ddb7 934b 7ab8
00000390: 809f 6db9 14f5 adb8 89aa 0336 9667 1839
000003a0: 9fbd f8b8 6c3f 5e37 b5fe 0cb8 14f8 b9b7
000003b0: fec0 a8b8 8f68 0f38 fde2 e5b8 c311 1039
000003c0: 59c2 0bb9 158f 31b8 9726 d337 2e0a 6238
000003d0: fda5 9937 7c35 06b9 2017 1bb9 c8d5 6ab9
000003e0: 47b7 1439 40d7 2139 d571 a739 cf59 ad38
000003f0: a287 acba 32f6 05b8 d082 ac3a ae31 bf3a

exp_avg_sq f4 [64, 63]
1.9343859e-06 4.3688263e-07 1.9478255e-06 2.0799305e-06 2.3079338e-06 2.0934968e-08 2.2453307e-06 2.2763707e-06
1.6571505e-06 2.3248883e-07 1.6771534e-06 1.8722475e-06 3.3739045e-06 2.0877227e-08 3.176315e-06 2.9904118e-06
1.889316e-06 4.120242e-08 1.8784386e-06 1.994681e-06 4.153497e-06 2.0993907e-08 3.7795521e-06 3.8003902e-06
2.134886e-06 1.6255282e-08 2.105611e-06 2.2024108e-06 4.1581393e-06 5.13415e-06 3.8364265e-06 6.2076438e-06
2.6842838e-06 5.852815e-06 2.1712688e-06 2.1180924e-06 2.0615612e-06 6.7666188e-06 1.381198e-06 2.314727e-06
3.6999202e-06 3.5412027e-06 5.0017275e-06 2.2737943e-06 2.620259e-06 4.2176785e-06 2.1185897e-06 2.7932786e-06
2.6642344e-06 2.486065e-06 1.0973373e-06 2.0641355e-06 3.5719172e-06 9.798268e-07 5.338078e-06 4.150897e-06
2.5599743e-06 2.077996e-06 2.729416e-06 2.10961e-06 2.2476986e-06 3.0365588e-06 2.0160073e-06 3.1597824e-06
1.7686284e-08 3.0457113e-06 2.6128057e-06 4.2532015e-06 2.4833577e-07 4.0940226e-06 3.3664328e-06 8.9800136e-07
1.0870843e-08 9.0499753e-07 9.517245e-07 6.3974903e-06 2.4930245e-07 6.0087937e-06 4.1407498e-06 7.8698474e-07
2.0709324e-08 7.8888854e-07 7.916964e-07 1.0902877e-06 1.7403611e-08 1.0191437e-06 1.0453092e-06 6.9871385e-07
3.5138397e-09 6.9254105e-07 7.0483725e-07 2.9636842e-06 1.1754041e-06 2.6653115e-06 3.970074e-06 1.899951e-06
7.876484e-06 8.7838e-07 1.4182917e-06 2.8474465e-06 9.681823e-08 3.7267948e-06 4.3212344e-06 6.7581445e-06
4.81499e-06 1.4387485e-05 4.1626295e-06 4.1513663e-06 4.0940645e-07 6.1026176e-06 5.32742e-06 3.2535304e-06
3.0659176e-06 1.1763739e-06 4.693913e-06 3.196294e-06 5.3631048e-08 5.086896e-06 5.586422e-06 2.1840456e-06
1.2517008e-06 2.547017e-06 1.7555467e-06 1.2600747e-06 2.1959402e-06 1.9623678e-06 3.6764834e-06 2.560903e-08
3.5661287e-06 4.6086525e-06 4.2116308e-06 2.4309012e-08 4.0573846e-06 5.0744325e-06 3.6802767e-06 1.5871274e-07
3.630068e-06 4.7352682e-06 6.3374323e-06 2.5972726e-08 5.9348968e-06 6.722231e-06 5.534529e-06 3.9768242e-08
5.4615557e-06 6.279939e-06 9.826335e-06 2.4927635e-08 8.8934485e-06 9.572968e-06 8.825728e-06 5.0244355e-09
8.656262e-06 9.127812e-06 3.594397e-06 4.161399e-06 3.4926454e-06 5.896534e-06 2.1815267e-06 6.937839e-06
1.1851773e-06 2.2041893e-06 3.2560731e-06 3.1099244e-06 3.5102114e-06 3.609763e-06 2.814233e-06 3.6392e-06
4.897971e-07 1.8046848e-06 2.4469978e-06 1.34306e-07 3.4412083e-06 3.7706122e-06 2.0814007e-06 1.9941347e-06
4.7691424e-07 2.0065213e-06 2.7336182e-06 1.5329288e-06 3.3893807e-06 4.1047056e-06 3.548218e-06 2.717616e-06
3.4587001e-06 2.6173473e-06 2.8012298e-06 3.5962616e-06 2.648145e-06 1.666323e-06 2.679596e-07 1.646751e-06
1.9968036e-06 1.845698e-06 4.4797293e-08 1.782184e-06 2.1199896e-06 1.5750304e-06 5.288123e-07 1.6126239e-06
1.9687648e-06 2.7333272e-06 5.6948206e-08 2.5699746e-06 2.805298e-06 2.159939e-06 2.80925e-07 2.1820933e-06
2.4412327e-06 6.2729246e-06 2.3806873e-08 5.6730046e-06 5.0510807e-06 3.3705337e-06 9.461292e-09 3.3103017e-06
3.4476059e-06 1.5968274e-06 1.2119088e-05 2.0808727e-06 4.058875e-06 2.1185692e-06 7.026286e-06 1.4117444e-06
1.1449641e-06 2.403702e-06 1.0294255e-05 1.3192126e-06 1.7883282e-06 3.5423998e-06 3.7022228e-06 3.93005e-06
1.5301081e-06 4.2327833e-06 9.670728e-06 2.4916021e-06 3.0389788e-06 3.7626412e-06 3.586029e-06 1.1650677e-06
1.7328596e-06 5.382275e-06 9.923023e-06 3.0116469e-06 4.0907703e-06 2.5221834e-06 1.3671352e-06 1.9061781e-06
1.6753146e-06 1.2526106e-06 2.312598e-06 1.8492578e-06 3.911833e-06 4.200503e-07 3.833006e-06 3.924065e-06
00000000: 7fd0 0136 b18c ea34 63b7 0236 ef94 0b36
00000010: 00e2 1a36 7bd4 b332 7dae 1636 c0c3 1836
00000020: 426b de35 0ba2 7934 8d1a e135 ef49 fb35
00000030: 3d6b 6236 8255 b332 ad28 5536 e2ae 4836
00000040: 6794 fd35 8af6 3033 a91e fc35 5cdc 0536
00000050: 445e 8b36 1756 b432 36a4 7d36 350a 7f36
00000060: 1045 0f36 bea1 8b32 1f4e 0d36 21cd 1336
00000070: 2586 8b36 0346 ac36 a7ba 8036 414b d036
00000080: a523 3436 4c63 c436 1db6 1136 8d24 0e36
00000090: 5a59 0a36 d00c e336 9a61 b935 b556 1b36
000000a0: 254c 7836 66a5 6d36 83d4 a736 7d97 1836
000000b0: b5d7 2f36 9585 8d36 182d 0e36 2974 3b36
000000c0: 33cb 3236 45d6 2636 3948 9335 9485 0a36
000000d0: 12b5 6f36 9882 8335 be1d b336 ef47 8b36
000000e0: 06cc 2b36 b373 0b36 032b 3736 d392 0d36
000000f0: 2bd7 1636 afc7 4b36 be4a 0736 a60c 5436
00000100: 8dec 9732 ec64 4c36 a957 2f36 b9b6 8e36
00000110: 0253 8534 635f 8936 e0ea 6136 2f0e 7135
00000120: 79c2 3a32 f5ee 7235 027a 7f35 06aa d636
00000130: ded7 8534 259f c936 c5f0 8a36 2e41 5335
00000140: 49e4 b132 02c4 5335 f684 5435 0056 9235
00000150: f27e 9532 83c9 8835 8d4c 8c35 408f 3b35
00000160: 1f78 7131 0fe7 3935 0c34 3d35 b5e3 4636
00000170: 94c2 9d35 b4dd 3236 ad36 8536 d201 ff35
00000180: 3e25 0437 d0c9 6b35 225c be35 c216 3f36
00000190: 63ea cf33 d919 7a36 1fff 9036 05c4 e236
000001a0: 7390 a136 c761 7137 b7ac 8b36 f74b 8b36
000001b0: 65cc db34 16c5 cc36 30c2 b236 3a57 5a36
000001c0: 10c0 4d36 e6e3 9d35 6880 9d36 ea7f 5636
000001d0: f657 6633 1bb0 aa36 0073 bb36 9e91 1236
000001e0: 1d00 a835 6bed 2a36 20a0 eb35 d61f a935
000001f0: f75d 1336 39b1 0336 81b9 7636 dafa db32
00000200: a051 6f36 06a4 9a36 a251 8d36 15d0 d032
00000210: ab24 8836 0b45 aa36 acfa 7636 a06a 2a34
00000220: 189c 7336 a5e3 9e36 21a6 d436 a11a df32
00000230: 6024 c736 868f e136 3eb5 b936 a5cd 2a33
00000240: 6842 b736 44b8 d236 cadb 2437 7320 d632
00000250: 1235 1537 969b 2037 3712 1437 67a3 ac31
00000260: 5d3a 1137 a723 1937 4537 7136 25a2 8b36
00000270: 3163 6a36 d7da c536 5866 1236 95cb e836
00000280: 6212 9f35 afeb 1336 e982 5a36 18b4 5036
00000290: f990 6b36 423f 7236 28dc 3c36 fb38 7436
000002a0: 9a7a 0335 7f38 f235 1a37 2436 c135 1034
000002b0: 82ef 6636 a00a 7d36 31ae 0b36 f9d2 0536
000002c0: 4c05 0035 c6a7 0636 3473 3736 08bf cd35
000002d0: 1e75 6336 27bb 8936 ec1d 6e36 4a60 3636
000002e0: 041c 6836 afa5 2f36 c3fc 3b36 4e57 7136
000002f0: c9b6 3136 6ca6 df35 16dc 8f34 ef05 dd35
00000300: d300 0636 b3b9 f735 2567 4033 6033 ef35
00000310: 2545 0e36 a265 d335 b4f3 0d35 5671 d835
00000320: 1f1f 0436 346e 3736 3797 7433 d477 2c36
00000330: a742 3c36 78f3 1036 0ad2 9634 1470 1236
00000340: 0fd4 2336 037c d236 de7f cc32 bd5a be36
00000350: 747c a936 5431 6236 348b 2232 8d26 5e36
00000360: 6b5d 6736 9252 d635 1653 4b37 1fa5 0b36
00000370: 7931 8836 be2c 0e36 56c3 eb36 2b7b bd35
00000380: abac 9935 494f 2136 7db5 2c37 cd0f b135
00000390: 7d06 f035 f7b9 6d36 b473 7836 dfde 8336
000003a0: 1d5e cd35 5507 8e36 763f 2237 6635 2736
000003b0: 42f1 4b36 af81 7c36 82a7 7036 6c5f 9c35
000003c0: 9a94 e835 6499 b436 0f7b 2637 b31b 4a36
000003d0: 7343 8936 c842 2936 687e b735 c8d7 ff35
000003e0: 5fdb e035 5f1f a835 2232 1b36 0434 f835
000003f0: 6442 8336 4683 e134 459d 8036 76ab 8336

exp_avg f4 [64]
0.0001576134 5.7746423e-05 0.00026911337 9.438951e-05 -6.149713e-05 0.00041705248 -0.0006081549 -0.0006071301
-0.00035945416 5.2603275e-05 -0.0006786556 -5.688813e-06 0.00022372654 -0.000115905306 -0.00020662052 0.00010204905
0.00010326382 -0.00021840773 0.0001332244 -0.00030172605 -0.00013371487 0.00026985875 0.00036945622 0.00035938158
0.00019742134 0.00016813488 -0.00023768164 8.4466905e-05 4.1325326e-05 -0.0004251622 -9.501126e-06 -0.00075340824
-3.0741917e-06 -0.00013040937 -0.00016993681 0.00023615533 -0.00032350092 5.2794476e-05 -0.00019650004 0.00018261827
-0.0001008608 -9.240851e-05 -5.618904e-05 0.00074079144 -0.0007392698 -1.5244553e-05 0.00020268593 0.00024172793
0.00029413443 0.0001365982 0.00051906245 -7.3350147e-06 0.00010115226 -0.00022054095 -0.00022306059 -0.00041068444
0.0003840391 -7.519089e-05 -0.00032009286 0.00034671067 -0.00038475657 -9.9061035e-05 -0.00023596053 0.00016498017
00000000: 0645 2539 c034 7238 c917 8d39 fbf2 c538
00000010: 05f8 80b8 d6a7 da39 966c 1fba d027 1fba
00000020: 1f75 bcb9 56a2 5c38 cee7 31ba 88e2 beb6
00000030: 2398 6a39 3012 f3b8 46a8 58b9 2b03 d638
00000040: 578f d838 6104 65b9 27b2 0b39 fc30 9eb9
00000050: d035 0cb9 d47b 8d39 93b3 c139 616b bc39
00000060: e302 4f39 5d4d 3039 2e3a 79b9 d323 b138
00000070: bb54 2d38 4ee8 deb9 0767 1fb7 5f80 45ba
00000080: 364e 4eb6 80be 08b9 1131 32b9 77a0 7739
00000090: 8f9b a9b9 a36f 5d38 940b 4eb9 387d 3f39
000000a0: 3b85 d3b8 71cb c1b8 86ac 6bb8 ac31 423a
000000b0: 8ecb 41ba dbc2 7fb7 1788 5439 5978 7d39
000000c0: 0e36 9a39 cd3b 0f39 b111 083a 4c1f f6b6
000000d0: b521 d438 0341 67b9 5fe5 69b9 2251 d7b9
000000e0: db58 c939 cdaf 9db8 23d2 a7b9 b8c6 b539
000000f0: 27b9 c9b9 fdbe cfb8 2c6c 77b9 87fe 2c39

exp_avg_sq f4 [64]
2.242015e-06 2.0332745e-06 2.870272e-06 1.3912953e-06 3.6250294e-06 2.9402945e-06 2.8323936e-06 4.583626e-06
2.2580207e-06 1.382441e-06 4.7921235e-06 2.8265938e-06 3.7462328e-06 4.3556183e-06 3.2463422e-06 2.0397909e-05
4.7821104e-06 3.1176069e-06 1.6570532e-06 6.960667e-06 2.3376538e-06 9.587261e-06 1.8920855e-06 6.3962393e-06
3.0196163e-06 3.0399333e-06 1.4203316e-05 3.815956e-06 4.556201e-06 5.1395227e-06 1.6626842e-06 1.9776999e-05
1.1331061e-06 3.5901514e-06 2.5845995e-06 2.2071379e-06 4.6944656e-06 1.3736728e-06 1.6002598e-06 2.6565854e-06
9.725231e-06 4.043456e-06 1.5807791e-06 1.0757109e-05 1.6147025e-05 4.283353e-06 3.470932e-06 6.4865903e-06
5.5082833e-06 1.4969326e-06 1.7397141e-06 1.5998206e-06 3.587276e-06 3.9110573e-06 1.6518019e-06 4.122232e-06
1.2861442e-06 3.0986105e-06 1.9758736e-06 5.884797e-06 3.7560828e-06 2.345282e-06 5.710549e-06 1.5013469e-05
00000000: 8675 1636 6473 0836 e69e 4036 8bbc ba35
00000010: 8845 7336 e051 4536 2714 3e36 0ccd 9936
00000020: 8088 1736 508c b935 07cc a036 83b0 3d36
00000030: ca67 7b36 7a26 9236 bcdb 5936 2d1c ab37
00000040: 0476 a036 1438 5136 ea67 de35 ad8f e936
00000050: 96e0 1c36 f9d8 2037 90f3 fd35 479f d636
00000060: 9da4 4a36 a801 4c36 c74a 6e37 d00a 8036
00000070: 78e1 9836 2a74 ac36 6529 df35 c8e6 a537
00000080: 3b15 9835 55ee 7036 1573 2d36 571e 1436
00000090: 2785 9d36 0a5f b835 82c8 d635 ca47 3236
000000a0: 8d29 2337 06ad 8736 282b d435 6e79 3437
000000b0: 7973 8737 b9b9 8f36 28ee 6836 63a7 d936
000000c0: cbd3 b836 36ea c835 1f80 e935 6bb9 d635
000000d0: efbc 7036 ba3b 8336 7bb3 dd35 b451 8a36
000000e0: 949f ac35 b9f1 4f36 4099 0436 0576 c536
000000f0: 0311 7c36 a363 1d36 3e9d bf36 5ce2 7b37
