Assets/GG/Euna-Subway/ML-agent/competitor.onnx (onnx, 40744 bytes, 15 tensors)

discrete_act_size_vector f4 [1, 3]
2.0 2.0 2.0
00000000: 0000 0040 0000 0040 0000 0040

network_body.observation_encoder.processors.0.normalizer.running_mean f4 [35]
0.0 0.11142631 0.0 0.8547762 0.9303843 0.0 0.5132028 0.0
0.45425597 0.80923736 0.0 0.4506007 0.0 0.51244074 0.8334205 0.0
0.75097626 0.0 0.21661194 0.593737 0.0 0.8156943 0.0 0.13866693
0.5796813 0.0 0.7806403 0.0 0.18723162 0.5127321 0.0 0.8399032
0.0 0.11399561 0.4895937
00000000: 0000 0000 7a33 e43d 0000 0000 9dd2 5a3f
00000010: aa2d 6e3f 0000 0000 4261 033f 0000 0000
00000020: 3d94 e83e 2e2a 4f3f 0000 0000 23b5 e63e
00000030: 0000 0000 512f 033f 0c5b 553f 0000 0000
00000040: fb3f 403f 0000 0000 85cf 5d3e 26ff 173f
00000050: 0000 0000 57d1 503f 0000 0000 b4fe 0d3e
00000060: fe65 143f 0000 0000 0bd8 473f 0000 0000
00000070: a5b9 3f3e 6942 033f 0000 0000 e503 573f
00000080: 0000 0000 8876 e93d 07ac fa3e

network_body.observation_encoder.processors.1.normalizer.running_mean f4 [7]
266.80188 0.0 0.0 0.0 0.0 0.0 0.0
00000000: a466 8543 0000 0000 0000 0000 0000 0000
00000010: 0000 0000 0000 0000 0000 0000

network_body._body_endoder.seq_layers.0.weight f4 [64, 42]
-0.12035655 0.07421899 0.16102086 0.3317836 -0.07465771 -0.10805789 0.14174505 0.0022895674
0.037789468 0.27265507 0.3285397 -0.13248758 -0.13475892 -0.02636165 0.25177044 0.0070971823
0.030687721 -0.017162926 0.07326843 0.15730225 0.071286336 -0.15043974 0.013996267 0.0027693273
-0.05966597 -0.026765209 0.12839451 0.04104083 0.2209211 0.17809951 -0.29646614 -0.019631669
0.25155535 -0.055083103 -0.5399564 -0.06677039 -0.074676596 -0.015855083 -0.15090065 -0.12144673
-0.14439407 0.023563322 0.014720026 -0.22671412 0.01517263 0.087085 0.18619221 -0.1435411
-0.115185425 0.010091314 0.4431548 0.27499756 0.24297573 -0.06672973 0.15985885 -0.4360903
-0.32034484 0.071524814 0.23661786 -0.01999741 -0.17851277 0.23623647 -0.00084366597 -0.22222976
-0.1542059 0.20097712 0.21917312 0.04195081 -0.068645515 0.10694043 0.109403215 0.052922852
0.1338802 0.0044184974 -0.014889574 -0.18609773 0.19934961 -0.008279043 -0.12612091 -0.0654422
-0.14880182 -0.2349427 -0.004091834 0.10100336 -0.03171448 -0.07444209 -0.042654023 0.040633786
0.16650641 0.16347736 0.09415001 -0.089560986 -0.25021836 0.1997863 -0.06512965 0.3756872
0.11541119 -0.19807653 0.25456667 0.14084017 0.10202416 0.01258187 -0.46454278 -0.13868515
-0.13261037 0.039747026 0.27346596 -0.027254086 -0.14034872 -0.060848538 0.20520666 0.0084587885
-0.07669881 0.06578978 0.17583986 0.023531528 -0.11352105 0.36703923 -0.18659823 -0.077430435
0.23580936 0.100730255 -0.13424756 0.25542215 0.10178275 0.115786135 -0.1340345 0.07171355
0.06993724 -0.1371743 0.30241504 0.2306409 -0.2814294 0.010956503 -0.023726603 0.118249886
0.1164788 0.22190969 -0.1773237 -0.16216336 -0.056919485 -0.1926438 -0.053944983 -0.13278712
-0.14144707 0.046779092 0.36090815 0.08492271 0.085746095 -0.2288132 -0.06603394 -0.09138102
0.079667725 -0.17360401 0.038850073 0.16066706 -0.14870097 -0.32623678 -0.048919797 -0.074034356
0.009381672 0.028244969 -0.22591363 0.41663522 -0.11138097 0.25316685 -0.13991381 0.35308748
0.38644907 -0.17491184 0.04908526 0.007122366 0.24326572 0.20051408 0.048493586 0.12244407
0.00036266726 0.10969884 0.27501312 0.10779096 -0.14607275 -0.04600776 -0.19810973 0.025702419
0.04894719 0.020081831 0.19689515 0.10129754 -0.30218154 -0.34430698 0.14297776 -0.12519267
-0.096906275 0.042704858 -0.16160798 0.38621175 -0.0033999137 -0.0930429 -0.011528227 0.35758242
-0.14511931 -0.030797549 0.100019306 -0.11542069 -0.28890058 -0.10290507 -0.09288253 0.058514368
-0.29895863 -0.21834429 -0.025468118 -0.3862441 0.07946328 0.2600516 0.04659182 0.16797337
-0.52156943 -0.073280476 0.07856081 0.16598336 -0.034890052 0.05153802 -0.116336495 0.3281647
0.16237678 0.03327839 -0.21461806 0.19679543 0.09091506 -0.19495162 -0.028554378 -0.04802739
0.22912797 -0.051331263 0.19274274 -0.0918818 -0.19087043 -0.020603783 -0.0024614206 -0.083279245
0.06181956 0.23315632 -0.107240446 0.22414088 -0.042998716 0.35983884 -0.08865817 -0.04655632
0.10464761 -0.06033148 0.07932242 0.2066325 -0.0015895914 -0.10144682 -0.31698665 0.10513028
00000000: 7f7d f6bd 2000 983d a7e2 243e 8adf a93e
00000010: 24e6 98bd 744d ddbd 9d25 113e 910c 163b
00000020: 21c9 1a3d 7299 8b3e 5b36 a83e d3aa 07be
00000030: 3efe 09be 63f4 d7bc 0ee8 803e 7b8f e83b
00000040: d164 fb3c 4499 8cbc c20d 963d d713 213e
00000050: 92fe 913d e00c 1abe 9950 653c 9a7d 353b
00000060: 4e64 74bd b642 dbbc da79 033e 6e1a 283d
00000070: 2439 623e b85f 363e 69ca 97be 98d2 a0bc
00000080: ddcb 803e d29e 61bd 953a 0abf eabe 88bd
00000090: 0bf0 98bd 85e2 81bc b385 1abe 10b9 f8bd
000000a0: 0adc 13be de07 c13c 442c 713c bf27 68be
000000b0: 9f96 783c 9f59 b23d 2ca9 3e3e 70fc 12be
000000c0: 56e6 ebbd 0a56 253c 30e5 e23e 7bcc 8c3e
000000d0: a1ce 783e 99a9 88bd 0ab2 233e 3a47 dfbe
000000e0: 3d04 a4be 9a7b 923d f44b 723e 9cd1 a3bc
000000f0: 0dcc 36be f9e7 713e 7729 5dba 3390 63be
00000100: 27e8 1dbe f2cc 4d3e eb6e 603e 9dd4 2b3d
00000110: 0596 8cbd 9603 db3d cb0e e03d a2c5 583d
00000120: e417 093e 0bc9 903b 66f3 73bc 6790 3ebe
00000130: 4e22 4c3e d3a4 07bc d725 01be 8f06 86bd
00000140: 815f 18be d294 70be cb14 86bb d9da ce3d
00000150: 0be7 01bd 1875 98bd fcb5 2ebd 9d6f 263d
00000160: a880 2a3e 9c66 273e b8d1 c03d c06b b7bd
00000170: 9f1c 80be c894 4c3e b262 85bd 135a c03e
00000180: b45c ec3d 93d4 4abe 9056 823e 6838 103e
00000190: 0bf2 d03d 3024 4e3c 8dd8 edbe 7b03 0ebe
000001a0: 03cb 07be c7cd 223d bb03 8c3e f643 dfbc
000001b0: 93b7 0fbe 513c 79bd b221 523e bb96 0a3c
000001c0: 4414 9dbd cbbc 863d 5d0f 343e 31c5 c03c
000001d0: b97d e8bd 91ec bb3e 9b13 3fbe d993 9ebd
000001e0: 0278 713e aa4b ce3d 3178 09be b1c6 823e
000001f0: 7973 d03d 4821 ed3d 5740 09be 8ede 923d
00000200: 413b 8f3d 6b77 0cbe 25d6 9a3e 212d 6c3e
00000210: 8417 90be e882 333c 4b5e c2bc ff2c f23d
00000220: 708c ee3d 4b3c 633e 5894 35be 270e 26be
00000230: 6824 69bd 6b44 45be 6af5 5cbd 59f9 07be
00000240: 80d7 10be 6f9b 3f3d f4c8 b83e f5eb ad3d
00000250: a69b af3d 024e 6abe cd3c 87bd f925 bbbd
00000260: d528 a33d 40c5 31be 4121 1f3d e885 243e
00000270: 1145 18be 8208 a7be 2060 48bd 539f 97bd
00000280: 96b5 193c fe61 e73c e755 67be 3651 d53e
00000290: b51b e4bd 169f 813e 9145 0fbe e2c7 b43e
000002a0: a7dc c53e 171c 33be a00d 493d bd62 e93b
000002b0: a61a 793e 9053 4d3e 36a1 463d f5c3 fa3d
000002c0: 6024 be39 c9a9 e03d 85ce 8c3e 82c1 dc3d
000002d0: 1894 15be a272 3cbd 47dd 4abe e18d d23c
000002e0: d97c 483d a782 a43c e29e 493e 1675 cf3d
000002f0: 8ab7 9abe 0149 b0be c368 123e 8232 00be
00000300: cc76 c6bd 4aeb 2e3d 907c 25be 8cbd c53e
00000310: 16d1 5ebb 478d bebd e3e0 3cbc 0b15 b73e
00000320: 289a 14be 244b fcbc ecd6 cc3d af61 ecbd
00000330: c7ea 93be e5bf d2bd 3239 bebd c3ac 6f3d
00000340: 1b11 99be a595 5fbe 84a2 d0bc c9c1 c5be
00000350: a5bd a23d 7c25 853e 10d7 3e3d 3601 2c3e
00000360: 9385 05bf 1314 96bd 7de4 a03d 8bf7 293e
00000370: dfe8 0ebd 8819 533d d441 eebd 3405 a83e
00000380: 1946 263e ec4e 083d d6c4 5bbe be84 493e
00000390: ad31 ba3d 66a1 47be dfea e9bc 5eb8 44bd
000003a0: 86a0 6a3e bb40 52bd 5a5e 453e 862c bcbd
000003b0: 8a73 43be 44c9 a8bc c94f 21bb 4f8e aabd
000003c0: 8236 7d3d 88c0 6e3e e1a0 dbbd 3085 653e
000003d0: 6c1f 30bd cc3c b83e 6a92 b5bd d7b1 3ebd
000003e0: 7c51 d63d 241e 77bd cb73 a23d 7897 533e
000003f0: d659 d0ba 5ac3 cfbd 134c a2be 8b4e d73d

network_body._body_endoder.seq_layers.0.bias f4 [64]
0.042000193 -0.09367074 -0.12350736 -0.111172035 -0.037848778 0.000972074 -0.08036686 -0.063000835
-0.041991152 -0.2142743 -0.089756295 -0.07154706 -0.18596129 -0.10995751 -0.024775129 0.067443386
0.05405833 0.06816438 -0.08994101 -0.017663848 -0.13632067 -0.10510592 -0.055047505 -0.16715918
-0.053065274 0.11245167 -0.14881861 -0.1492086 -0.016933717 -0.09781231 -0.06136305 0.10214267
0.0739751 -0.13331935 -0.05942408 -0.010458219 -0.054935083 0.01434693 0.04074544 -0.093478605
-0.06900884 -0.16205513 -0.08801553 -0.11132253 -0.007810942 -0.038472436 0.0057903896 -0.056557316
-0.15509269 -0.22702967 -0.107406296 -0.06589512 -0.084069826 -0.057580955 -0.026403477 -0.092622414
0.05023982 -0.15865813 -0.06586704 0.11657232 -0.049413536 -0.0546126 -0.08822057 -0.0492776
00000000: 6508 2c3d 72d6 bfbd 6df1 fcbd 2aae e3bd
00000010: 5207 1bbd c8d2 7e3a 6197 a4bd 9506 81bd
00000020: eafe 2bbd b96a 5bbe 26d2 b7bd 4487 92bd
00000030: a36c 3ebe 6731 e1bd 36f5 cabc c21f 8a3d
00000040: 446c 5d3d c499 8b3d fe32 b8bd c6b3 90bc
00000050: a597 0bbe c641 d7bd 7e79 61bd c72b 2bbe
00000060: f95a 59bd 104d e63d e863 18be 24ca 18be
00000070: 94b8 8abc d251 c8bd d257 7bbd 2d30 d13d
00000080: 4280 973d de84 08be aa66 73bd f358 2bbc
00000090: 9c03 61bd 630f 6b3c b1e4 263d b671 bfbd
000000a0: 8254 8dbd c8f1 25be 7c41 b4bd 11fd e3bd
000000b0: eef2 ffbb 4695 1dbd 4fbd bd3b a5a8 67bd
000000c0: 9ed0 1ebe 777a 68be d5f7 dbbd 05f4 86bd
000000d0: cd2c acbd 02da 6bbd 1b4c d8bc d2b0 bdbd
000000e0: 45c8 4d3d 4777 22be 4ce5 86bd 78bd ee3d
000000f0: d965 4abd 76b1 5fbd fcac b4bd 4fd7 49bd

network_body._body_endoder.seq_layers.2.weight f4 [64, 64]
0.08466606 -0.014819983 -0.0553119 -0.09055759 0.043245565 -0.07672286 0.12946565 -0.01932504
0.07509609 0.0830741 0.1043861 0.025303949 0.049022686 -0.096583046 -0.037610758 -0.11392411
0.0096457815 0.009994288 -0.02170704 -0.020232908 -0.029339174 0.05155681 -0.12112619 -0.035740163
-0.09302232 0.103808574 0.08851332 -0.11622649 0.044455446 0.11439753 0.05170291 0.004916574
-0.21309562 -0.05507134 -0.026897492 0.016097682 0.10951246 0.04943702 -0.027217735 -0.081558324
-0.10515892 -0.070880905 0.015712678 -0.056666642 -0.03196746 0.03829774 -0.08403356 -0.21272951
0.082773745 -0.046912156 -0.12261694 0.035240415 -0.1312193 0.18573086 0.12505792 0.119981155
0.04143945 -0.056733098 0.04860716 -0.056317553 0.067441665 0.07068167 0.15401341 -0.15997353
-0.30079597 0.09836893 -0.1274046 -0.0354504 0.069237344 -0.06289229 -0.08308292 -0.13875584
0.19101049 0.107899725 -0.01641374 0.15303573 0.1511364 0.09206025 0.12812056 -0.09726486
0.11480497 -0.058117636 -0.038496748 -0.038175266 -0.17420083 0.07116337 0.19077583 -0.056314677
-0.10195286 -0.19344336 0.07872038 -0.06904495 0.06600253 0.04953588 -0.06294689 -0.15172544
-0.19745553 -0.26023138 -0.12993753 0.03122735 -0.093677506 0.14727515 -0.2447762 -0.07492374
0.004439181 0.036329217 -0.01808279 -0.02427169 0.036136426 0.1787216 0.055033423 0.28934273
-0.036622114 -0.1309236 -0.0947254 0.072630316 0.14107968 -0.081347406 -0.368818 -0.062429752
0.10573643 -0.12152498 0.13886185 0.078827 0.06737665 -0.029054739 -0.0034966609 -0.068259776
-0.1795678 -0.15264842 -0.22281995 0.12625955 -0.10524179 -0.11080381 -0.06622003 0.36906365
-0.39430758 -0.24051788 0.06408651 0.12114166 -0.03245668 -0.35015443 -0.22208068 -0.15386559
0.21114783 -0.18682277 0.19343384 0.10010959 -0.4115303 -0.1771656 0.071770556 -0.12331081
-0.51589 -0.18050903 0.07654576 -0.04410684 -0.14720532 0.0233066 -0.46473774 0.07503843
0.20060526 0.023454295 -0.09141011 0.076065786 0.14679846 -0.21043918 -0.16632155 -0.2301237
0.23164369 -0.08134413 -0.029030373 -0.09744268 0.058917873 -0.1910891 -0.37165377 -0.42920047
-0.034338105 -0.124798335 -0.35183138 0.042030096 -0.1566643 0.14013423 -0.536627 -0.00022753073
-0.34739307 0.041532636 0.32561967 -0.20231478 -0.20566504 -0.010382615 -0.3980477 -0.2758425
-0.11959869 -0.16432358 -0.16644916 -0.021360198 -0.067435086 -0.033432323 0.17582133 0.05488021
-0.08865752 -0.113386415 0.22742994 0.09691664 -0.15145937 0.26789698 -0.37060246 -0.016224695
0.14184804 -0.20159972 -0.18478355 0.08450164 -0.0016521554 -0.08243792 0.15207273 -0.35052377
-0.24505942 -0.1763633 0.3266078 0.067612454 -0.053268947 -0.24647994 -0.14033398 -0.10811074
0.0058965837 -0.11635354 0.1019978 0.016195957 -0.25132102 0.02815765 0.19995111 0.123864524
0.038851656 0.20251891 -0.077568084 -0.14978889 -0.20175198 -0.110676944 0.199669 -0.040572833
0.020072317 0.03261581 -0.06424865 -0.09131129 -0.2544543 0.020809509 -0.26405472 0.036893897
0.06289899 0.009912835 0.07642875 -0.13089742 0.045875262 -0.052441195 -0.2111513 0.047700513
00000000: 6665 ad3d 84cf 72bc bb8e 62bd 4276 b9bd
00000010: 4322 313d e020 9dbd a592 043e 8c4f 9ebc
00000020: fbcb 993d c122 aa3d 61c8 d53d 3a4a cf3c
00000030: 03cc 483d 55cd c5bd bd0d 1abd 0b51 e9bd
00000040: 5709 1e3c 15bf 233c f6d2 b1bc 7cbf a5bc
00000050: b558 f0bc 3c2d 533d 0211 f8bd 4764 12bd
00000060: 7c82 bebd 9799 d43d 7946 b53d 2708 eebd
00000070: ea16 363d 4149 ea3d 6ec6 533d 361b a13b
00000080: bd35 5abe 7c92 61bd 2158 dcbc 49df 833c
00000090: 1248 e03d 797e 4a3d baf7 debc 0d08 a7bd
000000a0: 8f5d d7bd 022a 91bd e0b7 803c 481b 68bd
000000b0: 50f0 02bd 17de 1c3d c919 acbd c4d5 59be
000000c0: 4885 a93d f626 40bd 971e fbbd 4158 103d
000000d0: 5a5e 06be 3b30 3e3e 2f0f 003e aeb8 f53d
000000e0: 6abc 293d f760 68bd 4d18 473d 3cad 66bd
000000f0: db1e 8a3d 8dc1 903d b1b5 1d3e 1ad0 23be
00000100: ee01 9abe a675 c93d 5a76 02be 7034 11bd
00000110: 4fcc 8d3d accd 80bd 6127 aabd 0316 0ebe
00000120: 4198 433e 88fa dc3d 1c76 86bc 66b5 1c3e
00000130: 80c3 1a3e 168a bc3d 0932 033e cd32 c7bd
00000140: de1e eb3d c20c 6ebd c4ae 1dbd ab5d 1cbd
00000150: b461 32be 1abe 913d bd5a 433e 38aa 66bd
00000160: a9cc d0bd 0416 46be 2738 a13d 7067 8dbd
00000170: 562c 873d 23e6 4a3d 4dea 80bd ea5d 1bbe
00000180: c831 4abe 0c3d 85be 580e 05be 80d0 ff3c
00000190: fed9 bfbd 4ccf 163e 9da6 7abe 9e71 99bd
000001a0: 8d76 913b f2cd 143d 5c22 94bc 6cd5 c6bc
000001b0: ca03 143d cc02 373e ba6a 613d bb24 943e
000001c0: 1201 16bd d610 06be 64ff c1bd 34bf 943d
000001d0: 3177 103e 7899 a6bd b7d5 bcbe 57b6 7fbd
000001e0: 578c d83d 17e2 f8bd cd31 0e3e 0d70 a13d
000001f0: c5fc 893d 3404 eebc 3c28 65bb c8cb 8bbd
00000200: 9fe0 37be de4f 1cbe ea2a 64be 2f4a 013e
00000210: 0289 d7bd 1ced e2bd 5e9e 87bd e9f5 bc3e
00000220: afe2 c9be 524a 76be ca3f 833d 1e19 f83d
00000230: 4cf1 04bd 7147 b3be 1e69 63be f18e 1dbe
00000240: 2337 583e 784e 3fbe 8513 463e 4206 cd3d
00000250: 19b4 d2be e66a 35be 71fc 923d 618a fcbd
00000260: 5e11 04bf 5cd7 38be 06c4 9c3d 60a9 34bd
00000270: febc 16be 7ced be3c 1bf2 edbe c0ad 993d
00000280: 776b 4d3e 3923 c03c 3935 bbbd 61c8 9b3d
00000290: 5652 163e 5e7d 57be 3250 2abe 8ca5 6bbe
000002a0: 0134 6d3e c097 a6bd 1bd1 edbc 0790 c7bd
000002b0: de53 713d dcac 43be 6749 bebe 2ac0 dbbe
000002c0: 1da6 0cbd 4596 ffbd 3e23 b4be c027 2c3d
000002d0: 9b6c 20be 597f 0f3e 6360 09bf 5195 6eb9
000002e0: 81dd b1be 201e 2a3d 9fb7 a63e 9b2b 4fbe
000002f0: db99 52be d81b 2abc e8cc cbbe 3a3b 8dbe
00000300: 28f0 f4bd 7144 28be a671 2abe 95fb aebc
00000310: 681b 8abd 55f0 08bd 820a 343e 12ca 603d
00000320: 1392 b5bd 2337 e8bd 65e3 683e 3b7c c63d
00000330: 2a18 1bbe cb29 893e 9bbf bdbe a7e9 84bc
00000340: 9d40 113e 2870 4ebe e637 3dbe 320f ad3d
00000350: 238d d8ba 36d5 a8bd f4b8 1b3e da77 b3be
00000360: dbf0 7abe 9598 34be 2339 a73e 6678 8a3d
00000370: 8a30 5abd 3d65 7cbe b6b3 0fbe 2a69 ddbd
00000380: 2138 c13b c44a eebd 39e4 d03d 62ad 843c
00000390: 26ad 80be dfaa e63c fcbf 4c3e afac fd3d
000003a0: ea22 1f3d 1e61 4f3e 04dc 9ebd 4262 19be
000003b0: 1298 4ebe 98aa e2bd 0876 4c3e b32f 26bd
000003c0: b36e a43c 2898 053d cc94 83bd 6a01 bbbd
000003d0: d647 82be b478 aa3c 2e32 87be 0e1e 173d
000003e0: 30d1 803d 7269 223c ad86 9c3d f909 06be
000003f0: b3e7 3b3d 94cc 56bd 0c38 58be 9d61 433d

network_body._body_endoder.seq_layers.2.bias f4 [64]
0.0059009604 -0.10472467 -0.037429556 -0.053117562 -0.11694297 -0.21347563 -0.13235925 -0.029349608
-0.15054145 -0.080645576 -0.13327609 -0.021938803 -0.02114034 -0.15093184 -0.057013147 -0.098664895
-0.118950814 -0.015141606 -0.026625127 -0.17506221 -0.03590595 0.10882526 -0.10951934 -0.02170044
-0.03252056 -0.06804845 -0.07752186 -0.13518268 -0.0027817013 -0.16107851 0.06874589 -0.08898978
0.0066893934 0.0068546575 -0.098935194 -0.04924284 -0.08695 0.016815268 -0.018891782 -0.18292627
-0.03062041 -0.020609202 -0.07718653 -0.19488813 -0.21916817 0.035631694 -0.17925029 -0.037627764
-0.023216408 -0.077718 -0.075727254 -0.15037972 -0.02513393 -0.025072144 -0.057667207 0.023323962
-0.15650256 0.0591222 -0.00053896336 -0.054254226 -0.06326695 -0.10585636 -0.11428725 -0.096190006
00000000: d85c c13b e379 d6bd bc4f 19bd cd91 59bd
00000010: cc7f efbd 5b99 5abe 2f89 07be 976e f0bc
00000020: 8a27 1abe 8229 a5bd 8779 08be 01b9 b3bc
00000030: 822e adbc e08d 1abe 9e86 69bd d210 cabd
00000040: 7c9c f3bd 8014 78bc f01c dabc 8243 33be
00000050: 1e12 13bd c7df de3d ad4b e0bd 1fc5 b1bc
00000060: 4734 05bd fc5c 8bbd c8c3 9ebd 546d 0abe
00000070: 344d 36bb c4f1 24be a5ca 8c3d 4640 b6bd
00000080: b332 db3b 099d e03b 899e cabd dcb2 49bd
00000090: d712 b2bd 2cc0 893c f0c2 9abc 0651 3bbe
000000a0: a7d7 fabc a1d4 a8bc f913 9ebd c190 47be
000000b0: 9f6d 60be 8af2 113d 638d 37be 921f 1abd
000000c0: 5630 bebc 9d2a 9fbd e416 9bbd 24fd 19be
000000d0: ace5 cdbc 1964 cdbc 7334 6cbd e511 bf3c
000000e0: 3542 20be 1f2a 723d 3849 0dba ae39 5ebd
000000f0: 1a92 81bd 38cb d8bd 6f0f eabd 44ff c4bd

action_model._discrete_distribution.branches.0.weight f4 [2, 64]
0.0019873776 0.014839284 -0.22690962 0.12793434 0.07257258 -0.005267434 -0.006551272 0.052614074
0.00679981 -0.021658948 0.0048341886 -0.0031854683 -0.0088621825 0.029400213 0.105450906 -0.02813133
-0.0976345 0.20463489 0.056135632 -0.11816396 0.067382455 0.032569733 -0.0097530745 0.114376314
0.08499684 0.00794334 0.029793302 -0.06412854 0.0058088354 0.0052281367 0.18079172 -0.04751703
0.11680411 -0.053093817 -0.070672825 0.07693709 0.030863283 0.059313245 0.1377999 0.004866379
0.04204425 0.07297602 -0.11970883 -0.107172795 -0.12321658 0.1673069 -0.0745289 0.017924858
-0.0518835 -0.13418797 0.08675733 -0.10152901 0.07073606 -0.036209617 -0.08681594 0.09409885
0.0075081587 0.13310418 -0.0048414995 0.044694353 0.08159292 -0.094073296 -0.043741286 0.015834048
0.01588783 -0.006860392 0.21494217 -0.10776483 -0.081788674 -0.04322667 0.007724789 -0.06283818
0.023650408 0.024052823 -0.0032388626 0.0175423 0.011366883 -0.010609538 -0.09330725 0.022954056
0.07826406 -0.20202173 -0.042805422 0.12788545 -0.10715532 -0.016467879 0.019412518 -0.11820353
-0.077502705 -0.008003555 -0.038819414 0.07963504 0.0017852961 -0.015565027 -0.17469773 0.026864694
-0.12801786 0.026780903 0.07394252 -0.085892014 -0.024941834 -0.05776513 -0.13204856 -0.033855166
-0.07712601 -0.08602127 0.12744911 0.10781599 0.14705111 -0.15216129 0.08207314 -0.011280107
0.04193307 0.12270695 -0.069066286 0.103235945 -0.055150807 0.03539736 0.066744655 -0.1300426
0.019530686 -0.115848295 0.004190248 -0.020138288 -0.07028674 0.08835948 0.020984095 -0.0037800455
00000000: aa3e 023b 7820 733c ff5a 68be 3801 033e
00000010: efa0 943d 709a acbb 0dac d6bb db81 573d
00000020: f1d0 de3b 1b6e b1bc 1d68 9e3b 4ac3 50bb
00000030: b032 11bc b7d8 f03c a5f6 d73d ad73 e6bc
00000040: 99f4 c7bd cf8b 513e 7aee 653d f2ff f1bd
00000050: d0ff 893d d767 053d 5ccb 1fbc 213e ea3d
00000060: d312 ae3d c824 023c 1511 f43c d355 83bd
00000070: 0b58 be3b ca50 ab3b 7721 393e 38a1 42bd
00000080: fe36 ef3d e778 59bd eabc 90bd 3191 9d3d
00000090: ffd4 fc3c 72f2 723d 6b1b 0d3e 2576 9f3b
000000a0: 9736 2c3d 7474 953d e729 f5bd 697d dbbd
000000b0: f958 fcbd 8052 2b3e 9ca2 98bd 27d7 923c
000000c0: cb83 54bd 9268 09be d4ad b13d 71ee cfbd
000000d0: 11de 903d 8950 14bd 8ecc b1bd e6b6 c03d
000000e0: 0007 f63b 764c 083e 71a5 9ebb 6d11 373d
000000f0: 301a a73d 80a9 c0bd 102a 33bd 68b6 813c
00000100: 3227 823c 24cd e0bb cd19 5c3e cfb3 dcbd
00000110: d280 a7bd 730e 31bd 3a20 fd3b 4eb1 80bd
00000120: 80be c13c 6d0a c53c 1943 54bb dfb4 8f3c
00000130: 2a3c 3a3c a1d3 2dbc df17 bfbd 250a bc3c
00000140: e848 a03d c9de 4ebe bd54 2fbd 67f4 023e
00000150: 4074 dbbd a5e7 86bc 0007 9f3c b114 f2bd
00000160: bdb9 9ebd 5821 03bc 1b01 1fbd b217 a33d
00000170: 9900 ea3a 7404 7fbc f6e3 32be 5913 dc3c
00000180: 1d17 03be a063 db3c 2d6f 973d 27e8 afbd
00000190: d152 ccbc 219b 6cbd bd37 07be b7ab 0abd
000001a0: 3ef4 9dbd eb2b b0bd 0582 023e a1ce dc3d
000001b0: 9194 163e 2bd0 1bbe f615 a83d 33d0 38bc
000001c0: 03c2 2b3d c84d fb3d a072 8dbd 5e6d d33d
000001d0: d0e5 61bd d2fc 103d 6cb1 883d e329 05be
000001e0: d1fe 9f3c df41 edbd 594e 893b 0df9 a4bc
000001f0: 7ff2 8fbd d1f5 b43d d6e6 ab3c a4ba 77bb

action_model._discrete_distribution.branches.0.bias f4 [2]
0.011784182 -0.011784276
00000000: 7112 413c d612 41bc

action_model._discrete_distribution.branches.1.weight f4 [2, 64]
-0.00911625 -0.031167325 0.07870889 0.026044391 0.081867486 -0.08157915 -0.015602912 -0.050220646
-0.086368516 -0.08644613 -0.043252636 0.030763417 -0.013622112 -0.08184425 -0.10812224 0.021523738
0.032141495 0.095844835 -0.015320804 -0.082409926 0.04164629 -0.0002051387 -0.029762864 0.027972614
0.052749492 0.007999474 -0.078303516 -0.120289095 -0.029041901 0.0024169916 0.0911914 -0.053664222
0.09185787 0.013131871 0.0937966 -0.0948126 -0.03990914 -0.04387681 -0.04217049 -0.09169242
0.005207803 -0.053495876 0.048155155 -0.047817428 -0.017878698 0.1351206 -0.1290341 -0.071337305
0.021812506 0.066602714 -0.07454677 -0.05404726 0.09147247 -0.05614401 -0.0003615978 0.09826706
-0.03530525 -0.04748217 0.044294566 -0.002582618 -0.0050084596 -0.04914345 -0.047354534 -0.018721206
0.019275682 0.02037216 -0.07089855 -0.04051216 -0.094289854 0.078712665 4.3888944e-05 0.05024823
0.11070491 0.09389883 0.05014893 -0.02465432 0.009864095 0.09640076 0.09589033 0.00079066877
-0.04836667 -0.1036085 0.0038003984 0.091644004 -0.03036305 0.027333653 0.023858607 -0.021658268
-0.06665997 -0.009954908 0.055780694 0.107870035 0.009022935 -0.010411315 -0.07290377 0.05400273
-0.087033756 -0.015742475 -0.08992083 0.09158914 0.057566315 0.06413157 0.026522534 0.112021096
-0.0005637907 0.03995295 -0.03307188 0.045190018 0.015266271 -0.13343585 0.115830824 0.0468467
-0.027169589 -0.05314696 0.0916524 0.051720355 -0.082857445 0.029533366 0.015390201 -0.11919946
0.04522381 0.03850028 -0.048856862 -0.016205747 0.02711578 0.050235547 0.058310036 0.02432389
00000000: 535c 15bc 9e52 ffbc 2032 a13d 0c5b d53c
00000010: 24aa a73d f812 a7bd 5ba3 7fbc 2ab4 4dbd
00000020: fae1 b0bd ab0a b1bd ad29 31bd 9003 fc3c
00000030: 472f 5fbc f59d a7bd 316f ddbd 8d52 b03c
00000040: cda6 033d 4c4a c43d 1c04 7bbc 89c6 a8bd
00000050: 4d95 2a3d 801a 57b9 40d1 f3bc d326 e53c
00000060: da0f 583d 3a10 033c 985d a0bd 215a f6bd
00000070: 48e9 edbc 6466 1e3b 8fc2 ba3d 04cf 5bbd
00000080: fb1f bc3d 0f27 573c 6f18 c03d 1c2d c2bd
00000090: c477 23bd 2cb8 33bd f7ba 2cbd 3cc9 bbbd
000000a0: 38a6 aa3b 7e1e 5bbd 573e 453d 35dc 43bd
000000b0: 5976 92bc 0e5d 0a3e 8421 04be 4b19 92bd
000000c0: 24b0 b23c 0167 883d faab 98bd a960 5dbd
000000d0: eb55 bb3d 43f7 65bd d694 bdb9 3e40 c93d
000000e0: 3d9c 10bd aa7c 42bd 386e 353d 2441 29bb
000000f0: 011e a4bb a44a 49bd d4f6 41bd 375d 99bc
00000100: 09e8 9d3c 84e3 a63c 4233 91bd 14f0 25bd
00000110: 0a1b c1bd 1b34 a13d 6515 3838 17d1 4d3d
00000120: 41b9 e23d 084e c03d f768 4d3d dbf7 c9bc
00000130: 039d 213c c36d c53d 2662 c43d e244 4f3a
00000140: 211c 46bd b130 d4bd 1b10 793b daaf bb3d
00000150: eebb f8bc d3ea df3c 2073 c33c ae6c b1bc
00000160: 0685 88bd e919 23bc 4c7a 643d f7ea dc3d
00000170: efd4 133c 3894 2abc 924e 95bd f731 5d3d
00000180: c13e b2bd 5df6 80bc 6a28 b8bd 1693 bb3d
00000190: a8ca 6b3d 6a57 833d c945 d93c 516b e53d
000001a0: 5acb 13ba b4a5 233d 6176 07bd 2b19 393d
000001b0: 621f 7a3c 68a3 08be b638 ed3d 53e2 3f3d
000001c0: c292 debc a0b0 59bd 41b4 bb3d b9d8 533d
000001d0: 2ab1 a9bd f5ef f13c 2e27 7c3c d91e f4bd
000001e0: 9a3c 393d 78b2 1d3d 221e 48bd eac1 84bc
000001f0: ea21 de3c cac3 4d3d 81d6 6e3d e542 c73c

action_model._discrete_distribution.branches.1.bias f4 [2]
0.1403518 -0.1403518
00000000: 62b8 0f3e 62b8 0fbe

action_model._discrete_distribution.branches.2.weight f4 [2, 64]
0.002719824 -1.9444306e-05 -0.024114745 -0.054432895 -0.05129224 -0.072908394 0.0112314345 0.031226065
-0.04890167 0.11244051 -0.099849135 0.0035846084 0.037967425 0.040967498 -0.0003068295 -0.011299035
-0.06311143 -0.036892995 0.02831499 -0.0029799198 0.016284926 0.011042519 -0.019962879 -0.09016625
-0.023142874 -0.00255919 0.09884405 -0.023776157 -0.0132558 -0.032671716 0.04189966 -0.013881099
0.006548961 -0.0033577248 -0.023023037 -0.010891315 0.011459105 0.011505429 -0.055592008 -0.04529667
-0.0075520445 -0.13666587 0.047132 -0.08000851 0.030513637 -0.08590988 -0.062416192 0.033157725
0.0060258717 0.035067435 -0.0336904 -0.023246333 -0.0021508841 0.017330492 -0.002761929 0.040462222
-0.014571446 0.0616679 0.046322826 -0.008351631 -0.038549136 0.07310614 -0.057658575 0.010977849
-0.0065417895 0.025034066 0.014825159 0.05522238 0.06122009 0.06470629 -0.014469573 -0.063091196
0.059602257 -0.1226813 0.08906956 0.005746119 -0.06471091 -0.036285568 0.0042719017 -0.009443496
0.05123172 0.053905286 -0.01419773 0.026347723 -0.009271645 -0.0057352004 0.00084906595 0.08562106
0.011828088 -0.025041902 -0.111226775 0.021794038 -0.0006246251 0.021779139 -0.037272632 -0.015204519
-0.0012150033 0.016875645 0.016146453 -0.006501424 -0.014718988 -0.0036437034 0.0399317 0.062975116
0.02388656 0.13398005 0.0009004188 0.062636554 -0.03478354 0.07437792 0.05485752 -0.041011386
0.03362844 -0.010764117 0.036470093 -0.008041365 -0.012839684 -0.017615987 -0.006245487 -0.038115982
0.038326535 -0.0792612 -0.06129125 0.010620072 0.030272758 -0.04363792 0.04739543 -0.017857485
00000000: 133f 323b 541c a3b7 498c c5bc 07f5 5ebd
00000010: d017 52bd ff50 95bd 0d04 383c cecd ff3c
00000020: 1e4d 48bd 3647 e63d b47d ccbd c0eb 6a3b
00000030: bb83 1b3d 89cd 273d f5dd a0b9 961f 39bc
00000040: 9140 81bd 1c1d 17bd d7f4 e73c c24a 43bb
00000050: f767 853c aeeb 343c 3189 a3bc 15a9 b8bd
00000060: 2096 bdbc 15b8 27bb c06e ca3d 37c6 c2bc
00000070: db2e 59bc c7d2 05bd fa9e 2b3d 8d6d 63bc
00000080: ab98 d63b 460d 5cbb cf9a bcbc 7c71 32bc
00000090: f8be 3b3c 4481 3c3c 72b4 63bd 0089 39bd
000000a0: 2477 f7bb 23f2 0bbe 7c0d 413d 80db a3bd
000000b0: bcf7 f93c 85f1 afbd 1fa8 7fbd 65d0 073d
000000c0: ad74 c53b dfa2 0f3d f2fe 09bd 186f bebc
000000d0: d9f5 0cbb adf8 8d3c 7b01 35bb b7bb 253d
000000e0: 13bd 6ebc 7b97 7c3d 01bd 3d3d 48d5 08bc
000000f0: b3e5 1dbd acb8 953d 662b 6cbd 70dc 333c
00000100: 825c d6bb 3e14 cd3c 39e5 723c dd30 623d
00000110: ebc1 7a3d bb84 843d ca11 6dbc f535 81bd
00000120: 7f21 743d 5540 fbbd 1a6a b63d f149 bc3b
00000130: 2787 84bd 2da0 14bd 4ffb 8b3b e5b8 1abc
00000140: 5ad8 513d cacb 5c3d 999d 68bc 2ed7 d73c
00000150: 19e8 17bc 59ee bbbb da93 5e3a 185a af3d
00000160: 99ca 413c ad24 cdbc ddca e3bd 6989 b23c
00000170: e2bd 23ba 2a6a b23c 30ab 18bd 601c 79bc
00000180: bf40 9fba cb3e 8a3c 9145 843c e609 d5bb
00000190: e927 71bc 33cb 6ebb 6c8f 233d 19f9 803d
000001a0: bfad c33c 1132 093e 150a 6c3a 9847 803d
000001b0: 2f79 0ebd 7353 983d 47b2 603d 8efb 27bd
000001c0: fabd 093d fb5b 30bc aa61 153d eebf 03bc
000001d0: 8a5d 52bc 674f 90bc f1a6 ccbb 811f 1cbd
000001e0: 49fc 1c3d b253 a2bd 890c 7bbd cfff 2d3c
000001f0: 93fe f73c adbd 32bd b621 423d dc49 92bc

action_model._discrete_distribution.branches.2.bias f4 [2]
0.08050865 -0.08050856
00000000: b8e1 a43d ace1 a4bd

onnx::Div_94 f4 [35]
0.0028469125 0.3146722 0.0028469125 0.35233763 0.20092872 0.0028469125 0.499834 0.0028469125
0.49791104 0.25646552 0.0028469125 0.4975618 0.0028469125 0.49985343 0.25033695 0.0028469125
0.43245664 0.0028469125 0.41194567 0.27554446 0.0028469125 0.38774392 0.0028469125 0.3456104
0.25035018 0.0028469125 0.41382238 0.0028469125 0.39010757 0.27941105 0.0028469125 0.3667064
0.0028469125 0.3178186 0.24545236
00000000: 4493 3a3b b71c a13e 4493 3a3b 9965 b43e
00000010: 42c0 4d3e 4493 3a3b 3eea ff3e 4493 3a3b
00000020: 32ee fe3e 734f 833e 4493 3a3b 6cc0 fe3e
00000030: 4493 3a3b caec ff3e 2a2c 803e 4493 3a3b
00000040: f56a dd3e 4493 3a3b 8bea d23e 2a14 8d3e
00000050: 4493 3a3b 5f86 c63e 4493 3a3b d9f3 b03e
00000060: e62d 803e 4493 3a3b 87e0 d33e 4493 3a3b
00000070: 2ebc c73e f70e 8f3e 4493 3a3b f1c0 bb3e
00000080: 4493 3a3b 1fb9 a23e dd57 7b3e

onnx::Div_97 f4 [7]
49.226707 0.0028469125 0.0028469125 0.0028469125 0.0028469125 0.0028469125 0.0028469125
00000000: 26e8 4442 4493 3a3b 4493 3a3b 4493 3a3b
00000010: 4493 3a3b 4493 3a3b 4493 3a3b
