Assets/GG/Euna-Subway/ML-agent/NonComp/OnPlatform.onnx (onnx, 59387 bytes, 14 tensors)

discrete_act_size_vector f4 [1, 3]
2.0 2.0 2.0
00000000: 0000 0040 0000 0040 0000 0040

network_body.observation_encoder.processors.0.normalizer.running_mean f4 [21]
0.0 0.9998973 0.9998973 0.0 0.9998973 0.9998973 0.0 0.9998973
0.9998973 0.0 0.9998973 0.9998973 0.0 0.9998973 0.9998973 0.036934443
0.96296245 0.99329627 0.00071816955 0.9991794 0.9997148
00000000: 0000 0000 45f9 7f3f 45f9 7f3f 0000 0000
00000010: 45f9 7f3f 45f9 7f3f 0000 0000 45f9 7f3f
00000020: 45f9 7f3f 0000 0000 45f9 7f3f 45f9 7f3f
00000030: 0000 0000 45f9 7f3f 45f9 7f3f 9248 173d
00000040: b584 763f aa48 7e3f 8b43 3c3a 39ca 7f3f
00000050: 4fed 7f3f

network_body.observation_encoder.processors.1.normalizer.running_mean f4 [49]
0.41048533 0.4746075 0.0 0.0 0.11059815 0.0042064223 0.21830067 0.3686261
0.5165692 0.0 0.0 0.10126194 0.013440034 0.22212794 0.68297946 0.23822704
0.0 0.0 0.07817788 0.00051297864 0.16377714 0.68626237 0.253001 0.0
0.0 0.05129783 0.009336207 0.17783225 0.83512884 0.11275267 0.0 0.0
0.05201603 0.0 0.13086769 0.86570203 0.10536578 0.0 0.0 0.028213818
0.0006155743 0.13493569 0.9093058 0.04739917 0.0 0.0 0.043192778 0.0
0.1255538
00000000: 222b d23e c1ff f23e 0000 0000 0000 0000
00000010: 4881 e23d 07d6 893b 368a 5f3e 8fbc bc3e
00000020: e13d 043f 0000 0000 0000 0000 6c62 cf3d
00000030: 9733 5c3c 8275 633e bed7 2e3f caf1 733e
00000040: 0000 0000 0000 0000 b91b a03d 6a79 063a
00000050: 32b5 273e e4ae 2f3f 5989 813e 0000 0000
00000060: 0000 0000 ac1d 523d e4f6 183c a819 363e
00000070: 01cb 553f dfea e63d 0000 0000 0000 0000
00000080: c30e 553d 0000 0000 2e02 063e a69e 5d3f
00000090: 04ca d73d 0000 0000 0000 0000 aa20 e73c
000000a0: 7e5e 213a 952c 0a3e 44c8 683f a225 423d
000000b0: 0000 0000 0000 0000 e9ea 303d 0000 0000
000000c0: 2d91 003e

network_body.observation_encoder.processors.2.normalizer.running_mean f4 [35]
0.00041038275 0.32184264 0.0 0.67764443 0.777634 0.00061557407 0.26520985 0.0
0.7340719 0.8192931 0.0 0.17851646 0.0 0.82138073 0.8678302 0.0010259566
0.21247566 0.0 0.78639567 0.8425889 0.0 0.07817787 0.0 0.92171955
0.9388371 0.0011285526 0.09346464 0.0 0.90530443 0.9240152 0.0002051914 0.022981422
0.0 0.9767106 0.9811909
00000000: a428 d739 8fc8 a43e 0000 0000 1b7a 2d3f
00000010: 0613 473f 7a5e 213a 96c9 873e 0000 0000
00000020: 23ec 3b3f 31bd 513f 0000 0000 05cd 363e
00000030: 0000 0000 0246 523f 1f2a 5e3f 6479 863a
00000040: 3893 593e 0000 0000 3a51 493f e8b3 573f
00000050: 0000 0000 b81b a03d 0000 0000 d0f5 6b3f
00000060: a157 703f f1eb 933a 646a bf3d 0000 0000
00000070: 08c2 673f 438c 6c3f a628 5739 8943 bc3c
00000080: 0000 0000 b509 7a3f 542f 7b3f

network_body._body_endoder.seq_layers.0.weight f4 [64, 106]
0.01691863 -0.036507994 -0.031844568 0.111110024 -0.087637134 0.014905318 -0.15286751 0.10333097
-0.07168383 0.09148062 -0.07476305 -0.055910792 -0.034266915 0.0075264373 -0.015147143 0.12681289
0.09103667 0.039639033 0.003196831 -0.12156491 0.1234733 -0.071715385 0.12701355 -0.059536655
-0.04196421 0.036887098 -0.07745527 -0.14171253 0.124609455 0.060517885 0.037193447 -0.025327312
0.18937054 -0.04580223 -0.05839091 -0.014141681 0.15292485 -0.04447684 -0.057085574 -0.009314821
0.041879192 -0.04999609 0.10337304 -0.027440496 0.058302145 0.034812283 -0.009240148 0.038508244
0.06273577 -0.19232386 0.0997022 0.03649013 0.012410081 0.09457793 0.18911178 -0.108557805
-0.0048005152 -0.289626 0.027182255 0.07542091 0.118912674 0.07431831 0.032289855 -0.0024815656
-0.04590372 -0.08046437 0.034741968 -0.059611104 0.13627763 0.04154899 -0.03990389 0.025115492
-0.13407476 -0.030159872 0.15707178 -0.15825503 -0.058442764 0.03437107 0.10327216 -0.121161394
0.042640887 -0.13001794 0.07341663 0.00090548274 -0.06143294 0.037807137 -0.054219875 0.00880281
-0.025045551 -0.040278766 -0.04974772 0.016287044 0.22023936 -0.13111748 0.18404827 0.036764026
0.03224324 -0.022255247 -0.044561442 0.08806841 0.0049702516 -0.1926488 0.031920113 -0.072641715
-0.17316037 0.0055095395 0.01891533 -0.04769914 0.058540184 0.080471195 0.043801636 -0.08430126
0.0040113237 0.11794723 0.10135057 -0.096015036 -0.13252977 0.18287997 -0.11507189 0.07872427
-0.07138253 -0.22296576 0.125353 0.01258318 -0.18825631 0.055203576 0.07415276 -0.14181417
-0.047436763 -0.04511094 -0.06635734 -0.058985863 -0.025534483 -0.0909464 -0.045139316 0.0047254995
0.0068850974 -0.04181461 -0.024108673 -0.04819396 0.030603861 -0.058784783 -0.05383166 -0.17995903
0.044206984 -0.06543926 -0.050903443 0.029109746 0.1021793 -0.00739052 0.14808597 0.08019441
0.12543024 -0.10680343 -0.09085144 0.08924814 -0.08793291 -0.09322737 -0.023549438 -0.030067315
0.19405787 -0.04887026 0.1429068 -0.06576237 -0.15420444 0.062085215 -0.077410646 -0.10204641
-0.10361036 0.021244531 -0.0609299 0.018363506 0.06796728 -0.012278685 -0.12317789 0.07694698
0.017974524 -0.022106417 -0.1244596 0.085062765 -0.055784766 -0.13770033 0.24181144 -0.06434227
0.046300724 0.049919177 0.11200205 0.11898151 -0.05877544 -0.031872902 0.12953939 -0.037651498
0.061098196 -0.009993884 0.035878822 -0.07427091 0.01872214 0.16726284 -0.08531013 0.04401021
0.02627907 0.112370476 -0.0065784 -0.12489574 0.16997802 0.22614798 -0.13034183 0.07056924
-0.05839253 0.037754763 0.06496894 0.17821543 -0.07760361 0.19917628 -0.0016826967 0.0733366
-0.16808882 0.12145339 0.15847318 0.04234049 0.016289502 -0.0768556 -0.010287424 -0.06116084
0.072679415 0.073945664 -0.027359955 0.17073013 0.0756063 0.10226682 -0.08489889 0.06366153
-0.025720058 -0.029333595 -0.07588874 0.14974439 -0.027650567 -0.05242267 0.115284 -0.0017282258
0.09907861 0.20196001 0.049119536 -0.07016992 0.11000553 -0.041657254 -0.07229692 -0.21948957
-0.03711679 0.14046472 -0.1340858 0.22425953 0.003401594 0.108445235 0.10411864 -0.15770105
00000000: f098 8a3c 6889 15bd 736f 02bd a78d e33d
00000010: 197b b3bd 6f35 743c 4d89 1cbe 309f d33d
00000020: f9ce 92bd 315a bb3d 5f1d 99bd b702 65bd
00000030: 775b 0cbd 55a0 f63b b92b 78bc 3ddb 013e
00000040: 6f71 ba3d 8a5c 223d ed81 513b 06f7 f8bd
00000050: 92df fc3d 84df 92bd d70f 023e b5dc 73bd
00000060: aae2 2bbd ed16 173d dea0 9ebd 171d 11be
00000070: 3e33 ff3d 9ae1 773d 2858 183d 397b cfbc
00000080: 5aea 413e 1e9b 3bbd 4f2b 6fbd 82b2 67bc
00000090: 5598 1c3e 592d 36bd 90d2 69bd 319d 18bc
000000a0: 8489 2b3d b3c8 4cbd 3fb5 d33d e4ca e0bc
000000b0: 3bce 6e3d 5397 0e3d fd63 17bc d2ba 1d3d
000000c0: 9d7b 803d 8cf0 44be ab30 cc3d ad76 153d
000000d0: a753 4b3c 13b2 c13d 85a6 413e 8e53 debd
000000e0: a44d 9dbb dc49 94be 52ad de3c 4776 9a3d
000000f0: 7d88 f33d 3334 983d 5e42 043d c3a1 22bb
00000100: 8a05 3cbd 81ca a4bd 984d 0e3d c62a 74bd
00000110: 5d8c 0b3e 462f 2a3d 4372 23bd 01bf cd3c
00000120: e54a 09be d611 f7bc 6dd7 203e 9b0d 22be
00000130: ae61 6fbd aec8 0c3d 5b80 d33d 7723 f8bd
00000140: 36a8 2e3d 6c23 05be 755b 963d eb5d 6d3a
00000150: 1ba1 7bbd a8db 1a3d a915 5ebd a939 103c
00000160: 542c cdbc 59fb 24bd 44c4 4bbd 686c 853c
00000170: 6d86 613e a943 06be 2677 3c3e e095 163d
00000180: 7d11 043d a350 b6bc 0f86 36bd 365d b43d
00000190: 7edd a23b ba45 45be aabe 023d 2ec5 94bd
000001a0: f450 31be 5e89 b43b 52f4 9a3c 2c60 43bd
000001b0: d5c7 6f3d 15ce a43d 5869 333d 24a6 acbd
000001c0: 6c71 833b 518e f13d e390 cf3d 88a3 c4bd
000001d0: e2b5 07be e344 3b3e d0aa ebbd 313a a13d
000001e0: 0131 92bd 2351 64be 895c 003e af29 4e3c
000001f0: 43c6 40be 251d 623d 67dd 973d bc37 11be
00000200: 0d4d 42bd 40c6 38bd 5be6 87bd 299b 71bd
00000210: b12d d1bc 1b42 babd 01e4 38bd 5dd8 9a3b
00000220: 629c e13b cc45 2bbd 8d7f c5bc 0867 45bd
00000230: f3b4 fa3c 50c8 70bd 967e 5cbd 2e47 38be
00000240: 6212 353d 0505 86bd 2180 50bd 9077 ee3c
00000250: 6143 d13d 2d2c f2bb d9a3 173e f83c a43d
00000260: c970 003e c2bb dabd 5210 babd bbc7 b63d
00000270: 2b16 b4bd feed bebd c0ea c0bc bb4f f6bc
00000280: 1bb7 463e 2f2c 48bd 2956 123e 6cae 86bd
00000290: c5e7 1dbe 114d 7e3d 7989 9ebd b5fd d0bd
000002a0: ab31 d4bd 0309 ae3c a191 79bd 106f 963c
000002b0: 6e32 8b3d 8a2c 49bc b144 fcbd 6196 9d3d
000002c0: 4f3f 933c 8418 b5bc ade4 febd 6335 ae3d
000002d0: 917e 64bd 5101 0dbe 6b9d 773e e1c5 83bd
000002e0: d4a5 3d3d 0d78 4c3d 5561 e53d 94ac f33d
000002f0: 84be 70bd 298d 02bd f9a5 043e 7538 1abd
00000300: 1a42 7a3d 63bd 23bc acf5 123d 591b 98bd
00000310: 2c5f 993c f346 2b3e 14b7 aebd 0d44 343d
00000320: 3447 d73c 7e22 e63d 9e8f d7bb 56c9 ffbd
00000330: b80e 2e3e 5693 673e 5478 05be 9b86 903d
00000340: 012d 6fbd bda4 1a3d 700e 853d 1b7e 363e
00000350: a4ee 9ebd def4 4b3e ef8d dcba 8031 963d
00000360: 7a1f 2cbe 8ebc f83d cb46 223e 396d 2d3d
00000370: 9071 853c 7866 9dbd 958c 28bc ca83 7abd
00000380: f2d8 943d d370 973d fc21 e0bc e1d3 2e3e
00000390: 7ad7 9a3d 4471 d13d 78df adbd fa60 823d
000003a0: dfb2 d2bc 024d f0bc 8e6b 9bbd 9856 193e
000003b0: 7183 e2bc 27b9 56bd 051a ec3d a385 e2ba
000003c0: bae9 ca3d 9bce 4e3e 9131 493d 3fb5 8fbd
000003d0: 944a e13d cca0 2abd 6810 94bd e0c1 60be
000003e0: c607 18bd fcd5 0f3e ca4d 09be 4aa4 653e
000003f0: 47ed 5e3b 8918 de3d 273c d53d 627c 21be

network_body._body_endoder.seq_layers.0.bias f4 [64]
0.0 0.0 0.0 0.0 0.0 0.0 0.0 0.0
0.0 0.0 0.0 0.0 0.0 0.0 0.0 0.0
0.0 0.0 0.0 0.0 0.0 0.0 0.0 0.0
0.0 0.0 0.0 0.0 0.0 0.0 0.0 0.0
0.0 0.0 0.0 0.0 0.0 0.0 0.0 0.0
0.0 0.0 0.0 0.0 0.0 0.0 0.0 0.0
0.0 0.0 0.0 0.0 0.0 0.0 0.0 0.0
0.0 0.0 0.0 0.0 0.0 0.0 0.0 0.0
00000000: 0000 0000 0000 0000 0000 0000 0000 0000
00000010: 0000 0000 0000 0000 0000 0000 0000 0000
00000020: 0000 0000 0000 0000 0000 0000 0000 0000
00000030: 0000 0000 0000 0000 0000 0000 0000 0000
00000040: 0000 0000 0000 0000 0000 0000 0000 0000
00000050: 0000 0000 0000 0000 0000 0000 0000 0000
00000060: 0000 0000 0000 0000 0000 0000 0000 0000
00000070: 0000 0000 0000 0000 0000 0000 0000 0000
00000080: 0000 0000 0000 0000 0000 0000 0000 0000
00000090: 0000 0000 0000 0000 0000 0000 0000 0000
000000a0: 0000 0000 0000 0000 0000 0000 0000 0000
000000b0: 0000 0000 0000 0000 0000 0000 0000 0000
000000c0: 0000 0000 0000 0000 0000 0000 0000 0000
000000d0: 0000 0000 0000 0000 0000 0000 0000 0000
000000e0: 0000 0000 0000 0000 0000 0000 0000 0000
000000f0: 0000 0000 0000 0000 0000 0000 0000 0000

network_body._body_endoder.seq_layers.2.weight f4 [64, 64]
-0.05816457 0.00850949 0.16742675 0.09771593 -0.28238264 0.09538954 -0.06881089 0.15780532
0.033633716 0.016073925 0.033173792 0.094085775 -0.06096669 -0.015919372 -0.14068061 0.00096484687
-0.038212504 -0.1731333 0.29621544 -0.10407309 0.060303926 -0.2960029 -0.15027905 -0.13642478
-0.19202463 -0.08257246 -0.09537487 -0.051203135 0.12364531 0.022857698 0.047585186 -0.2567126
0.02957759 -0.10424372 -0.06085067 0.07977441 0.02089605 -0.13734944 -0.043499257 -0.14988874
-0.022974959 -0.15445639 0.10515616 -0.14601749 0.12082841 0.0673547 -0.10064852 0.073346876
0.0039841295 -0.24476011 0.061466236 -0.13314287 0.025116717 -0.1731844 -0.18286222 -0.024478376
-0.036591437 0.09585694 -0.060050994 -0.03488753 0.0507127 0.18657087 0.2972214 -0.14940648
0.018499207 0.021925718 0.1254647 0.32919836 0.0018457928 0.04050498 -0.12196178 -0.07725286
0.09946885 -0.21173033 0.08960644 0.022109644 -0.06397871 -0.13397972 0.076474786 0.0871167
-0.040420834 -0.057317924 -0.11797704 -0.0092500495 0.1316689 0.010176587 -0.10148797 0.026580073
-0.07819324 -0.04843451 0.10882983 0.13236351 -0.042400945 -0.118539155 0.15539905 -0.0028966048
0.12592259 -0.04864328 -0.03793458 0.13873908 0.062389195 0.24307106 -0.026739735 0.042984065
-0.054868013 -0.022817172 0.22576077 -0.19691148 -0.0642285 0.083817996 -0.045904487 0.094245754
-0.09682162 -0.010193299 0.03980831 -0.07458855 -0.18230331 -0.17747504 0.041845735 -0.040821575
0.25137904 0.3112808 -0.0066222753 0.049231224 0.13228537 0.053173877 -0.09476213 0.014136009
-0.14027716 -0.013286636 -0.07423577 -0.12948959 0.035120293 0.075488135 0.36326608 0.13429882
0.1704902 -0.011593587 0.06190439 -0.048572678 -0.16511579 0.080671445 -0.23791131 -0.26530418
0.01234103 0.04036951 0.106887884 0.19826443 -0.19118114 0.110730514 0.19385651 -0.20745327
0.14151509 0.059355043 0.07323671 0.22471702 -0.0032316332 -0.15707707 0.035975203 0.05192456
0.24492158 0.2113011 -0.1616604 0.20463522 0.118615866 -0.18864183 -0.03846532 -0.05042366
0.19107899 -0.059410963 0.082170695 -0.06276621 -0.100432165 0.044559408 0.027117472 -0.106407136
-0.23465839 -0.11448108 -0.0715779 -0.09274229 -0.07852065 -0.0062770112 -0.33652994 0.09928232
0.094490156 -0.024514738 -0.2500608 -0.04074458 -0.2744561 0.3507217 0.0624545 0.11338733
0.078057535 -0.03208815 -0.11523155 0.06448776 0.035657614 -0.008608528 0.23065554 -0.046217974
0.026771184 -0.17103481 -0.19390719 0.03846307 0.0050113243 -0.030185055 -0.042110622 -0.15591249
0.18029928 0.115670756 0.23509397 0.097146526 -0.12725827 0.0027911677 -0.018969355 0.012633627
0.17080973 0.027989717 -0.13057663 -0.044120535 0.16496657 -0.027640918 0.11610048 -0.1335091
0.110973164 -0.026062025 0.03840574 -0.08856711 0.11960316 0.18130183 -0.24065691 -0.07189997
0.07044877 0.0029134555 0.029347986 0.026594507 -0.09973586 -0.21430366 0.11853336 0.11087326
0.18470214 0.06654477 0.17527781 0.014132491 0.052629266 -0.020454297 0.14403014 -0.16992173
0.116433546 -0.30628872 0.006149526 -0.004108282 0.13168599 0.0481514 0.09922535 -0.14100172
00000000: f93d 6ebd 636b 0b3c eb71 2b3e 4a1f c83d
00000010: 7594 90be 975b c33d b9ec 8cbd b897 213e
00000020: 82c3 093d 77ad 833c 3ee1 073d 0bb0 c03d
00000030: 35b8 79bd 5869 82bc 940e 10be c7ed 7c3a
00000040: b784 1cbd db49 31be 8da9 973e 4624 d5bd
00000050: 4001 773d b18d 97be c0e2 19be f0b2 0bbe
00000060: 1ba2 44be c01b a9bd e653 c3bd 61ba 51bd
00000070: c139 fd3d 1140 bb3c afe8 423d d56f 83be
00000080: b44c f23c bb7d d5bd 8d3e 79bd c460 a33d
00000090: 312e ab3c 55a5 0cbe 472c 32bd 6f7c 19be
000000a0: fb35 bcbc d129 1ebe 1d5c d73d 9c85 15be
000000b0: e374 f73d 43f1 893d d020 cebd e336 963d
000000c0: 4d8d 823b 65a2 7abe 05c4 7b3d 9b56 08be
000000d0: 93c1 cd3c 4057 31be 3c40 3bbe e086 c8bc
000000e0: e7e0 15bd a550 c43d 08f8 75bd 3ae6 0ebd
000000f0: 1fb8 4f3d 6f0c 3f3e 672d 983e 03fe 18be
00000100: a68b 973c 909d b33c d179 003e b08c a83e
00000110: 87ee f13a 8de8 253d 19c7 f9bd bf36 9ebd
00000120: 53b6 cb3d d6cf 58be 9583 b73d 491f b53c
00000130: 4507 83bd fb31 09be d09e 9c3d 3e6a b23d
00000140: 5190 25bd 33c6 6abd f29d f1bd 858d 17bc
00000150: 36d4 063e b3bb 263c edd8 cfbd 74be d93c
00000160: c723 a0bd 4463 46bd 2de2 de3d 4d8a 073e
00000170: 9dac 2dbd a8c4 f2bd ee20 1f3e f7d4 3dbb
00000180: daf1 003e 2d3e 47bd 4a61 1bbd 9e11 0e3e
00000190: d08b 7f3d 9fe7 783e 4a0d dbbc 0f10 303d
000001a0: 48bd 60bd 14eb babc d52d 673e 2aa3 49be
000001b0: 3b8a 83bd c5a8 ab3d 5806 3cbd eb03 c13d
000001c0: 6a4a c6bd cb01 27bc 0a0e 233d e2c1 98bd
000001d0: b8ad 3abe 04bc 35be 6f66 2b3d 8634 27bd
000001e0: c1b4 803e 3260 9f3e acff d8bb aea6 493d
000001f0: d175 073e dacc 593d a612 c2bd b89a 673c
00000200: d1a4 0fbe 31b0 59bc ec08 98bd eb98 04be
00000210: 4cda 0f3d 8699 9a3d 03fe b93e a185 093e
00000220: fc94 2e3e 07f3 3dbc 758f 7d3d 25f4 46bd
00000230: 1d14 29be 1237 a53d 069f 73be f3d5 87be
00000240: 0832 4a3c 805a 253d 09e8 da3d d505 4b3e
00000250: fdc4 43be aec6 e23d 5282 463e a16e 54be
00000260: 55e9 103e 461e 733d 21fd 953d 381c 663e
00000270: cfc9 53bb d0d8 20be bc5a 133d d9ae 543d
00000280: b9cc 7a3e 515f 583e 4e8a 25be e58b 513e
00000290: e0ec f23d 532b 41be d08d 1dbd 0a89 4ebd
000002a0: 36aa 433e e958 73bd 1c49 a83d 928b 80bd
000002b0: 61af cdbd ed83 363d 7625 de3c fceb d9bd
000002c0: 4a4a 70be 0e75 eabd 6f97 92bd abef bdbd
000002d0: 6fcf a0bd 63af cdbb a74d acbe 8754 cb3d
000002e0: 0e84 c13d 22d3 c8bc f807 80be cae3 26bd
000002f0: 8385 8cbe cb91 b33e 4ad0 7f3d 9e37 e83d
00000300: a1dc 9f3d dd6e 03bd 85fe ebbd 2912 843d
00000310: b80d 123d c90a 0dbc f730 6c3e 0f4f 3dbd
00000320: 3e4f db3c c023 2fbe 9b8f 46be 748b 1d3d
00000330: 0936 a43b a646 f7bc 307c 2cbd 86a7 1fbe
00000340: 60a0 383e cae4 ec3d 79bc 703e c2f4 c63d
00000350: fe4f 02be 06ec 363b 9f65 9bbc 46fd 4e3c
00000360: bfe8 2e3e b14a e53c e1b5 05be bcb7 34bd
00000370: ffec 283e 356f e2bc 17c6 ed3d 9cb6 08be
00000380: e645 e33d 0780 d5bc 564f 1d3d ac62 b5bd
00000390: 80f2 f43d 30a7 393e c46e 76be 4b40 93bd
000003a0: 7247 903d acef 3e3b 306b f03c b9dc d93c
000003b0: 5142 ccbd 6b72 5bbe 9ec1 f23d 8511 e33d
000003c0: 8f22 3d3e a048 883d 077c 333e f78b 673c
000003d0: c991 573d c58f a7bc a37c 133e f6ff 2dbe
000003e0: b674 ee3d e0d1 9cbe f781 c93b c49e 86bb
000003f0: b1d8 063e 673a 453d a936 cb3d c162 10be

action_model._discrete_distribution.branches.0.weight f4 [2, 64]
0.0070953853 -0.010461062 -0.0032582884 0.007305314 0.013245076 0.01752667 0.0043152417 -0.018831564
0.0068961456 0.0004231195 -0.0055373716 -0.018154414 -0.003736343 -0.018973151 0.0013096544 -0.0083861165
-0.0019899681 0.0070975604 -0.0033657097 0.01669394 -0.001397321 -0.018436424 -0.0072430344 -0.019403636
0.0029569617 -0.013160616 -0.016487641 0.016635811 0.009633283 -0.01708807 0.010427195 -0.0039182296
-0.017647922 0.015038407 0.015386711 -0.0041316138 0.0059846584 -0.018173097 0.006802141 0.005324072
0.009285458 -0.030936036 -0.0019230815 -0.012789312 0.015450376 -0.008595014 0.008943702 0.0016266985
0.023777796 0.00088757597 -0.0021326893 -0.020372098 0.011312156 -0.03168264 -0.004304332 -0.00671572
0.0019739973 -0.004766891 -0.01024297 -0.0073523 0.0012587513 -0.004869963 0.023361124 0.0065244893
-0.015214165 -0.010047639 0.013486663 0.00085123786 -0.010912116 0.014474227 0.009262104 0.00369177
0.004902513 0.0031035854 -0.0061035473 0.0017586614 0.005837151 -0.0104630375 -0.003848288 0.0014770592
0.017842289 0.014387229 0.034718663 0.0045101675 -0.013350846 -0.001200545 -0.0052669602 0.0073766555
-0.027622903 0.0149655035 0.011591978 0.0034359822 -0.0047095823 0.00864099 0.01369701 -0.0038633905
-0.0037787973 0.004416135 -0.018673314 -0.012526797 -0.00041239892 -0.022153234 0.008179794 -0.0043893107
0.012494748 0.013089957 0.015030566 -0.00020372064 -0.010893499 0.0006650494 0.0045051156 0.0098522585
-0.005820342 0.0026114285 -0.011738455 0.020232772 0.015163573 0.021446314 0.023666 0.004552607
0.021476848 -0.0021704887 5.3450738e-05 -0.0044450234 -0.022531424 0.0039783968 -0.0014165118 -0.0036375474
00000000: 6880 e83b e064 2bbc 0289 55bb 6a61 ef3b
00000010: e001 593c 1794 8f3c df66 8d3b a744 9abc
00000020: 10f9 e13b 23d6 dd39 d772 b5bb 91b8 94bc
00000030: 6fdd 74bb 956d 9bbc b6a8 ab3a ec65 09bc
00000040: 206a 02bb a792 e83b 3d93 5cbb bbc1 883c
00000050: 5026 b7ba fc07 97bc fa56 edbb 60f4 9ebc
00000060: 96c9 413b a09f 57bc 1711 87bc d347 883c
00000070: ebd4 1d3c 48fc 8bbc d3d6 2a3c 7e64 80bb
00000080: 6092 90bc a763 763c 8b18 7c3c 7d62 87bb
00000090: f41a c43b bfdf 94bc 7fe4 de3b 8e75 ae3b
000000a0: 0922 183c 926d fdbc e80f fcba 438a 51bc
000000b0: 9323 7d3c 1ad2 0cbc 9b88 123c f236 d53a
000000c0: a7c9 c23c 37ac 683a 97c4 0bbb 63e3 a6bc
000000d0: 9f56 393c a8c5 01bd 5b0b 8dbb 8b0f dcbb
000000e0: 2e5e 013b 9433 9cbb 21d2 27bc 90eb f0bb
000000f0: affc a43a 3694 9fbb d45f bf3c 62cb d53b
00000100: d544 79bc da9e 24bc 2af7 5c3c 9b25 5f3a
00000110: bbc8 32bc 4f25 6d3c 14c0 173c 9ff1 713b
00000120: 43a5 a03b 8665 4b3b 4400 c8bb e282 e63a
00000130: 9245 bf3b 296d 2bbc 8f33 7cbb e299 c13a
00000140: fe29 923c 6ab8 6b3c 2835 0e3d 07ca 933b
00000150: 82bd 5abc 9b5b 9dba 7796 acbb dfb7 f13b
00000160: 6d49 e2bc df31 753c 48ec 3d3c 372e 613b
00000170: d752 9abb f092 0d3c 6d69 603c f030 7dbb
00000180: b3a5 77bb 3ab5 903b c7f8 98bc 323d 4dbc
00000190: 3f37 d8b9 b37a b5bc 8b04 063c 35d4 8fbb
000001a0: c6b6 4c3c 4277 563c c342 763c d89d 55b9
000001b0: a57a 32bc b656 2e3a a69f 933b 5e6b 213c
000001c0: 91b8 bebb 8024 2b3b a652 40bc 33bf a53c
000001d0: a370 783c 2eb0 af3c 33df c13c 092e 953b
000001e0: 37f0 af3c c23e 0ebb 4b30 6038 8fa7 91bb
000001f0: d293 b8bc 365d 823b 40aa b9ba eb63 6ebb

action_model._discrete_distribution.branches.0.bias f4 [2]
0.0 0.0
00000000: 0000 0000 0000 0000

action_model._discrete_distribution.branches.1.weight f4 [2, 64]
-0.00085462956 0.010143012 -0.009099571 0.019710032 -0.013267919 0.019033311 -0.008283089 0.003006618
0.01730958 -0.0006538736 -0.011970715 -0.00023945743 -0.009736202 -0.021858258 0.0059664906 -0.0036336076
-0.013640627 -0.011627586 -0.0023482207 -0.012042136 -0.011503811 0.007512951 -0.018627165 0.009193461
0.015613507 0.0018479292 -0.024347635 0.0006573384 -0.0037761088 0.0015103502 -0.00050115027 -0.009816828
-0.007858657 0.024762746 0.0012837754 -0.0024163309 -0.010052065 0.016729524 -9.4897856e-05 0.002645456
0.0041609304 -0.008570841 0.015688447 0.0020683098 -0.002510321 -0.00015445538 -0.029962111 -0.013670799
0.0072271028 0.029625807 0.0009381339 -0.00425256 0.00712103 -0.018315008 0.012506296 -0.0067712585
-0.019634137 -0.006538109 -0.0129118655 0.0090326695 -0.023707563 0.009840014 -0.0044749444 -0.004127126
-0.005557085 0.005579313 0.0067953207 -0.004533436 0.0015316397 -0.0051982906 -0.011267255 -0.018115455
0.0005122099 -0.013990994 0.006854553 0.003744013 0.0030064585 0.0078333495 -0.02146053 0.009996292
0.0018235398 0.010628171 -0.008969211 -0.0145441415 -0.006821406 0.008360028 -0.01895708 -0.0032044072
0.008010115 0.045250453 -0.0066723353 0.011643372 0.0026949719 -0.011070688 -0.012088725 -0.012481458
0.015224928 0.016262537 -0.0017611459 0.0033811913 -0.015629292 0.0013670318 -0.00060141855 -0.009215045
0.03189368 -0.011148149 -0.00038351896 -0.0002785696 0.0027544303 -0.018542698 0.016168127 0.003631445
0.00091347285 0.0045824163 -0.0013090593 -0.011200691 -0.025961975 -0.0037471026 0.01595579 -0.0056915777
-0.004808822 0.012215199 0.016364943 0.01369458 -0.024298793 -0.0067711766 -0.013063299 -0.015524116
00000000: 3809 60ba e02e 263c 5e16 15bc ef76 a13c
00000010: b061 59bc bfeb 9b3c cbb5 07bc ae0a 453b
00000020: d2cc 8d3c b768 2bba d120 44bc dd16 7bb9
00000030: 9784 1fbc 1710 b3bc 8d82 c33b d221 6ebb
00000040: f07c 5fbc a181 3ebc 9be4 19bb 614c 45bc
00000050: 7b7a 3cbc 332f f63b ff97 98bc 2ca0 163c
00000060: cbcf 7f3c 3736 f23a b174 c7bc 3c51 2c3a
00000070: 9878 77bb f1f6 c53a a05f 03ba c3d6 20bc
00000080: 99c1 00bc 3edb ca3c 5b44 a83a 4e5b 1ebb
00000090: 6bb1 24bc 5b0c 893c e603 c7b8 635f 2d3b
000000a0: 6a58 883b b66c 0cbc 0f85 803c 7b8c 073b
000000b0: 3384 24bb 4df5 21b9 1a73 f5bc 7dfb 5fbc
000000c0: 55d1 ec3b d2b1 f23c 1aed 753a 0f59 8bbb
000000d0: 8757 e93b 5b09 96bc 35e7 4c3c 6fe1 ddbb
000000e0: c5d7 a0bc a23d d6bb 4a8c 53bc c3fd 133c
000000f0: 5d36 c2bc 0338 213c 8ea2 92bb d83c 87bb
00000100: 3518 b6bb abd2 b63b 48ab de3b 388d 94bb
00000110: 4dc1 c83a 6c56 aabb 4b9a 38bc dd66 94bc
00000120: d345 063a 7b3a 65bc 289c e03b 1d5e 753b
00000130: 0108 453b 7357 003c fecd afbc 7dc7 233c
00000140: d803 ef3a c821 2e3c 99f3 12bc 8d4a 6ebc
00000150: 1a86 dfbb 80f8 083c e14b 9bbc 0801 52bb
00000160: db3c 033c 8a58 393d 9ba3 dabb d7c3 3e3c
00000170: 209e 303b d561 35bc ca0f 46bc 077f 4cbc
00000180: fa71 793c 0339 853c 40d6 e6ba fa96 5d3b
00000190: 0009 80bc fa2d b33a 84a8 1dba b3fa 16bc
000001a0: f3a2 023d baa6 36bc 0b13 c9b9 fb0c 92b9
000001b0: ac83 343b dbe6 97bc 0573 843c 8afd 6d3b
000001c0: 2076 6f3a 1828 963b be94 abba 1a83 37bc
000001d0: 35ae d4bc f391 75bb b8b5 823c 6a80 babb
000001e0: 5393 9dbb 4222 483c c60f 863c 3b5f 603c
000001f0: 430e c7bc bfe0 ddbb 7207 56bc dd58 7ebc

action_model._discrete_distribution.branches.2.weight f4 [2, 64]
0.026101476 -0.005917484 0.0013759518 0.008549291 0.0059361644 -0.012785496 0.0047736205 -0.0011061486
-0.0033186802 -0.0031972926 0.015472469 0.017024359 -0.004926929 0.0068876334 0.006168469 -0.011606665
0.0035624586 0.0010746025 0.015924446 0.0050095716 -0.011945567 -0.006380646 0.0054375227 0.0075814836
0.0008782139 0.0031069727 0.0033145451 0.0059827054 -0.0023565555 0.0004198998 0.011697619 0.004967864
0.0060443357 -0.022471813 -0.00393236 0.011159601 -0.0036455032 -0.0052488595 0.0023105962 0.010138711
0.015210881 0.016301816 0.011516172 -0.0039535263 0.009923159 -0.0073309205 0.009919836 0.019369433
-0.013386696 0.0031803616 0.0055629443 -0.011742833 -0.019217826 0.0017317086 0.012598494 -0.0027536936
-0.017079819 0.005895395 0.009350467 -0.016493488 -0.009971267 -0.011676121 0.0101444125 0.0026454544
-0.0027829665 0.007074658 0.010291061 -0.0051967106 -0.0028850283 0.00398582 -0.026805086 -0.010792164
-0.022166705 0.0056642 -0.022463296 -0.002658676 -0.004780235 0.0021243836 -0.0033238982 0.00020762133
0.010655984 -0.013855743 -0.0017946707 0.0029835997 0.0036436215 0.011451874 0.003624779 -0.008997851
0.014065817 -0.014762227 -0.018779255 -0.011841522 0.0025369464 0.017830668 -0.0016644622 0.0047533284
-0.0045550554 -0.0031096146 0.0060233674 -0.034688886 -0.026325483 0.0062767537 -0.022841208 0.0006474213
0.009572185 0.007631869 -0.0061713364 -0.00084891013 -0.008762325 0.014037634 -0.015290904 0.006284322
0.006354733 -0.009519274 0.007873407 0.014672796 -0.016690766 -0.0013600356 0.019895727 0.005162991
-0.0020174899 0.013441078 -0.024566669 0.015588196 0.0045644133 0.001609513 0.006685535 -0.010355894
00000000: c3d2 d53c 74e7 c1bb 4859 b43a 5312 0c3c
00000010: 2884 c23b 427a 51bc 086c 9c3b 30fc 90ba
00000020: 377e 59bb ab89 51bb 3d80 7d3c ab76 8b3c
00000030: 1372 a1bb a8b1 e13b de20 ca3b e229 3ebc
00000040: 2378 693b add9 8c3a fc73 823c 5527 a43b
00000050: 57b7 43bc bd14 d1bb 3f2d b23b 186e f83b
00000060: f037 663a 5a9e 4b3b d738 593b 920a c43b
00000070: 7170 1abb ff25 dc39 5fa7 3f3c 77c9 a23b
00000080: 900f c63b cf16 b8bc 07db 80bb c2d6 363c
00000090: 65e9 6ebb a0fe abbb 5f6d 173b d61c 263c
000000a0: 0f37 793c 638b 853c 54ae 3c3c 958c 81bb
000000b0: bf94 223c 3838 f0bb cf86 223c a5ac 9e3c
000000c0: df53 5bbc 9d6d 503b 5c49 b63b 0365 40bc
000000d0: b46e 9dbc 80fa e23a ea69 4e3c 5077 34bb
000000e0: faea 8bbc 282e c13b b332 193c 5a1d 87bc
000000f0: 865e 23bc 334d 3fbc c034 263c 5c5f 2d3b
00000100: 6e62 36bb 88d2 e73b d79b 283c 2b49 aabb
00000110: be12 3dbb 7b9b 823b 5796 dbbc 9ed1 30bc
00000120: f396 b5bc c19a b93b f204 b8bc 2e3d 2ebb
00000130: 84a3 9cbb 3e39 0b3b c2d5 59bb edb4 5939
00000140: 7096 2e3c 3303 63bc 283b ebba 7f88 433b
00000150: d3c9 6e3b a4a0 3b3c b38d 6d3b b96b 13bc
00000160: 5074 663c 45dd 71bc f4d6 99bc f102 42bc
00000170: e642 263b 9f11 923c 152a daba cfc1 9b3b
00000180: 9342 95bb adca 4bbb ab5f c53b ef15 0ebd
00000190: 8aa8 d7bc 3aad cd3b 7c1d bbbc b5b7 293a
000001a0: a7d4 1c3c c214 fa3b ec38 cabb 6589 5eba
000001b0: db8f 0fbc 1bfe 653c b386 7abc b7ec cd3b
000001c0: 5d3b d03b bbf6 1bbc 76ff 003c 2b66 703c
000001d0: 13bb 88bc 3943 b2ba 5dfc a23c 4f2e a93b
000001e0: dd37 04bb f837 5c3c 0a40 c9bc a265 7f3c
000001f0: 1391 953b 4bf6 d23a 5512 db3b c5ab 29bc

onnx::Div_114 f4 [21]
0.010128953 0.014324129 0.014324129 0.010128953 0.014324129 0.014324129 0.010128953 0.014324129
0.014324129 0.010128953 0.014324129 0.014324129 0.010128953 0.014324129 0.014324129 0.18887268
0.18912403 0.03989334 0.02864 0.030375766 0.015876982
00000000: e8f3 253c c0af 6a3c c0af 6a3c e8f3 253c
00000010: c0af 6a3c c0af 6a3c e8f3 253c c0af 6a3c
00000020: c0af 6a3c e8f3 253c c0af 6a3c c0af 6a3c
00000030: e8f3 253c c0af 6a3c c0af 6a3c d767 413e
00000040: bba9 413e 3367 233d 6f9e ea3c 99d6 f83c
00000050: 7210 823c

onnx::Div_117 f4 [49]
0.49202606 0.49945733 0.010128953 0.010128953 0.31379732 0.06550819 0.15494674 0.48253858
0.49982822 0.010128953 0.010128953 0.30184522 0.11559409 0.16661915 0.46542576 0.42611915
0.010128953 0.010128953 0.2686424 0.024805458 0.10274847 0.4641217 0.43484953 0.010128953
0.010128953 0.22083694 0.09670388 0.12842977 0.3712025 0.3164523 0.010128953 0.010128953
0.22229022 0.010128953 0.066478126 0.34112233 0.30719113 0.010128953 0.010128953 0.1658927
0.026791615 0.06812448 0.28735283 0.21273254 0.010128953 0.010128953 0.20354298 0.010128953
0.05938441
00000000: d7ea fb3e dfb8 ff3e e8f3 253c e8f3 253c
00000010: 0baa a03e 2829 863d 5caa 1e3e 4c0f f73e
00000020: 7ce9 ff3e e8f3 253c e8f3 253c 758b 9a3e
00000030: 98bc ec3d 369e 2a3e 494c ee3e 4a2c da3e
00000040: e8f3 253c e8f3 253c 7f8b 893e d134 cb3c
00000050: ca6d d23d 5ca1 ed3e 99a4 de3e e8f3 253c
00000060: e8f3 253c 1423 623e af0c c63d 1883 033e
00000070: 410e be3e 0906 a23e e8f3 253c e8f3 253c
00000080: 0ca0 633e e8f3 253c af25 883d 96a7 ae3e
00000090: 2848 9d3e e8f3 253c e8f3 253c c7df 293e
000000a0: 177a db3c d984 8b3d e91f 933e 8fd6 593e
000000b0: e8f3 253c e8f3 253c 926d 503e e8f3 253c
000000c0: 113d 733d

onnx::Div_120 f4 [35]
0.022645306 0.46729276 0.010128953 0.46748805 0.331783 0.026791612 0.441561 0.010128953
0.44194221 0.31005114 0.010128953 0.38308078 0.010128953 0.38316694 0.28831276 0.033578277
0.40918502 0.010128953 0.40997562 0.3075929 0.010128953 0.26864237 0.010128953 0.26880342
0.21135779 0.035069577 0.29125863 0.010128953 0.29296944 0.2377279 0.017542658 0.15018614
0.010128953 0.15116031 0.122473225
00000000: a682 b93c ff40 ef3e e8f3 253c 985a ef3e
00000010: 76df a93e 157a db3c 4914 e23e e8f3 253c
00000020: 4046 e23e 06bf 9e3e e8f3 253c 2a23 c43e
00000030: e8f3 253c 752e c43e bb9d 933e 6089 093d
00000040: b380 d13e e8f3 253c 53e8 d13e d17c 9d3e
00000050: e8f3 253c 7e8b 893e e8f3 253c 9aa0 893e
00000060: 2d6e 583e 1ea5 0f3d da1f 953e e8f3 253c
00000070: 1700 963e f16e 733e 9fb5 8f3c 65ca 193e
00000080: e8f3 253c c5c9 1a3e 3ed3 fa3d
