Assets/GG/Euna-Subway/ML-agent/NonComp/OnRail.onnx (onnx, 59459 bytes, 17 tensors)

discrete_act_size_vector f4 [1, 3]
000000 00 00 00 40 00 00 00 40 00 00 00 40
       2.0 2.0 2.0

network_body.observation_encoder.processors.0.normalizer.running_mean f4 [21]
000000 00 00 00 00 07 ff 7f 3f 07 ff 7f 3f 00 00 00 00
       0.0 0.99998516 0.99998516 0.0
000010 07 ff 7f 3f 07 ff 7f 3f 00 00 00 00 07 ff 7f 3f
       0.99998516 0.99998516 0.0 0.99998516
000020 07 ff 7f 3f 00 00 00 00 07 ff 7f 3f 07 ff 7f 3f
       0.99998516 0.0 0.99998516 0.99998516
000030 00 00 00 00 07 ff 7f 3f 07 ff 7f 3f 00 00 00 00
       0.0 0.99998516 0.99998516 0.0
000040 07 ff 7f 3f 07 ff 7f 3f 00 00 00 00 07 ff 7f 3f
       0.99998516 0.99998516 0.0 0.99998516
000050 07 ff 7f 3f
       0.99998516

network_body.observation_encoder.processors.1.normalizer.running_mean f4 [49]
000000 16 db ef 3e 11 64 16 3c 00 00 00 00 00 00 00 00
       0.46846837 0.009179131 0.0 0.0
000010 d6 3d 8c 3e 86 10 7e 3e 5e 28 11 3f a7 73 4f 3f
       0.27390927 0.2481099 0.5670222 0.81035846
000020 1a cb 74 3b 00 00 00 00 00 00 00 00 4a d5 c3 3d
       0.0037352503 0.0 0.0 0.09562166
000030 f0 e0 b8 3d b2 cf c5 3e 22 e8 23 3f 01 63 57 3b
       0.090272784 0.3863502 0.6402608 0.0032865407
000040 00 00 00 00 00 00 00 00 9f c8 2f 3e 7b 6b 33 3e
       0.0 0.0 0.17166375 0.1752147
000050 4c 83 f8 3e 71 ec 6f 3f d7 ad 98 39 00 00 00 00
       0.48537672 0.93720156 0.0002912122 0.0
000060 00 00 00 00 76 bf 40 3d 6b 05 7d 3c 82 3a 8f 3e
       0.0 0.04705759 0.015443186 0.27974325
000070 ff 5f 5a 3f a2 aa 6a 3b 00 00 00 00 00 00 00 00
       0.8530273 0.0035807271 0.0 0.0
000080 1f 2f af 3d a0 24 25 3d c6 21 8f 3e 19 d5 71 3f
       0.085539095 0.04031813 0.27955455 0.94465786
000090 13 cf 6c 39 00 00 00 00 00 00 00 00 6e 79 30 3d
       0.00022583855 0.0 0.0 0.043084554
0000a0 c4 14 45 3c 73 c7 80 3e 20 cb 67 3f db e9 e8 3b
       0.012028877 0.25152168 0.9054432 0.007107956
0000b0 00 00 00 00 00 00 00 00 f8 98 55 3d ee 28 83 3c
       0.0 0.0 0.052147835 0.016010728
0000c0 b9 6b 57 3e
       0.21037187

network_body.observation_encoder.processors.2.normalizer.running_mean f4 [35]
000000 0a 6f 00 3c af 6f ca 3b 00 00 00 00 2c 69 7c 3f
       0.007838974 0.0061778645 0.0 0.9859798
000010 82 4a 7e 3f 99 b9 fe 3b 0f 7a 9c 3b 00 00 00 00
       0.9933244 0.00777359 0.0047752927 0.0
000020 60 c9 7c 3f c3 60 7e 3f 3f 60 d0 3b b4 d0 84 3a
       0.98744774 0.99366397 0.0063591297 0.0010132999
000030 00 00 00 00 b8 1c 7e 3f 06 c2 7e 3f 73 68 e5 3b
       0.0 0.9926257 0.99514806 0.0070009767
000040 c9 21 9e 3a 00 00 00 00 da e5 7d 3f 45 df 7e 3f
       0.0012064512 0.0 0.9917885 0.9955943
000050 3b 79 11 3b 36 99 74 3a 00 00 00 00 1b 31 7f 3f
       0.0022197503 0.00093306915 0.0 0.99684304
000060 e1 6d 7f 3f c7 21 9e 3b 62 60 91 3b 00 00 00 00
       0.99777037 0.004825804 0.0044365386 0.0
000070 bf a0 7d 3f 72 2e 7f 3f 9b 09 29 3a 7e 24 a5 39
       0.99073404 0.99680245 0.00064482697 0.0003149844
000080 00 00 00 00 d6 c0 7f 3f 54 d7 7f 3f
       0.0 0.9990362 0.9993794

network_body._body_endoder.seq_layers.0.weight f4 [64, 106]
000000 04 b9 1c 3e 30 22 eb be b3 06 fe bd 82 1c 4e 3e
       0.15304953 -0.4592452 -0.124036215 0.20128062
000010 0c 6e 40 be 05 84 34 be 34 e6 29 3e c2 99 0e be
       -0.1879198 -0.17628486 0.16591722 -0.13925841
000020 57 0a 8b be 60 4e db 3d e2 d0 b8 be 7e 49 80 be
       -0.27156326 0.10708308 -0.36096865 -0.2505607
000030 f6 ab e0 3c 3a 35 bb be e2 31 c7 be dd 17 36 be
       0.027425747 -0.36564046 -0.38905245 -0.1778254
000040 55 4e 85 3b 63 e4 9c bd f1 10 7c bc a6 37 5e be
       0.004068176 -0.07660749 -0.0153848985 -0.21700916
000050 e3 54 9d be e2 8d d1 bd 27 26 66 bd bb ef d4 bb
       -0.30728826 -0.1023214 -0.05618873 -0.0064983047
000060 f9 2c 33 bd 89 5c 50 3e e5 f5 5d 3e 20 bd 83 bd
       -0.04374406 0.203478 0.21675833 -0.06432557
000070 06 d9 36 3d 3a 4b 40 3e 02 9e 55 bd 91 43 31 be
       0.044640563 0.18778697 -0.05215264 -0.17310931
000080 e2 4a bd 3d 23 9a 9e bc c7 98 29 3e ec 62 78 3d
       0.092427984 -0.019360607 0.16562186 0.060641214
000090 06 7b 21 3d 4e d0 a3 bd 34 6f 63 3b c5 f5 7e 3c
       0.039423965 -0.07998715 0.0034703733 0.015561526
0000a0 23 5d 37 be 52 08 93 be 2d 93 9d bd 80 2b 9d bb
       -0.17906623 -0.28717285 -0.07694087 -0.0047964454
0000b0 4a 4b a0 3d 5f 42 95 bc c7 5d 9f 3d cd 3e aa bd
       0.0782686 -0.018220125 0.077815585 -0.083127595
0000c0 81 00 8d bc 1e 9e 94 3d d0 64 4f be 70 b0 77 bc
       -0.017212154 0.07256721 -0.202533 -0.01511775
0000d0 d4 39 f6 bd 0c 9d 4d 3e 3d bb 11 be 30 64 f8 3c
       -0.120227486 0.2007944 -0.14231582 0.03032121
0000e0 ef ca 00 3e 90 9e af 3c 14 f5 5d 3d 90 2a 03 3c
       0.12577413 0.021437913 0.054188803 0.008005753
0000f0 e5 28 33 bd 85 f1 b8 bd 9e fb e1 3d 7b cf 3f 3e
       -0.043740172 -0.09030441 0.1103432 0.18731491
000100 b9 25 65 bd ae e6 89 3d ce 2e ff bd d2 d4 54 3e
       -0.05594418 0.06733452 -0.12460099 0.2078431
000110 b4 63 83 bc 2d b9 5f 3e eb 4a 8d bd 77 b6 45 3e
       -0.016038753 0.21847983 -0.06899055 0.19307886
000120 12 dd 03 bd 1b 65 04 be 33 de b1 3b 4f 80 a9 bd
       -0.03219325 -0.12929194 0.0054280995 -0.08276426
000130 a7 0c 00 be 03 10 88 3d 3e 8c 1f 3e bd 5b e7 3d
       -0.12504826 0.06643679 0.15580842 0.112967946
000140 ff 05 11 be be 7a e3 3d e6 76 36 3d b7 2b 65 bd
       -0.14162444 0.111073956 0.044546984 -0.055949893
000150 21 f7 2c be c4 8a a4 bd d1 1e 78 3e ee 69 fc 3d
       -0.16891147 -0.0803428 0.24230506 0.12324892
000160 25 77 b1 be 9d e8 c6 3c db 37 1c be 98 40 01 bd
       -0.34661213 0.02428084 -0.15255682 -0.031555742
000170 c5 57 a3 3b ff 59 1e be 07 24 e3 bd a6 e0 80 be
       0.004984828 -0.15464018 -0.11090856 -0.25171393
000180 61 fe d8 3d e3 7b 9f 3d c2 09 49 bd d5 b3 f0 bd
       0.10595394 0.077873014 -0.04908157 -0.1175305
000190 09 5c a3 bd 5a 58 85 3e 30 d2 d7 3c 59 41 9e bd
       -0.07976539 0.2604397 0.026345342 -0.07727308
0001a0 fc 9d 0f be 81 27 a9 3d 34 8d 61 3c bd df e0 be
       -0.1402511 0.08259488 0.013766576 -0.439207
0001b0 e7 40 65 be f6 5d e1 3d f1 95 b8 be e5 fb 95 be
       -0.2238804 0.1100425 -0.36051896 -0.29293743
0001c0 7d 83 c5 3d 26 d1 a6 be 76 4f 74 be c9 73 11 3d
       0.0964422 -0.32581443 -0.23858437 0.035510812
0001d0 75 5a ba be 47 06 3b be 13 97 87 bd 41 68 73 be
       -0.36397138 -0.18264113 -0.06620612 -0.23770238
0001e0 25 df b3 be 23 77 15 be 6d 5f 71 be b6 76 57 be
       -0.35131183 -0.14596228 -0.23571558 -0.21041378
0001f0 26 99 50 3d b8 55 e3 be fd 11 82 be b7 6d dd bd
       0.050927304 -0.44401336 -0.2540435 -0.10811942
000200 87 73 6d 3e 02 f7 9c bd 80 18 e6 3b 4f 8f a0 bd
       0.23188601 -0.076643005 0.0070219636 -0.07839834
000210 e9 d8 ef bd f9 97 74 3e ce fe c0 be a3 12 77 bd
       -0.11711294 0.23886098 -0.376944 -0.060320508
000220 10 61 87 3d 87 66 57 3d 9c 4a 2b 3e 75 38 a5 3d
       0.0661031 0.052588012 0.1672768 0.08067409
000230 b0 12 93 3e 42 0c 1b be 08 6f 1c 3d 09 57 f8 bc
       0.28725195 -0.15141395 0.038191825 -0.03031494
000240 63 42 06 be a7 d3 9e 3d ed 7e 97 bd 59 e7 89 3c
       -0.13111262 0.07755213 -0.07397256 0.016833948
000250 2e d1 3c 3d 0f e9 d4 3d a1 75 23 be 6d ca 72 3c
       0.046097927 0.10396015 -0.1596284 0.01481877
000260 02 e2 27 3e 42 27 93 3e cd 69 3b bd 1b 0c 8a 3e
       0.16394809 0.2874089 -0.045755196 0.2696236
000270 1b 0a 5d be c2 91 88 3c 71 da 29 3e a5 c5 35 be
       -0.21585886 0.016671065 0.16587235 -0.17751177
000280 50 bb 0c be 67 c2 51 3a c6 d5 b7 bd ac 5a 5d bc
       -0.13743329 0.00080016855 -0.08976321 -0.013510387
000290 35 d3 bc 3d 55 33 a5 bc c4 38 52 3e 5d 6f b3 bd
       0.09219972 -0.020166079 0.20529467 -0.08761475
0002a0 2c 97 4a be fa 96 ab 3e 84 29 44 3e 52 6c 0d bd
       -0.1978423 0.33513623 0.19156462 -0.03452713
0002b0 a3 1c 66 3e dc 9c a6 bd df 97 0a be 4b 38 61 bd
       0.22471862 -0.08135387 -0.13534497 -0.054985326
0002c0 17 03 4d bd ec a6 93 3d b1 e4 e1 3c a2 57 f7 bd
       -0.050051775 0.07209572 0.027574869 -0.120772615
0002d0 e3 be ff bd 78 9c 00 be e6 d2 88 3d f4 da 2a bd
       -0.124875806 -0.12559688 0.06680851 -0.041712716
0002e0 ec 63 0c be 30 25 ab 3e 1e ef 12 bd 58 db 0f 3e
       -0.13709992 0.3342681 -0.03587257 0.14048517
0002f0 fd 5d f0 3d 11 37 a5 bd 83 fc 48 be b4 b9 14 be
       0.11736677 -0.08067144 -0.19627576 -0.14523965
000300 c7 d7 ea bd 54 4a 35 bd 33 35 53 3e 97 af 54 3d
       -0.114669375 -0.044260338 0.20625763 0.051925268
000310 5c f4 92 bd ca 2d 51 3e 4f b5 c8 3d eb 7a 12 be
       -0.07175514 0.20427623 0.09800207 -0.14304702
000320 fe ba dc bd 87 62 8f be 93 cf 93 3a 83 2b 5c 3e
       -0.107778534 -0.28004858 0.0011277072 0.21500973
000330 21 9e a5 3c 06 5c f1 3e b3 bf c2 be 5a 9f 83 3e
       0.020217003 0.4714052 -0.3803688 0.25707513
000340 8a 16 10 be 5f 2a e4 3c b6 7a af 3d 8f 1d 4c 3d
       -0.14071098 0.027852235 0.08568327 0.049832877
000350 21 da e4 bd bc b6 84 3d ab ec 9f be 15 bf bb 3d
       -0.11174417 0.06480166 -0.3123525 0.091673054
000360 f2 39 e0 3d 4b 13 4a bd 68 b8 ff 3d f8 0f 44 bd
       0.10948552 -0.049334805 0.124863446 -0.04786679
000370 70 e0 6b bd bf 33 ea 3b 94 ef 84 3c 83 d1 4f be
       -0.057587087 0.007147282 0.016227521 -0.20294766
000380 51 36 70 bd ba 89 95 bc c7 d3 6d bd 8c e3 8b bc
       -0.05864555 -0.01825415 -0.058063295 -0.017076276
000390 fb 15 f9 3d ed 26 dc bd 3c 76 88 3d 4a 44 1e bd
       0.121623956 -0.10749612 0.066631764 -0.038639344
0003a0 00 87 a2 bd 88 3d 2d 3e 2c 84 0a 3c a2 ce 1c 3d
       -0.079359055 0.16918004 0.008454364 0.038282998
0003b0 c9 3c 3b be 84 d6 99 bb f4 bd d3 be 04 15 ff 3d
       -0.18284906 -0.0046947617 -0.4135586 0.1245518
0003c0 ac e5 03 be c3 49 af be 5f 28 cf 3d 7f 62 59 3c
       -0.12880582 -0.34235963 0.10115122 0.013268112
0003d0 98 7d 2f 3e 6b f2 3b 3e f4 d6 51 bd df 02 45 3b
       0.17137754 0.18354194 -0.051230386 0.0030061526
0003e0 90 d2 d5 bc a0 7f 66 bd 6c 79 5e 3d 2a 6c 79 3e
       -0.02610138 -0.056274056 0.054315016 0.24357668
0003f0 3a 93 7f 3e b4 26 ce 3e 8c 8b 5c 3d ee ea ce bd
       0.24958506 0.40263903 0.05384402 -0.10103403

network_body._body_endoder.seq_layers.0.bias f4 [64]
000000 6e fa 96 be c3 d6 9a be b7 12 43 bd 2a 5b a6 3d
       -0.29487938 -0.30241975 -0.04762527 0.08122857
000010 60 e2 9d bc ca ae 85 be 8b ed 5a bd 60 10 4e be
       -0.019272983 -0.26109916 -0.053449195 -0.20123434
000020 4a 36 3c be 18 af 40 be 29 83 26 be 74 d2 32 be
       -0.18380085 -0.18816793 -0.16260971 -0.17463094
000030 b2 ef 0f 3d d5 57 75 be 59 64 e9 3c 68 6d 4f bd
       0.0351407 -0.23959287 0.028490232 -0.050641447
000040 fa ad d3 be c0 ee f5 bd f1 43 d6 bd 9d 9c 6e bd
       -0.4134367 -0.120084286 -0.104621775 -0.058254827
000050 62 80 fd bd ae e1 81 bd 42 97 08 3e ee 6b 5a be
       -0.12378003 -0.06341873 0.1333895 -0.21330234
000060 54 05 e2 3a b4 b6 95 bd e7 66 86 be b6 bc 99 3d
       0.001724402 -0.073102385 -0.26250383 0.07506697
000070 28 3c 29 bd 78 1b ba bd 57 71 d4 bd 95 90 3b bd
       -0.041317135 -0.090872705 -0.1037318 -0.04579218
000080 16 78 25 be 4f 60 0b be 1c 19 fd b9 4f 62 ce bd
       -0.1615909 -0.13610958 -0.00048274628 -0.100773446
000090 b0 cf 3a be 42 fb c6 bd 65 2e a8 bc d0 d8 1a 3d
       -0.18243289 -0.097158924 -0.020529935 0.037804425
0000a0 a2 a3 f9 bd 63 46 79 3d 87 90 30 3e e7 ad f9 3c
       -0.121894136 0.06085814 0.17242633 0.03047843
0000b0 87 41 7e bd db 64 19 be ca 49 f8 bc 0a 07 3d be
       -0.06207421 -0.1497988 -0.030308623 -0.18459716
0000c0 95 88 e3 bd 94 73 28 bd 66 13 f2 bd df e1 c3 be
       -0.11110035 -0.04112585 -0.11820106 -0.38258263
0000d0 01 25 c0 3c 36 38 d0 bd ca 5b b6 bc 80 79 df bb
       0.023455145 -0.101669714 -0.022260565 -0.006819904
0000e0 ac 94 0a be 23 da 7f bd 2f 64 0f 3d 81 e2 b5 bd
       -0.13533276 -0.06246389 0.035007652 -0.08881093
0000f0 49 55 4c bd b1 2a 06 be 50 10 f0 3d a1 3c 9f bd
       -0.04988602 -0.13102223 0.11721861 -0.07775236

network_body._body_endoder.seq_layers.2.weight f4 [64, 64]
000000 94 a0 e6 bd ab 57 35 3e 15 36 6e 3d 46 13 75 be
       -0.112610966 0.17709224 0.058157045 -0.23933133
000010 59 c5 8c be 07 19 91 be f8 e3 81 3d 6a 8b 85 bd
       -0.27494314 -0.28339407 0.0634231 -0.06520732
000020 d9 19 7c 3c c5 19 70 be 42 1e 52 3d 68 15 b6 bd
       0.015387022 -0.2344733 0.051298387 -0.08890802
000030 e2 5e 92 3b 1d 53 ba bd aa 4d 42 3d 31 3a a0 bd
       0.0044668773 -0.09097884 0.047437347 -0.07823599
000040 a3 7c e8 3d 4e 79 90 bd af da 02 be 2d 19 90 be
       0.113518976 -0.07054387 -0.12778734 -0.28144208
000050 40 4b 8c bd ad 0d 02 bd f0 e8 06 bb c7 3f 99 bd
       -0.0685029 -0.031751323 -0.002058562 -0.07482868
000060 4d 1d 2f 3d 39 c1 e3 3c 52 82 03 be 8a 44 13 3d
       0.042752553 0.027802097 -0.12842682 0.035954036
000070 10 8c 87 be ca 1a 41 3e d8 5d 31 3e 67 84 8d 3e
       -0.26474047 0.18857875 0.17320955 0.27640077
000080 8b 32 3b 3e 8b 15 45 be a9 cc a8 3d fa c9 ee 3d
       0.18281 -0.19246499 0.08242161 0.11659618
000090 4e 62 0b be 70 bc c2 be 54 75 2b 3e 5a 63 96 3c
       -0.13611719 -0.3803439 0.16743976 0.018357921
0000a0 0a 00 39 3e e7 a5 0d be 95 f0 90 be 7f 6f 80 3d
       0.18066421 -0.13832818 -0.2830855 0.06271266
0000b0 31 73 38 3e 54 70 04 be de 43 95 be 7d 97 56 3c
       0.18012692 -0.12933475 -0.2915334 0.013097641
0000c0 91 a7 96 bd 7f ea 11 be 71 b8 14 bf e1 08 f1 37
       -0.073561795 -0.1424961 -0.58093935 2.8733573e-05
0000d0 6b c0 e0 be 96 44 29 be 59 73 cf be ed 1c 4c be
       -0.43896803 -0.1653007 -0.4051769 -0.1993291
0000e0 b7 37 bd bc 57 e3 25 be a1 76 ea be e7 5f c6 bb
       -0.023097856 -0.16200005 -0.45793632 -0.006053913
0000f0 33 34 2d be 18 ad 1c bd 53 a6 e8 bd e6 d7 b9 bd
       -0.16914444 -0.038251013 -0.11359849 -0.090743825
000100 b1 b2 29 3c 32 79 c9 bd 99 68 13 be 5a d5 ed bd
       0.010357545 -0.09837569 -0.1439537 -0.11612959
000110 fd bd a3 3e 35 0a 5b bd b8 97 7a be c8 93 8e bc
       0.31980887 -0.05347653 -0.24471939 -0.017404452
000120 ad fa da 3a 1b d1 06 bd 02 60 10 3e b5 dc 2c bb
       0.0016706787 -0.032914262 0.14099124 -0.0026376669
000130 23 f7 13 bc 05 1b 2c be dc 20 a9 be 85 24 86 be
       -0.00903109 -0.16807182 -0.33032882 -0.26199737
000140 5d dd c4 3b 31 9f 0a 3e 63 59 c8 3c 2f a7 57 be
       0.006007834 0.13537289 0.024456685 -0.21059869
000150 09 cd 33 be ed 59 fd bb 6f be 88 bc e0 64 a3 be
       -0.17558683 -0.0077316673 -0.016692368 -0.319129
000160 d8 66 f4 bc 5c 9e b4 bd 32 e4 b8 bb a3 0b 85 3a
       -0.029834196 -0.08819267 -0.0056424374 0.0010150563
000170 4f 6e 0b 3d 21 64 b1 3d f8 3b 48 be 79 4c a3 3e
       0.034040745 0.08661676 -0.19554126 0.31894282
000180 81 71 37 be 6a 83 20 bd 76 f0 cb bd 63 9a b4 3d
       -0.17914392 -0.039187826 -0.09957974 0.088185094
000190 b7 b4 b9 3d 2e 2f 9a bd 0c a0 86 be 3c 64 47 bd
       0.09067672 -0.0752853 -0.2629398 -0.048679575
0001a0 a0 e3 17 3e 28 5a 42 be 2c 43 38 bd 8a 82 0b be
       0.14832926 -0.18979704 -0.044985935 -0.13624015
0001b0 b5 a9 ec bd d3 71 15 be a6 0a 13 bd 4a c2 f6 3c
       -0.115558065 -0.14594202 -0.035898827 0.030121941
0001c0 bb 7c dd 3d 33 58 16 be 37 86 d8 bc 9c ce 52 be
       0.10814806 -0.14682083 -0.026431186 -0.20586628
0001d0 9f 7f 6b 3e 4f 2f 8d 3c 84 cc b9 bd 03 8a 84 bc
       0.22997902 0.017234473 -0.090722114 -0.01617909
0001e0 59 02 f3 bd 62 f8 a0 3e 2c 10 66 be bc df d3 be
       -0.11865682 0.314395 -0.22467107 -0.41381633
0001f0 9c 97 9a bd f5 37 b9 be ee 5d 86 bd 60 ee da bd
       -0.075484484 -0.36175504 -0.065608844 -0.10689998
000200 63 a4 87 3e 64 ae ee bc fe 85 65 bd d9 fb ff be
       0.26492605 -0.02913589 -0.056035988 -0.49996832
000210 52 3d 97 bd 59 62 28 3e 3e 94 84 be cd a3 4b 3e
       -0.07384743 0.16443767 -0.2589435 0.19886704
000220 b5 dc 71 be 8b fa 92 3e 64 7b 8d bc 28 50 af be
       -0.2361935 0.28706774 -0.017270751 -0.34240842
000230 d2 be 05 be 76 3c 11 be c0 36 3a be 9f ff 41 3d
       -0.13061073 -0.1418322 -0.18184948 0.04736292
000240 1e c1 56 3d 36 5c 75 bd 92 62 38 3d 55 67 e5 bd
       0.052430265 -0.059902392 0.04501588 -0.1120135
000250 33 c8 c7 3c a4 fb 68 be e7 31 d5 bc 99 e2 8c be
       0.024387455 -0.22752243 -0.026024772 -0.2751663
000260 75 d5 8d 3c b7 36 b0 be 40 da fd 3d 0d f5 40 be
       0.017313698 -0.34416744 0.123951435 -0.1884348
000270 b1 90 1e 3d fb 90 4a bd d3 37 3d be e3 b5 02 3e
       0.038712207 -0.04945467 -0.18478326 0.12764697
000280 af 4c 19 be 7c 57 58 3d 50 f3 6f be c9 10 3c 3d
       -0.14970659 0.052817807 -0.2343266 0.045914445
000290 15 60 46 3d 8a ef a9 be 23 42 45 be 15 ac 8f bb
       0.048431475 -0.33190566 -0.1926351 -0.0043845274
0002a0 0b 49 6f 3e 0a d9 41 be a7 d9 49 3e 04 2c a6 be
       0.23367707 -0.1893045 0.19711934 -0.32455456
0002b0 4e 96 db 3d 71 76 6c be 8e 5d 2a be 33 34 3d 3e
       0.10722028 -0.23092057 -0.16637251 0.18476944
0002c0 1a 37 2b 3d a1 f3 10 3e 07 ab 7d be a2 14 71 bd
       0.041800596 0.14155437 -0.24772273 -0.058857568
0002d0 5b 5d 87 be 83 ed 11 be 6e 2a cf 3c 6e 2e 17 bd
       -0.26438412 -0.1425076 0.025288787 -0.036909513
0002e0 51 d8 ce bd 6d 9b 96 bd 46 78 e3 bb ab 64 fe bd
       -0.10099853 -0.07353864 -0.006941828 -0.12421545
0002f0 7c fb e5 39 7b 42 8f bd 96 78 10 be 9d 36 30 3e
       0.00043865654 -0.06995102 -0.141085 0.17208333
000300 b9 80 c2 bd 6c 67 ee 3c fc 8d 60 3d a3 ac 8c 3d
       -0.09497208 0.02910205 0.054822907 0.06868865
000310 9a 3a e6 3c 64 9a b1 be a9 07 13 3e a5 e4 17 3e
       0.028104115 -0.34688103 0.14358391 0.14833315
000320 45 a3 48 be 2e d3 75 be 3c 92 5d 3e ba 0d b9 3d
       -0.19593532 -0.2400634 0.21637815 0.09035821
000330 6e 9d 31 be ed 76 d6 bd 36 49 38 bc 8a a7 05 3e
       -0.17345211 -0.10471902 -0.011247924 0.13052192
000340 a1 07 87 be 36 ee cc 3d 22 c1 b9 bd 49 25 22 be
       -0.26373008 0.10006373 -0.0907004 -0.15834536
000350 e0 32 8c 3e e5 c9 e3 3d f2 32 e2 be ca 4c c7 bd
       0.27382565 0.11122493 -0.44179493 -0.09731443
000360 4b aa b3 bd 95 9b 47 be ef 0f 98 be 80 b3 af be
       -0.08772715 -0.19492944 -0.29699656 -0.34316635
000370 ce a8 89 3e 17 b9 14 be 57 a4 8d 3e 71 78 76 3e
       0.268866 -0.14523731 0.27664444 0.24069382
000380 57 73 37 3e 5e 59 53 be 19 1e 82 bd f8 02 f2 bd
       0.17915092 -0.2063956 -0.06353397 -0.118169725
000390 d1 98 49 bb 1e 56 1e be 32 6a 10 be 47 e4 e7 bc
       -0.0030761252 -0.15462539 -0.1410301 -0.028307093
0003a0 30 ff 38 3c 60 32 0a 3e 77 41 b9 bd 27 8f 0c bf
       0.01129131 0.13495779 -0.090456896 -0.54905933
0003b0 cd f0 c9 bc 94 e1 7d 3e 17 a7 50 be 6c 4e 6d 3c
       -0.024650956 0.24793082 -0.2037624 0.014484029
0003c0 fa 5e aa 3c 14 1d 5d be db cc cb be 07 a3 34 3d
       0.020797241 -0.21593124 -0.3980473 0.044100787
0003d0 11 c9 ff bc 9a 15 d6 bd 4a b6 19 bd 3f 19 ce bc
       -0.031223806 -0.10453339 -0.03752736 -0.025158523
0003e0 fd 60 80 be 30 a9 d3 3d 1c 82 b5 bd 7a 60 49 3c
       -0.25073996 0.10335004 -0.08862707 0.012291068
0003f0 e9 67 09 bf 76 a5 a0 be 0e 0c a8 be 80 22 48 be
       -0.5367418 -0.31376237 -0.32821697 -0.1954441

network_body._body_endoder.seq_layers.2.bias f4 [64]
000000 aa fa 26 be 72 73 1d be 63 e2 02 be cd 4a 1e be
       -0.16306558 -0.1537607 -0.12781672 -0.15458222
000010 86 7f 14 3b 2a da 55 be e1 93 85 be 10 d6 9b bd
       0.0022659018 -0.20884004 -0.26089385 -0.076091886
000020 e2 19 14 be ca a2 0f bc db 47 0a be 14 75 67 bd
       -0.14462999 -0.008766839 -0.13503973 -0.05650814
000030 79 8a ab bd 80 ee 0d be 2b 95 e1 bc f6 3f 3c be
       -0.08376021 -0.13860512 -0.02753695 -0.18383774
000040 9d e2 28 be 5e 91 6c be 4c ae 3d be 44 06 d8 bd
       -0.16492696 -0.23102328 -0.1852352 -0.1054807
000050 73 5a 1a be d3 ed 2d be 7d b7 3a be f2 58 c8 bd
       -0.15073566 -0.16985254 -0.18234058 -0.0978259
000060 65 ca 1d be 4a ae 92 bd 70 be c8 bc ec 37 6f be
       -0.15409239 -0.07162149 -0.02450487 -0.23361176
000070 db d2 31 be c2 8b 0a be dd 11 44 be 26 bb 99 be
       -0.17365591 -0.13529876 -0.1914744 -0.30025595
000080 e3 c8 aa be f8 05 1d be 11 47 55 be 9d 08 3c be
       -0.3335639 -0.15334308 -0.20827891 -0.1836266
000090 e7 00 a4 be ad 65 0b be aa f2 b5 bd f0 2e 1c be
       -0.32031938 -0.13613005 -0.08884175 -0.1525228
0000a0 c8 e2 cf bd a2 cb ee bd 5e 4e 21 be 8e e3 91 3d
       -0.10150677 -0.116599336 -0.15752551 0.07123481
0000b0 46 ee 5f be ee e9 24 be aa 55 61 be ac 14 06 be
       -0.21868238 -0.16104862 -0.22005334 -0.13093823
0000c0 21 31 05 be a2 fb bf bd 5a 9e 3d be 97 e2 d9 bd
       -0.13007022 -0.09374167 -0.18517438 -0.10638922
0000d0 5b 13 2a be a6 b9 1a be fa 94 f7 bd 91 5f b0 bd
       -0.16608946 -0.15109882 -0.12088962 -0.08611978
0000e0 c7 48 6c 3d c0 4e 35 be f0 a5 83 bd 27 b0 07 bc
       0.057686593 -0.17705822 -0.064281344 -0.008281744
0000f0 4d 40 ef bd d3 d1 21 be 19 0f f9 bd c6 7f 3c be
       -0.11682186 -0.15802698 -0.12161083 -0.18408117

action_model._discrete_distribution.branches.0.weight f4 [2, 64]
000000 e1 88 47 3c a2 f0 f8 bc af 4d 6f bd 8e 1a cd 3d
       0.012178631 -0.03038818 -0.058423694 0.100148305
000010 24 63 84 bc ab 67 91 bd c7 e1 6f 3d 3c 71 4d be
       -0.016160555 -0.07099851 0.058564927 -0.20062727
000020 a5 b6 60 bd 6e 86 3d 3c a8 07 40 bd 89 c4 10 3c
       -0.054861683 0.011567695 -0.0468823 0.00883592
000030 71 8a 40 bd ad 08 09 bd 58 3f ec 3d af 47 ba ba
       -0.047007028 -0.03345554 0.11535519 -0.0014212037
000040 71 d6 79 3b 36 a0 03 3e 6c 91 28 bd a0 a8 d1 bd
       0.0038122202 0.12854084 -0.04115431 -0.10237241
000050 83 68 16 bd 89 fd ac bd b8 d7 cc bc 0c 30 86 bc
       -0.036720764 -0.084467955 -0.025005206 -0.016380332
000060 f7 d6 76 3d d2 f5 6c bd a5 a6 89 bc 40 58 be bd
       0.0602636 -0.05785162 -0.016803095 -0.09294176
000070 aa 53 99 bb 92 69 7e 3b dd f6 71 3d c6 91 24 3d
       -0.004679163 0.003882025 0.059073318 0.040178083
000080 88 b2 9a bc 6e 12 b5 3d 6b 28 91 3d 98 75 39 bd
       -0.018883958 0.08841406 0.07087787 -0.04527816
000090 25 57 04 bd 34 78 2e 3d 7c 77 b0 be bd 33 1b 3d
       -0.03230967 0.042595103 -0.3446616 0.03789114
0000a0 7f 75 d0 3c 5c 41 37 bd f9 21 d7 3c 89 0f 7a 3e
       0.025446652 -0.044740066 0.026261317 0.24419989
0000b0 24 4c 12 bc 4d 34 fd 3c 72 2d 41 bc 77 c7 53 bd
       -0.008929286 0.030908728 -0.01179062 -0.051703896
0000c0 7a be ca bc d1 66 20 3d 03 7e 98 bd 11 50 14 bc
       -0.02474903 0.039160553 -0.0744591 -0.009052292
0000d0 06 15 4b 3d 2f 0a a0 3c 3c 61 eb 3d de ea 90 bc
       0.049580596 0.019536106 0.11493155 -0.017690118
0000e0 82 28 40 3e e8 a4 2e be fd 13 eb 3c 9b d3 35 3e
       0.18765453 -0.17055094 0.028696055 0.17756502
0000f0 a2 b3 9e bd 5c 4e 90 3d d6 86 3e be 40 23 a4 bd
       -0.07749106 0.07046196 -0.18606123 -0.08014536
000100 32 db 2b bc e6 fd db 3c 33 88 84 3d 75 81 ed bd
       -0.010489272 0.026854467 0.064712904 -0.115969576
000110 2d 70 ab b9 11 7e 73 3d fc 76 25 bd c7 ed 68 3e
       -0.0003269924 0.0594464 -0.040396675 0.22746955
000120 cd 07 5a 3d f3 d7 9e bc bc 79 8e 3b 98 ae cc bb
       0.053230096 -0.019390082 0.004348008 -0.006246399
000130 c3 58 0a 3d 1a 57 01 3b a3 eb 16 be 05 f7 b6 3c
       0.033776056 0.0019735754 -0.14738326 0.022334585
000140 b8 ff a9 3c 44 d1 89 bd 8f d5 71 3d d5 90 e7 3d
       0.020751819 -0.067293674 0.059041556 0.113069214
000150 b0 e5 8b 3c 03 96 6d 3d 04 ae 25 bb 64 2f 0f bc
       0.017077297 0.05800439 -0.0025280723 -0.008739326
000160 26 19 29 bd 17 6b 9f 3d be 2f a7 3c 94 de bc 3d
       -0.04128375 0.07784098 0.020408507 0.09222141
000170 9e 92 2c ba d9 98 ca bc ab b4 31 bd 94 88 2d bd
       -0.0006583127 -0.024731087 -0.04338519 -0.04236658
000180 6d 4a a3 3c b4 65 ee bd 01 45 8c bd 0f 59 2b 3d
       0.01993295 -0.11640492 -0.06849099 0.04183298
000190 44 a2 13 3d a5 06 31 bd e0 9c a9 3e 67 e6 4b bd
       0.03604342 -0.043219227 0.331275 -0.049780276
0001a0 3a dd 33 3c f2 fd 79 3d 24 11 60 bc 8e e7 7c be
       0.0109780375 0.061033197 -0.013675962 -0.24697706
0001b0 2a 6f 8f 3b 3a 6d 12 bd 65 c4 5f 3c 60 50 44 3d
       0.0043772655 -0.035748698 0.013657664 0.047928214
0001c0 40 e1 57 3c 4a ec 56 bd aa f0 61 3d d0 77 70 3c
       0.013176262 -0.052471437 0.055161156 0.014677003
0001d0 65 8d 8b bd bf 5b 28 bb e7 93 df bd cb 1e 2b 3c
       -0.06814078 -0.002568945 -0.10916882 0.010444353
0001e0 9d d7 3b be 13 15 22 3e 47 28 34 bd 6a 04 31 be
       -0.18343969 0.15828352 -0.043983724 -0.1728684
0001f0 7c 63 a6 3d 0f d1 3e bd ab ea 41 3e 8c 04 a8 3d
       0.08124444 -0.046586093 0.18937175 0.08203992

action_model._discrete_distribution.branches.0.bias f4 [2]
000000 05 34 8c 3d 0a 34 8c bd
       0.068458594 -0.06845863

action_model._discrete_distribution.branches.1.weight f4 [2, 64]
000000 2f 09 7f 3c cc e0 2a bd 53 dc 7b bc 3c 4d 90 bc
       0.015566154 -0.04171829 -0.015372354 -0.017614953
000010 4e 62 e7 3c ed d2 0e 3e c6 8a 8a 3b b2 de 18 bd
       0.028245118 0.1394765 0.004227969 -0.037321754
000020 5b 69 96 3d f2 b9 a5 bd fb 38 9c 3c 0c fb f9 3c
       0.07344314 -0.08092107 0.01907014 0.030515216
000030 a3 8c 3c 3c 31 12 e1 3c d9 76 8a bd d5 a0 a7 3d
       0.01150814 0.027474495 -0.0676095 0.08184973
000040 42 b2 99 3b 64 2d 96 3c 99 04 4f 3d 94 d0 e9 bd
       0.0046904394 0.01833219 0.050541494 -0.11416736
000050 da 0b 06 bd a7 74 14 3d bc 43 f2 3d a4 3a 87 3d
       -0.032726146 0.03624406 0.118293256 0.06602982
000060 98 5d b4 3c fa 03 15 3e f7 f7 97 3b 3a 06 d2 bc
       0.022017285 0.14552298 0.004637714 -0.025637735
000070 8c a7 ed ba d7 99 67 3d 67 e5 9e 3c 33 94 59 3e
       -0.0018131598 0.056543197 0.019396497 0.2124794
000080 e6 c6 cf 3d 39 9e 33 3c 25 d2 4d 3d 3a fb 18 bd
       0.10145359 0.010963016 0.050249238 -0.037348963
000090 d8 97 2e 3e 62 5e da 3d e8 b0 5d bd d4 c9 ed 3d
       0.17050111 0.10662533 -0.05412379 0.11610761
0000a0 d2 4f b4 3d a9 58 93 3c ab ce e0 bd 96 64 0d be
       0.08804287 0.017986612 -0.10976919 -0.13807902
0000b0 19 c2 10 bb 9c e6 3b 3e c4 46 f0 3c df 99 a7 bd
       -0.0022088347 0.18349689 0.029330619 -0.081836455
0000c0 1a 07 1a bd 47 8f 83 3b 4d d2 0e be 9d 99 c4 3c
       -0.03760443 0.0040148827 -0.13947411 0.02399903
0000d0 51 70 13 3e ec a4 a0 3d 7a 1c 8e bc b5 19 86 3b
       0.14398314 0.07843956 -0.017347563 0.00409242
0000e0 a1 bf 57 bd 97 83 98 bc 98 61 0f be 00 45 f0 bd
       -0.052672986 -0.018617434 -0.14002073 -0.11731911
0000f0 a4 8b 79 bc 65 b8 78 bd 05 92 84 3c 99 42 f1 3b
       -0.015231047 -0.060722727 0.016182909 0.0073626754
000100 52 e7 bf bc ea 9f 0d 3d 5f ed 63 3c a6 ef 73 3c
       -0.023425732 0.034576334 0.013911574 0.01488868
000110 09 ae 17 3b 46 12 f8 bd 30 b9 81 bb d7 9e 3c 3d
       0.0023144505 -0.121128604 -0.0039588436 0.04604992
000120 7b 89 97 bd e9 46 7a 3d 8c 8d b4 bc ac f1 8c bc
       -0.07399269 0.06110278 -0.022040151 -0.017205082
000130 d5 3c 41 3c 61 ec 63 bc 57 15 9a 3d 45 94 a3 bd
       0.011794289 -0.013911338 0.075236015 -0.079872645
000140 81 76 df bb c7 54 a2 bc b1 27 51 bd e4 80 01 3e
       -0.0068195467 -0.019815816 -0.051063243 0.12646824
000150 af a8 1a 3d 4d 92 d8 bc 51 ae 08 be 95 49 8e bd
       0.037758525 -0.02643695 -0.13347746 -0.069476284
000160 99 67 bc bc db 49 11 be 7a 6f 5a b9 0c 72 c6 3b
       -0.022998618 -0.1418833 -0.00020831628 0.006056076
000170 4e 2f 5a bc 0c 5a 1b bd 55 94 71 3c 54 f7 50 be
       -0.013316942 -0.037927672 0.014744838 -0.20406848
000180 32 08 f1 bd 06 60 0a bd 16 19 2f bd 96 0a e4 3c
       -0.11769141 -0.03378298 -0.042748533 0.027837079
000190 91 a1 40 be 13 3b b1 bd 06 80 63 3d 95 83 d8 bd
       -0.18811633 -0.08653846 0.055542015 -0.10571972
0001a0 af c4 98 bd aa 05 e3 bc bd 18 e3 3d 47 95 0e 3e
       -0.074593894 -0.027712662 0.11088703 0.13924132
0001b0 b2 04 59 bc d3 e9 2c be 9c 7d 3d bb c2 97 74 3d
       -0.013245748 -0.16886072 -0.002891398 0.05971504
0001c0 00 4a 15 3c c8 7b f3 ba b2 54 03 3e 70 67 12 bd
       0.009111881 -0.0018576318 0.12825277 -0.035743177
0001d0 36 93 17 be 9f 36 96 bd 6d bd 94 3c 0d 10 b3 bc
       -0.1480225 -0.07334637 0.018156732 -0.02185824
0001e0 e8 e3 36 3d 26 56 60 bb 24 fe 29 3e 68 dd f8 3d
       0.044650942 -0.0034231036 0.16600853 0.12151605
0001f0 3e bc 25 3d fa 74 88 3d 84 60 d0 3c a5 72 2b bc
       0.040462725 0.066629365 0.025436647 -0.010464345

action_model._discrete_distribution.branches.1.bias f4 [2]
000000 be e9 ca bd bd e9 ca 3d
       -0.09907864 0.09907863

action_model._discrete_distribution.branches.2.weight f4 [2, 64]
000000 04 81 b4 bd 0c 33 b6 3b 89 e2 8f bd 6e fe aa bd
       -0.0881367 0.0055602845 -0.0702563 -0.0834931
000010 f4 a3 90 bc b3 87 67 bc 65 50 53 3d 19 f7 8f bd
       -0.017656304 -0.014131474 0.051590342 -0.07029552
000020 b2 8f fc 3c 52 bd 1c be 12 6e 5a 3e 26 38 d4 3c
       0.030830238 -0.15306595 0.21331051 0.02590568
000030 57 e3 0c bd 02 90 c2 3a ae 87 79 bd 68 9b 8e 3d
       -0.034396496 0.0014843943 -0.06092041 0.06963235
000040 47 63 b5 3d c1 e7 35 3d b6 d3 1f 3d a0 ac 18 3e
       0.08856826 0.04441047 0.039020263 0.14909601
000050 ed 13 96 bd 14 0d db bd b2 ac 23 3d 79 66 ca bc
       -0.07328019 -0.10695854 0.039959617 -0.024707066
000060 d8 59 c4 3d 3e 11 5b 3b c4 93 fb bc 4b 1c 37 3d
       0.09587449 0.0033427025 -0.030710109 0.044704717
000070 30 14 25 3c 00 a3 ec 3d d7 05 d3 bd 0e 9c 51 bd
       0.010075614 0.11554527 -0.10303848 -0.051174216
000080 9f 8d fc 3c 24 e5 ab 3c 59 6e 1a 3c 1e 68 d0 3c
       0.030829249 0.020983286 0.009425723 0.025440272
000090 b8 e6 75 bd 67 42 7f bd a4 27 1c 3d 8e a1 81 bd
       -0.060034484 -0.062319186 0.03812374 -0.06329642
0000a0 11 74 cd 3d 7b f2 e5 bc f5 18 a3 bd a5 ff dc bc
       0.100319035 -0.028069725 -0.079637446 -0.02697737
0000b0 fc 1a 8e bb 78 b7 80 3b 5b f6 d7 3d 8d c0 08 be
       -0.004336713 0.003928121 0.105450355 -0.13354702
0000c0 e9 f0 66 3d 9d 48 b3 bd cb cf c6 3d cc 2c fe bc
       0.056382094 -0.08754084 0.09707602 -0.03102722
0000d0 9c 5c 87 3c 98 ec 11 bd 52 89 f2 3d 38 f0 dd 3b
       0.016523652 -0.035626024 0.11842598 0.006773021
0000e0 8d e8 97 bd 68 ef 18 3d e6 8b 42 3c d9 e2 53 3d
       -0.074174024 0.03733769 0.011874175 0.05173001
0000f0 ed 1a d9 ba 86 ea f4 bd b2 33 57 3d ec af 3c 3d
       -0.0016563811 -0.11958794 0.052539535 0.04606621
000100 09 79 56 3d 25 2e 4a 3b 0e 23 eb 3d 31 1d da 3d
       0.052361522 0.0030850258 0.114812955 0.10650099
000110 59 c1 5d bb 73 ad c1 3c 75 fd 89 bd b2 ac 62 3d
       -0.0033837168 0.023642277 -0.06737796 0.055340476
000120 5d c5 39 bd b8 56 0b 3e 9b 56 43 be d6 fa a2 bc
       -0.045354236 0.136073 -0.19076006 -0.019894999
000130 d8 47 01 3d 26 78 44 3c b1 c2 89 3d 76 0f 99 bd
       0.031562656 0.011991536 0.067265876 -0.07473652
000140 19 dc 8d bd a2 be 21 bd f6 d4 4d bd b1 2a 40 be
       -0.06926746 -0.039488442 -0.050251924 -0.18766285
000150 a9 01 7f 3d d4 62 de 3d 7d bf 06 bd 1d f5 08 3d
       0.062257443 0.10858694 -0.03289746 0.033436883
000160 10 7c b1 bd 60 6b 07 bc 51 f7 ba 3c cc 44 12 bd
       -0.08666241 -0.008265346 0.022823008 -0.03571014
000170 f5 02 9c bb 6b 15 f2 bd bf 40 a4 3d aa 4b 7e 3d
       -0.0047610947 -0.118204914 0.08020162 0.062083878
000180 cc 11 0b bd 62 4e e0 bb b4 85 f6 bc f6 cd 30 bd
       -0.03395252 -0.0068452815 -0.030093051 -0.04316517
000190 43 a5 c8 3d fd 16 80 3d 25 8a 90 bd 0b f5 a2 3d
       0.09797146 0.06254385 -0.07057599 0.079568945
0001a0 05 65 ab bd ad 36 cd 3c 14 51 9d 3d ba a1 5c 3d
       -0.08368877 0.025050486 0.0768148 0.053865172
0001b0 67 75 3e 3c b5 f7 84 bc 58 f9 b6 bd 15 58 0d 3e
       0.011624671 -0.016231397 -0.08934277 0.13803132
0001c0 66 26 a9 bd 38 14 b3 3d 60 8f d6 bd ae 3b dd 3c
       -0.08259277 0.08744091 -0.10476565 0.027005997
0001d0 f2 26 3c bd 08 54 98 3c b9 c3 02 be 2d 7c 67 bb
       -0.04593558 0.018594757 -0.12769975 -0.0035321817
0001e0 63 30 bc 3d 81 78 be bc 5c 26 03 bd 2f 97 67 bd
       0.091889165 -0.02325082 -0.032019004 -0.056540664
0001f0 67 77 bc bc 0b 90 fd 3d 44 06 51 bd 60 68 05 bd
       -0.023006154 0.1238099 -0.051031366 -0.032570243

action_model._discrete_distribution.branches.2.bias f4 [2]
000000 11 f4 be bd 17 f4 be 3d
       -0.09323896 0.093239

onnx::Div_114 f4 [21]
000000 cf f1 e1 3a 21 c4 1f 3b 21 c4 1f 3b cf f1 e1 3a
       0.0017238202 0.0024378377 0.0024378377 0.0017238202
000010 21 c4 1f 3b 21 c4 1f 3b cf f1 e1 3a 21 c4 1f 3b
       0.0024378377 0.0024378377 0.0017238202 0.0024378377
000020 21 c4 1f 3b cf f1 e1 3a 21 c4 1f 3b 21 c4 1f 3b
       0.0024378377 0.0017238202 0.0024378377 0.0024378377
000030 cf f1 e1 3a 21 c4 1f 3b 21 c4 1f 3b cf f1 e1 3a
       0.0017238202 0.0024378377 0.0024378377 0.0017238202
000040 21 c4 1f 3b 21 c4 1f 3b cf f1 e1 3a 21 c4 1f 3b
       0.0024378377 0.0024378377 0.0017238202 0.0024378377
000050 21 c4 1f 3b
       0.0024378377

onnx::Div_117 f4 [49]
000000 dc 7d ff 3e fc 57 c3 3d cf f1 e1 3a cf f1 e1 3a
       0.4990071 0.09538266 0.0017238202 0.0017238202
000010 b0 55 e4 3e 90 24 dd 3e 24 51 b2 3e 02 b7 c8 3e
       0.44596624 0.43191957 0.3482753 0.39202124
000020 2a f7 79 3d cf f1 e1 3a cf f1 e1 3a 38 91 96 3e
       0.06102673 0.0017238202 0.0017238202 0.29407668
000030 47 ba 92 3e 6f c8 97 3e f1 b8 f5 3e 7d 89 6a 3d
       0.28657743 0.29645106 0.47992662 0.057260025
000040 cf f1 e1 3a cf f1 e1 3a 32 12 c1 3e a2 a3 c2 3e
       0.0017238202 0.0017238202 0.37709194 0.38015467
000050 cb d2 a3 3e 80 6d 78 3e c3 7c 8c 3c cf f1 e1 3a
       0.3199676 0.24260521 0.017149335 0.0017238202
000060 cf f1 e1 3a f7 d9 58 3e d9 8e fc 3d 10 1f 82 3e
       0.0017238202 0.21176897 0.123319335 0.25414324
000070 75 4a b5 3e 99 c3 74 3d cf f1 e1 3a cf f1 e1 3a
       0.3540837 0.05975685 0.0017238202 0.0017238202
000080 3e 33 8f 3e c5 6e 49 3e fd c8 5a 3e 26 24 6a 3e
       0.27968782 0.19671161 0.21365733 0.22865352
000090 a3 cd 77 3c cf f1 e1 3a cf f1 e1 3a a2 ed 4f 3e
       0.015124711 0.0017238202 0.0017238202 0.20305493
0000a0 27 4a df 3d c9 1e 7c 3e bb d0 95 3e 06 16 ac 3d
       0.10902815 0.24621119 0.2926081 0.08402638
0000b0 cf f1 e1 3a cf f1 e1 3a ec aa 63 3e 83 8a 00 3e
       0.0017238202 0.0017238202 0.2223317 0.12552838
0000c0 66 1f 24 3e
       0.16027603

onnx::Div_120 f4 [35]
000000 e6 a5 b4 3d 1d 83 a0 3d cf f1 e1 3a 68 d0 f0 3d
       0.08820705 0.07837508 0.0017238202 0.117585
000010 07 b2 86 3d 39 e6 b3 3d cf 3a 8d 3d cf f1 e1 3a
       0.06576925 0.08784146 0.068959825 0.0017238202
000020 d9 07 e4 3d ff 6f 83 3d 9b d5 a2 3d a3 82 02 3d
       0.11134309 0.06417846 0.07950898 0.031862866
000030 cf f1 e1 3a b0 44 af 3d e3 0a 75 3d a9 cb aa 3d
       0.0017238202 0.08558023 0.059824836 0.08339626
000040 30 5c 0e 3d cf f1 e1 3a a1 d7 b8 3d 40 b7 63 3d
       0.034755886 0.0017238202 0.09025503 0.055594683
000050 0f e5 40 3d 1b 84 fa 3c cf f1 e1 3a 15 d8 65 3d
       0.047093447 0.03058057 0.0017238202 0.056114275
000060 dd 88 28 3d 7c f8 8d 3d 91 27 88 3d cf f1 e1 3a
       0.041146148 0.0693216 0.06648172 0.0017238202
000070 ec 3f c4 3d b6 60 2b 3d 3d 6f d0 3c 1b 0d 92 3c
       0.09582505 0.041840278 0.025443668 0.017828515
000080 cf f1 e1 3a 36 75 fe 3c 2d 18 b1 3c
       0.0017238202 0.03106175 0.021617973
