Assets/GG/Subway/phase2/AI NPC/Brain/competitor-12499939.onnx (onnx, 47196 bytes, 17 tensors)

discrete_act_size_vector f4 [1, 3]
0	0x40000000	2.0
1	0x40000000	2.0
2	0x40000000	2.0

network_body.observation_encoder.processors.0.normalizer.running_mean f4 [28]
0	0x3e6e83c4	0.23292452
1	0x3c06b703	0.008222344
2	0x3f42433b	0.75883836
3	0x3f4b3be2	0.7938825
4	0x3e54bf83	0.20776181
5	0x3c02fe73	0.007995236
6	0x3f48c3a5	0.7842353
7	0x3f502c96	0.8131803
8	0x3e6a062e	0.2285392
9	0x3b9bf0fc	0.004758952
10	0x3f444655	0.7666982
11	0x3f4d6314	0.80229306
12	0x3e0d46fe	0.13796613
13	0x3c0b5657	0.008504472
14	0x3f5a8219	0.85354763
15	0x3f5e2839	0.86780125
16	0x3e142c5c	0.14470047
17	0x3b0623dd	0.0020468154
18	0x3f5a6e64	0.8532469
19	0x3f5df19e	0.86696804
20	0x3dad0dfc	0.08449933
21	0x3c03a0be	0.008033929
22	0x3f684d7b	0.90743226
23	0x3f6a8459	0.91608196
24	0x3dba7fbf	0.09106397
25	0x3ad7107e	0.0016408113
26	0x3f68453e	0.90730655
27	0x3f6a1f51	0.91454035

network_body.observation_encoder.processors.1.normalizer.running_mean f4 [28]
0	0x3ea28218	0.3173988
1	0x3d1824b4	0.037144378
2	0x3f24d1b1	0.64382464
3	0x3f64538b	0.89189976
4	0x3f314b94	0.6925595
5	0x3d70329e	0.058642022
6	0x3e7eb9cb	0.24875562
7	0x3f0e06f8	0.55479383
8	0x3f43e4c3	0.7652094
9	0x3d0a7852	0.033806153
10	0x3e36664f	0.17812465
11	0x3effda4f	0.49971244
12	0x3f501a9e	0.81290615
13	0x3e07d57c	0.13265032
14	0x3d5ed0d7	0.054398384
15	0x3ed33c1f	0.41256806
16	0x3f5b3bb1	0.85637957
17	0x3cccf5c4	0.025019534
18	0x3dc817fc	0.097702
19	0x3e9a875b	0.30181393
20	0x3f57e217	0.8432936
21	0x3e1eab97	0.15495144
22	0x3ae152d2	0.001719082
23	0x3eb43969	0.3520005
24	0x3f64b48b	0.89337987
25	0x3c92667d	0.017871136
26	0x3d85c3fd	0.065315224
27	0x3e85fb35	0.26168218

network_body.observation_encoder.processors.2.normalizer.running_mean f4 [7]
0	0x4367b420	231.70361
1	0x424c8dbd	51.138416
2	0x424e191a	51.524513
3	0x424b6e48	50.857697
4	0x424caab5	51.166706
5	0x424d889a	51.3834
6	0x424ad3d2	50.706856

network_body._body_endoder.seq_layers.0.weight f4 [64, 63]
0	0xbc866013	-0.016403234
1	0x3d1878d4	0.037224606
2	0xbdc33d5c	-0.09533188
3	0x3e55d953	0.20883684
4	0x3eeec71d	0.46636286
5	0xbeee2f97	-0.46520683
6	0xbe512101	-0.20422746
7	0x3d6f7b42	0.058467157
8	0xbc1151cb	-0.008869599
9	0x3f293cf4	0.6610863
10	0xbd8e1ff3	-0.069396876
11	0x3e01e380	0.1268444
12	0x3f3a9ddd	0.7289713
13	0xbd44a549	-0.04800919
14	0xbdbaeace	-0.09126817
15	0xbe340131	-0.1757858
16	0xbe36d110	-0.17853189
17	0x3f6ee896	0.9332365
18	0x3ca33856	0.019924324
19	0xbe8efa8d	-0.2792553
20	0x3f11aad8	0.5690131
21	0xbe9480e8	-0.29004598
22	0x3e292874	0.16519338
23	0xbd096bce	-0.033550076
24	0xbefeee1d	-0.4979104
25	0x3f01b285	0.50663024
26	0x3f4d9800	0.8031006
27	0x3f47e8e0	0.78089714
28	0x3fb114f0	1.3834515
29	0xbeab9791	-0.33514073
30	0xbf7c4e45	-0.9855693
31	0xbed0df15	-0.40795198
32	0x3f008f9e	0.5021914
33	0xbe924ada	-0.28572732
34	0x3e023d29	0.12718643
35	0x3fe4d0bb	1.78762
36	0x3e503a1e	0.2033467
37	0x3fd0bade	1.6307027
38	0xbfa3b362	-1.2789118
39	0xbf920f5a	-1.1410935
40	0xbe0acfb3	-0.13555793
41	0x3e93a4fe	0.28836817
42	0xbed49755	-0.41521707
43	0x3d0be6f6	0.03415581
44	0x3dbaa63d	0.09113739
45	0xbdc91448	-0.098183215
46	0xbe94fea2	-0.2910052
47	0x3ebca3f9	0.3684385
48	0xbde72061	-0.11285473
49	0x3eb3a7d0	0.35088968
50	0x3f2cece3	0.6754896
51	0xbf2a85be	-0.66610324
52	0x3dc080b6	0.0939955
53	0xbf9fca3c	-1.2483592
54	0x3f8da3cb	1.1065611
55	0x3ec740ec	0.3891672
56	0x3eeb015a	0.4589947
57	0xbc97509f	-0.01847106
58	0xbf23cc37	-0.6398348
59	0x3f129944	0.57265115
60	0x3e814aec	0.25252473
61	0xbf3cc54a	-0.7373854
62	0x3eac0b7e	0.33602518
63	0x3ea381a7	0.31934854
64	0x3f2318bd	0.6370962
65	0xbea3f036	-0.32019204
66	0xbf18bdcb	-0.596646
67	0x3ee7898d	0.4522213
68	0x3e8c2881	0.27374652
69	0xbe506044	-0.20349222
70	0xbefafc4a	-0.49020606
71	0xbf26ec5e	-0.6520442
72	0xbec2c76e	-0.38042778
73	0x3f6635de	0.89925945
74	0x3f0c4ece	0.54807746
75	0x3ed7eb5c	0.42171752
76	0x3f316f52	0.69310486
77	0xbe777ed4	-0.24169475
78	0xbe8580df	-0.26074883
79	0x3fafc199	1.3730956
80	0x3f3d5856	0.73962915
81	0xbf9b393f	-1.2126845
82	0xbf7bfb7f	-0.9843063
83	0xbf1f4e6f	-0.62229055
84	0x3f84ef40	1.0385513
85	0x3f008c6b	0.5021426
86	0x3f2f893b	0.6856877
87	0xbf0d7948	-0.55263186
88	0x3ebe1c09	0.37130764
89	0x3f2ba089	0.6704183
90	0x3f376d09	0.7165075
91	0x3f6f5057	0.93481964
92	0xbf0cec0d	-0.55047685
93	0xbec71a2b	-0.38887152
94	0x3db67284	0.08908561
95	0x3f61d5de	0.8821696
96	0xbea5485d	-0.3228177
97	0xbf9998e7	-1.1999787
98	0xbf80cbb2	-1.0062163
99	0x3e2adb92	0.16685322
100	0xbfc4516b	-1.5337347
101	0x3f4cdd7e	0.8002547
102	0xbec52f10	-0.38512468
103	0xbf09361c	-0.5359819
104	0x3f60d480	0.8782425
105	0xbeeb5391	-0.45962194
106	0xbee50740	-0.44732094
107	0x3e967a73	0.29390296
108	0xbe5c5776	-0.21517739
109	0x3e4cec3c	0.20011991
110	0x3eadb258	0.33925128
111	0xbf25c512	-0.6475383
112	0x3de55779	0.11198325
113	0x3f59df51	0.8510638
114	0x3f6a4e4d	0.9152573
115	0xbee019c2	-0.43769652
116	0xbf811b2d	-1.0086418
117	0x3f245c65	0.6420348
118	0x3f5dbfef	0.8662099
119	0x3fd4fa75	1.6638933
120	0xbf8b129e	-1.0865057
121	0xbf4d7a8c	-0.80265117
122	0x3f01c554	0.50691724
123	0xbe1f1434	-0.1553505
124	0xbf0b2244	-0.5434916
125	0xbec04295	-0.37550798
126	0xbb08350a	-0.0020783567
127	0x3e83d68d	0.25749627
128	0x3ea36bbc	0.31918132
129	0x3e24647c	0.16053957
130	0x3ebf959b	0.37418827
131	0x3f08e683	0.5347673
132	0x3d88cff9	0.06680293
133	0x3e1fa3c8	0.15589821
134	0xbe85893a	-0.26081258
135	0x39c5cdf7	0.00037728224
136	0x3e9e856c	0.30961168
137	0xbe965dd8	-0.29368472
138	0x3eb94c95	0.3619124
139	0xbf5d6d0c	-0.8649452
140	0x3f17f4a3	0.5935766
141	0x3f1b1282	0.60575116
142	0xbd8ae3f8	-0.06781763
143	0x3f219b4a	0.6312758
144	0x3e696201	0.22791292
145	0x3e35605b	0.17712538
146	0x3f2b8d8d	0.67012864
147	0x3ee8a9e5	0.4544212
148	0xbe802eca	-0.25035697
149	0xbe9685f2	-0.29399067
150	0xbe0a7e76	-0.13524804
151	0xbd8374a3	-0.06418731
152	0x3c2bdf4e	0.010490252
153	0xbed66350	-0.41872644
154	0x3ef6899a	0.48151857
155	0xbe16b4ba	-0.14717379
156	0xbd9a05af	-0.07520615
157	0xbfa7b23d	-1.3101269
158	0xbecd2d7a	-0.40073758
159	0x3e901d3b	0.281473
160	0x3eb5c6bb	0.35503182
161	0xc02cfad4	-2.7028093
162	0x3f648256	0.89261377
163	0x3ec341e6	0.38136214
164	0xbec62e4f	-0.38707206
165	0x3ff0bc82	1.8807528
166	0xbf1860f2	-0.59522927
167	0x3f6bd2dd	0.92118627
168	0xbf16407b	-0.5869214
169	0xc007115a	-2.110434
170	0x3f3d96f5	0.7405847
171	0xbfe4203f	-1.7822341
172	0x3ee90dcb	0.45518336
173	0x3e2ac4a1	0.1667657
174	0x3f646918	0.8922286
175	0xbf1ce8ee	-0.6129292
176	0x3f2c55ec	0.67318606
177	0xbfad3fa2	-1.3535044
178	0xbe95bca7	-0.29245493
179	0x3f527b46	0.8221935
180	0xbe98a50e	-0.29813427
181	0xbda900f3	-0.08252134
182	0x3f057f11	0.5214701
183	0xbe5a7134	-0.21332246
184	0xbd0a27da	-0.03372941
185	0xbeb51c8e	-0.35373348
186	0x3ee5b86c	0.44867265
187	0xbf01174d	-0.5042618
188	0xbeffce65	-0.49962154
189	0x3f8bbc58	1.0916853
190	0x3f8e3f98	1.1113157
191	0xbfd4b302	-1.6617129
192	0xbfbb9f4d	-1.465799
193	0xbf3cf77f	-0.7381515
194	0x3f9e909c	1.2387881
195	0xbe5707e0	-0.20999098
196	0xbec01af5	-0.37520567
197	0x3f46276c	0.77403903
198	0x3e30b7ed	0.17257662
199	0xbf838026	-1.0273483
200	0xbf5e319d	-0.86794454
201	0xbe0e3500	-0.13887405
202	0x3f06499d	0.52456075
203	0x3e2df4c5	0.16987903
204	0xbd007eff	-0.031371113
205	0xbe677756	-0.22604117
206	0x3ebd9cb9	0.37033632
207	0xbdbe4cde	-0.09292005
208	0xbc024dc2	-0.007953109
209	0xbeeeb41b	-0.46621785
210	0x3f76df3d	0.96434385
211	0xbdc732f3	-0.09726515
212	0xbe909878	-0.28241324
213	0xbf5756d5	-0.8411687
214	0x3f82415f	1.01762
215	0x3ebfb98b	0.37446246
216	0x3eb0f0a2	0.34558588
217	0x3f48ecbd	0.78486234
218	0x3e6b6209	0.22986616
219	0xbf206a82	-0.6266252
220	0xbf89c527	-1.0763291
221	0xbefd8af8	-0.49520087
222	0x3f1ef286	0.6208881
223	0xbd3b2575	-0.04569002
224	0x3beb5eed	0.007182947
225	0x3e39ab9e	0.18131873
226	0xbdfa0208	-0.12207419
227	0x3f72f01f	0.94897646
228	0xc00afeba	-2.1717973
229	0x3f60083c	0.87512565
230	0xbf4a4eff	-0.7902679
231	0x3f8ddebd	1.1083599
232	0xbe502474	-0.20326406
233	0xbf81c418	-1.0137968
234	0x3f147bb7	0.58001274
235	0x3fdd1652	1.7272437
236	0xbfa18dcc	-1.2621398
237	0xbdb7455c	-0.08948776
238	0x3e203ada	0.1564745
239	0xbf52c294	-0.8232815
240	0xbed3ae0d	-0.41343728
241	0xbe1b3c4a	-0.15159717
242	0x3f639308	0.88896227
243	0x3e79df27	0.24401532
244	0xbf670a76	-0.9025034
245	0xbd74b3c3	-0.059741747
246	0xbf077bce	-0.52923286
247	0x3f71c486	0.94440496
248	0xbdde9c66	-0.108696744
249	0xbf0b747c	-0.54474616
250	0x3f06aa9a	0.5260407
251	0x3fba1839	1.4538642
252	0x3f38fda6	0.72262037
253	0x4003223e	2.048965
254	0xbf3c72de	-0.73612773
255	0xbf3c7891	-0.7362147

network_body._body_endoder.seq_layers.0.bias f4 [64]
0	0xc022055d	-2.5315773
1	0xbff202a0	-1.8907051
2	0xbfd99577	-1.6998738
3	0xbf8b5ce6	-1.0887725
4	0xbec51ea3	-0.38499936
5	0xc013b940	-2.3081818
6	0xbfe0fede	-1.7577779
7	0xbff4d460	-1.9127312
8	0xbf8b4b6b	-1.0882391
9	0xc01499fa	-2.321898
10	0xbfefbbf0	-1.8729229
11	0xc0102c6a	-2.2527108
12	0xbf2c3f89	-0.67284447
13	0xbff16ebe	-1.8861921
14	0xc015ce83	-2.3407295
15	0xbfbe9d0c	-1.4891677
16	0xbf9dc031	-1.2324277
17	0xbfc9f0e9	-1.5776645
18	0xc000b349	-2.0109427
19	0xbf8b4b47	-1.0882348
20	0xc0587faf	-3.3827932
21	0xbfef614e	-1.870157
22	0xc0389707	-2.884218
23	0xbfd2eabc	-1.6477885
24	0xc03ceac1	-2.9518282
25	0xbffcbf26	-1.9745834
26	0xbf6ca272	-0.9243537
27	0xbfd7f9a0	-1.6873055
28	0xbf76a9a9	-0.9635263
29	0xbf1060a8	-0.56397486
30	0xbf80f37e	-1.0074308
31	0xbf8b244e	-1.0870454
32	0xc0545aa3	-3.318032
33	0xbf348f7c	-0.7053144
34	0xc00597e2	-2.0873952
35	0xbfd16f5f	-1.6362113
36	0xbf7cb6ec	-0.98716617
37	0xbfd0bb8d	-1.6307236
38	0xc002cc6f	-2.0437276
39	0xbfcbee9c	-1.5932193
40	0xbfa814cd	-1.3131348
41	0xbf211f83	-0.6293871
42	0xbfb892f0	-1.4419842
43	0xc015e9e8	-2.3424015
44	0xbf92e219	-1.147525
45	0xbf94a04c	-1.1611419
46	0xbfe7e6ff	-1.811737
47	0xbfb110ab	-1.3833212
48	0xbfb90dfa	-1.445739
49	0xc00d7bd8	-2.2106838
50	0xc01bda18	-2.4351864
51	0xbff89c91	-1.942278
52	0xbf8ac2e2	-1.0840724
53	0xbf7e2968	-0.9928193
54	0xbef71119	-0.48255232
55	0xbf326e15	-0.6969922
56	0xc02b6bec	-2.678462
57	0xc03f59cf	-2.9898565
58	0xbfd36dd7	-1.6517895
59	0xbfbb25be	-1.4620893
60	0xbe5da694	-0.21645576
61	0xc010140c	-2.2512236
62	0xbfc12a58	-1.5091047
63	0xbf743e8f	-0.95407957

network_body._body_endoder.seq_layers.2.weight f4 [64, 64]
0	0x3d9443fb	0.07239529
1	0xbf3baa4b	-0.7330672
2	0x3d53a707	0.05167296
3	0xbdda3e2c	-0.106563896
4	0x3ed3250b	0.412392
5	0xbf0bad1c	-0.5456102
6	0x3f39955f	0.7249355
7	0xbf6de594	-0.92928433
8	0xbf00bc81	-0.50287634
9	0xbf2d5246	-0.67703664
10	0xbe848dc6	-0.25889415
11	0xbe972475	-0.29520002
12	0xbf2e4309	-0.6807104
13	0xbf989b83	-1.1922458
14	0xbd7c678f	-0.0616222
15	0x3ef809cf	0.48444983
16	0xbfa2f646	-1.2731407
17	0xbf266571	-0.6499854
18	0xbfc8710a	-1.5659497
19	0xc00af1ba	-2.1710038
20	0x3f009e26	0.50241315
21	0xbf6abd3f	-0.91695017
22	0x3f9d85e7	1.2306489
23	0x3f03982c	0.5140407
24	0x3d4c2bbe	0.049846403
25	0x3ed4af85	0.4154016
26	0xbe918d4a	-0.28428108
27	0xbf0b4ce2	-0.5441419
28	0x3de0294e	0.10945378
29	0xbe48f8e4	-0.19626194
30	0x3e9daf02	0.30797583
31	0xbf90150e	-1.1256425
32	0xbfa99e16	-1.3251369
33	0x3eeaeeca	0.45885307
34	0xbf64d935	-0.8939393
35	0xbfc6a796	-1.5519893
36	0x3f2560f8	0.6460109
37	0xbf93c90c	-1.154573
38	0xbe8f48ef	-0.2798533
39	0x3f3b7c2f	0.73236364
40	0xbf163dc1	-0.5868798
41	0x3df058b9	0.117356725
42	0x3cb707bc	0.022342555
43	0xbdc4e34d	-0.09613667
44	0x3eaa8de1	0.3331137
45	0x3e9908ee	0.29889625
46	0xbf66415b	-0.89943475
47	0x3f828f1c	1.0199924
48	0xb9c33f7c	-0.00037240598
49	0xbe455844	-0.19271952
50	0xbea035a5	-0.31290928
51	0xbfec8ac6	-1.847985
52	0xbff81e24	-1.9384198
53	0xbf4bf43e	-0.7966956
54	0xbf0a92c2	-0.54130185
55	0x3d4827b5	0.048865993
56	0x3f25b4c4	0.6472895
57	0xbd5530bc	-0.05204843
58	0xbea0b1e2	-0.31385714
59	0xbf137f51	-0.57616144
60	0xbecca6f2	-0.3997112
61	0xbf8c665c	-1.0968738
62	0xbf9c2b25	-1.2200667
63	0xbf2cae01	-0.6745301
64	0xbeeed7ea	-0.46649104
65	0xbea89239	-0.3292406
66	0x3f3968c9	0.72425514
67	0xbf7c9b2c	-0.98674273
68	0xbf565642	-0.8372537
69	0xbee0f269	-0.43934944
70	0xbf9e6ddb	-1.2377275
71	0xbd6f9d00	-0.058499336
72	0xbf85d4ac	-1.0455527
73	0x3e490372	0.1963022
74	0xbf427ccd	-0.7597168
75	0xbfa71466	-1.30531
76	0x3ed4d1c9	0.41566303
77	0xbec82e3a	-0.39097768
78	0x3f7aa306	0.97905004
79	0xbc64b53f	-0.013959228
80	0xbf838d75	-1.0277544
81	0xbe9e47a7	-0.3091404
82	0x3f13f59f	0.57796663
83	0xbd26d32d	-0.040728737
84	0x3eb0f9ea	0.3456567
85	0x3edef9dc	0.43550003
86	0x3d41e8bc	0.047341093
87	0xbeaa1c5c	-0.3322476
88	0xbde3478a	-0.11097629
89	0x3ebfdfa3	0.3747531
90	0xbf8d1e5c	-1.102489
91	0xbf9d4bb6	-1.228873
92	0xbf92c580	-1.1466522
93	0xbe148660	-0.14504385
94	0x3ce73d75	0.028227547
95	0xbfc39045	-1.5278403
96	0x3f283972	0.65712655
97	0xbfa85177	-1.3149861
98	0xbf1e2236	-0.6177095
99	0xbf925e56	-1.1435039
100	0xbf94a530	-1.1612911
101	0x3ee4576b	0.44597945
102	0xbe15f797	-0.1464523
103	0xbf588fe4	-0.8459456
104	0xbf6f5409	-0.934876
105	0xbde1014a	-0.10986574
106	0xbfab316d	-1.3374459
107	0xbc7aa387	-0.015297777
108	0xbf2b5788	-0.6693044
109	0x3f3e2842	0.7428018
110	0x3d8bc9bc	0.06825587
111	0xc005eff7	-2.0927713
112	0x3eb5a912	0.35480553
113	0xbeced8d8	-0.40399814
114	0x3ccb88d1	0.024845513
115	0xbf01d178	-0.5071025
116	0xbf25dd60	-0.64790916
117	0x3f28a301	0.65873724
118	0xbf208ef4	-0.6271813
119	0x3e3b6bfa	0.18302909
120	0xbfa42631	-1.2824155
121	0x3db2c567	0.08729058
122	0x3f34a2a6	0.7056068
123	0xbe6d2798	-0.23159635
124	0xbeb5d48e	-0.3551373
125	0xbfd5edec	-1.6713233
126	0xbeff8ba9	-0.4991124
127	0x3cbeee87	0.023307098
128	0x3e951fed	0.2912592
129	0x3e9800bf	0.2968807
130	0x3f5d9c34	0.8656647
131	0xbf322c0a	-0.6959845
132	0xbf5e8488	-0.86920977
133	0xbefcaaa7	-0.49348947
134	0x3f4fde95	0.8119901
135	0x3e9e3d03	0.30905923
136	0xbe3e142c	-0.18562382
137	0x3f15ae8a	0.5846945
138	0xbe076f3a	-0.13226023
139	0x3f83c1cf	1.0293521
140	0x3ecf82c1	0.40529445
141	0xbfd1e70d	-1.6398636
142	0x3f074155	0.52834064
143	0xbec13123	-0.377328
144	0xbf55114a	-0.83229506
145	0xbe5fdb9e	-0.21861121
146	0x3dae0ea8	0.08498889
147	0x3e88da1b	0.267289
148	0xbedb4864	-0.42828667
149	0xbf610f36	-0.87913835
150	0x3c9de0ff	0.019272326
151	0x3f70f66c	0.9412601
152	0xbeeda95d	-0.46418276
153	0x3f16f9b5	0.5897477
154	0x3f91d2b9	1.1392432
155	0xbff129bd	-1.8840863
156	0xbfa8c639	-1.3185493
157	0xbef4ccc3	-0.4781247
158	0xbfa80ba9	-1.3128558
159	0xc06876d8	-3.6322536
160	0xbfd3c6c0	-1.6545029
161	0xbe5270b4	-0.20550805
162	0xbf3b1e84	-0.7309344
163	0x3dd512f4	0.10404006
164	0xbfc74861	-1.5568963
165	0xbeb99fb5	-0.3625466
166	0xbeac140f	-0.33609053
167	0xbf78f59d	-0.97249776
168	0xbda729dd	-0.08162282
169	0xc004676a	-2.068812
170	0xbe612dd1	-0.21990134
171	0x3d6cf0b8	0.057846755
172	0xbf26325e	-0.64920604
173	0xbd4ba8c6	-0.0497215
174	0x3f13a0c0	0.5766716
175	0x3f5ad4c0	0.8548088
176	0xbebca43b	-0.36844048
177	0xbe03bd16	-0.128651
178	0x3e8a0968	0.269603
179	0xbad85065	-0.0016503452
180	0xbebdb27a	-0.3705023
181	0xbea53195	-0.3226439
182	0xbf78905d	-0.9709528
183	0xbfab2afe	-1.3372495
184	0xbf8ee3b2	-1.1163237
185	0xbfc69cbf	-1.5516585
186	0x3f0a8362	0.54106724
187	0x3f484175	0.7822488
188	0xbe9d2e68	-0.30699468
189	0xbe4dda14	-0.20102721
190	0xbfac9ed7	-1.3485974
191	0xbf68079f	-0.9063663
192	0x3f5d7c6d	0.86517984
193	0xbf838850	-1.0275974
194	0x3f92f6c3	1.1481556
195	0x3f1a24c9	0.6021238
196	0xbec1e7eb	-0.37872252
197	0xbf0a773f	-0.54088205
198	0xbf3e84cd	-0.7442139
199	0xbe4b43d0	-0.19850087
200	0xbf172257	-0.59036773
201	0x3f1884e1	0.5957776
202	0x3f1a18cc	0.6019409
203	0x3ee1998e	0.44062465
204	0xbf9391c1	-1.1528856
205	0xbf83c529	-1.0294544
206	0x3f244dfb	0.6418149
207	0x3de7391f	0.11290192
208	0xbed3165c	-0.41227996
209	0xbf5968d4	-0.8492558
210	0x3cd0979c	0.025462918
211	0xbe75d413	-0.24006681
212	0x3f54a314	0.8306134
213	0xbf913a6a	-1.1345952
214	0x3e602492	0.2188895
215	0xbdd19bb6	-0.10234778
216	0x3ee5210b	0.44751772
217	0xbf310165	-0.6914275
218	0xbec92bd2	-0.39291245
219	0x3ebe2e88	0.37144876
220	0x3f57b9c3	0.84267825
221	0x3ea3d847	0.32000944
222	0xbf49ba0f	-0.7879953
223	0xbeef2311	-0.4670644
224	0xc0055fed	-2.0839798
225	0x3e1d8d92	0.15386036
226	0xbf010bc9	-0.5040861
227	0x3f5f3657	0.8719229
228	0xbf882ce0	-1.0638695
229	0x3f54a3aa	0.8306223
230	0xbf75618d	-0.95851976
231	0xbf558bc5	-0.83416396
232	0xbfeaa88c	-1.8332686
233	0xbf93c2d8	-1.1543837
234	0xba833249	-0.0010009493
235	0xbffd2fbc	-1.9780192
236	0xc02283fc	-2.5393057
237	0x3f1969e6	0.59927213
238	0x3dfefe4d	0.12450848
239	0xbe8f30a8	-0.2796681
240	0x3f05c51e	0.522539
241	0xbfe3a607	-1.7785043
242	0xbfc3c0b5	-1.5293185
243	0xbedfffb6	-0.4374978
244	0xc00b0f9a	-2.1728272
245	0xbe050f29	-0.12994064
246	0xbe2c8870	-0.16848922
247	0xbf81bd07	-1.0135812
248	0x3eedfc78	0.4648168
249	0xbf7eed13	-0.99580497
250	0xbdf692a8	-0.12039691
251	0xbe841e2d	-0.25804272
252	0xbf7973eb	-0.974425
253	0x3e57b69d	0.21065755
254	0xbf0dd383	-0.55400866
255	0xbf06f807	-0.5272221

network_body._body_endoder.seq_layers.2.bias f4 [64]
0	0xbf9a9a1b	-1.2078279
1	0xbfdd36a5	-1.7282301
2	0xbed0672d	-0.40703717
3	0xbf8f8799	-1.1213256
4	0xbe114c81	-0.1418934
5	0xbf9d61d2	-1.2295477
6	0xbfc5f7fe	-1.5466306
7	0xc0038290	-2.054844
8	0xbf4b41a2	-0.7939702
9	0xbf695f50	-0.9116106
10	0xbe0d10ba	-0.13775912
11	0xbf9be5bc	-1.2179484
12	0xbf9f3844	-1.2439046
13	0xbfc1a8d1	-1.5129644
14	0x3ef1161e	0.47087187
15	0xbf73b1f6	-0.9519342
16	0xbfd5acb1	-1.6693326
17	0xbe42d325	-0.19025858
18	0xc002523c	-2.0362692
19	0x3e9d6d0c	0.3074726
20	0xbfab66da	-1.3390763
21	0xbfaced91	-1.351
22	0xbf56a177	-0.83840126
23	0x3e40bda9	0.1882235
24	0xbee07d4b	-0.4384559
25	0xbf9e4a37	-1.2366399
26	0xbf99dc74	-1.2020402
27	0xbeb1e04d	-0.3474144
28	0xbe2aadd4	-0.16667873
29	0xbf884912	-1.0647299
30	0xbf7baa7f	-0.9830703
31	0xbe789f4e	-0.2427952
32	0xbed51572	-0.41617924
33	0xbfb7d474	-1.436171
34	0xbff37a4f	-1.9021701
35	0xbf829887	-1.0202798
36	0xbf2bcce2	-0.671095
37	0xbf6755ba	-0.90365183
38	0xbfd7afb8	-1.68505
39	0xbf975346	-1.1822288
40	0xbe699cd4	-0.22813731
41	0xbfd60398	-1.6719847
42	0xbf395e0c	-0.7240913
43	0xbe2b83e2	-0.16749528
44	0xbfacbb17	-1.3494595
45	0xbedd9bb3	-0.43282852
46	0xc0075ce9	-2.1150458
47	0xbf574def	-0.8410329
48	0xc0098334	-2.148633
49	0xbea380d8	-0.31934237
50	0xbfa9e528	-1.3273058
51	0xbee93495	-0.4554793
52	0xbf6645e0	-0.8995037
53	0xbf8f61ac	-1.1201682
54	0xbf3ac9b5	-0.7296403
55	0xbfa528ba	-1.2903054
56	0xbf72d62e	-0.9485806
57	0xbf874e78	-1.0570822
58	0xbee3b9d6	-0.4447772
59	0xc0071851	-2.1108592
60	0xbf9c0ed5	-1.2192026
61	0xbf376442	-0.71637356
62	0x3e4f4027	0.20239316
63	0xbf3d8894	-0.74036527

action_model._discrete_distribution.branches.0.weight f4 [2, 64]
0	0xbc9d57a5	-0.019206831
1	0x3ee68ee4	0.45030892
2	0xbc3d3437	-0.0115480935
3	0xbe9533de	-0.29141134
4	0x3d06657a	0.03281162
5	0x3df5459b	0.11976167
6	0xbe8d9fdd	-0.27661029
7	0x3e30a7fd	0.17251582
8	0xbe0f6a42	-0.14005378
9	0x3d2c934f	0.042132672
10	0xbe5fffd5	-0.21874936
11	0x3e78ea26	0.2430807
12	0xbe651462	-0.22371057
13	0x3c136aa4	0.008997593
14	0x3d0c6a94	0.03428133
15	0x3d0e60c8	0.034760267
16	0xbe1f5edf	-0.15563534
17	0xbdb7ff67	-0.08984261
18	0x3ee93a2d	0.45552197
19	0xbe1decdb	-0.15422384
20	0xbf1cb2b1	-0.6121016
21	0xbf10ac38	-0.56512785
22	0xbe175193	-0.14777212
23	0x3dd9b65e	0.10630487
24	0xbbb2773f	-0.005446344
25	0xbead8997	-0.33894035
26	0xbe142b85	-0.14469726
27	0x3f2b7cb6	0.6698717
28	0xbe4ea618	-0.20180547
29	0x3c3c9ff1	0.011512742
30	0xbe1cb625	-0.15303858
31	0xbe2e1907	-0.17001735
32	0x3d5b7dad	0.05358665
33	0x3e4a878d	0.19778271
34	0x3e95021b	0.2910317
35	0x3fd14a74	1.6350846
36	0xbc9e8cd4	-0.019354261
37	0x3d5358a3	0.051598202
38	0xbd82abf7	-0.06380456
39	0xbebdbdcb	-0.37058863
40	0x3e68ed61	0.22746803
41	0xbca1b8ea	-0.019741494
42	0xbdf63937	-0.120226316
43	0xbe592bba	-0.21208087
44	0x3f833620	1.0250893
45	0x3e12c510	0.14332986
46	0x3f38ad3b	0.7213933
47	0x3edde22b	0.43336615
48	0xbec5f204	-0.38661206
49	0xbdec55c9	-0.115398
50	0x3f2b9cc0	0.67036057
51	0xbd8f75f3	-0.07004919
52	0xbe3f01be	-0.18653008
53	0x3e1bdce0	0.15220976
54	0x3dffdbb7	0.12493079
55	0xbdf15b0b	-0.11784943
56	0x3e86a64e	0.26298755
57	0xbf093eb0	-0.5361128
58	0xbefac205	-0.4897615
59	0xbfc09578	-1.5045614
60	0xbe9d2775	-0.30694166
61	0xbe840398	-0.25783992
62	0xbd98de5f	-0.07464289
63	0xbe42648b	-0.18983667
64	0x3bccac5e	0.0062461337
65	0xbee37d2c	-0.44431436
66	0x3d14adcb	0.036298554
67	0x3e98445a	0.29739648
68	0xbccec8a7	-0.025242163
69	0xbe03f42b	-0.12886111
70	0x3e8f5c64	0.28000176
71	0xbe275142	-0.16339591
72	0x3e188d82	0.14897731
73	0xbd3ab9af	-0.045587238
74	0x3e4881ea	0.19580808
75	0xbe7ac660	-0.24489737
76	0x3e68e208	0.22742474
77	0x3c938469	0.018007474
78	0xbc00846f	-0.007844075
79	0xbd2da56f	-0.042394098
80	0x3e2879e9	0.16452755
81	0x3ddca466	0.10773544
82	0xbeef5b20	-0.4674921
83	0x3e132f6b	0.14373557
84	0x3f1b5acf	0.6068544
85	0x3f0e55fc	0.5559995
86	0x3e097993	0.13425283
87	0xbdebbc99	-0.115105815
88	0xbd00519d	-0.031327832
89	0x3eb2acd0	0.3489747
90	0x3df9da2f	0.12199818
91	0xbf2d90b8	-0.6779895
92	0x3e5fcd4c	0.21855658
93	0x3a523455	0.00080186623
94	0x3dec21fe	0.11529921
95	0x3e33ba67	0.17551576
96	0xbd65c497	-0.056095686
97	0xbe43e196	-0.19129023
98	0xbe86c6b5	-0.26323476
99	0xbfd20e46	-1.6410606
100	0xbc067f6a	-0.008209089
101	0xbd80ca02	-0.0628853
102	0x3db0f7ac	0.0864099
103	0x3ec8ac8d	0.39194146
104	0xbe5ab40c	-0.21357745
105	0x3c6e8086	0.01455701
106	0x3e0d502c	0.13800114
107	0x3e53408b	0.2063009
108	0xbf83c00f	-1.0292987
109	0xbe15953b	-0.14607708
110	0xbf33f518	-0.7029586
111	0xbee10541	-0.4394932
112	0x3ebe2ef4	0.37145197
113	0x3de90860	0.113785505
114	0xbf250c64	-0.6447203
115	0x3d1b4546	0.03790786
116	0x3e535c07	0.20640574
117	0xbe2b2eef	-0.16717122
118	0xbe06a1e1	-0.1314769
119	0x3dd44c7c	0.10366151
120	0xbe814f44	-0.25255787
121	0x3f0b914f	0.545186
122	0x3ef00e75	0.4688603
123	0x3fc347cd	1.5256287
124	0x3e9e1ba0	0.3088045
125	0x3e431808	0.19052136
126	0x3d0cc5cf	0.034368332
127	0x3e49a05b	0.19690077

action_model._discrete_distribution.branches.0.bias f4 [2]
0	0x3fac4dfc	1.3461299
1	0xbfac4dee	-1.3461282

action_model._discrete_distribution.branches.1.weight f4 [2, 64]
0	0xbe6d8f6b	-0.23199241
1	0xc0508af5	-3.2584813
2	0x3e5e755c	0.21724457
3	0x3cd78f1e	0.02631336
4	0xbcc5aecb	-0.0241312
5	0xbdcca04e	-0.09991513
6	0x3dd4c475	0.10389034
7	0xbf454985	-0.77065307
8	0xbc695e4c	-0.0142436735
9	0x3f4cf9b0	0.8006849
10	0xbc718fbb	-0.014743741
11	0xbfe02233	-1.7510437
12	0x3d9a1761	0.075239904
13	0x3def9cfd	0.11699865
14	0xbd2edb40	-0.04268956
15	0xbf18785b	-0.5955865
16	0xbfb272a5	-1.3941237
17	0x3d2d9689	0.04237989
18	0xbf3e8208	-0.7441716
19	0x3d4752c8	0.04866293
20	0x3f05d282	0.52274334
21	0xbfb244c0	-1.3927231
22	0xbcd92a72	-0.026509497
23	0x3e2c3cb8	0.16820037
24	0xbe88bcd6	-0.2670657
25	0x3e8a09e5	0.26960674
26	0xbe582410	-0.21107507
27	0xbf187b65	-0.59563285
28	0x3e07911f	0.13238953
29	0x3e69b833	0.22824173
30	0x3edaa91b	0.42707142
31	0xbd9f45be	-0.07776974
32	0x3da6725b	0.0812728
33	0x3e37a8ab	0.17935435
34	0x3e30b26b	0.17255561
35	0xbe649b43	-0.22324853
36	0x3e3d8e99	0.18511428
37	0x3eaff934	0.34369814
38	0x3e3a1b18	0.18174398
39	0x3e25dc32	0.16197279
40	0xbf53a508	-0.8267369
41	0x3e64724a	0.22309223
42	0xbe1545c2	-0.14577392
43	0x3db2be4b	0.08727702
44	0xbfd53f7c	-1.6659999
45	0x3e338236	0.1753014
46	0xbfbb83c6	-1.4649589
47	0xbff0de9a	-1.8817933
48	0xbeb6b744	-0.35686696
49	0xbec160f0	-0.3776927
50	0xbe92fac7	-0.28706953
51	0x3e171f0d	0.14757939
52	0x3ecacd6d	0.39609852
53	0x3e6af502	0.22945026
54	0xbd1b7abd	-0.03795885
55	0xbecb5215	-0.3971106
56	0xbf0e3b93	-0.55559653
57	0x3eb248a9	0.3482106
58	0xbe38e90a	-0.18057647
59	0x3e833090	0.25622988
60	0xc00a709b	-2.163123
61	0xbdd4973d	-0.10380409
62	0xbdb2fc08	-0.087394774
63	0x3ce22180	0.027603865
64	0x3e6307e1	0.22170974
65	0x40512b46	3.2682662
66	0xbe663127	-0.22479688
67	0xbc9a7fd2	-0.018859778
68	0x3c9e667a	0.019335974
69	0x3dbfa554	0.09357706
70	0xbdc94655	-0.09827868
71	0x3f4a81be	0.7910422
72	0x3d07e3cc	0.03317623
73	0xbf4eed9a	-0.808313
74	0x3c7696a9	0.015050569
75	0x3fe0c1af	1.7559108
76	0xbdd6f574	-0.10496035
77	0xbe2fa9d4	-0.17154628
78	0x3cb161d0	0.021653086
79	0x3f198bff	0.5997924
80	0x3fb64fad	1.4243065
81	0xbd0fc8fd	-0.035103787
82	0x3f45ee76	0.7731699
83	0xbce04fe2	-0.027381841
84	0xbf087423	-0.5330221
85	0x3fb26eef	1.3940104
86	0x3c58c070	0.013229474
87	0xbe27fd1c	-0.16405147
88	0x3e8bccab	0.27304587
89	0xbe8b9153	-0.2725931
90	0x3e62abc7	0.2213584
91	0x3f1bd8c2	0.6087762
92	0xbe09a146	-0.13440427
93	0xbe5c6d8a	-0.21526161
94	0xbed66bef	-0.41879222
95	0x3d77149a	0.06032238
96	0xbd8dae82	-0.0691805
97	0xbe3d06cb	-0.18459623
98	0xbe357ae0	-0.17722654
99	0x3e55b579	0.20870008
100	0xbe19d2b5	-0.15021785
101	0xbeb600cf	-0.35547492
102	0xbe368b38	-0.17826545
103	0xbe412b27	-0.18864118
104	0x3f4acb35	0.7921632
105	0xbe552fad	-0.20818968
106	0x3e19cb24	0.15018898
107	0xbd19e9d5	-0.037576515
108	0x3fd76cfb	1.6830133
109	0xbe1f0e4e	-0.155328
110	0x3fba5c94	1.4559503
111	0x3fef8f88	1.8715677
112	0x3ebbf06e	0.3670687
113	0x3ebf5bad	0.3737463
114	0x3e980c86	0.29697055
115	0xbdffd3b0	-0.12491548
116	0xbecf3f04	-0.40477765
117	0xbe6411c5	-0.22272404
118	0x3cb2cbe5	0.02182574
119	0x3ec769a9	0.389478
120	0x3f1236af	0.5711469
121	0xbeba956a	-0.3644212
122	0x3e486803	0.19570927
123	0xbe837847	-0.25677702
124	0x400bbacd	2.1832764
125	0x3dacd565	0.08439139
126	0x3dbba9ff	0.091632836
127	0xbc985695	-0.018595973

action_model._discrete_distribution.branches.1.bias f4 [2]
0	0xbf64a2ce	-0.8931092
1	0x3f64a2da	0.8931099

action_model._discrete_distribution.branches.2.weight f4 [2, 64]
0	0x3e8e212a	0.27759677
1	0x3e3652ce	0.17805025
2	0xbcb77031	-0.022392364
3	0x3cfd9c13	0.030958211
4	0x3dc0c979	0.09413428
5	0xbd585326	-0.05281367
6	0xbd3d1895	-0.04616602
7	0xbed11dfb	-0.40843186
8	0x3eb1b402	0.34707648
9	0xbc8b5cdc	-0.017012052
10	0x3ca2fddf	0.019896446
11	0xbe9f9958	-0.3117168
12	0xbdd4d6e2	-0.10392548
13	0xbf8f25d0	-1.1183414
14	0x3e2fd751	0.1717198
15	0xba9e3abb	-0.0012071946
16	0xc0270887	-2.6098955
17	0x3f4d08f8	0.8009181
18	0x3fa44850	1.2834568
19	0x3de501d3	0.111819886
20	0x3fa10ed7	1.2582654
21	0x3d9b9480	0.075966835
22	0x3eacf575	0.3378102
23	0x3dff33fd	0.12461088
24	0xbdcf6799	-0.101271816
25	0x3ea21d6a	0.31663066
26	0xbedb5eaf	-0.42845675
27	0x3d22900a	0.039688148
28	0x3e39ac73	0.1813219
29	0xbe43bc77	-0.19114862
30	0x3f510fcc	0.8166473
31	0x3d9496d1	0.072553284
32	0x3e331f6e	0.17492458
33	0x3df1c59e	0.118052706
34	0x3e872828	0.26397824
35	0x3f4435b8	0.7664447
36	0xbe149d3c	-0.14513105
37	0x3e20de00	0.15709686
38	0xbe6be94c	-0.23038214
39	0xbeb984ba	-0.36234075
40	0xbea4af20	-0.3216486
41	0xbef6652f	-0.48124072
42	0x3d1012b1	0.035174076
43	0x3dc7be0d	0.09753046
44	0x3f0cb364	0.5496123
45	0x3e2f1d4f	0.17101024
46	0x3e9d1f91	0.30688146
47	0xbe92fa86	-0.2870676
48	0xbe866dd6	-0.26255673
49	0x3e565c28	0.20933592
50	0x3e85fe88	0.26170754
51	0xbdb7d281	-0.08975697
52	0xbddbd1c8	-0.10733372
53	0xbe97aa1b	-0.29621968
54	0x3e1ae36d	0.15125819
55	0xbe993d04	-0.29929364
56	0x3f961557	1.1725262
57	0x3eb85424	0.36001694
58	0x3e64d042	0.22345069
59	0x3cf84c2b	0.030309757
60	0xc030f8da	-2.7651887
61	0xbe67adbb	-0.22624867
62	0x3ddc891b	0.10768338
63	0x3e2b834a	0.16749302
64	0xbe84c122	-0.259286
65	0xbe302906	-0.17203149
66	0x3c807f8f	0.015685825
67	0xbd01dfab	-0.031707447
68	0xbdc0bab3	-0.0941061
69	0x3d6505e3	0.055913817
70	0x3d25c765	0.04047336
71	0x3edc1543	0.4298497
72	0xbecaa9f5	-0.39582792
73	0x3ccd647b	0.025072327
74	0xbc84a9d7	-0.016194267
75	0x3ea889d3	0.32917652
76	0x3d88fff7	0.066894464
77	0x3f921fad	1.1415917
78	0xbe4374b9	-0.19087495
79	0x3c293732	0.010328101
80	0x40286e2f	2.631725
81	0xbf5205f3	-0.8204033
82	0xbfa48099	-1.2851745
83	0xbdbb9c56	-0.09160678
84	0xbfa3f74a	-1.2809842
85	0xbd6ce0e9	-0.05783168
86	0xbeb6fe4e	-0.35740894
87	0xbdf59278	-0.11990827
88	0x3debfe8b	0.115231596
89	0xbea77d7f	-0.32712933
90	0x3ed7653a	0.42069417
91	0xbcdc39eb	-0.026883086
92	0xbe51b7b9	-0.20480241
93	0x3e3ef783	0.18649106
94	0xbf50c839	-0.81555516
95	0xbd9c2c1b	-0.076256
96	0xbe3a521c	-0.18195385
97	0xbdc2b9a2	-0.09508063
98	0xbe705a9d	-0.23472066
99	0xbf466302	-0.77494824
100	0x3e163ed9	0.14672412
101	0xbe1c8e18	-0.1528858
102	0x3e70a848	0.23501694
103	0x3ec5ce26	0.3863384
104	0x3eb30072	0.34961277
105	0x3efef751	0.49798062
106	0xbca2ecf1	-0.019888373
107	0xbdc4d49b	-0.09610864
108	0xbf18bef6	-0.59666383
109	0xbe13b06a	-0.14422765
110	0xbe9cc4fe	-0.30619043
111	0x3e82d4d0	0.25552988
112	0x3e7e304a	0.24823108
113	0xbe5b2cef	-0.2140386
114	0xbe8431af	-0.25819156
115	0x3dee87d6	0.116470024
116	0x3df42209	0.11920554
117	0x3e992912	0.29914147
118	0xbe27f6b9	-0.16402711
119	0x3e99af8d	0.30016747
120	0xbf9277d6	-1.1442821
121	0xbec41d36	-0.38303536
122	0xbe4fcac8	-0.20292199
123	0xbce559ef	-0.027996985
124	0x4031bc19	2.7771056
125	0x3e7e347c	0.24824709
126	0xbdb9eaae	-0.09077965
127	0xbe2e8b6f	-0.17045377

action_model._discrete_distribution.branches.2.bias f4 [2]
0	0xbf9721cc	-1.1807189
1	0x3f9721d7	1.1807202

onnx::Div_104 f4 [28]
0	0x3ed86a22	0.42268473
1	0x3db8f084	0.0903025
2	0x3edb0622	0.42778116
3	0x3ebdafeb	0.37048277
4	0x3ecfb7ac	0.40569818
5	0x3db65fb4	0.08904973
6	0x3ed29b55	0.41134134
7	0x3eb86759	0.36016348
8	0x3ed6fbab	0.41988882
9	0x3d8cfa74	0.06883708
10	0x3ed888c8	0.42291856
11	0x3eba4eae	0.36388153
12	0x3eb09296	0.34486836
13	0x3dbc0ed0	0.09182513
14	0x3eb50554	0.35355628
15	0x3ea46d3d	0.32114592
16	0x3eb41bbb	0.35177407
17	0x3d390476	0.04517027
18	0x3eb52c7a	0.35385495
19	0x3ea50ba8	0.32235456
20	0x3e8e682d	0.27813855
21	0x3db6cf4d	0.08926258
22	0x3e945dd4	0.28977835
23	0x3e8749e8	0.26423573
24	0x3e934e65	0.28770748
25	0x3d25be31	0.040464584
26	0x3e947cfd	0.29001608
27	0x3e892539	0.2678621

onnx::Div_107 f4 [28]
0	0x3eee5116	0.4654624
1	0x3e41aabc	0.18912786
2	0x3ef52e41	0.4788685
3	0x3e376bfe	0.1791229
4	0x3eec410f	0.46143386
5	0x3e7095e1	0.23494674
6	0x3edd53e7	0.43228075
7	0x3ea5f13b	0.32410607
8	0x3ed904b1	0.42386392
9	0x3e391905	0.1807595
10	0x3ec3e3f4	0.38259852
11	0x3e8b5f84	0.2722131
12	0x3ec7ac15	0.38998476
13	0x3eada7c2	0.33917052
14	0x3e683f28	0.22680342
15	0x3e9fc984	0.31208432
16	0x3eb38eef	0.35069987
17	0x3e1ff7ba	0.15621844
18	0x3e9805d0	0.29691935
19	0x3e88eb79	0.2674215
20	0x3eba233d	0.3635501
21	0x3eb941f2	0.36183125
22	0x3d299754	0.041404083
23	0x3e87922e	0.26478714
24	0x3e9e0624	0.3086406
25	0x3e07b1e9	0.13251461
26	0x3e7cf81c	0.24704021
27	0x3e894a4c	0.26814497

onnx::Div_110 f4 [7]
0	0x42531f7d	52.78075
1	0x4238df46	46.21804
2	0x4238b573	46.177197
3	0x4238e38e	46.22222
4	0x423895c2	46.146248
5	0x42389307	46.14358
6	0x4238b8be	46.180412
