Assets/GG/Subway/phase2/AI NPC/Brain/competitor 1.onnx (onnx, 63827 bytes, 21 tensors)

discrete_act_size_vector f4 [1, 4]
000000 00 00 00 40 00 00 00 40 00 00 00 40 00 00 00 40
       2.0 2.0 2.0 2.0

network_body.observation_encoder.processors.0.normalizer.running_mean f4 [21]
000000 3b 0b ba 3b 29 8b 7e 3f 6b b1 7e 3f f2 cb a0 3b
       0.0056776083 0.9943109 0.9948947 0.0049071247
000010 cd bd 7e 3f ba e0 7e 3f 80 34 b0 3b d9 9e 7e 3f
       0.99508363 0.99561656 0.0053773522 0.9946113
000020 ce c9 7e 3f 95 8a ad 3b e4 a3 7e 3f ff d9 7e 3f
       0.9952668 0.0052960613 0.9946883 0.99551386
000030 78 8e da 3b c5 49 7e 3f 6f b7 7e 3f c5 d5 4e 3c
       0.0066698156 0.99331313 0.9949865 0.012624209
000040 c6 c2 7c 3f 5f 22 7e 3f 4c 96 25 3d 18 a3 75 3f
       0.987347 0.99271196 0.040426537 0.95951986
000050 f8 cc 7b 3f
       0.9835963

network_body.observation_encoder.processors.1.normalizer.running_mean f4 [49]
000000 ba 00 c9 3e 5b a2 16 3e 97 e3 7a 3d 00 00 00 00
       0.39258367 0.14710371 0.061252203 0.0
000010 00 00 00 00 6f 78 cb 3e 54 da 2f 3f 87 2a 1c 3f
       0.0 0.3974032 0.6869252 0.6100239
000020 96 fd c7 3d 9a 46 d3 3c 00 00 00 00 00 00 00 00
       0.097651646 0.025790501 0.0 0.0
000030 6f 10 87 3e ee 90 13 3f 4e f2 bd 3e 72 d6 f9 3d
       0.26379725 0.5764302 0.37098926 0.12199105
000040 2b af dc 3d 00 00 00 00 00 00 00 00 f6 4a cb 3e
       0.10775598 0.0 0.0 0.39705628
000050 4c cb 2f 3f 2f 72 20 3f 9c 52 92 3d 05 0f aa 3c
       0.6866958 0.6267423 0.07144663 0.020759115
000060 00 00 00 00 00 00 00 00 70 f0 8e 3e b2 a3 0f 3f
       0.0 0.0 0.27917814 0.56109154
000070 7a 88 b7 3e 2b 73 c5 3d 59 8d a5 3d 00 00 00 00
       0.3584631 0.09641107 0.080836006 0.0
000080 00 00 00 00 76 5a ec 3e e9 7f 33 3f 9b f2 1d 3f
       0.0 0.46162766 0.7011705 0.6169831
000090 82 59 38 3d 22 c6 c0 3c 00 00 00 00 00 00 00 00
       0.045007236 0.023531977 0.0 0.0
0000a0 03 11 a0 3e 8f d2 16 3f b4 27 b6 3e b3 ea 29 3e
       0.3126298 0.58915037 0.35577166 0.16593437
0000b0 a5 67 6c 3d 00 00 00 00 00 00 00 00 85 68 d6 3e
       0.05771603 0.0 0.0 0.41876617
0000c0 d0 0a 44 3f
       0.76579

network_body.observation_encoder.processors.2.normalizer.running_mean f4 [35]
000000 3a d6 02 3f 25 05 13 3e 01 07 04 3c 2c b1 ac 3e
       0.51108134 0.14357431 0.0080583105 0.3372892
000010 1e b4 1b 3f fb 01 ce 3e ee 23 d1 3d fb b8 e9 3b
       0.6082171 0.40235886 0.10211931 0.007132647
000020 06 0e fa 3e e2 b8 31 3f df ac 10 3f eb 68 04 3e
       0.48838824 0.69422734 0.5651378 0.12930648
000030 19 18 da 3b 01 09 99 3e f7 3f 18 3f 1c 44 ae 3e
       0.0066557047 0.29889682 0.594726 0.34036338
000040 76 dd 9f 3d 44 f0 8a 3b 49 cc 13 3f a0 78 44 3f
       0.07805912 0.0042400677 0.5773359 0.7674656
000050 7f 0c ee 3e d9 7e c5 3d 2b 1a 9f 3b 60 17 de 3e
       0.4649391 0.09643335 0.0048554144 0.4337721
000060 50 1d 2a 3f a9 f4 99 3e 5e a8 7c 3d 50 ac d0 3a
       0.6645098 0.30069473 0.061684005 0.0015920494
000070 d4 d2 22 3f 75 e7 4f 3f 48 47 95 3e 23 69 81 3d
       0.6360295 0.8121255 0.29155946 0.06318881
000080 da ab fa 3a e7 b1 24 3f a2 14 41 3f
       0.0019124702 0.6433396 0.7542211

network_body.observation_encoder.processors.3.normalizer.running_mean f4 [7]
000000 0f 47 31 43 ca a8 2e 43 a9 b3 a3 42 8f 94 5e 42
       177.27757 174.65933 81.8509 55.645077
000010 a2 1b 09 42 33 80 14 42 e3 2e 7d 42
       34.276985 37.125195 63.295788

network_body._body_endoder.seq_layers.0.weight f4 [64, 112]
000000 d3 d0 eb 3d 03 bb d9 bc d6 d5 92 be 49 32 1c 3d
       0.115144394 -0.026578432 -0.2867877 0.038133893
000010 56 ef a8 bd c2 9c c2 be 65 9a ad 3d 54 a5 15 be
       -0.08248775 -0.38010222 0.08476714 -0.14613849
000020 c1 62 77 3d 7b bc 6f bd bb 95 45 3e 22 8c 52 3d
       0.060396913 -0.05852936 0.19295399 0.051403172
000030 30 f9 fb bd 92 cd 69 3e 6b 0d 5f 3e 96 03 16 be
       -0.12303388 0.22832325 0.21782462 -0.14649805
000040 f5 4b 6c 3e 30 68 c4 3d ee 5a 4a 3e 49 2b 79 be
       0.2307585 0.09590185 0.1976125 -0.24332918
000050 fd be ea 3c 07 2d 33 be d8 d1 ad 3e 3a 2c a9 be
       0.028655523 -0.17497645 0.3394916 -0.33041555
000060 86 ab 9d bd 41 b5 ef bd 99 fc 0a 3e 43 33 90 3c
       -0.07698731 -0.11704493 0.13572921 0.017602568
000070 ad eb f3 3e 43 1c a3 be f9 42 99 be be e3 05 bc
       0.47640744 -0.318575 -0.2993391 -0.008171974
000080 ef c3 ec 3c e1 59 f0 bc 60 1a aa be 2b d0 b2 bc
       0.028902022 -0.029339733 -0.33223248 -0.021827778
000090 60 bc 65 3e cf 99 ae 3e f1 88 bf 3d 0e 28 15 be
       0.2243514 0.34101722 0.093522914 -0.14566061
0000a0 a3 bc cd be 7f 9e 57 be 2f 6c 09 be 82 e5 15 3e
       -0.4018298 -0.21056555 -0.13420175 0.14638332
0000b0 92 2c 1e 3d 42 d3 4d 3e 2e d9 ac 3d 85 3e 81 3d
       0.038616724 0.2010012 0.08439861 0.06310753
0000c0 a4 14 34 be 95 24 05 be a7 b0 13 be 71 80 4f bf
       -0.17585999 -0.13002236 -0.14422856 -0.8105536
0000d0 5e 21 09 be 79 ef b6 bd af 59 ce 3e 87 ee 8b 3e
       -0.13391635 -0.089323945 0.40302798 0.2733042
0000e0 d1 73 8d 3e 01 ff 1e be 67 64 97 3e 41 3d 36 bd
       0.27627423 -0.15526964 0.29568788 -0.04449201
0000f0 7b a1 3b bc 1b 72 5e be b0 fa 33 3f f6 ee 44 3e
       -0.011452074 -0.21723215 0.70304394 0.19231781
000100 e3 43 3c be bc 15 f3 be 33 7d c9 bc 08 d9 fb bc
       -0.18385272 -0.4747752 -0.024595832 -0.030743137
000110 73 54 d6 3d 93 b6 b8 3e f7 78 76 bc 91 96 54 3d
       0.10465326 0.36076793 -0.015043489 0.051901404
000120 c0 81 23 3e 54 4e 1d bd 8d 9f d5 be 25 33 82 3e
       0.15967464 -0.038404778 -0.4172329 0.25429645
000130 6c e9 38 be 04 c6 a3 be 78 e6 1a be a4 a0 9a be
       -0.18057793 -0.3198701 -0.1512698 -0.30200684
000140 f3 80 d0 bc d8 49 d6 be 2e 97 c2 3e b2 b9 f1 3e
       -0.025452113 -0.41853213 0.38005966 0.47211987
000150 97 bd 19 3e 1b ad 13 3e 3f ad 3c 3b 7f a0 c1 3d
       0.15013729 0.14421503 0.0028789786 0.0945444
000160 7b ec 86 3e c4 e7 f9 bd 98 22 61 3c d3 9d cd 3d
       0.26352295 -0.12202409 0.013741158 0.10039868
000170 b3 5a 9c 3e 49 b5 b1 3d f1 ec 18 be ce 2f b0 be
       0.30537948 0.086771555 -0.14934136 -0.34411472
000180 4d e8 f4 be a1 75 e9 3e b8 19 ef 3e 27 ab 8b bd
       -0.4783348 0.45597556 0.4669931 -0.06819754
000190 7b 47 c3 3b c9 71 ff be fd db 03 3f 24 47 98 3e
       0.005959449 -0.498915 0.5150755 0.29741776
0001a0 f8 86 f2 3d 6f af 18 be 08 4c 4e be 7d ff 9f 3e
       0.118421495 -0.14910673 -0.20146191 0.3124961
0001b0 bc 12 84 3e 39 da 08 3e e6 df a8 3d 9d fc 06 bf
       0.25795543 0.13364495 0.0824583 -0.5272921
0001c0 37 f3 43 bc 00 c0 a5 3d d9 51 99 3d e4 ac 61 be
       -0.011959842 0.08093262 0.07486314 -0.22038609
0001d0 71 c4 a8 3e d3 d9 23 3d b6 b6 67 bd 32 f8 76 3d
       0.32962373 0.040002655 -0.05657073 0.06029529
0001e0 56 ed 57 3c 2a db 44 3e 33 64 5d be fa f3 ae be
       0.013179144 0.1922423 -0.21620254 -0.34170514
0001f0 17 ed db 3e c8 f5 c0 3d 33 33 d8 bd c3 a2 a7 3e
       0.42954323 0.09421879 -0.105566405 0.32741365
000200 9e 4e 7c be 26 6c 2c be a8 c0 8c 3d d7 fd 66 bd
       -0.24639365 -0.1683813 0.06872684 -0.056394424
000210 a0 d0 49 be 86 ed 0e 3f 4b e3 31 bd bc 1a 7b be
       -0.1970849 0.5583118 -0.043429654 -0.24521917
000220 68 79 ab bd 9c 24 36 3d 8d 4a 0e bf 4e 4b 23 bf
       -0.08372766 0.044468507 -0.55582505 -0.6378678
000230 bf da 8b 3b 0d 0d b2 bd 72 35 f9 3e d3 7e 23 3d
       0.00426802 -0.086938955 0.48673588 0.03991587
000240 2f 59 77 3d 0e 04 89 3d f0 24 93 be 32 f6 a4 3d
       0.060387786 0.066902265 -0.2873912 0.080547705
000250 9f cc 8c bd a3 29 79 3e 43 f2 41 3d 33 44 e9 bc
       -0.06874966 0.2433229 0.04735018 -0.028474903
000260 77 f1 c5 bc d7 94 86 be e3 5c b8 be 4c 5d 0b bd
       -0.024162991 -0.2628543 -0.36008367 -0.03402452
000270 e4 51 4e 3e 5d 59 10 be a1 be c7 3b 6b fb a9 3e
       0.20148426 -0.1409659 0.006095723 0.3319963
000280 af a0 72 be ad d1 87 be 49 ff a0 be 72 22 0d be
       -0.23694108 -0.26527157 -0.31444767 -0.13782671
000290 72 10 17 3e eb 2c 37 3d 07 15 f8 3e aa 86 d7 bd
       0.14752367 0.04472057 0.48453543 -0.10523732
0002a0 c2 e9 2c 3e e2 6f 43 3e bd 50 3f bd d7 f9 28 3e
       0.16886047 0.19085649 -0.046707857 0.16501556
0002b0 41 d6 51 3c b7 20 07 3e d1 a0 e6 bc f9 35 45 3d
       0.01280743 0.13196073 -0.028152855 0.048147175
0002c0 b7 a0 cd bd d9 ba f2 be 10 c1 81 be 97 66 96 3d
       -0.100404195 -0.47408178 -0.25342607 0.07343786
0002d0 ea 56 c2 3e c2 e0 40 3e df ff 56 3d a2 29 36 3e
       0.37956935 0.18835738 0.05249011 0.17789319
0002e0 b1 a3 74 3e fb 42 a9 3d 30 c9 9b bd 01 01 2e be
       0.23890568 0.08264729 -0.07606733 -0.1699257
0002f0 50 1b 94 be 4c f6 15 3e 74 78 8b 3e c1 91 5f 3e
       -0.28927088 0.14644736 0.27240336 0.21832944
000300 ac bd 94 bd 9c f0 d4 3c 6d 65 fd 3d 55 bb 6a 3e
       -0.072627395 0.025993638 0.12372861 0.22923024
000310 65 64 84 bc a3 e1 fa 3e a6 9d 23 bf 91 50 08 3e
       -0.016161153 0.49000272 -0.6391243 0.13311984
000320 34 8e 38 be bc 34 5b 3e 50 64 b2 3e e3 bc 16 bf
       -0.18022996 0.21406835 0.34842157 -0.5888197
000330 de 1f fd 3e 93 16 30 be ad 52 9a 3c 53 2a 6b be
       0.49438375 -0.17196111 0.018838251 -0.22965364
000340 aa c1 32 bf ba 39 3b 3e 0d 68 3c 3e b7 02 d9 3e
       -0.6982676 0.1828374 0.18399067 0.42384884
000350 d1 97 87 3e 26 7b 9b bd 16 a9 d4 3e 96 13 1d be
       0.26483014 -0.07591848 0.41535252 -0.15339503
000360 93 f7 98 bd 81 a3 1b 3e 3b e6 2a 3e d6 b3 85 3d
       -0.07469096 0.1519909 0.16689388 0.065284416
000370 66 79 f5 be 3f bb 3f 3e 7c 7a 0a 3f 4c 3c 50 bd
       -0.47944182 0.18723772 0.54093146 -0.050838754
000380 82 8f 72 3d 59 ea 40 be 13 31 0f be 93 2c c5 bd
       0.05921889 -0.18839397 -0.13983564 -0.096276425
000390 06 61 5f be 80 41 b9 3d e0 ca 8b 3e 40 b9 9d be
       -0.21814355 0.09045696 0.2730322 -0.30805397
0003a0 f3 4c 4f bd 17 4d af 3d 15 c8 51 bd 12 86 a7 bc
       -0.050610494 0.085596256 -0.051216204 -0.020449672
0003b0 6e 4a 22 3c e1 ee e1 3d a6 fa d7 bd 4f 50 dc 3c
       0.009905441 0.11031891 -0.10545854 0.026893763
0003c0 11 7e 80 3d 01 c8 71 3e 82 72 07 be eb d5 3e be
       0.06274045 0.23611452 -0.13227275 -0.1863629
0003d0 f6 c1 21 3e 68 f1 34 bd 37 49 be bd 34 5b f5 be
       0.15796646 -0.044175535 -0.092913084 -0.47921145
0003e0 cd a8 7f 3d 0e 45 a2 3c f7 5b c1 3e e4 4d 1e be
       0.06241684 0.019808318 0.37765476 -0.154594
0003f0 db ba 09 3f d9 14 07 3d 6c 03 5a bd 20 21 b2 3d
       0.53800744 0.032978866 -0.05322592 0.08697724

network_body._body_endoder.seq_layers.0.bias f4 [64]
000000 e3 6c 9a be 85 51 94 3d 54 dc f7 bd 06 a0 86 be
       -0.301612 0.07242111 -0.12102571 -0.26293963
000010 29 1d 68 be e2 73 d0 be 8a d5 b6 be 4a 5e b2 be
       -0.22667374 -0.40713412 -0.35709792 -0.34837562
000020 c4 db 19 bd 7a dc fd 3c 64 0c ba be cd cd 86 be
       -0.0375631 0.03098892 -0.36337578 -0.2632889
000030 29 47 04 bd 9d 6b bf be 4e ed a6 be c7 34 28 be
       -0.032294426 -0.3738679 -0.32602924 -0.16426383
000040 b5 20 4b be e7 6a 66 bd a4 8e 71 be 30 81 63 be
       -0.19836695 -0.056254294 -0.2358957 -0.2221725
000050 3d b8 fb be ca ce 4b be 7f 56 7d be cf cb 16 be
       -0.49164 -0.19903103 -0.24740027 -0.14726184
000060 fc 8f db bc ce a3 e4 bd b8 94 31 be 34 88 f0 be
       -0.026802056 -0.11164056 -0.17341888 -0.46978915
000070 88 06 84 bc ae 8e 05 bd b3 70 82 be 26 62 86 be
       -0.016116396 -0.032606773 -0.25476608 -0.26246756
000080 bd ab 92 be f3 a1 b7 be 91 f1 72 be c4 c1 8d bd
       -0.2864665 -0.35865745 -0.23724963 -0.069217235
000090 56 8b df bd 97 d9 85 be 53 48 8b be 7a 44 5d be
       -0.10915248 -0.2614257 -0.27203616 -0.21608153
0000a0 b1 d5 ed be 41 a8 80 be a0 d6 cc bd 78 7d bb bc
       -0.46452096 -0.25128368 -0.10001874 -0.022886977
0000b0 33 1a 9b be 9f 4b ba bd d2 c2 59 3e d6 a4 df be
       -0.30293426 -0.09096455 0.21265724 -0.43680447
0000c0 50 0a 3d be 71 98 26 be 8b 03 44 be 72 4d 46 3e
       -0.18460965 -0.1626909 -0.19141977 0.1936548
0000d0 19 c6 f5 3c 08 d0 96 be 62 01 6c be 62 bf 8f be
       0.030001687 -0.2945559 -0.23047403 -0.280757
0000e0 1d 61 3e be 4e 35 8d be 97 da 27 be d7 a2 90 be
       -0.18591733 -0.2757973 -0.16391979 -0.28249237
0000f0 86 f9 f0 3c c1 22 7e be a7 7b 08 be 19 08 6d be
       0.029415857 -0.24817945 -0.1332842 -0.2314762

network_body._body_endoder.seq_layers.2.weight f4 [64, 64]
000000 79 12 85 be b6 e7 aa 3e e9 50 a6 3e bf de 39 bf
       -0.25990656 0.33379906 0.32483605 -0.7260551
000010 2c 18 93 be ed 11 8b be 7e d1 2b bd 20 03 0f 3d
       -0.2872938 -0.27162114 -0.041947834 0.03491509
000020 a2 00 ce bd 9a 7f ea be 88 b8 aa 3e f2 99 0c 3d
       -0.100587144 -0.45800477 0.3334391 0.0343265
000030 74 3c ca bd 8f 56 32 bd ca 9b e3 3d d8 e8 31 be
       -0.09874812 -0.04353958 0.11113699 -0.17373979
000040 46 f3 45 3e d9 a3 12 3e 82 f4 be be e7 6e 9d be
       0.19331083 0.14320315 -0.3729592 -0.30748674
000050 43 48 9b be b6 0e c8 3b 33 af 28 3e e1 f9 26 3e
       -0.3032857 0.0061052693 0.16473083 0.16306259
000060 1d 2b ae 3e 92 3a 1b be 6e 92 51 be d2 a7 a3 3c
       0.34017268 -0.15159062 -0.20466015 0.019977484
000070 d8 d7 cf bd 63 c6 a1 be 8d 81 0c be d9 5e be 3d
       -0.10148591 -0.3159667 -0.13721295 0.092954345
000080 aa 09 b0 be 6a de a9 be f2 d7 c1 bd 08 ef 12 3e
       -0.34382373 -0.331775 -0.094650164 0.14348996
000090 00 f2 54 3b ab 7b b0 bd 63 7b e9 3d a2 b3 f6 bd
       0.0032492876 -0.08617338 0.11400487 -0.12045981
0000a0 ef 05 43 bd 71 b1 b8 3e 38 a6 8c 3c 5d 01 05 bf
       -0.04761308 0.36072877 0.017169103 -0.51955205
0000b0 31 fd c6 3e 7c 41 6f be 29 bd a8 3d 5d 3c 8e bd
       0.38865045 -0.23364824 0.082392044 -0.06945107
0000c0 28 bc 8c be a6 c5 d4 bd b8 c7 68 3e 2b 25 8a be
       -0.27487302 -0.10389261 0.22732437 -0.26981482
0000d0 75 d4 de 3d 01 f9 91 3d 17 83 e5 3d 22 8a a6 3d
       0.10880367 0.07127572 0.11206644 0.081318155
0000e0 f6 0d 54 be 36 f1 3b 3e f0 22 53 3d ae bc 42 be
       -0.2070845 0.18353733 0.05154699 -0.19017288
0000f0 c9 c2 06 3f fe 02 68 3e 5a a7 09 3e 8b 5b ea bd
       0.5264097 0.22657391 0.13442746 -0.11443242
000100 c9 0b f6 be 8c 2e 24 bf ea 83 e3 bd 8f 5e 25 3a
       -0.48055866 -0.64133525 -0.11109145 0.0006308341
000110 d8 c9 6a bf 1a dc 5b 3e 67 e4 5a bf 84 fd a6 3d
       -0.9171424 0.21470681 -0.85504764 0.08153823
000120 95 83 60 be 2d 02 07 3d 75 07 29 bf ce cf da be
       -0.21925195 0.03296106 -0.66027004 -0.42736667
000130 d0 aa 9e bd ea bf 86 3e d6 09 ab 3c 55 d7 29 3d
       -0.07747424 0.26318294 0.020878714 0.041465122
000140 97 f6 94 bc e4 56 5c be 18 03 0c be 49 65 42 be
       -0.01818399 -0.21517521 -0.13673055 -0.1898395
000150 45 7d 78 be dc 96 3c be cd 0b 57 bd 6b 64 f0 bd
       -0.24266537 -0.18416923 -0.05250149 -0.11737903
000160 70 1f 6e 3e 53 b2 8c 3c 5e 33 28 bd c5 8a f7 3e
       0.2325418 0.017174875 -0.041064613 0.4834806
000170 4f 78 1d bd 0d 89 67 3e d0 33 da bd f5 1c ba bd
       -0.038444813 0.22610874 -0.10654414 -0.09087554
000180 c6 85 f5 3e 09 e1 9d 3d 6b ae 10 3e 56 89 aa 3e
       0.47953624 0.07708938 0.14129035 0.33307904
000190 68 88 80 be b4 d3 c5 3e 51 42 45 be da c3 47 3d
       -0.2510407 0.3863808 -0.19263579 0.048770763
0001a0 23 ef 8c 3e d4 d0 ec be 56 79 bb 3d 75 8f 17 3e
       0.27526197 -0.46253073 0.09154002 0.14800818
0001b0 95 39 9f be 0f a2 08 be 1e ef 6b 3e ab 84 bf 3e
       -0.3109862 -0.1334307 0.23040435 0.37405905
0001c0 ab b3 ab 3d df 08 32 bc 47 ea 30 be b0 c3 5f bc
       0.08383878 -0.010866373 -0.1727687 -0.013657495
0001d0 96 40 17 bd 3f 2c f5 be 9c 80 f7 be cc 06 11 3e
       -0.03692683 -0.4788532 -0.4834031 0.14162749
0001e0 3e 5c c6 bc e8 ab 6d 3d b7 4d 26 bd d2 8e 56 be
       -0.024213906 0.05802527 -0.04060146 -0.20952919
0001f0 8e fd 18 3e 9b 7b 05 3f b7 a1 39 be 80 44 b3 3d
       0.14940473 0.5214173 -0.18128096 0.087533
000200 6c 26 d6 be 8b 98 cd 3e 8b 57 76 3d de 7f fa 3d
       -0.4182619 0.40155444 0.06014208 0.1223142
000210 51 5b a9 3d 31 f2 2f 3e 64 6d 28 3d 1a a0 88 bd
       0.0826937 0.17182232 0.041119948 -0.06671162
000220 73 70 a8 3e ee c6 cc bd ec 38 f2 bd eb d6 0c bf
       0.32898292 -0.0999888 -0.11827263 -0.5501544
000230 16 83 94 3e f8 df 0d 3e 0a e7 a6 be 8f 1e 51 be
       0.2900626 0.13854969 -0.32598144 -0.20421813
000240 0e 7f 92 be 29 a4 db bd cc 9d cf bb 5c 8e 16 bf
       -0.2861256 -0.107246704 -0.0063359495 -0.58810973
000250 b5 fd 49 be a9 4e ed be 80 9c 84 bc f0 93 3b bf
       -0.19725688 -0.46349075 -0.016187906 -0.7327261
000260 31 ef e4 be b9 89 2f bf e7 32 cd be 30 51 43 3e
       -0.4471374 -0.68569523 -0.40077898 0.1907394
000270 8e 96 cf 3e 2f 1d 99 3e 68 80 99 bc 8d 95 e6 bd
       0.40544552 0.29905078 -0.018737987 -0.11258993
000280 b6 a6 a4 be d3 77 1b 3e 52 42 9c 3d f7 22 a0 3e
       -0.3215844 0.15182428 0.07629837 0.31276676
000290 ea 86 bf 3d fe f4 68 3e 3e b0 8f be 4d 67 70 bd
       0.09351905 0.22749707 -0.2806415 -0.058692265
0002a0 0a 73 27 be 61 6f f0 bb 7b 3b ff bd 56 35 be be
       -0.16352478 -0.007337496 -0.12462517 -0.37150067
0002b0 31 80 2b bf 49 4b 9a be f4 55 ba bd fd a9 45 3e
       -0.6699248 -0.30135563 -0.090984255 0.19303127
0002c0 75 e6 c4 be 0d fe 2f 3e a3 70 29 bf 50 8a ef 3d
       -0.38457075 0.17186756 -0.66187495 0.11696303
0002d0 53 63 92 bf cf 82 87 3e 4a 5b 00 3e 46 66 e0 bc
       -1.1436561 0.26466987 0.12534824 -0.027392518
0002e0 3f 99 b7 3e c6 f1 b0 be fb a2 c6 be c8 34 be 3d
       0.35859105 -0.34559458 -0.3879622 0.09287411
0002f0 27 4d de 3e cf 88 7b 3e ac 22 8d 3e 16 b8 dc bd
       0.43418238 0.24563907 0.27565515 -0.10777299
000300 47 54 2f bf 87 4e 3e be 74 84 b8 3e 52 ed a3 3d
       -0.6848797 -0.18584643 0.36038554 0.0800425
000310 55 48 e9 3d 56 c7 e4 bd 29 47 c7 bc f8 65 60 bf
       0.11390749 -0.11170833 -0.024325924 -0.8765559
000320 61 06 76 3e e1 21 23 bc ee e8 2a bf e7 0c ff be
       0.24025871 -0.009956808 -0.6676167 -0.4981453
000330 1a b5 c2 3d c3 a2 e2 be bd fa 84 3d 06 de 3c be
       0.09507199 -0.44264802 0.06493137 -0.1844407
000340 44 8d 08 bf b7 a5 87 be 0b e4 e6 3d ea c8 a3 bc
       -0.53340554 -0.26493618 0.112739645 -0.019993264
000350 15 a1 82 be 1c ce f3 3d 5a c3 1f bf c3 44 2f be
       -0.2551352 0.119045466 -0.6240746 -0.17116074
000360 07 d8 03 bc 22 fe 00 be 95 16 ab 3d 96 ca 11 3e
       -0.00804711 -0.12596944 0.083539166 0.14237437
000370 58 4c 7f 3e b2 58 1f bd d3 73 15 bf 30 3c 26 bf
       0.24931467 -0.038902946 -0.5837986 -0.6493559
000380 8a 13 2f bf 87 44 89 be 95 63 3a 3e e7 5a f8 bc
       -0.6838919 -0.26810095 0.1820205 -0.030316783
000390 69 a4 34 be 4e 19 9d be 0f 07 50 bf f4 3d a6 3e
       -0.17640842 -0.30683368 -0.8126077 0.3246914
0003a0 4f a4 af 3e d2 7f 82 bd 88 c9 a0 be 80 26 e9 3d
       0.34305045 -0.06372036 -0.31403756 0.113842964
0003b0 68 87 21 be 94 2a 47 be 4a bf 2e 3d bb 96 30 be
       -0.1577431 -0.19449836 0.042662896 -0.17244999
0003c0 8a bf 3c 3e 51 ea c5 3d 84 35 4f 3e d8 c8 29 ba
       0.18432441 0.09663833 0.20235258 -0.00064767664
0003d0 77 04 2a bf cf 4c 43 bf 01 69 f6 3d 33 79 2a be
       -0.6641306 -0.76289076 0.12031747 -0.16647796
0003e0 3d a5 94 be 6a 9c 36 3e 5a ed 33 be 36 85 5e be
       -0.29032317 0.17833105 -0.17571011 -0.21730503
0003f0 8e 2b 5e be 9d de a4 be 8d 56 d0 be 63 f8 2b bd
       -0.21696302 -0.3220109 -0.40691033 -0.041984927

network_body._body_endoder.seq_layers.2.bias f4 [64]
000000 a0 60 23 be 0d 2a 01 be 7d a4 5d bd 8a ad 97 be
       -0.15954828 -0.12613697 -0.054111946 -0.29624587
000010 a8 3f 3a be c0 9a 2a be de f5 79 be 79 6b 24 bd
       -0.18188345 -0.16660595 -0.24410197 -0.040141556
000020 f8 25 1e be 84 23 85 be 02 73 38 be aa 09 2d be
       -0.15444171 -0.2600366 -0.18012622 -0.16898218
000030 c4 df a9 be 47 63 46 be 6a a9 83 3a da 3d ac be
       -0.33178532 -0.19373809 0.0010044996 -0.3364094
000040 bb 77 bf bd 89 b8 28 bd 99 ef 50 be 61 65 94 3d
       -0.09349009 -0.04119161 -0.20403899 0.07245899
000050 b1 74 5a bc 89 c7 11 bd ac a5 69 bd b7 02 73 be
       -0.013333485 -0.035590682 -0.057042763 -0.23731504
000060 0f c8 73 bd 83 0d 78 3d 80 a5 28 be c1 f7 1b be
       -0.059516963 0.06055976 -0.16469383 -0.1523123
000070 0b 86 be be 11 e7 96 bc 56 29 1c be b2 a6 38 be
       -0.37211642 -0.018420728 -0.15250143 -0.18032339
000080 1c 04 62 3c f6 b8 61 be a8 a5 90 be 73 56 59 3d
       0.013794925 -0.22043213 -0.28251386 0.05306096
000090 91 04 29 be 8b 40 9f be 5c 9c bc be 2b 78 b3 be
       -0.16505648 -0.3110393 -0.36838043 -0.35052618
0000a0 3e e5 5d bd b3 ff 56 be 02 ef b4 bd 83 a3 8c be
       -0.0541737 -0.20995979 -0.088346496 -0.274685
0000b0 57 61 6d 3d a1 bc f6 bd 59 49 35 be d3 94 a4 ba
       0.05795416 -0.12047697 -0.17703761 -0.001255656
0000c0 bd ea 9c be 55 22 97 be d2 ee 35 be 65 5e 00 3d
       -0.3064784 -0.2951838 -0.17766884 0.03134002
0000d0 8b c8 fd 3c f4 d8 46 be 27 f9 09 3c 74 33 5b be
       0.030979415 -0.19418699 0.008421219 -0.21406347
0000e0 cb e5 e8 bd 91 7d b4 bd f7 f7 58 be cd 06 eb bd
       -0.113719545 -0.088130124 -0.21188341 -0.114759065
0000f0 d7 38 70 be 43 e5 75 be e7 c0 2f be 9c f2 eb bd
       -0.23459183 -0.24013238 -0.1716343 -0.115208834

action_model._discrete_distribution.branches.0.weight f4 [2, 64]
000000 1e 7c f0 3d 9e cf 8d be 3c fd c0 bc 53 da 9f 3e
       0.117424235 -0.27697462 -0.023558252 0.31221256
000010 72 ef 5c be 1f 94 25 be 3f 65 a8 bc 33 8e 19 bc
       -0.21575716 -0.16169785 -0.02055609 -0.009372282
000020 7d 7b 7c 3e fe cb e9 be 19 a6 88 3c 8b ab d0 3b
       0.24656482 -0.45663446 0.016680764 0.0063681058
000030 af f2 60 3e cc ba 18 3e a8 ec aa bd a0 81 58 3d
       0.21967576 0.14915007 -0.0834592 0.052857995
000040 21 53 b1 bc 1e ff 3c 3d fb 93 88 3c 59 9a b3 be
       -0.021646084 0.046141736 0.016672125 -0.35078695
000050 69 04 58 bc 94 47 a3 3e fc 67 16 be fc d5 83 3e
       -0.013184645 0.31890547 -0.14688104 0.25749195
000060 da 82 b6 be fa 9a 06 be 32 e1 a6 be e0 7f 36 3e
       -0.35646707 -0.13145056 -0.32593685 0.17822218
000070 d0 c7 8a 3e 1e 4b 13 bf 04 8b 12 3f f2 1a 45 3d
       0.2710557 -0.57536495 0.5724337 0.0481214
000080 46 4b 43 bd 05 bb cb bd 83 26 67 bd 78 3c 7d be
       -0.04767921 -0.099477805 -0.056433212 -0.24730098
000090 bb bf ed bc e4 e4 d8 3d 95 b5 95 3e 51 1b 42 bd
       -0.029022088 0.105905324 0.292401 -0.047389332
0000a0 ee 14 70 be 66 11 19 bd 0d 2c fe bd a4 30 37 be
       -0.23445484 -0.037370108 -0.12410746 -0.17889649
0000b0 b9 c1 ec 3d 87 55 48 be 15 4d 89 bd 73 bb cc be
       0.11560387 -0.19563876 -0.06704155 -0.39986762
0000c0 70 0d eb bd b8 3c 58 bc 57 2d cc 3e 9b 85 43 be
       -0.114771724 -0.01319807 0.39878342 -0.19093935
0000d0 71 59 80 be d3 c1 c3 bd d8 f0 91 3d b2 90 93 be
       -0.25068238 -0.095584534 0.071260154 -0.2882133
0000e0 ec e9 b9 bd 10 43 e2 bb 41 14 85 be a0 05 d9 3e
       -0.0907782 -0.006904967 -0.25992015 0.42387104
0000f0 cd e5 9f 3c 2d 56 9d 3e 69 b1 10 bd e8 16 4b 3c
       0.019518757 0.3072981 -0.03532544 0.012395598
000100 68 43 77 bd 2a ea 8c 3e a4 89 1d 3d 40 81 a2 be
       -0.060367018 0.27522403 0.038461342 -0.31739235
000110 1a 4e 54 3e 98 e4 2d 3e 80 cb 8e 3b 49 56 f9 3c
       0.20732918 0.16981733 0.004357755 0.030436652
000120 ee 03 5a be 2b 66 e7 3e 6f ce ce bc 9e ce 23 3c
       -0.21290562 0.45195135 -0.02524492 0.009997992
000130 7f f0 78 be 74 d5 2d be d3 2d ed 3d 7a dc 1f bd
       -0.24310492 -0.16975957 0.11581006 -0.039028622
000140 31 bf db 3c 6f 1a 28 bd 75 24 00 3c 1a 90 b7 3e
       0.026824566 -0.041040834 0.007821192 0.35852128
000150 a2 0d 0e 3d 4d 71 93 be 2d c3 fb 3d d5 a8 86 be
       0.03468097 -0.2879738 0.12293086 -0.26300684
000160 25 3e b5 3e 2b a7 14 3e 1b d5 b3 3e c1 e3 35 be
       0.35398975 0.14516895 0.35123524 -0.17762662
000170 5a a5 88 be 6b 06 18 3f 19 d5 13 bf d4 2a 3b bd
       -0.26688653 0.59384793 -0.57747036 -0.04569514
000180 7e ae db 3c 33 22 e4 3d 43 6e f3 3c 82 4c 7a 3e
       0.026816603 0.111393355 0.029715663 0.24443248
000190 69 df 4a 3d 6e 44 d7 bd 8d b2 90 be 89 c5 40 3d
       0.049529467 -0.10511099 -0.28261223 0.047063384
0001a0 a3 94 81 3e 77 38 4b 3d 3f 5c d6 3d 2d f4 1d 3e
       0.25308713 0.049614396 0.10466813 0.15425177
0001b0 b0 4e d5 bd 01 26 51 3e f2 bd a5 3d 3c a5 ce 3e
       -0.10415399 0.20424654 0.0809287 0.4036044
0001c0 de 43 d7 3d b5 35 d9 3c 90 7b c3 be 45 7f 4a 3e
       0.105109915 0.026514867 -0.38180208 0.19775112
0001d0 c3 0c 71 3e fc 8e 8e 3d e0 40 75 bd cf cc a4 3e
       0.23540024 0.06960866 -0.059876323 0.32187507
0001e0 27 06 c1 3d d8 64 a2 3c 0c cf 71 3e 46 fb d1 be
       0.094250016 0.019823477 0.23614138 -0.4101202
0001f0 cd b8 ae bb 30 35 8e be 26 2f 7c 3c a7 40 3c 3b
       -0.0053320886 -0.27774954 0.0153921 0.002872506

action_model._discrete_distribution.branches.0.bias f4 [2]
000000 dc 15 04 be e2 15 04 3e
       -0.12898964 0.12898973

action_model._discrete_distribution.branches.1.weight f4 [2, 64]
000000 d8 2a 96 3d 45 66 dc bc 43 40 87 be 27 bc e3 3d
       0.073323905 -0.026904235 -0.26416215 0.111198716
000010 68 01 de be d2 64 fd 3d e1 b9 60 be 5d d6 06 be
       -0.43360448 0.123727456 -0.21945907 -0.1316771
000020 56 43 41 3c e6 24 e8 3d 5e 4f 54 be cb 76 61 3d
       0.011795839 0.11335163 -0.20733401 0.05504493
000030 23 ad 1d 3e 26 97 c7 bb fc 8f 24 3e 74 21 7a 3e
       0.15398078 -0.0060910163 0.1607055 0.24426824
000040 4f 65 06 be db 45 de bd bc 6b e9 3b bd f5 41 be
       -0.13124584 -0.108531676 0.0071234386 -0.18941398
000050 26 4f 3f 3e c9 d8 06 bd 34 9c b1 3c 35 3e be bd
       0.18682536 -0.032921586 0.021680929 -0.09289209
000060 f2 88 68 3e 72 da d9 bd 5e 19 6b 3e 21 1e 83 bd
       0.2270849 -0.10637368 0.22958896 -0.06402231
000070 07 cb 72 3e ca 42 bd 3c 25 0b f5 3c fe 6d c7 3d
       0.23710261 0.023103137 0.02991254 0.09737776
000080 99 77 80 3e 3e 1f 61 be 9e 07 ba be 9c 29 c5 bd
       0.25091246 -0.21984574 -0.36333936 -0.09627077
000090 c3 35 4c 3e f9 24 a3 3d 88 6f ca 3d 2f f5 0d be
       0.19942383 0.07966036 0.09884554 -0.13863061
0000a0 fa ec 46 bd 61 c8 68 3e fc 26 31 3c 91 67 06 be
       -0.048565842 0.22732688 0.010812517 -0.13125445
0000b0 ff 18 78 3e c9 c2 37 3e 42 af aa bd cb 6c aa bd
       0.24228285 0.17945398 -0.08334209 -0.08321532
0000c0 36 e1 20 3e c4 db a4 3e 65 cf 11 be b4 6b 17 3d
       0.15710911 0.32198918 -0.14239271 0.036967948
0000d0 cb 2c 4d bd f5 a3 a2 be 8e 5d 0c be 62 14 62 3e
       -0.050091546 -0.31765714 -0.13707563 0.22078088
0000e0 e4 d9 2f 3d a8 02 b7 3e bb 33 95 3e a6 6a de bd
       0.042932406 0.35744214 0.2914103 -0.10860185
0000f0 9a 73 c6 bd 0b d3 12 3e a3 e0 82 be 2f 53 c3 3e
       -0.09690018 0.14338319 -0.2556201 0.38149402
000100 08 5b 87 bd 8d 4d f9 3c b6 fa 8d 3e 27 8d e8 bd
       -0.0660916 0.030432487 0.2773034 -0.11355048
000110 d8 c5 d4 3e 78 3e c0 bd 30 54 72 3e 60 5c 18 3e
       0.41557193 -0.09386915 0.23664927 0.14878988
000120 36 6b 58 3c e6 4a d6 bd 6c e2 5c 3e ac 45 6c bd
       0.013209155 -0.104635045 0.21570748 -0.05768363
000130 57 6e 0b be 9c 62 3b 3c 3b 5f 3a be 65 bd 87 be
       -0.1361631 0.0114370845 -0.1820039 -0.26511684
000140 82 70 0b 3e ff 62 dc 3d dc e6 a5 bc a8 0e 36 3e
       0.13617137 0.107610695 -0.020251684 0.17779028
000150 3a a3 18 be ae bc 33 3d 7f c3 af bc 6d 58 bc 3d
       -0.14906016 0.04388111 -0.021455524 0.091965534
000160 70 21 76 be d1 9a d3 3d 6c 31 6f be 3a f6 9a 3d
       -0.24036193 0.10332263 -0.23358697 0.07566495
000170 e5 94 6e be 68 f9 10 39 9c ef 2f bd 44 92 bc bd
       -0.23298986 0.00013825821 -0.04295312 -0.092075855
000180 91 74 86 be c1 a7 67 3e 36 b2 ba 3e 9c a7 ac 3d
       -0.26260808 0.22622587 0.3646409 0.084304065
000190 c8 51 4e be 42 2c 9c bd 07 04 ac bd 3c d0 35 3e
       -0.20148385 -0.07625629 -0.08399206 0.17755216
0001a0 47 00 02 3d 9b 73 69 be fc 76 8b bc 7d 66 c6 3d
       0.031738546 -0.22798006 -0.01702451 0.09687517
0001b0 c5 d3 7f be 61 95 50 be 2f 2a a4 3d 86 fa d5 3d
       -0.24983127 -0.20369484 0.080158584 0.10448174
0001c0 a3 59 3a be 41 89 9e be f3 1d fa 3d 66 aa 2a bd
       -0.18198256 -0.3096409 0.122127436 -0.04166641
0001d0 9f b3 8c 3d 14 8d a2 3e 28 7e f0 3d 32 20 56 be
       0.068701975 0.3174826 0.117428124 -0.20910719
0001e0 25 c8 1c bd ef 1a b3 be 58 00 ae be 7f 6d f1 3d
       -0.03827681 -0.34981486 -0.33984637 0.11788463
0001f0 66 ab f6 3d c2 41 20 be bd 7d 80 3e 43 cc ca be
       0.120444104 -0.15650085 0.2509593 -0.39608964

action_model._discrete_distribution.branches.1.bias f4 [2]
000000 af ab 5e bd 7b ab 5e 3d
       -0.05436295 0.054362755

action_model._discrete_distribution.branches.2.weight f4 [2, 64]
000000 e8 67 b3 bd 8b 8d 5c be 18 c6 de bb f9 70 bb 3d
       -0.08760053 -0.2153837 -0.006798517 0.09152407
000010 30 51 21 bd a4 d0 16 3e a1 52 73 bd 08 89 a3 3d
       -0.039384067 0.14728028 -0.059404973 0.07985121
000020 64 6e 0e bd 0b a1 d3 bd 99 8e 7b be 5c 49 9b 3d
       -0.034773245 -0.10333451 -0.24566115 0.075823516
000030 fb 8e 97 3d e4 c7 d1 3d d3 98 87 be 02 ed 64 3c
       0.07400318 0.10243204 -0.26483783 0.013972523
000040 78 6d e4 bd bf a3 f7 3d 84 c8 91 3e 6e ac 49 be
       -0.11153692 0.12091779 0.28473294 -0.19694683
000050 41 c1 84 3d 2c 65 73 3c e9 c6 57 bd e7 2d 28 3e
       0.06482173 0.014855664 -0.05267993 0.1642376
000060 37 39 d2 3c 68 62 7a bd c1 9b 29 bd 72 9e d8 bd
       0.025662048 -0.061129004 -0.041408304 -0.10577096
000070 d3 8e f7 bd 64 4d fd bd 07 f6 03 3e 93 da 78 3d
       -0.120877884 -0.12368277 0.1288682 0.060755324
000080 d7 44 90 3d 4c 13 59 3e 7e e1 09 3e 2a 29 fc bd
       0.0704438 0.21198767 0.13464925 -0.12312539
000090 3b 7c c0 3c 7b 4e cf 3e d5 cb 22 be ca 43 b6 3d
       0.023496738 0.40489563 -0.15898068 0.088996485
0000a0 54 d9 f1 bd c6 96 27 be 3d 30 04 bd a6 16 a3 be
       -0.1180903 -0.16366109 -0.032272566 -0.31853217
0000b0 e6 23 28 bc 84 ac 65 bc 56 08 7d be 21 ef cb bc
       -0.010262465 -0.014018182 -0.24710211 -0.024894299
0000c0 7d 78 76 be 1b be c3 bb ce 6b 9a bd 93 a0 16 3c
       -0.240694 -0.00597359 -0.07540093 0.009193557
0000d0 b5 d1 bd bd b5 51 4b be 3d fe a0 be c6 20 4a be
       -0.09268514 -0.19855388 -0.31443968 -0.19739065
0000e0 83 7f 9c be 8c 74 3b 3e cb 57 16 3d 75 42 ae 3e
       -0.30566034 0.18306178 0.03670482 0.34035078
0000f0 a6 30 fe 3c 00 e8 9e 3d ff 65 b6 bd a1 7d 28 3b
       0.031029057 0.07759094 -0.08906173 0.0025709646
000100 77 a0 85 3d 86 14 5c 3e d7 b1 4d bc ee 2d a1 bd
       0.06524747 0.21492204 -0.012554607 -0.078700885
000110 02 87 73 3d a7 e7 25 be 3a bd 48 3d 0d 19 98 bd
       0.059454925 -0.1620165 0.049008586 -0.07426653
000120 20 58 17 3d bf 2a d2 3d e3 d8 8d 3e d3 a2 94 bd
       0.036949277 0.102620594 0.27704534 -0.07257619
000130 ce 58 35 bd fd 0c d1 bd 0c 6e 90 3e 53 6a c7 bc
       -0.044274144 -0.102075554 0.2820896 -0.024342692
000140 f1 d9 e6 3d 89 d4 cc bd c6 f7 9f be c5 33 3b 3e
       0.11272038 -0.10001475 -0.31243724 0.18281467
000150 b4 a4 8b bd dd 62 b8 39 50 7a 19 3d d5 e2 28 be
       -0.06818524 0.00035168874 0.037470162 -0.1649278
000160 98 ac 36 3b 27 98 8a 3d 0b 45 09 3d 29 bb f2 3d
       0.002787387 0.06767302 0.03351311 0.11852104
000170 49 7e f9 3d b4 76 ec 3d ef 31 eb bd b1 6e 29 bd
       0.1218229 0.11546078 -0.114841335 -0.04136533
000180 c0 33 af bd e5 d4 66 be 5c 8e 29 be bb 49 f5 3d
       -0.085547924 -0.2254215 -0.16558212 0.119769536
000190 2d da 8a bd 9d 59 c9 be b6 d0 41 3e 95 34 98 bd
       -0.06779895 -0.39326182 0.18927273 -0.07431904
0001a0 69 7c f2 3d d5 94 11 3e 4a 11 d8 3c c7 e8 ad 3e
       0.118401356 0.14216931 0.026375432 0.33966658
0001b0 01 76 fa b9 8a e6 88 3c 0b 8f 72 3e a8 6d 7c 3d
       -0.00047771636 0.016711492 0.23687379 0.061628014
0001c0 6b 4a 7a 3e 59 df 8b 3c 2e 01 c4 3d 58 c2 c6 3b
       0.2444245 0.017074274 0.095705375 0.006065648
0001d0 78 09 e0 3d 93 a3 42 3e 6b 28 a3 3e e2 db 33 3e
       0.10939306 0.19007711 0.31866774 0.17564347
0001e0 43 c2 a4 3e fa 23 54 be 31 5a c7 bc 0e 8e a5 be
       0.3217946 -0.20716849 -0.024334999 -0.32334942
0001f0 9a 0b b2 bc 98 11 75 bd fb 81 8d 3d e2 e5 b6 bb
       -0.021734048 -0.05983123 0.069095574 -0.0055816034

action_model._discrete_distribution.branches.2.bias f4 [2]
000000 91 fe b9 3d 88 fe b9 bd
       0.09081758 -0.09081751

action_model._discrete_distribution.branches.3.weight f4 [2, 64]
000000 0a 40 35 3d 0e 4d c0 bd 66 49 86 3e a1 b3 06 3e
       0.044250526 -0.09389697 0.26227874 0.1315446
000010 7d da a7 be f1 92 ab 3b 15 72 71 3d e9 c9 d8 3d
       -0.3278388 0.0052360226 0.058946688 0.10585386
000020 38 64 34 be f5 68 fc 3c 2d 73 47 be 20 60 cc 3e
       -0.17616355 0.030811766 -0.1947753 0.39917088
000030 06 94 a2 3e 65 4c 59 3d ee 4a fd 3d 10 c5 53 3e
       0.31753558 0.05305137 0.12367807 0.20680642
000040 8a 79 28 be 34 29 50 bd 0a bc 59 3d 16 5c 88 3c
       -0.16452613 -0.050820544 0.053157844 0.016645472
000050 d0 cb 66 3e f9 ad 29 bc 75 75 95 be 94 c5 ab bd
       0.22538686 -0.01035642 -0.29191175 -0.083872944
000060 93 81 91 3d 08 16 44 3e 22 77 6a 3b e8 32 1d 3e
       0.071047924 0.19149029 0.0035776575 0.1535145
000070 be bd 2d be 68 ed d6 bb bf 36 00 be 53 34 f3 3e
       -0.16966912 -0.0065590627 -0.12520884 0.47500858
000080 a9 71 13 bd 88 be 80 3d 3b 0d dd be d8 67 9c 3d
       -0.035997067 0.06286341 -0.43174157 0.07636994
000090 e7 7b 08 3c f2 f0 3b bd 4f 11 02 3e f3 55 4b be
       0.008330322 -0.04588408 0.12701915 -0.19857006
0000a0 de d5 2b bc 85 81 14 3e 54 94 c0 be 35 55 37 3d
       -0.010488002 0.14502533 -0.37613165 0.044758994
0000b0 33 73 e4 3b 28 52 89 3d 27 ae 92 3e ef 99 9a bd
       0.0069717406 0.06705123 0.28648493 -0.07548892
0000c0 e3 3b 34 39 d5 25 f7 3d 25 ea 08 3e d2 48 62 3d
       0.00017188447 0.12067763 0.13370569 0.055245228
0000d0 f8 a9 3f be b7 7b 54 be 14 48 fa bd b1 74 96 bd
       -0.18717182 -0.20750318 -0.12220779 -0.07346476
0000e0 43 14 ac 3e c5 dc be 3c 48 2e 6c be 1e e6 2b 3e
       0.33609208 0.02329863 -0.2306453 0.16787001
0000f0 66 52 25 be 04 89 93 be 57 cc 55 be f1 ce 7f 3d
       -0.16144714 -0.28815472 -0.2087873 0.062453214
000100 20 52 16 bd 3e a7 ec 3d 28 6a 8d be 30 c5 ed bd
       -0.036699414 0.115553364 -0.27620053 -0.11609876
000110 42 e3 9e 3e 4d 90 83 bb 99 ce e9 bc 52 3e 9d bd
       0.3103276 -0.0040150047 -0.028540896 -0.07677902
000120 9c bf 21 3e e0 50 c0 bc 8b a7 2b 3e 4b f1 c6 be
       0.1579575 -0.023476064 0.16763131 -0.38855967
000130 a9 b5 a5 be 8b c4 09 bd 26 cf 04 be 24 fd 68 be
       -0.32365158 -0.033634704 -0.12969646 -0.22752815
000140 25 1d 35 3e 85 1d fb 3c 0b 40 82 bd 63 83 8e bc
       0.17686899 0.030653724 -0.063598715 -0.017396634
000150 9d 5f 75 be 07 b3 e0 3a 62 ec 91 3e a3 e0 30 3d
       -0.23962255 0.0017143198 0.28500658 0.04318298
000160 3e 1d b8 bd bd e6 4b be be 7a a1 3b f8 85 23 be
       -0.089899525 -0.19912238 0.004927962 -0.15969074
000170 73 8f 2c 3e 30 9c 2d 3c 37 a7 c8 3d 66 bd f9 be
       0.16851597 0.01059632 0.09797519 -0.48777312
000180 72 88 08 3d 72 7d 28 bd 82 9a d7 3e 13 68 c7 bd
       0.03333325 -0.04113526 0.42110068 -0.097366475
000190 9c 06 e3 bb 2b 65 62 3d 32 c9 e5 bd 20 42 48 3e
       -0.006928278 0.055272263 -0.112200156 0.19556475
0001a0 90 df 3f 3c 96 9d 3f be 04 a2 cd 3e 20 2d dc bc
       0.011711016 -0.18712458 0.4016267 -0.026876986
0001b0 e4 48 b4 bc 32 a7 31 bd 34 b1 96 be 34 9a 92 3d
       -0.022007413 -0.04337234 -0.2943207 0.07158318
0001c0 28 20 63 3b 6b 2a fc bd 18 f1 12 be ed 8b 81 bd
       0.0034656618 -0.12312778 -0.14349782 -0.06325517
0001d0 2a 33 50 3e 9c 6a 51 3e 2b 26 f0 3d 92 92 a8 3d
       0.20332018 0.20450824 0.1172603 0.08231081
0001e0 8f 92 9e be 20 11 76 bc 5b c7 80 3e 39 65 2e be
       -0.3097119 -0.015018731 0.25152096 -0.17030801
0001f0 f5 37 24 3e 6e f8 9a 3e 8f 22 5d 3e f6 63 3b bd
       0.16036971 0.30267662 0.21595214 -0.045749627

action_model._discrete_distribution.branches.3.bias f4 [2]
000000 36 82 17 be 3f 82 17 3e
       -0.14795765 0.14795779

onnx::Div_130 f4 [21]
000000 1a e3 99 3d 87 03 9a 3d 09 86 8a 3d 23 1f 8f 3d
       0.07514019 0.07520204 0.067638464 0.06988361
000010 8f 3f 8f 3d 41 15 80 3d 25 c9 95 3d f9 f3 95 3d
       0.06994545 0.06254054 0.07313756 0.07321925
000020 8e 27 84 3d db a7 94 3d 45 da 94 3d fb fb 7d 3d
       0.06452857 0.072585784 0.07268194 0.062007885
000030 1a b5 a6 3d 4f e8 a6 3d 52 f2 7e 3d 24 a8 e4 3d
       0.08140011 0.08149778 0.062242813 0.11164883
000040 ad e8 e4 3d 06 2c 94 3d b6 af 49 3e 66 cf 49 3e
       0.11177192 0.07234959 0.19695935 0.19708022
000050 66 6f ba 3d
       0.09103279

onnx::Div_133 f4 [49]
000000 be 05 fa 3e 02 5b b5 3e 6d 8c 75 3e a5 da 56 3a
       0.48832506 0.35420996 0.2397935 0.0008196033
000010 a5 da 56 3a 7a 8d fa 3e 82 68 b1 3e d8 b9 f9 3e
       0.0008196033 0.48936063 0.34650046 0.487746
000020 f0 fb 97 3e ef 50 22 3e a5 da 56 3a a5 da 56 3a
       0.296844 0.15851186 0.0008196033 0.0008196033
000030 53 a2 e1 3e 49 e0 b0 3e 15 55 f7 3e f6 90 a7 3e
       0.44069156 0.34546116 0.483071 0.32727784
000040 e6 c1 9e 3e a5 da 56 3a a5 da 56 3a 03 84 fa 3e
       0.31007308 0.0008196033 0.0008196033 0.48928842
000050 73 b0 ad 3e a4 a3 f7 3e 3e e0 83 3e 41 00 12 3e
       0.33923683 0.48367035 0.2575702 0.1425791
000060 a5 da 56 3a a5 da 56 3a 5b ae e5 3e 9e 8e b3 3e
       0.0008196033 0.0008196033 0.44859585 0.35069746
000070 83 87 f5 3e 8c 1e 97 3e 41 90 8b 3e a5 da 56 3a
       0.4795495 0.29515493 0.27258494 0.0008196033
000080 a5 da 56 3a d3 3e ff 3e e4 5b ae 3e e0 e4 f8 3e
       0.0008196033 0.4985262 0.34054482 0.48612118
000090 30 4c 54 3e e1 39 1b 3e a5 da 56 3a a5 da 56 3a
       0.20732188 0.15158798 0.0008196033 0.0008196033
0000a0 52 58 ed 3e f1 fa b4 3e 5c 1e f5 3e bd 79 be 3e
       0.46356446 0.35347703 0.47874725 0.37202254
0000b0 e9 cd 6e 3e a5 da 56 3a a5 da 56 3a 65 99 fc 3e
       0.23320736 0.0008196033 0.0008196033 0.4933578
0000c0 de 60 a5 3e
       0.32300466

onnx::Div_136 f4 [35]
000000 0a f0 ff 3e 70 89 b3 3e 52 1c b7 3d d1 10 f2 3e
       0.49987823 0.35065794 0.089409485 0.47278455
000010 b9 bd b7 3e 68 12 fb 3e 74 09 9b 3e 76 5a ac 3d
       0.35886934 0.4903748 0.3028065 0.084156916
000020 40 ee ff 3e 4f 64 b8 3e 87 d1 fd 3e d7 cb ab 3e
       0.49986458 0.3601403 0.4957392 0.33553955
000030 4f 88 a6 3d 95 61 ea 3e 3d 70 b7 3e 2e 9a f2 3e
       0.081314676 0.45777574 0.3582782 0.47383255
000040 39 5a 89 3e b6 15 85 3d 73 eb fc 3e 80 ce a9 3e
       0.26826647 0.06498282 0.49398383 0.3316536
000050 cd 5e ff 3e 7b 22 97 3e 83 5e 8e 3d 9b be fd 3e
       0.49877015 0.29518494 0.069516204 0.49559483
000060 f1 93 bf 3e 81 c8 ea 3e 30 5b 76 3e 5e 56 23 3d
       0.37417558 0.45856097 0.24058223 0.039877288
000070 fa 57 f6 3e dc 03 9c 3e af b1 e8 3e 90 24 79 3e
       0.48113996 0.30471694 0.45448062 0.24330354
000080 d5 fb 32 3d 48 41 f5 3e b5 4e bb 3e
       0.043697197 0.47901368 0.36583486

onnx::Div_139 f4 [7]
000000 ae c4 2f 44 f6 be 2f 44 32 c4 90 44 f0 9e 6b 44
       703.0731 702.98376 1158.1311 942.4834
000010 16 e1 30 44 20 db 30 44 f6 5e 89 44
       707.51697 707.4238 1098.9675
